my_pt/120_model.pt (torch, 403540 bytes, 10 tensors)

conv1.weight f4 [64, 1, 5, 5]
-0.20588984 -0.22527541 -0.20394295 -0.20008609 -0.004960304 -0.0040923026 -0.066390485 -0.0018144946
0.22857116 0.20538369 0.1600074 0.13019381 0.067149006 0.1315058 -0.17790851 -0.15193658
0.024981333 0.023317162 -0.114894405 -0.18759027 0.06639787 0.08728817 -0.18167526 -0.14327016
-0.15071793 0.1596737 -0.054760747 0.17133017 0.17492098 0.05622383 0.05801896 0.022984989
0.0444267 0.014870906 -0.17910363 -0.09311235 -0.03584827 0.13151714 0.08151953 0.12787941
0.13413796 -0.10906178 0.14759046 0.19961134 0.22352058 -0.053067587 -0.21278329 0.16017698
-0.07423225 0.13903673 0.025020452 0.10947923 -0.21004097 -0.0869443 0.1742366 0.13728851
-0.11358838 -0.092329554 -0.11778724 0.15005538 0.017063405 0.06102671 0.044394236 0.08165114
-0.24175625 0.2297164 0.00953206 0.19602959 -0.03897066 -0.055283032 0.11666675 0.004751119
0.16665289 0.21893379 0.103014044 -0.20181689 0.057036426 0.048153132 -0.16652875 0.025652908
0.124550276 0.10383013 0.16757658 -0.19136976 0.20675696 0.034428388 0.14815496 -0.025283951
0.097361825 -0.07949799 -0.20398787 0.052401897 0.09153838 0.06599583 0.22412284 -0.04993593
0.1432758 0.1535249 0.19134562 0.024285074 -0.16170678 0.2131371 0.22056846 -0.061386917
-0.09375728 -0.10133943 -0.0177006 -0.036579415 -0.012549447 0.12678604 -0.032577567 -0.0170394
0.10977169 -0.058689836 0.19974765 -0.120356 -0.15218206 -0.11688226 -0.13336056 0.025500853
-0.13459516 -0.17109418 -0.1664722 0.068707645 0.23431954 -0.09359392 -0.18300493 0.15933903
0.06585112 -0.11917891 -0.093510725 0.13738216 -0.09078835 0.036409542 -0.26237586 0.23613437
-0.0779712 0.06410636 0.13838342 -0.1754719 -0.03708895 -0.008351733 -0.04466782 0.13124713
-0.085958086 -0.06995666 -0.19775167 -0.18814394 -0.020577785 0.17633756 0.067077935 0.08741603
-0.2771425 0.11971155 -0.029728502 -0.061442554 -0.08076616 -0.25201842 -0.105720714 -0.020652175
-0.09264739 0.08582794 -0.05844952 0.1975115 0.12867314 0.064615004 0.20149694 0.12834564
0.061320715 0.23523216 0.027023347 -0.19064291 -0.16136897 -0.17090917 0.1256075 -0.09608709
0.0927095 -0.19005147 -0.20184632 -0.18077397 0.11190865 -0.13897747 0.04422439 0.050113376
-0.14248474 0.04875854 -0.08814633 0.082838394 0.23953345 -0.1065602 0.16303453 0.12200511
0.13855311 0.20911661 0.026377467 0.031201184 0.05226977 0.12601067 0.19445571 -0.25101236
0.14613727 0.037440453 0.1980471 -0.2734582 -0.21754326 -0.038074113 -0.01709808 0.00652098
0.027385838 -0.15841515 0.018488733 0.036913708 -0.080438145 0.17214222 0.1514053 0.18794556
0.13817634 -0.061106592 0.16319562 0.10155876 0.13059023 -0.03647581 -0.14028263 -0.11799591
-0.17539889 -0.19056784 -0.1295943 0.019733889 0.23960452 -0.036257032 0.17299107 -0.015357541
0.26958522 -0.061416417 -0.050323192 -0.035864048 -0.2096644 -0.22347938 0.028340261 -0.13759336
-0.22233984 -0.02119767 -0.15905853 -0.049014807 -0.06841507 0.19092155 0.2869415 -0.027677355
0.11837628 -0.1185338 -0.15040459 -0.1331565 0.20910777 0.05645472 -0.14024773 0.07130193
00000000: c9d4 52be 99ae 66be 6cd6 50be 5ee3 4cbe
00000010: 0c8a a2bb b918 86bb bcf7 87bd 56d4 edba
00000020: 8f0e 6a3e 1a50 523e fbd8 233e 8751 053e
00000030: 6b85 893d 75a9 063e a62d 36be 4395 1bbe
00000040: a7a5 cc3c a203 bf3c c24d ebbd aa17 40be
00000050: 9bfb 873d 24c4 b23d 1409 3abe 6ab5 12be
00000060: cd55 1abe 8181 233e ce4c 60bd 2d71 2f3e
00000070: 7c1e 333e f54a 663d 4aa5 6d3d 044b bc3c
00000080: c5f8 353d 1aa5 733c f166 37be b0b1 bebd
00000090: a3d5 12bd 6eac 063e b6f3 a63d d2f2 023e
000000a0: 765b 093e c85b dfbd f421 173e ea66 4c3e
000000b0: 94e2 643e 665d 59bd dde3 59be 6f05 243e
000000c0: 1407 98bd a55f 0e3e b1f7 cc3c a636 e03d
000000d0: fb14 57be da0f b2bd 146b 323e 5c95 0c3e
000000e0: 06a1 e8bd 4717 bdbd 703a f1bd 1ea8 193e
000000f0: 8ec8 8b3c 25f7 793d bbd6 353d b638 a73d
00000100: f38e 77be c73a 6b3e 5b2c 1c3c fbbb 483e
00000110: b39f 1fbd 7670 62bd faee ee3d 46af 9b3b
00000120: 0ea7 2a3e 2e30 603e 07f9 d23d 16a9 4ebe
00000130: 079f 693d 383c 453d 8386 2abe 0c26 d23c
00000140: 3714 ff3d e4a4 d43d 3299 2b3e 6ff6 43be
00000150: 19b8 533e c804 0d3d efb5 173e 4a20 cfbc
00000160: a365 c73d d8cf a2bd 32e2 50be 5fa3 563d
00000170: 7978 bb3d d228 873d 7580 653e 9e89 4cbd
00000180: e4b6 123e a235 1d3e 1bf0 433e 7ef1 c63c
00000190: 7696 25be 9d40 5a3e b3dc 613e d970 7bbd
000001a0: d103 c0bd 0c8b cfbd d900 91bc 4cd4 15bd
000001b0: 329c 4dbc 33d4 013e 0e70 05bd 3696 8bbc
000001c0: fbcf e03d c164 70bd a68a 4c3e 357d f6bd
000001d0: 9dd5 1bbe f75f efbd ac8f 08be 2ae7 d03c
000001e0: 50d3 09be 5033 2fbe b077 2abe 98b6 8c3d
000001f0: 76f1 6f3e 2bae bfbd a565 3bbe c529 233e
00000200: f4dc 863d 1314 f4bd 8d82 bfbd e9ad 0c3e
00000210: 3eef b9bd 2c22 153d 2156 86be 35cd 713e
00000220: 5daf 9fbd 324a 833d 62b4 0d3e e8ae 33be
00000230: 95ea 17bd b5d5 08bc 9bf5 36bd a665 063e
00000240: cb0a b0bd 7045 8fbd 6a7f 4abe cea8 40be
00000250: be92 a8bc d591 343e 2860 893d 2d07 b33d
00000260: 9fe5 8dbe 542b f53d 3089 f3bc 30ab 7bbd
00000270: ba68 a5bd 8f08 81be 1a84 d8bd c02e a9bc
00000280: eabd bdbd 8fc6 af3d c468 6fbd 7440 4a3e
00000290: e4c2 033e df54 843d 3755 4e3e 0a6d 033e
000002a0: 6e2b 7b3d b3e0 703e 1160 dd3c e537 43be
000002b0: e83d 25be d002 2fbe 419f 003e 4fc9 c4bd
000002c0: 7ade bd3d da9c 42be cdb0 4ebe d01c 39be
000002d0: 5d30 e53d 1c50 0ebe a224 353d af43 4d3d
000002e0: 85e7 11be 09b7 473d 1086 b4bd 2da7 a93d
000002f0: 4248 753e 3c3c dabd 86f2 263e d1dd f93d
00000300: dee0 0d3e aa22 563e 8f15 d83c a099 ff3c
00000310: d418 563d f108 013e 661f 473e b184 80be
00000320: 02a5 153e 295b 193d dccc 4a3e b702 8cbe
00000330: a9c3 5ebe 9af3 1bbd 4611 8cbc f2ad d53b
00000340: 4458 e03c 9537 22be af75 973c d432 173d
00000350: c1bc a4bd 0d46 303e fe09 1b3e cd74 403e
00000360: 197e 0d3e e84a 7abd c11c 273e 0afe cf3d
00000370: 72b9 053e a967 15bd 40a6 0fbe d7a7 f1bd
00000380: c49b 33be 3724 43be 5eb4 04be f7a8 a13c
00000390: e35a 753e 4182 14bd 9224 313e 329e 7bbc
000003a0: 1307 8a3e c88f 7bbd b11f 4ebd 2ee6 12bd
000003b0: 44b2 56be c7d7 64be d629 e83c 46e5 0cbe
000003c0: 0ead 63be bca6 adbc 3de0 22be c0c3 48bd
000003d0: 331d 8cbd f080 433e ffe9 923e 9fbb e2bc
000003e0: 436f f23d d9c1 f2bd a903 1abe 2d5a 08be
000003f0: 5920 563e 113d 673d 1a9d 0fbe bf06 923d

conv1.bias f4 [64]
-0.083056785 0.039019644 -0.06419431 -0.037196085 -0.036838405 0.16033116 -0.22244266 0.18302202
0.07444682 -0.045006208 -0.18799692 -0.16079283 -0.02933575 -0.20460759 0.03971678 -0.21530057
0.07363735 0.12599923 0.102152795 -0.10529583 -0.10887456 0.084590256 -0.036285616 0.023230368
0.09288677 0.091565005 -0.106467605 -0.11409601 0.08422475 0.105877705 0.09955195 0.0038624746
0.04501768 0.08447449 -0.21947533 0.026584756 -0.21182144 -0.1308454 -0.19041198 0.1561176
0.20830816 0.13685814 -0.25793433 -0.0725594 -0.2987135 -0.09485981 -0.21949224 -0.16893457
0.014351535 0.15413871 0.059089903 0.08587226 -0.08906174 0.17893535 0.021956066 -0.26501143
-0.22234459 0.04704819 -0.094559535 -0.15856689 0.18628377 -0.054423578 0.17839298 -0.005529558
00000000: ad19 aabd 10d3 1f3d 4e78 83bd ec5a 18bd
00000010: dee3 16bd da2d 243e 02c8 63be 206a 3b3e
00000020: 9377 983d 6e58 38bd 4482 40be e0a6 24be
00000030: 8751 f0bc a784 51be 10ae 223d c177 5cbe
00000040: 2ecf 963d f105 013e 7c35 d13d 57a5 d7bd
00000050: a0f9 debd a83d ad3d 3aa0 14bd 9d4d be3c
00000060: 6b3b be3d 6f86 bb3d b00b dabd 2bab e9bd
00000070: 077e ac3d 69d6 d83d e5e1 cb3d 9221 7d3b
00000080: 7564 383d f600 ad3d 24be 60be 46c8 d93c
00000090: b8e7 58be 56fc 05be 5cfb 42be 4bdd 1f3e
000000a0: bc4e 553e 8a24 0c3e f80f 84be 069a 94bd
000000b0: faf0 98be dc45 c2bd 93c2 60be 2ffd 2cbe
000000c0: b322 6b3c 8ad6 1d3e 4108 723d ccdd af3d
000000d0: 0066 b6bd d43a 373e 35dd b33c 94af 87be
000000e0: 4dae 63be 9ab5 403d 6ea8 c1bd 5c5f 22be
000000f0: 2cc1 3e3e 42eb 5ebd a6ac 363e 4b31 b5bb

conv2.weight f4 [32, 64, 3, 3]
0.017793791 0.032970842 0.0042819423 -0.038413096 0.05749186 0.015860435 -0.049361527 -0.034834366
-0.007097478 -0.035136595 0.0033694082 -0.032180477 0.0008402885 0.051815458 0.023585439 0.01896139
-0.02763187 0.011591505 -0.019307876 -0.027678762 0.01208558 -0.014641937 -0.03132603 0.07644815
0.011659163 0.013344583 0.069653526 -0.06606871 0.03864415 -0.03471401 0.011627171 0.04142714
0.03878625 0.02698409 0.029260162 -0.00015509447 0.044428464 0.024767015 0.04827107 -0.0099574765
-0.013438192 0.01368587 -0.00886255 -0.03596368 -0.05192876 -0.010651139 -0.0043138564 -0.014959173
0.005031446 -0.047658004 -0.013262 0.016786115 -0.02553946 -0.02014794 0.0360345 -0.04698413
-0.030733323 0.04787512 -0.041532043 0.053362958 -0.0011756533 -0.011664825 0.07042102 -0.013663605
0.0217147 -0.03304302 -0.010340029 0.0058848825 0.0047633783 0.025999082 0.006231607 0.03833854
-0.021378133 -0.051948257 0.0263339 -0.059959702 -0.008778051 -0.0030302946 -0.0931192 -0.07793968
-0.057771955 -0.025536658 -0.004023004 -0.06442354 0.05846107 0.015239969 -0.005920037 -0.041285373
0.023682563 -0.0408236 0.023210697 0.054749038 0.035508487 -0.023679005 0.00037526528 -0.014219469
-0.05345366 0.02091655 -0.026641691 -0.025524938 0.019605918 -0.03812173 -0.03401565 -0.053773936
-0.08331222 0.036009524 -0.009761421 -0.08465836 0.029736526 0.012914532 0.012552404 -0.005485159
0.011741345 0.0065974374 -0.03123627 0.014028724 -0.037583306 0.018485202 -0.044698842 -0.039676104
0.016065218 -0.02991929 -0.006746314 0.0035420062 -0.017119383 -0.016364872 0.018501027 -0.024266567
0.047708962 -0.015220594 0.035921507 0.024801863 -0.035194416 0.07550445 0.08705237 -0.021773621
0.037975594 0.014059558 0.020133724 0.031601865 0.044398043 -0.019296367 0.031646375 -0.009130121
-0.03764748 0.03456003 -0.0034789334 -0.0069753914 -0.030776804 -0.015254207 -0.03461165 0.023476714
-0.007053096 0.025077948 0.008704546 -0.01568687 0.04168017 0.025609624 -0.0006217149 -0.023196306
-0.037033554 0.006745863 0.011674759 -0.059580006 -0.018618675 -0.009662976 -0.029103396 -0.017281214
0.0447696 -0.057373803 0.004280351 0.0065818736 -0.0072288313 -0.026627148 -0.020611458 -0.015990335
0.051665187 -0.07144337 -0.040932637 0.04531414 -0.04620203 0.043694396 0.047283433 -0.024954235
0.03286862 0.0052377675 0.092319906 0.02000194 0.031098057 -0.033409324 -0.04317349 0.013668041
0.007260153 -0.025717804 0.03066856 0.0264811 0.00036429297 -0.05196605 0.012572725 0.054029547
-0.0054763556 -0.047551893 -0.04179748 -0.081846945 -0.020199122 -0.034437068 -0.0041637938 -0.058655035
0.031626873 -0.021999102 0.0121555505 0.01637454 -0.061777305 -0.033549253 -0.03513978 -0.04017048
0.0006544251 0.06861413 0.004705144 0.058513906 0.03761484 -0.009215104 0.033375558 -0.023483101
0.00082669355 0.016963284 -0.060766533 0.015279482 -0.059298642 0.009624032 0.031125577 -0.032836962
0.004228284 0.07446007 -0.051324844 -0.02917506 0.0666992 0.012411105 -0.08057121 -0.056154344
-0.03430264 -0.02741067 0.042487 0.039537523 -0.07041221 -0.060548715 -0.03795447 -0.01574256
-0.049182046 0.04895098 -0.034954138 -0.0065141255 -0.042098403 -0.054032486 0.009348384 -0.026571954
00000000: 49c4 913c 6f0c 073d 894f 8c3b 0d57 1dbd
00000010: 967c 6b3d beed 813c 502f 4abd 7bae 0ebd
00000020: f691 e8bb 64eb 0fbd 4ad1 5c3b adcf 03bd
00000030: cf46 5c3a 723c 543d 4036 c13c eb54 9b3c
00000040: 3b5c e2bc 4cea 3d3c 8d2b 9ebc 92be e2bc
00000050: 9902 463c bce4 6fbc b94f 00bd d990 9c3d
00000060: 1306 3f3c 3da3 5a3c 82a6 8e3d 084f 87bd
00000070: 5449 1e3d 4730 0ebd e47f 3e3c 81af 293d
00000080: 55de 1e3d bd0d dd3c 02b3 ef3c dba0 22b9
00000090: 9ffa 353d 32e4 ca3c e3b7 453d af24 23bc
000000a0: dd2b 5cbc b33a 603c 3b34 11bc a74e 13bd
000000b0: 40b3 54bd 1d82 2ebc 405b 8dbb 5217 75bc
000000c0: d4de a43b 0a35 43bd dc48 59bc 0983 893c
000000d0: 2138 d1bc 4b0d a5bc e998 133d 6e72 40bd
000000e0: 73c4 fbbc b418 443d 811d 2abd 1e93 5a3d
000000f0: 6118 9aba d21d 3fbc e538 903d 50dd 5fbc
00000100: 07e3 b13c 1e58 07bd 3a69 29bc f9d5 c03b
00000110: 1d16 9c3b 07fc d43c 8232 cc3b df08 1d3d
00000120: 3221 afbc b2c7 54bd 31ba d73c 4e98 75bd
00000130: d0d1 0fbc e897 46bb 47b5 bebd d79e 9fbd
00000140: 49a2 6cbd 4132 d1bc 67d3 83bb 7df0 83bd
00000150: e074 6f3d 10b1 793c dffc c1bb da1a 29bd
00000160: ef01 c23c a636 27bd 5c24 be3c 8740 603d
00000170: 5971 113d 79fa c1bc 41bf c439 c7f8 68bc
00000180: 3af2 5abd 2f59 ab3c ad3f dabc ad19 d1bc
00000190: 979c a03c 8825 1cbd ff53 0bbd 0f42 5cbd
000001a0: 999f aabd b97e 133d 5eee 1fbc 5d61 adbd
000001b0: 049a f33c 7997 533c 99a8 4d3c d9bc b3bb
000001c0: c55e 403c 512f d83b 35e3 ffbc bcd8 653c
000001d0: f4f0 19bd 476e 973c 2216 37bd 6983 22bd
000001e0: 349b 833c 4d19 f5bc 2f10 ddbb 0121 683b
000001f0: f33d 8cbc a00f 86bc 778f 973c aeca c6bc
00000200: 796a 433d cc5f 79bc 6e22 133d 472d cb3c
00000210: 0528 10bd 14a2 9a3d 8348 b23d 985e b2bc
00000220: 4c8c 1b3d 0f5a 663c 7bef a43c f570 013d
00000230: b9da 353d 6a13 9ebc a19f 013d 8196 15bc
00000240: 3e34 1abd d18e 0d3d d1fe 63bb d391 e4bb
00000250: a31f fcbc c8ec 79bc f2c4 0dbd 3d52 c03c
00000260: a81d e7bb 4570 cd3c 839d 0e3c c081 80bc
00000270: d3b8 2a3d 46cb d13c 95fa 22ba 2e06 bebc
00000280: 7fb0 17bd 660c dd3b 7d47 3f3c 2a0a 74bd
00000290: 3186 98bc 7551 1ebc 3f6a eebc 5591 8dbc
000002a0: 5460 373d cb00 6bbd 3042 8c3b c2ac d73b
000002b0: d5df ecbb 2d21 dabc 5cd9 a8bc 2afe 82bc
000002c0: e09e 533d e750 92bd fba8 27bd 529b 393d
000002d0: 573e 3dbd e5f8 323d 46ac 413d d36c ccbc
000002e0: 3fa1 063d 94a1 ab3b 3812 bd3d 1cdb a33c
000002f0: 5ac1 fe3c 37d8 08bd afd6 30bd ebef 5f3c
00000300: 94e6 ed3b 25ae d2bc a23c fb3c e4ee d83c
00000310: 93fe be39 5ada 54bd d5fd 4d3c 164e 5d3d
00000320: 0073 b3bb c6c5 42bd d633 2bbd 5f9f a7bd
00000330: a178 a5bc e20d 0dbd 6f70 88bb 4340 70bd
00000340: 2e8b 013d 7637 b4bc 1328 473c e623 863c
00000350: 330a 7dbd f16a 09bd bbee 0fbd cd89 24bd
00000360: ba8d 2b3a 9185 8c3d 9c2d 9a3b 47ac 6f3d
00000370: 0512 1a3d f3fa 16bc cfb4 083d a25f c0bc
00000380: 77b6 583a 96f6 8a3c 54e6 78bd cb56 7a3c
00000390: 22e3 72bd 1eae 1d3c 11fb fe3c 0d80 06bd
000003a0: 6b8d 8a3b 857e 983d 003a 52bd 8900 efbc
000003b0: 9799 883d f357 4b3c 8502 a5bd 1902 66bd
000003c0: ed80 0cbd 578c e0bc d906 2e3d 19f2 213d
000003d0: 4734 90bd ee01 78bd 2576 1bbd 8bf6 80bc
000003e0: 1d73 49bd d380 483d 122c 0fbd 7274 d5bb
000003f0: 606f 2cbd 2b51 5dbd f729 193c 6dad d9bc

conv2.bias f4 [32]
-0.011653694 -0.05848582 -0.07409546 -0.0019018373 -0.07643462 -0.032690365 -0.060678933 -0.06372045
-0.075142615 -0.091570236 -0.010303518 -0.04028874 -0.08639514 0.034271523 -0.025590325 -0.092149295
-0.00064966665 -0.08475031 0.01065099 -0.01953186 -0.027392974 -0.02614178 -0.08467186 -0.043743577
-0.012816964 -0.07172023 -0.0993175 -0.105877355 -0.06354901 -0.10621692 -0.053318493 -0.102542885
00000000: 23ef 3ebc d48e 6fbd 5cbf 97bd 1247 f9ba
00000010: c189 9cbd 55e6 05bd 798a 78bd de7f 82bd
00000020: 5fe4 99bd 2d89 bbbd 16d0 28bc ce05 25bd
00000030: efef b0bd 4c60 0c3d cda2 d1bc c5b8 bcbd
00000040: 644e 2aba 9291 adbd 7d81 2e3c 4701 a0bc
00000050: 3b67 e0bc 4927 d6bc 7168 adbd 772c 33bd
00000060: 3efe 51bc 0ee2 92bd f966 cbbd 3ad6 d8bd
00000070: fc25 82bd 4288 d9bd 7e64 5abd 0102 d2bd

conv3.weight f4 [16, 32, 3, 3]
-0.05452301 -0.0030173506 -0.06245135 -0.021015266 0.07046666 0.045731355 0.07680064 0.03365343
-0.07595024 -0.018112365 -0.024094531 -0.012929414 0.020297261 -0.037533276 -0.06138105 -0.031458836
0.0020665948 -0.009013109 0.0009866508 0.02425302 -0.0925244 0.07665762 0.19784616 0.14352894
0.16063543 -0.01308929 0.028456466 0.038241774 -0.03502231 0.123817906 0.08289937 -0.015415327
-0.017763738 0.11897074 0.03135647 0.09354635 0.01286974 -0.0824277 -0.01184587 -0.17688708
-0.027631275 -0.06749254 -0.019869229 0.03219809 -0.15937081 -0.02567099 -0.062240202 -0.093961164
0.05685527 -0.041180443 0.12937286 0.0009864322 -0.13423826 0.07145964 -0.088725634 -0.1302653
-0.0383204 -0.12525986 -0.036409635 0.17122073 -0.08452738 -0.021857206 -0.108912654 0.0063604275
-0.14888833 -0.084853865 -0.13917471 -0.15904717 0.00427529 -0.06112828 -0.17118816 -0.18617855
0.0101687405 -0.08215036 0.019377828 -0.05558418 -0.046855196 0.057604704 0.07683533 0.025806423
0.048101388 -0.091461636 -0.07635251 -0.001426125 -0.051141117 0.038846813 0.12003031 0.018052105
0.015572922 0.05932716 -0.08577371 -0.123018816 0.087802485 -0.03845393 -0.022243211 0.06681335
-0.009751129 -0.055559937 0.12600847 0.033816196 0.009761777 0.011798701 0.08992503 0.10886734
0.007682386 0.004456276 0.04004458 0.034011547 0.052986745 0.069527656 0.028545689 -0.101021536
-0.024350747 -0.03320564 -0.0022450325 0.023084361 0.080783024 -0.048866156 -0.0066270353 0.10293513
-0.07675418 -0.015491839 0.04747682 -0.021704135 -0.08585903 -0.11880479 -0.0020355782 -0.14299303
-0.06726454 -0.083255365 0.06803496 0.23085596 -0.12031907 0.07120293 0.12789069 -0.015669677
0.015917957 -0.10142748 0.0388771 -0.047086712 -0.0019046062 0.027818076 -0.1061129 -0.12707517
-0.048668206 -0.1309215 -0.059668798 -0.02936276 0.0054595317 0.16711289 -0.022316972 0.01884891
0.031579457 0.06002911 -0.07520163 0.13354076 -0.12755063 -0.092074655 0.024044003 -0.1126987
0.0069524795 0.01194714 -0.003659764 0.019119646 0.02005528 0.0055145803 -0.075189814 0.144483
0.08296267 -0.060798746 0.032681916 0.0014239927 0.0016284377 -0.12482287 -0.07319013 -0.076544814
0.01799309 -0.14907406 -0.041552614 -0.06490676 -0.09815201 0.007040556 -0.070094466 -0.10172524
-0.049921382 0.035429057 0.10941718 0.023306804 0.18744627 -0.013706499 -0.012249938 0.003988531
-0.07525852 -0.0723719 0.048560586 -0.04943249 0.020154594 0.119728625 -0.06403184 0.14091663
0.10323238 0.02535375 0.111303635 -0.041472502 0.042102687 0.07549088 -0.0019604003 -0.06474965
-0.09994478 -0.05317329 -0.19031063 -0.032749254 -0.14447643 -0.10574694 -0.12645054 -0.120813645
0.11268288 -0.033145476 -0.021919299 0.114545144 -0.108585455 0.100522794 0.08519307 -0.090880685
0.008435284 -0.01352525 -0.076577075 0.039675616 -0.0131337615 0.07048396 0.08870852 0.06616414
0.09263284 0.015943047 0.101482294 0.036696255 -0.04544943 -0.019365398 -0.07640158 0.022621086
-0.028173834 -0.045747355 -0.098779134 -0.03798512 -0.0015058361 0.0134793315 0.09023146 0.06484184
0.05341493 0.10213075 0.17982334 0.08044328 0.002271168 -0.06268137 -0.077124685 0.036235888
00000000: 8553 5fbd bebe 45bb fdcc 7fbd 3528 acbc
00000010: d350 903d cd50 3b3d a749 9d3d 2ed8 093d
00000020: cd8b 9bbd 6260 94bc e561 c5bc e5d5 53bc
00000030: 7146 a63c 7ebc 19bd b26a 7bbd fbda 00bd
00000040: b56f 073b b8ab 13bc 8252 813a 45ae c63c
00000050: 6f7d bdbd acfe 9c3d 2f98 4a3e 40f9 123e
00000060: 9d7d 243e 7674 56bc 891d e93c 68a3 1c3d
00000070: 8e73 0fbd 3e94 fd3d 25c7 a93d 9190 7cbc
00000080: 4285 91bc eea6 f33d a46f 003d 3b95 bf3d
00000090: 9adb 523c dbcf a8bd 2e15 42bc e321 35be
000000a0: fc5a e2bc 8739 8abd cbc4 a2bc 25e2 033d
000000b0: 1a32 23be f84b d2bc 95ef 7ebd b66e c0bd
000000c0: 12e1 683d d3ac 28bd 527a 043e 2c4b 813a
000000d0: c175 09be 6f59 923d c9b5 b5bd 4464 05be
000000e0: daf5 1cbd 1f44 00be 4522 15bd 7d54 2f3e
000000f0: b11c adbd e20d b3bc 990d dfbd 226b d03b
00000100: 2f76 18be ddc7 adbd d183 0ebe 43dd 22be
00000110: bb17 8c3b a661 7abd f34b 2fbe 97a5 3ebe
00000120: ca9a 263c 733e a8bd 40be 9e3c 3dac 63bd
00000130: 3ceb 3fbd e9f2 6b3d d75b 9d3d fe67 d33c
00000140: f605 453d 3d50 bbbd b45e 9cbd d0ec baba
00000150: 5979 51bd d61d 1f3d 73d2 f53d 02e2 933c
00000160: 9225 7f3c 0901 733d 20aa afbd 4af1 fbbd
00000170: cad1 b33d de81 1dbd 6537 b6bc 70d5 883d
00000180: 33c3 1fbc d192 63bd 5d08 013e da82 0a3d
00000190: dcef 1f3c 574f 413c 9d2a b83d d7f5 de3d
000001a0: 86bc fb3b f405 923b c905 243d b14f 0b3d
000001b0: a108 593d 8464 8e3d a6d8 e93c 61e4 cebd
000001c0: 387b c7bc a302 08bd 6521 13bb 6a1b bd3c
000001d0: 9271 a53d e127 48bd 9a27 d9bb a7cf d23d
000001e0: 4c31 9dbd 7bd1 7dbc 0e77 423d dfcc b1bc
000001f0: dcd6 afbd ed4f f3bd 5667 05bb c46c 12be
00000200: fec1 89bd ca81 aabd ea55 8b3d 8165 6c3e
00000210: d869 f6bd d7d2 913d c7f5 023e b25d 80bc
00000220: 6066 823c 36b9 cfbd 983d 1f3d ffdd 40bd
00000230: fba3 f9ba bce2 e33c b851 d9bd fe1f 02be
00000240: 5058 47bd 4910 06be 4567 74bd 2c8a f0bc
00000250: dfe5 b23b a41f 2b3e 15d2 b6bc 0869 9a3c
00000260: 7659 013d 16e1 753d 5003 9abd e9be 083e
00000270: a29c 02be a391 bcbd eef7 c43c 93ce e6bd
00000280: a0d1 e33b f0bd 433c a7d8 6fbb cea0 9c3c
00000290: f84a a43c a7b3 b43b 1efd 99bd 5af3 133e
000002a0: 55e8 a93d 1b08 79bd 79dd 053d 44a5 ba3a
000002b0: 4d71 d53a 22a3 ffbd b5e4 95bd 87c3 9cbd
000002c0: 3f66 933c dfa6 18be 1333 2abd d6ed 84bd
000002d0: ec03 c9bd 77b4 e63b b08d 8fbd 5355 d0bd
000002e0: 5d7a 4cbd 0f1e 113d 1d16 e03d e9ed be3c
000002f0: eaf1 3f3e 3991 60bc f7b3 48bc 39b2 823b
00000300: 2421 9abd b837 94bd 77e7 463d b979 4abd
00000310: 3f1b a53c 4834 f53d 2023 83bd 734c 103e
00000320: 7f6b d33d abb2 cf3c 29f3 e33d 12df 29bd
00000330: de73 2c3d f69a 9a3d 0f7a 00bb 779b 84bd
00000340: d9af ccbd 3ccc 59bd cae0 42be 1524 06bd
00000350: a1f1 13be da91 d8bd 407c 01be 256d f7bd
00000360: 48c6 e63d 8dc3 07bd 1a90 b3bc a596 ea3d
00000370: 0d62 debd e5de cd3d b479 ae3d a71f babd
00000380: 2534 0a3c 0399 5dbc 71d4 9cbd e682 223d
00000390: fd2e 57bc e559 903d d0ac b53d 1181 873d
000003a0: 49b6 bd3d fe9a 823c f3d5 cf3d d04e 163d
000003b0: 2e29 3abd 2fa4 9ebc 6e78 9cbd db4f b93c
000003c0: d0cc e6bc 9461 3bbd b74c cabd 4996 1bbd
000003d0: 7a5f c5ba 6ad8 5c3c 46cb b83d cccb 843d
000003e0: 9dc9 5a3d ed29 d13d 9c23 383e 72bf a43d
000003f0: e0d7 143b 175f 80bd 8cf3 9dbd 156c 143d

conv3.bias f4 [16]
-0.0062605417 0.032924376 0.08340194 0.0065168845 -0.07213772 0.017802592 -0.03797944 0.012430163
0.0066658356 0.079133004 -0.003300152 -0.074777186 -0.04982623 -0.03671077 0.022833297 -0.014262194
00000000: 3b25 cdbb b6db 063d a3ce aa3d 978b d53b
00000010: f1bc 93bd bed6 913c 5490 1bbd e2a7 4b3c
00000020: 156d da3b 7c10 a23d 5d47 58bb c824 99bd
00000030: 9716 4cbd 085e 16bd e50c bb3c faab 69bc

linear1.weight f4 [128, 576]
-0.021184238 0.008880781 0.01289592 -0.026318004 0.020115359 -0.027711373 0.032155693 -0.031747792
-0.011958423 0.04916744 -0.0042815646 -0.052338775 -0.03987556 -0.014625019 -0.01929737 0.08686583
0.000158313 0.020101085 0.07156015 0.053167567 -0.04368162 0.05299145 0.014484874 0.040437713
-0.006086782 -0.03559401 -0.05203332 0.0430261 0.011523166 -0.0030724297 -0.037986018 -0.018402942
0.019148156 -0.01265536 -0.008650554 0.03379953 0.0123029435 0.026065338 0.05139593 -0.007993471
0.022987634 -0.03533984 0.030190986 0.029432643 -0.026479177 0.051047496 0.026499743 -0.012789442
0.04534561 0.0093375305 -0.068328135 -0.033309426 0.047983363 0.006666805 0.023333795 0.018791977
-0.004838681 0.0031916697 0.0053566243 -0.036219865 0.036165603 -0.031827234 -0.018456176 -0.016432215
-0.016385306 -0.013051199 -0.027365346 0.024379348 -0.03173928 -0.026427563 0.05298197 -0.030036844
0.027848044 0.04488663 0.012640151 0.041797597 -0.016230924 -0.025380235 0.03438704 -0.011989082
0.044616368 0.033784248 0.009420019 -0.023065368 -0.050423026 -0.06521788 0.0055994843 0.036310244
0.01809856 0.010995556 0.018789485 -0.013122102 -0.05562199 0.020943481 0.047634225 -0.029117065
-0.05130778 -0.013818099 0.0027802517 -0.015646929 0.03047586 -0.009489861 -0.013815399 0.002340427
0.030209156 0.014163726 -0.016651152 -0.012193527 -0.006796273 0.024128765 0.029511603 -0.029216725
0.005036062 0.010847589 0.044901963 0.01645486 0.011065618 -0.011016221 0.054850467 -0.01808417
-0.034399528 -0.00555952 0.047605883 0.027124448 -0.011742244 -0.01871996 0.028802425 0.018726744
-0.00068818 0.018427953 -0.020960098 -0.020429725 0.0428762 0.017404325 0.0072796973 -0.062924065
-0.04175751 0.022565493 -0.03055367 -0.03674198 0.008411232 -0.0008585906 0.0027245441 -0.0045537986
0.035787802 0.012128735 -0.024955256 0.026011944 0.051597532 -0.024130743 -0.017937947 -0.0056157946
-0.05590323 0.016541295 -0.003465066 -0.025377613 0.0545301 -0.03208495 -0.013984097 -0.019990679
-0.019984337 0.03341409 0.017692262 -0.026655428 0.030689158 0.005052335 0.067601815 -0.03835696
0.047358807 -0.019929463 7.6355034e-05 0.008335344 0.04173953 0.04222168 0.020818582 0.021401599
-0.013165352 0.014452704 0.029229904 0.0037716813 -0.008101109 0.024252478 0.028982768 -0.0025751488
0.0052773743 -0.019402623 -0.022772001 -0.019084765 -0.008361426 0.01818375 0.0019213031 0.046268012
-0.017801898 -0.03916493 0.051156536 -0.019490536 0.073178425 0.04071303 -0.025554737 0.012726828
-0.03060781 0.008034163 0.043708965 -0.0012730021 0.022819178 -0.044113696 0.009079266 -0.02080701
0.016599374 -0.007432321 -0.005880221 0.020861965 -0.012366075 -0.037118062 -0.01819186 -0.048592426
0.038797967 -0.028511079 0.014157206 -0.0009295955 -0.038515452 -0.007356589 -0.025669884 0.03565723
-0.04246189 -0.01608646 -0.03594508 0.015576131 -0.0076284893 0.045167565 0.06594751 0.014421485
-0.01298828 0.0028623287 0.013447774 -0.024337025 -0.034103367 0.032507483 0.05086632 0.03172457
-0.0438298 -0.02107174 -0.028130462 0.025751645 0.037203576 0.05635376 -0.020059941 0.013241674
-0.017295167 -0.047247484 0.0018552891 0.005261561 -0.027156489 0.029833397 -0.022492725 -0.017732153
00000000: 918a adbc b280 113c 6949 533c db98 d7bc
00000010: f7c8 a43c f602 e3bc b0b5 033d f909 02bd
00000020: 43ed 43bc cc63 493d 5e4c 8cbb 2f61 56bd
00000030: 8e54 23bd c79d 6fbc 8515 9ebc b6e6 b13d
00000040: d300 2639 08ab a43c 218e 923d 3cc6 593d
00000050: 80eb 32bd 900d 593d f751 6d3c 04a2 253d
00000060: a173 c7bb 06cb 11bd e420 55bd 233c 303d
00000070: a9cb 3c3c d15a 49bb 3a97 1bbd c4c1 96bc
00000080: 98dc 9c3c 6d58 4fbc 0ebb 0dbc 6071 0a3d
00000090: 4992 493c fa86 d53c 8a84 523d 0cf7 02bc
000000a0: 9050 bc3c 82c0 10bd 1653 f73c ba1c f13c
000000b0: dcea d8bc 2e17 513d fd15 d93c cf8a 51bc
000000c0: 51bc 393d 71fc 183c 9fef 8bbd 776f 08bd
000000d0: 348a 443d 3775 da3b 8426 bf3c a2f1 993c
000000e0: cc8d 9ebb 552b 513b 9f86 af3b 485b 14bd
000000f0: 6222 143d 465d 02bd 6831 97bc da9c 86bc
00000100: 7a3a 86bc b2d4 55bc 4a2d e0bc 33b7 c73c
00000110: 0c01 02bd 9e7e d8bc 9f03 593d d40f f6bc
00000120: 9521 e43c 0bdb 373d a318 4f3c f533 2b3d
00000130: b7f6 84bc 36ea cfbc 6dd9 0c3d db6d 44bc
00000140: a7bf 363d 5a61 0a3d 6c56 1a3c 95f3 bcbc
00000150: 6088 4ebd f490 85bd e17b b73b 0dba 143d
00000160: 6e43 943c b426 343c 68ec 993c 16fe 56bc
00000170: e2d3 63bd aa91 ab3c 1b1c 433d e986 eebc
00000180: 1b28 52bd 4f65 62bc e234 363b fd2d 80bc
00000190: 83a8 f93c 5d7b 1bbc fc59 62bc d961 193b
000001a0: 3179 f73c f90e 683c ff67 88bc 5cc7 47bc
000001b0: 45b3 debb b0a9 c53c 51c2 f13c ea57 efbc
000001c0: 8d05 a53b 16ba 313c 1feb 373d 58cc 863c
000001d0: 914c 353c 617d 34bc e2aa 603d 4125 94bc
000001e0: 85e6 0cbd a22c b6bb 63fe 423d 1734 de3c
000001f0: 8a62 40bc 9a5a 99bc 10f3 eb3c d468 993c
00000200: fa66 34ba 38f6 963c 83b4 abbc 3d5c a7bc
00000210: f49e 2f3d 8493 8e3c 878a ee3b 55de 80bd
00000220: ec09 2bbd 45db b83c b14b fabc c27e 16bd
00000230: 44cf 093c 0a13 61ba 448e 323b 0838 95bb
00000240: 3b96 123d 9ab7 463c f76e ccbc 0017 d53c
00000250: ef57 533d d6ad c5bc 9af2 92bc b304 b8bb
00000260: c9fa 64bd 9c81 873c 2916 63bb b6e4 cfbc
00000270: f45a 5f3d 826b 03bd 8e1d 65bc 7ec3 a3bc
00000280: 31b6 a3bc 36dd 083d 5def 903c 7c5c dabc
00000290: d467 fb3c 0f8e a53b d272 8a3d 301c 1dbd
000002a0: 4ffb 413d 1d43 a3bc cc20 a038 f790 083c
000002b0: 12f7 2a3d a4f0 2c3d bb8b aa3c 6852 af3c
000002c0: 7db3 57bc 09cb 6c3c 8d73 ef3c 502e 773b
000002d0: 84ba 04bc 22ad c63c 456d ed3c d4c3 28bb
000002e0: d3ed ac3b 40f2 9ebc 598c babc a757 9cbc
000002f0: 5dfe 08bc 16f6 943c 3cd4 fb3a 8783 3d3d
00000300: 49d5 91bc 686b 20bd 8489 513d 9eaa 9fbc
00000310: 92de 953d b5c2 263d 2b58 d1bc 3084 503c
00000320: 3bbd fabc b9a1 033c 2c08 333d ddda a6ba
00000330: 49ef ba3c 90b0 34bd 34c1 143c 7673 aabc
00000340: 69fb 873c d48a f3bb deae c0bb b6e6 aa3c
00000350: 149b 4abc 1c09 18bd 1807 95bc da08 47bd
00000360: 9eea 1e3d 1190 e9bc a0f3 673c 19b0 73ba
00000370: 61c2 1dbd 8b0f f1bb a649 d2bc 510d 123d
00000380: 85ec 2dbd c0c7 83bc 263b 13bd 0733 7f3c
00000390: 68f8 f9bb a001 393d 7d0f 873d 1848 6c3c
000003a0: cbcc 54bc e895 3b3b 0d54 5c3c 715e c7bc
000003b0: f9af 0bbd 9126 053d 3459 503d 9ff1 013d
000003c0: e086 33bd a49e acbc db71 e6bc 1df5 d23c
000003d0: c762 183d 33d3 663d bf54 a4bc 9bf3 583c
000003e0: 98ae 8dbc 9486 41bd 2c2d f33a 2c69 ac3b
000003f0: 4977 debc 2b65 f43c aa42 b8bc 0543 91bc

linear1.bias f4 [128]
-0.018720532 0.040621087 -0.02517588 0.02588119 2.8192286e-05 0.034947895 0.018367836 -0.01595663
0.0053750966 0.012300844 -0.033121746 0.03334529 -0.028796947 0.029872177 -0.024216479 -0.025780044
-0.017191336 0.040759172 0.020548282 0.0062298384 -0.028861124 0.024570737 -0.031273793 -0.020426927
0.022064384 0.042423915 -0.010004612 -0.055356357 0.011702396 0.0038892692 -0.00017986922 -0.011743879
0.033558924 0.019765565 0.030184913 -0.03435499 -0.0014151199 -0.01849057 -0.042564753 0.01814484
-0.0055551096 0.043610636 -0.0013856512 0.0017539626 0.017973438 -0.015571453 0.03066314 0.009937879
-0.026759716 -0.019477027 -0.0069956994 0.036982622 0.023242675 -0.003982378 -0.0062944484 0.00859904
0.027350593 -0.028765619 -0.05727559 -0.054329462 0.033704996 0.018392876 -0.001281928 0.02634264
0.0018456077 0.02811461 -0.042722862 0.025331717 0.0077735973 -0.03331888 -0.012432768 0.0010206365
0.034088574 0.019527975 -0.0039470675 -0.00903483 -0.032522775 0.0028652921 0.03369412 -0.030378604
-0.00793702 -0.008298193 -0.01872287 0.02295209 -0.07843169 0.048127607 -0.026703065 0.034008693
-0.02082246 0.040413618 0.042777743 -0.026758224 0.016539054 0.027747422 0.013494817 0.0019853073
0.024644978 0.00064839044 -0.03342397 0.004308941 -0.03622145 0.014086588 -0.0088072 -0.010930041
-0.040613666 0.013692276 -0.040127635 -0.04298115 0.036336593 -0.018492721 0.044972263 0.0021877491
-0.00554642 0.046047363 0.021976322 -0.017476805 -0.06366854 0.005411264 0.05426546 -0.02323468
-0.013330594 -0.024071408 0.03553155 0.0048995777 0.0123231085 0.01105556 -0.002360145 0.0248686
00000000: cd5b 99bc 4c62 263d a63d cebc ca04 d43c
00000010: 797e ec37 8625 0f3d 2578 963c 7bb7 82bc
00000020: 9421 b03b 7b89 493c abaa 07bd 1295 083d
00000030: 93e7 ebbc 7fb6 f43c a361 c6bc ac30 d3bc
00000040: d8d4 8cbc 17f3 263d df54 a83c ac23 cc3b
00000050: 2a6e ecbc 9248 c93c f318 00bd 5f56 a7bc
00000060: 5ec0 b43c b3c4 2d3d 62ea 23bc 59bd 62bd
00000070: 68bb 3f3c 1ce3 7e3b 479b 3cb9 6669 40bc
00000080: 1575 093d 65eb a13c 5a46 f73c d1b7 0cbd
00000090: 8b7b b9ba 8979 97bc 6158 2ebd 7da4 943c
000000a0: a307 b6bb 11a1 323d bd9e b5ba 38e5 e53a
000000b0: 083d 933c 681f 7fbc 4431 fb3c 7cd2 223c
000000c0: 3137 dbbc 498e 9fbc 2e3c e5bb 177b 173d
000000d0: 6c67 be3c 9c7e 82bb a941 cebb fde2 0c3c
000000e0: 5a0e e03c e0a5 ebbc cf99 6abd 9288 5ebd
000000f0: 400e 0a3d a8ac 963c 5e06 a8ba 85cc d73c
00000100: 51e8 f13a 9c50 e63c 2bfe 2ebd 7684 cf3c
00000110: a9b9 fe3b 6179 08bd cfb2 4bbc e1c6 853a
00000120: 76a0 0b3d 22f9 9f3c 6756 81bb d306 14bc
00000130: 9a36 05bd a0c7 3b3b d802 0a3d 8ddc f8bc
00000140: 460a 02bc 25f5 07bc b460 99bc 0506 bc3c
00000150: cba0 a0bd 7421 453d 63c0 dabc b34c 0b3d
00000160: dd93 aabc c088 253d b737 2f3d 1034 dbbc
00000170: e97c 873c 904e e33c 5d19 5d3c ee1b 023b
00000180: 44e4 c93c bff8 293a 93e7 08bd 0432 8d3b
00000190: f15c 14bd 6fcb 663c 134c 10bc ea13 33bc
000001a0: 845a 26bd 9155 603c e05c 24bd 010d 30bd
000001b0: aed5 143d 0c7e 97bc d634 383d 5760 0f3b
000001c0: bebe b5bb 299c 3c3d b007 b43c 842b 8fbc
000001d0: a764 82bd f950 b13b 7645 5e3d a856 bebc
000001e0: 9068 5abc 6731 c5bc 8889 113d a38c a03b
000001f0: dde6 493c 6122 353c aaac 1abb 3cb9 cb3c

linear2.weight f4 [10, 128]
0.2828456 -0.29375157 -0.11671497 0.120009474 -0.07064479 -0.049403034 0.06749869 0.16745897
-0.0065267757 -0.016434021 0.2655136 -0.058983833 -0.037409466 0.039166126 -0.2358215 -0.28672647
-0.02496541 -0.13934997 0.16640098 -0.28646767 0.15413351 -0.10037283 -0.15764673 -0.034263786
0.20604025 0.06226764 0.02246562 -0.10548949 -0.2681231 -0.07027561 -0.04884533 -0.30424044
-0.3341235 0.18843627 -0.23829685 0.10191397 0.19491889 -0.25784895 0.060143244 -0.14907181
-0.16074353 0.13624074 -0.070533894 -0.14928001 0.24291696 -0.16660354 0.2940587 0.22098352
-0.09534147 -0.053918224 -0.13586941 0.2452831 0.21714953 -0.22646503 -0.17618433 -0.2565614
-0.1003812 0.08584877 -0.05167274 0.015773628 0.10137732 -0.033416137 0.13824837 0.1947802
0.25916576 -0.14195678 0.19024771 0.24937063 0.25642753 0.29822963 0.091627054 -0.15551613
-0.046876844 0.2456747 0.16503109 -0.32309744 0.10480669 -0.07274034 0.35317 0.1376612
0.11405682 -0.33947203 0.170418 0.1880692 -0.2413411 0.019211479 0.13120271 -0.16898116
-0.015357034 -0.089189 0.15597995 -0.1692476 -0.0926397 0.09600015 0.18088551 0.19114049
-0.07625276 0.278816 -0.0024482822 0.1462651 -0.22887766 -0.1785437 0.2349659 -0.36012104
-0.17576651 -0.32156697 0.034747455 0.07511627 -0.23656285 -0.07362212 -0.32490233 0.28045282
0.26399943 -0.11011343 -0.1801601 -0.044623066 -0.030341147 0.0856319 0.029756304 0.081224576
0.15117013 0.13859825 0.20870094 -0.05100883 0.31646472 0.12594204 0.39269227 -0.12723976
-0.1252122 0.28073236 0.21393059 0.030845562 -0.039799877 -0.09115403 -0.2986503 -0.23990734
-0.114659816 0.29519257 -0.022646915 0.20296994 0.04373283 -0.015528768 0.051694382 -0.092755005
-0.06851535 0.36719486 -0.28532067 0.005153866 -0.21890514 0.09625936 0.08364068 0.003799262
-0.19438758 -0.21115322 -0.33438364 -0.31007895 0.14294018 -0.2201326 -0.27612755 -0.040468235
-0.17734466 -0.22892082 0.22023252 -0.0971302 -0.0018745821 0.1811798 -0.33722556 0.007961715
0.28919852 0.31258637 -0.073929735 0.08671869 -0.23106314 0.1829555 -0.2276551 -0.227614
-0.10966781 0.06681651 0.28541073 0.27115333 0.05571695 -0.20937988 -0.0934777 -0.17522718
0.21721502 -0.21054345 0.12888362 -0.1977424 0.027288238 0.080444686 0.1728929 -0.0051575303
0.058722332 0.14107901 -0.04257007 0.22211696 0.21314488 -0.20112339 -0.2524435 -0.06589851
-0.094380066 0.29924336 0.2126896 0.17096923 -0.21613172 -0.22581793 0.028827833 -0.38647366
-0.20735878 0.16281743 0.113481924 0.1366733 -0.1915076 0.19601144 0.0020064344 0.17187724
0.22564706 0.14603452 -0.21734948 0.28265652 0.24622296 -0.12668741 -0.19956633 -0.23509671
-0.1440524 -0.15964118 0.08605683 -0.2404552 0.21749529 0.2771211 -0.18175334 -0.15216519
-0.06750442 -0.068756685 -0.18503705 -0.35792017 0.13851292 -0.13680004 0.12652515 0.06287713
0.049366023 0.20021741 0.2578399 0.11159276 -0.18740827 0.16677581 0.11462776 -0.045920074
-0.14832726 -0.06253927 0.24341345 0.34453017 -0.06577091 0.27238265 -0.201283 0.058040835
00000000: 23d1 903e 9b66 96be 4208 efbd 87c7 f53d
00000010: 37ae 90bd d65a 4abd c13c 8a3d 5d7a 2b3e
00000020: 90de d5bb a4a0 86bc 66f1 873e 0899 71bd
00000030: ab3a 19bd a96c 203d 317b 71be d0cd 92be
00000040: 4284 ccbc c2b1 0ebe 0565 2a3e e4ab 92be
00000050: 2dd5 1d3e 4590 cdbd 256e 21be 2f58 0cbd
00000060: 37fc 523e 5a0c 7f3d d209 b83c e00a d8bd
00000070: 6e47 89be a9ec 8fbd 0a12 48bd 67c5 9bbe
00000080: 3c12 abbe 70f5 403e 1704 74be 46b8 d03d
00000090: d198 473e c704 84be c358 763d 48a6 18be
000000a0: f499 24be b182 0b3e 1374 90bd dcdc 18be
000000b0: 39bf 783e 1e9a 2abe dd8e 963e 8149 623e
000000c0: 6342 c3bd 5bd9 5cbd 5a21 0bbe 7e2b 7b3e
000000d0: 725c 5e3e 73e6 67be aa69 34be 045c 83be
000000e0: a994 cdbd 7bd1 af3d cca6 53bd b237 813c
000000f0: ea9e cf3d 5cdf 08bd fb90 0d3e 7674 473e
00000100: 60b1 843e 1e5d 11be 4cd0 423e 045b 7f3e
00000110: 784a 833e 8eb1 983e f7a6 bb3d 9f3f 1fbe
00000120: ef01 40bd 2692 7b3e e9fd 283e 076d a5be
00000130: e4a4 d63d e3f8 94bd b3d2 b43e 0ff7 0c3e
00000140: 9f96 e93d 47cf adbe 0e82 2e3e 3695 403e
00000150: 1f22 77be 6461 9d3c 015a 063e 6609 2dbe
00000160: 129c 7bbc b9a8 b6bd 35b9 1f3e 3e4f 2dbe
00000170: e2b9 bdbd ba9b c43d 0d3a 393e 55ba 433e
00000180: 682a 9cbd f9c0 8e3e 5c73 20bb 85c6 153e
00000190: e85e 6abe 29d4 36be e79a 703e c961 b8be
000001a0: 23fc 33be 6da4 a4be 5953 0e3d 8fd6 993d
000001b0: 883d 72be 32c7 96bd 9959 a6be 8397 8f3e
000001c0: ef2a 873e 2683 e1bd e47b 38be adc6 36bd
000001d0: ff8d f8bc c75f af3d 7ec3 f33c 1259 a63d
000001e0: 58cc 1a3e b3ec 0d3e b3b5 553e a3ee 50bd
000001f0: aa07 a23e f3f6 003e f60e c93e 244b 02be
00000200: a137 00be 27bc 8f3e 9f10 5b3e d5af fc3c
00000210: 3205 23bd f7ae babd b1e8 98be 45aa 75be
00000220: c4d2 eabd 7b23 973e 0686 b9bc 5ad7 4f3e
00000230: 3221 333d 606c 7ebc 7dbd 533d 56f6 bdbd
00000240: c751 8cbd f700 bc3e 8d15 92be c3e1 a83b
00000250: ab28 60be a123 c53d ce4b ab3d 0afd 783b
00000260: 8a0d 47be 8d38 58be 5534 abbe abc2 9ebe
00000270: e95e 123e 716a 61be 9760 8dbe 05c2 25bd
00000280: d799 35be 386a 6abe a284 613e 33ec c6bd
00000290: 8ab4 f5ba 3387 393e d4a8 acbe da71 023c
000002a0: d411 943e 520b a03e 7968 97bd 9299 b13d
000002b0: d19b 6cbe b058 3b3e 6b1e 69be a513 69be
000002c0: 8499 e0bd 18d7 883d 5b21 923e 9cd4 8a3e
000002d0: 7537 643d ae67 56be 3d71 bfbd c16e 33be
000002e0: 9d6d 5e3e b498 57be 11fa 033e fc7c 4abe
000002f0: 958b df3c 2fc0 a43d d60a 313e 8000 a9bb
00000300: d486 703d 0477 103e f45d 2ebd a172 633e
00000310: a742 5a3e 4af3 4dbe 4640 81be ccf5 86bd
00000320: 564a c1bd 6d36 993e 4dcb 593e 8f12 2f3e
00000330: a251 5dbe d13c 67be 5928 ec3c e0df c5be
00000340: dc55 54be 9db9 263e 3669 e83d 16f4 0b3e
00000350: 911a 44be 39b7 483e 627e 033b 9600 303e
00000360: 0610 673e 138a 153e dd90 5ebe 5bb8 903e
00000370: df21 7c3e 58ba 01be 1e5b 4cbe 31bd 70be
00000380: 7982 13be fa78 23be 903e b03d e339 76be
00000390: 16b7 5e3e d1e2 8d3e 8c1d 3abe 31d1 1bbe
000003a0: c23f 8abd 4ed0 8cbd 5a7a 3dbe 5041 b7be
000003b0: 55d6 0d3e 4f15 0cbe cf8f 013e bac5 803d
000003c0: 0734 4a3d cb05 4d3e 9703 843e bf8a e43d
000003d0: f4e7 3fbe 47c7 2a3e f6c1 ea3d b016 3cbd
000003e0: 1ae3 17be 9714 80bd 6041 793e 4266 b03e
000003f0: e6b2 86bd bd75 8b3e 211d 4ebe 3abc 6d3d

linear2.bias f4 [10]
-0.030709364 0.08185431 0.1538753 -0.14547588 0.0856383 0.1087644 -0.116863675 0.033901572
-0.10512308 -0.14018445
00000000: 3492 fbbc 3ca3 a73d 7d91 1d3e a1f7 14be
00000010: 2263 af3d dfbf de3d 3956 efbd 60dc 0a3d
00000020: c54a d7bd 838c 0fbe
