my_pt/120_deep_model.pt (torch, 859042 bytes, 56 tensors)

conv1.weight f4 [32, 1, 3, 3]
000000 3d 70 23 bd e1 7c ba be c8 1d 81 be fc f3 70 bc
       -0.03990196 -0.364234 -0.25218034 -0.014706608
000010 d0 98 85 3e 15 99 a1 be 31 5b 51 3e 45 ef 83 3d
       0.2609315 -0.31562105 0.20444943 0.064421214
000020 e8 6f 06 be 1f 5e 6b be ce 21 23 be 6e c7 80 bd
       -0.13128626 -0.22985123 -0.15930864 -0.06288038
000030 95 14 86 be 20 6e 84 3e 0f 39 53 3d b0 f7 9b 3e
       -0.26187578 0.2586527 0.051568087 0.30462408
000040 e0 76 8a 3e 0c 4e 21 3e 8e 98 57 3d d5 79 9a be
       0.2704382 0.15752429 0.05263572 -0.30171075
000050 7e b9 d8 bd f2 4b 6a 3d 5a 6b 11 be bf 7b 45 3e
       -0.10582255 0.057201333 -0.14201108 0.19285487
000060 82 76 60 3e aa 13 00 be 68 fc f9 3d 56 d5 60 3e
       0.21920207 -0.12507501 0.12206346 0.21956381
000070 06 02 68 3e 2a a0 3d be 4c 9f 23 be 37 77 f4 bd
       0.22657022 -0.18518129 -0.15978736 -0.11936801
000080 81 f2 1b 3e ec d5 69 3e a2 4d a6 be e2 93 bf 3d
       0.15229227 0.22835511 -0.32481104 0.09354378
000090 75 f6 58 be f0 f1 08 3d f7 4b 68 3e 58 28 28 3e
       -0.21187766 0.033433855 0.22685228 0.1642164
0000a0 5c 05 c8 be fa 92 aa 3c e1 48 a6 3e 1f 55 6a be
       -0.3906659 0.020822037 0.32477477 -0.22884034
0000b0 0c c2 88 3d 2f 25 37 bd ec b5 42 3e 47 7d a8 be
       0.066776365 -0.044713195 0.1901471 -0.3290808
0000c0 3e eb a2 bd 16 a3 c8 3d d4 77 f9 3d 31 0b 5c be
       -0.07955025 0.09796731 0.121810585 -0.21488644
0000d0 0e 4f 53 3e 46 c7 8d 3e 09 53 8d bd 10 fe 13 be
       0.20635626 0.27691096 -0.06900603 -0.14452386
0000e0 64 79 21 be bf 27 d3 3c 1a f9 30 3e ec d7 67 be
       -0.15768963 0.025775788 0.17282525 -0.22640961
0000f0 c9 24 98 bd 0c 52 40 be 77 89 41 be 2c 04 8a bd
       -0.07428891 -0.18781298 -0.18900095 -0.06739077
000100 3a bd 87 3e 9a 57 dc 3d 51 36 00 be d6 bd 1a 3e
       0.26511556 0.10758896 -0.1252072 0.15111479
000110 5c 64 eb bd ea 22 a6 3d fb 5f f9 bd 58 a8 99 be
       -0.114937514 0.08112128 -0.1217651 -0.3001125
000120 bc c8 94 3e d5 2c 12 3e ef d7 9f 3e 31 7f 70 be
       0.29059398 0.14274915 0.31219432 -0.2348602
000130 b8 81 83 3c e5 f2 02 3e 8f 50 1a be b9 82 f6 bd
       0.016053066 0.1278797 -0.15069793 -0.12036652
000140 16 5a 53 bd 6f 46 61 bb d7 64 47 bc f8 f7 96 3e
       -0.051599585 -0.0034374257 -0.012170038 0.2948606
000150 ec e9 86 be 93 24 77 be e7 41 93 3e 80 fe 50 3e
       -0.26350343 -0.24135046 0.28761217 0.20409584
000160 f7 2d 52 3e 38 57 c8 bd 12 1a a9 3e 4f 72 c3 3d
       0.20525347 -0.09782261 0.33027703 0.09543287
000170 74 85 a5 be 77 ca 85 3e a5 4c 8e be 86 eb 3a 3c
       -0.3232838 0.2613103 -0.2779285 0.011408692
000180 8b 1c 51 3e 3b 1d 75 be eb dd 87 be 92 8f 3c 3e
       0.20421045 -0.23936932 -0.26536497 0.18414143
000190 ac e3 60 3e cf 3d b1 3d 65 8e 21 3e 04 54 fc bd
       0.2196185 0.08654367 0.15776975 -0.12320712
0001a0 c8 bf 46 bd 5a b3 98 be dc 66 33 3e ff ba 8d 3e
       -0.04852274 -0.29824334 0.17519706 0.2768173
0001b0 d6 29 46 3e 35 29 bd 3c dc d8 89 be 89 c1 e3 3d
       0.19351897 0.023090938 -0.26923263 0.11120898
0001c0 74 68 3c 3c ba 9a 9a 3e ae 3c 95 bd 30 72 c6 3d
       0.011499513 0.30196172 -0.07286964 0.09689748
0001d0 31 b3 0d 3e 2c ed e3 bd 9c 52 31 3e 35 f1 f7 bd
       0.13837887 -0.11129221 0.17316669 -0.121065535
0001e0 31 36 98 be 2f f5 4c 3e ec c4 e5 bc bb 0c 14 3e
       -0.29728845 0.20015405 -0.028048001 0.14457981
0001f0 48 25 64 be ba 9c 60 be a2 58 9e bd 75 87 68 3e
       -0.22279847 -0.21934786 -0.07731749 0.22707923
000200 10 a5 87 bd 3f 50 8f 3e 24 56 a7 3d c2 52 88 bd
       -0.0662328 0.2799091 0.08170727 -0.0665641
000210 ea 42 48 3e 0b 3e 8f be 00 bb 96 3c 1d 6c 8b 3e
       0.19556776 -0.27977023 0.018399715 0.2723092
000220 4a e0 a1 be f5 1e a4 be c7 8b c0 3d db e8 09 3e
       -0.3161643 -0.32054868 0.094016604 0.13467734
000230 ee 2c 9a be a9 70 e4 3d 1e f9 7a 3e 18 94 8c be
       -0.30112404 0.11154301 0.24509093 -0.27456737
000240 97 b0 98 bc 76 e1 01 be 32 6f 29 3c a6 b6 aa be
       -0.018638892 -0.12683663 0.010341452 -0.33342475
000250 45 5e 5a be 25 56 71 bd ec 80 27 3e 3b bc 9f bd
       -0.21325023 -0.058920044 0.16357774 -0.07799574
000260 9d 77 09 be ba ec f5 3b 07 bd 74 be 3f 27 b8 3d
       -0.13424535 0.0075050266 -0.23900233 0.089918606
000270 e7 68 1c 3e dd 31 20 bb c4 2d 00 be 18 e7 47 3d
       0.15274392 -0.0024443783 -0.12517458 0.048804373
000280 c9 50 aa be c7 86 cf bd da 20 60 be 1b 76 d2 bd
       -0.3326476 -0.101331286 -0.21887532 -0.10276433
000290 45 59 89 be 5d 82 a7 3e 68 58 84 3d 6e 00 ea 3d
       -0.2682592 0.32716647 0.06462175 0.11425863
0002a0 bb 84 9f bd 07 1e 53 be c0 0d 82 3c cf c3 87 be
       -0.07788988 -0.20616923 0.015875697 -0.26516578
0002b0 64 04 5c be dc bf aa 3e ef 91 64 3e de 53 cb 3e
       -0.2148605 0.33349502 0.22321294 0.39712423
0002c0 13 63 41 3d 0e 58 46 bc 6a c4 da bd 7f ad 37 be
       0.047213625 -0.012105955 -0.10681994 -0.17937277
0002d0 ba 22 11 3e 84 67 76 be 45 ba 58 bc 1f d3 24 3e
       0.14173403 -0.24062926 -0.013228004 0.16096161
0002e0 d8 ab 91 3e 79 ee e4 bd b3 77 17 be a9 a9 df 3d
       0.2845142 -0.111782975 -0.14791755 0.10921032
0002f0 90 3d 96 3d cc c1 50 bd 25 b4 4f bd 8c 05 72 3d
       0.07335961 -0.05096607 -0.05070891 0.05908732
000300 70 0b 37 3e 12 53 8c ba 20 06 43 be 74 e6 8b ba
       0.17875457 -0.0010705909 -0.19045305 -0.0010673539
000310 0b 02 5d be bb 56 a4 be ec c6 db 3d 59 70 a7 be
       -0.2158281 -0.3209742 0.10731301 -0.32702902
000320 88 6e 2f be c6 b2 13 bd 20 82 1b 3e f0 27 45 3e
       -0.17132008 -0.036059164 0.15186357 0.19253516
000330 68 5a f8 bd f1 ef 99 bc 04 b7 6d be 38 dc 1e 3e
       -0.121266186 -0.01879117 -0.23214346 0.15513694
000340 23 3a 7d be 46 06 3e 3e e2 77 68 be 9f e5 31 be
       -0.24729209 0.1855708 -0.22701982 -0.1737275
000350 90 35 50 be 24 dc 6a be 79 ff 57 be 1d ba 87 be
       -0.20332932 -0.2293554 -0.21093549 -0.2650918
000360 5f fe 88 bd c0 92 25 be 89 b3 8e be fa cc 09 be
       -0.066891424 -0.16169262 -0.2787135 -0.13457099
000370 50 35 8b 3e 8e 15 8e 3e 7f 87 eb 3d 03 21 5d bc
       0.27189112 0.2775082 0.11500453 -0.01349664
000380 89 2d 28 3e 4d 77 45 3d 0d 91 7e 3e d4 df 2e be
       0.1642362 0.048209477 0.2486002 -0.17077571
000390 a6 d2 17 3d 6f 64 7e 3e 92 2f e7 3d 0e f6 36 3e
       0.037066124 0.24843 0.1128837 0.178673
0003a0 86 a9 22 3e ad fb 12 3e 91 bf 9a be b3 a4 ac bd
       0.1588498 0.14353819 -0.3022428 -0.084298514
0003b0 a2 fb 71 3e 1f d4 af 3c f8 fb bf 3d 97 0b bc 3d
       0.23631147 0.021463452 0.09374231 0.09181898
0003c0 87 00 f0 bd 2a 03 2a bc f7 3b 7c 3e f4 70 f3 bd
       -0.117188506 -0.010376731 0.2463225 -0.118867785
0003d0 cc d8 b6 3d 2e db d0 3d 0d f2 73 be 02 6a 50 be
       0.089280695 0.10198055 -0.23822804 -0.20352939
0003e0 ec 8d 50 3d fb fb af bd 66 89 5b 3e 73 6b bc bd
       0.050916597 -0.08592983 0.21439132 -0.09200182
0003f0 02 cd da 3d 2b f6 74 be 60 50 7a 3e 12 f4 fd bd
       0.106836334 -0.2392203 0.24444723 -0.12400068

conv1.bias f4 [32]
000000 68 a2 5f bc 28 37 7c 3c f5 35 f7 3d e5 c5 53 be
       -0.0136495605 0.01539401 0.12070838 -0.2068096
000010 d7 53 e0 bd 9b 09 7f 3c fd e2 07 be 8a 2e 7c 3e
       -0.10953491 0.015566255 -0.13270183 0.24627128
000020 9c 22 83 bd 02 30 7e be e8 94 88 3e fc ed 5c be
       -0.064030856 -0.24823001 0.26676106 -0.21575159
000030 fd ef 5b be 60 99 27 be 8c 22 87 be 9b 5d 4f be
       -0.21478267 -0.16367102 -0.26393545 -0.20250551
000040 31 31 34 3e 5a e6 85 be 70 81 56 3e b2 84 53 3e
       0.1759689 -0.26152307 0.20947814 0.20656088
000050 37 69 6d be fc d9 27 be ad 11 8a be 9c 28 4c bd
       -0.23184668 -0.16391748 -0.2696661 -0.049843416
000060 f1 80 ad be c3 4c 8f 3e e7 f7 58 be d5 2a 78 3e
       -0.33887437 0.27988252 -0.21188317 0.24235089
000070 7d 34 c5 bd cd 60 d0 bd b6 a8 39 be 0f 5e 3f 3e
       -0.09629152 -0.10174713 -0.18130764 0.18688224

res_blocks.0.conv.weight f4 [32, 32, 3, 3]
000000 bb f5 a8 3d 6a db dc 3d 2a 8e 50 bd b2 a7 36 3e
       0.08249994 0.107840374 -0.05091683 0.17837408
000010 a5 51 e1 bd 9b 09 a8 3a a7 9b 7d bd 44 bf e2 bb
       -0.110019006 0.0012820245 -0.06191602 -0.0069197733
000020 93 4d 2e 3d 12 9e 20 bb 5c 54 a5 bc 43 61 3a 3d
       0.04255445 -0.002450828 -0.020181827 0.045502912
000030 d1 0d 4c bd f2 bd e1 3d a8 df 25 3d 84 50 80 bc
       -0.049817864 0.11022557 0.0404965 -0.015663393
000040 54 a6 a1 bd 16 65 a7 3d 0f 34 83 3c bd 0f e3 bd
       -0.07893053 0.081735775 0.016016034 -0.11086986
000050 db a9 0a be 54 e3 30 be 9f b7 78 be c7 09 07 3d
       -0.13541357 -0.17274219 -0.24288796 0.03296831
000060 79 17 0c be 86 10 e6 bd 81 b8 af bb e6 65 04 3d
       -0.13680829 -0.1123362 -0.0053625708 0.03232374
000070 08 0d ce 3d eb 71 d4 bd 20 9a 83 bd 5c 0c 6b bd
       0.10061079 -0.10373291 -0.064258814 -0.057384834
000080 fd 51 b1 bb 68 d3 59 3d 31 ae 60 be 6b 86 64 bd
       -0.005411385 0.05318013 -0.21941449 -0.055792253
000090 04 20 21 bc 80 0c 47 3d 68 d3 33 bd 8d a0 b2 3d
       -0.009834293 0.048595905 -0.043902785 0.08722029
0000a0 8e c9 85 bd e4 4f 22 3c e8 d4 95 bd d6 88 dc bd
       -0.06532584 0.009906743 -0.07315999 -0.10768287
0000b0 52 94 19 bd 5b 4e b8 bd 84 c7 df 3c 87 ac 5b bd
       -0.037494965 -0.0899932 0.027316816 -0.05363133
0000c0 05 24 c9 bd d0 90 d5 bd 42 ec 5f 3d 49 7f 5c bd
       -0.09821323 -0.104280114 0.054668672 -0.053832326
0000d0 db c9 dd bd 1a 9b 11 3e 47 7d 9e 3a c7 f7 94 3c
       -0.108295165 0.14219323 0.0012091779 0.018184556
0000e0 97 d6 f4 bb 8a 8f 80 bd 6b 1d 46 bd 76 11 83 3d
       -0.00747187 -0.06277378 -0.0483679 0.06399815
0000f0 4e 56 97 bd 48 90 fe bc e5 00 aa bd cf 40 ea bc
       -0.07389508 -0.031074658 -0.08300952 -0.028595356
000100 d1 83 71 bc 1b 9d 3d bc 1d 3e 17 be 8b c0 3e bd
       -0.0147409 -0.011573101 -0.14769788 -0.046570342
000110 02 fb 52 3d fc da 49 3d 7e be 78 3d c2 50 71 3d
       0.05150891 0.049281105 0.060728543 0.058914907
000120 18 91 44 ba 9b 03 50 3d 08 ff 5b 3d 0a 26 05 be
       -0.00074984273 0.05078469 0.053710014 -0.13002792
000130 88 eb 8e bd 17 0b 4a 3d 33 fe 8f bd 98 52 e3 ba
       -0.06978518 0.049326982 -0.070309065 -0.001734334
000140 6c 66 50 3d 5b 20 f7 3d 0d 18 54 3d 19 bc 73 3c
       0.050878927 0.12066718 0.05178075 0.014876389
000150 60 c6 6e bd d5 73 b2 bc 42 6e a4 3d d5 1d 1d bd
       -0.058294654 -0.021783749 0.080288425 -0.03835853
000160 3e da ae bd 46 e1 3a bb a1 eb 9f bd ea 15 81 3d
       -0.0853772 -0.002851562 -0.078086145 0.06303008
000170 9e 3f de bd c4 11 43 bd 5b 3a 94 3a 69 4e 1d 3d
       -0.10851978 -0.047624364 0.0011308895 0.038404856
000180 4d 8c 0c 3e fa f2 e7 bc 30 f3 0e be 7e 73 31 bd
       0.13725396 -0.028314102 -0.13959956 -0.043323033
000190 d5 4f 8b 3d a3 c8 f0 bc 5a d2 26 3e 1a 84 96 3c
       0.06802336 -0.029392546 0.1629118 0.018373538
0001a0 1a dc ed bd 99 07 fa bd c4 f2 82 3d fa 8a ee bc
       -0.11614247 -0.122084804 0.0639396 -0.029119004
0001b0 cf cc e8 3d 3a d0 05 3d d6 af c5 bd ce 53 6d 3c
       0.11367189 0.032669283 -0.09652679 0.014485313
0001c0 c5 a4 bb bd 9c 80 68 bd ed cf be bd 57 3f 92 3d
       -0.09162287 -0.056763276 -0.093170024 0.07140987
0001d0 61 cf 74 bd 9e 82 28 3e 37 ff c2 3d ce ed a6 3c
       -0.059768084 0.16456077 0.095213346 0.020377066
0001e0 19 33 d8 bd 36 13 10 3d 7a 27 bb 3d 65 04 b5 3d
       -0.10556621 0.03517457 0.09138389 0.08838729
0001f0 9d 8f b3 bd 83 36 92 3d 9c 79 c8 3d fb ff 62 3d
       -0.087676264 0.071393035 0.0978882 0.055419903
000200 6d af ac 3d 07 9a ad 3c 7e fd 64 3c cb 95 5c bd
       0.08431897 0.02119161 0.013976453 -0.05385379
000210 ec 70 bd 3d d5 82 a7 3d 2a bf ae bd 46 d5 48 bd
       0.09250054 0.08179251 -0.085325554 -0.04903152
000220 2d 88 d1 3c 7a f7 1b bd 3e 42 ed 3d 95 e4 01 bd
       0.025577629 -0.03807781 0.115849 -0.031712133
000230 78 a7 23 3d 80 1e 37 3c 5c 4d cb bb b3 12 43 3d
       0.039954633 0.011176705 -0.0062042903 0.047625255
000240 8c 9b 7b 3d 49 9d ef bc a9 7d e7 3d 43 56 ab 3d
       0.061427638 -0.029249804 0.11303265 0.083660625
000250 00 c8 b1 3c 5e 6a f8 3c c2 10 a7 3c 00 11 39 bd
       0.021701813 0.030324157 0.020393733 -0.045182228
000260 32 1d 2d bd 55 03 54 be ee de 7c bd 59 7b 19 38
       -0.04226417 -0.20704396 -0.06173604 3.659292e-05
000270 33 fa d1 bc 13 bf a1 bb 9b 28 6e 3d 2e 0c 24 bd
       -0.025632 -0.004936108 0.058144193 -0.040050678
000280 a2 e6 13 3e cd 31 3d bc af c6 ae bc 25 66 55 3d
       0.14443448 -0.011547518 -0.021334974 0.052099366
000290 93 07 d3 bc 26 25 7d 3d cb ff ac 3d a9 93 24 3e
       -0.025760448 0.061803006 0.08447226 0.16071953
0002a0 0d 52 fe 3c fb 4b df 3c a1 8e 0a bd 99 ab d5 3c
       0.031044984 0.02725791 -0.033827428 0.0260828
0002b0 6f 29 12 3d 25 af ec bd 26 3f 73 3d f0 81 37 3d
       0.035684045 -0.11556844 0.059386395 0.044801652
0002c0 34 f2 02 bd 87 f7 4c bd a6 5e bb bc 8b b5 20 bc
       -0.031969264 -0.050040748 -0.02287228 -0.009808908
0002d0 0f b6 b7 bc 1e 6b c8 bd 60 83 d0 bd d0 8b f8 bd
       -0.02242568 -0.09786056 -0.10181308 -0.12136042
0002e0 c1 0a 34 ba ca ef 0f be 94 34 3a bd b2 4f 53 bd
       -0.00068680575 -0.14056316 -0.0454603 -0.051589675
0002f0 fa 8e aa bd 55 0a 8f 3b 5c c9 0f 3d 84 8f 37 bd
       -0.08328052 0.0043652453 0.03510414 -0.0448146
000300 ab ad fe bc 68 98 0a bd 28 ba 14 bd de ec 8e 3d
       -0.03108867 -0.033836752 -0.036310345 0.069787726
000310 8e 48 e4 3d e4 51 91 bd 2f f3 03 ba 7c 84 1a 3d
       0.11146651 -0.070956975 -0.00050334906 0.037724003
000320 fa 93 7d bd 19 1d 65 3d cc ab c3 bd 7d 1b ce 3d
       -0.0619087 0.055935953 -0.09554252 0.10063837
000330 0a 43 ba 3d 4e ec 50 bc 90 df fe bd 4a af a0 bc
       0.09094818 -0.012751652 -0.12444985 -0.019614834
000340 80 07 e4 bb 12 85 0f 3d 93 46 0d be f2 08 f6 3c
       -0.006958902 0.035039015 -0.13796453 0.030033562
000350 1d b7 20 3d 34 4a 2c 3e 6e 08 24 3e e2 40 40 3c
       0.03923713 0.16825181 0.1601884 0.011734219
000360 8e d4 1c 3e 13 6a 1a 3d f7 d1 79 bd f5 0c 98 bd
       0.15315458 0.037698817 -0.060991254 -0.07424346
000370 0e 96 2b 3e ad ea d9 3d a3 42 46 3e 16 d0 08 be
       0.1675646 0.10640464 0.19361357 -0.13360628
000380 9b 00 d2 bd 4e 65 8b 3c f0 81 f7 3b c3 1c 29 bd
       -0.10254022 0.01701608 0.0075533316 -0.041287195
000390 7a cc ce 3c ee 01 c3 bd c7 e0 41 bd c7 e0 a4 bd
       0.025243986 -0.095218524 -0.047333505 -0.080506854
0003a0 77 51 22 bd 8b 00 5d 3d 4c 42 35 ba 57 42 40 3d
       -0.039628472 0.053955596 -0.0006914481 0.046938267
0003b0 98 cb 14 bc e6 17 fd 3d 48 84 f8 bb 6c d1 d6 bc
       -0.009081744 0.12358074 -0.0075841285 -0.026222907
0003c0 86 c9 9c 3e e8 80 66 3d 03 94 9f 3d f2 f0 04 be
       0.306225 0.05627528 0.07791903 -0.12982538
0003d0 c7 87 80 3d 55 ec 12 3e 14 2e 18 3d 86 8b 7b bc
       0.062758975 0.14347966 0.03715332 -0.015353089
0003e0 42 59 a5 bd d4 00 77 3e fd f1 68 bd 54 ae 8f 3d
       -0.08073665 0.2412141 -0.056871403 0.07015672
0003f0 f1 cb d8 bc 42 9d 76 3d f8 4b 2e be 30 a4 4c be
       -0.026464434 0.060208566 -0.17021167 -0.19984508

res_blocks.0.batch_norm.weight f4 [32]
000000 c9 1e 1e 3f 08 68 18 3f 11 15 25 3f d7 42 0f 3f
       0.61765724 0.5953374 0.6448527 0.55961365
000010 dc e7 0e 3f 4f ec 28 3f 71 3c 1d 3f ae 6b 35 3f
       0.5582254 0.6598558 0.6142035 0.7086743
000020 2c 2d 1e 3f b3 f2 31 3f 2b c0 25 3f 3e 0d 0b 3f
       0.61787677 0.69510955 0.6474635 0.5431708
000030 6d 32 11 3f 47 ba 34 3f c7 e4 32 3f 64 73 33 3f
       0.5671757 0.70596737 0.69880337 0.7009795
000040 db 17 2b 3f 06 50 1c 3f af e9 35 3f 42 7d 1e 3f
       0.66833276 0.61059606 0.710597 0.6190988
000050 10 de 11 3f ea a8 17 3f 06 d2 36 3f c3 4b 31 3f
       0.56979465 0.5924212 0.7141422 0.6925623
000060 7d 4a 31 3f 0d 88 26 3f 84 11 32 3f 30 d2 ff 3e
       0.69254285 0.65051347 0.69557977 0.49965048
000070 d7 26 06 3f bf bf 38 3f 21 23 32 3f 94 de 22 3f
       0.52403015 0.7216758 0.6958485 0.6362088

res_blocks.0.batch_norm.bias f4 [32]
000000 d7 05 41 bd f9 b6 9e 3b ee 7d f0 3c 56 4f 61 3a
       -0.04712471 0.0048435894 0.029356923 0.0008594891
000010 f6 e2 82 3c 4c b2 c7 bc bb 72 ac bc 8a 0e 19 3d
       0.015977364 -0.02437701 -0.021050802 0.03736738
000020 b1 4e bc 3c 4f 4f 08 3d 97 44 0a 3c 27 10 65 bc
       0.022986742 0.03327876 0.008439205 -0.013980902
000030 8b f5 e2 38 52 b0 67 3d e0 85 f9 3b e7 53 da 3c
       0.00010822256 0.056564637 0.007614836 0.026651336
000040 10 94 32 3d fa e5 48 3c 3b 79 92 3d 6e 0c 81 3c
       0.043598235 0.012261862 0.07152029 0.015752997
000050 ab fd be 3b 8e 19 10 3c 4a c5 6e 3d 34 bc 18 3d
       0.0058285794 0.008795155 0.05829362 0.03728886
000060 34 89 56 3b 98 e7 a7 3b 40 58 9b 3c b0 65 43 bd
       0.0032735588 0.0051240437 0.01896298 -0.0477044
000070 15 e8 ab bc f4 8f dd 3c 28 0c 89 3c 79 fe ac 3d
       -0.020984689 0.027046181 0.01672943 0.08446974

res_blocks.0.batch_norm.running_mean f4 [32]
000000 2f db 6e be 87 96 9b bf 12 46 ff be e9 a1 66 bf
       -0.233258 -1.2155312 -0.49858147 -0.90090805
000010 89 9b 9d be c7 31 af bf 35 ab 94 bf d6 59 95 bd
       -0.30782726 -1.3687066 -1.1614748 -0.072925255
000020 61 3d 8b 3f b7 a9 98 3f 18 35 5c bf 81 7d 11 c0
       1.0878106 1.1926793 -0.86018515 -2.2732852
000030 91 8c b4 bf cb 3f 1c 3e 35 a0 a9 3e 80 6e d4 3f
       -1.4105397 0.1525871 0.3313004 1.6596222
000040 c6 89 52 3f 54 0d f8 3f 03 34 b3 3e 5a 9a 02 c0
       0.82241476 1.9379067 0.3500062 -2.0406709
000050 c0 41 e8 bf da 42 b6 3f ee 97 7d 3f e3 39 1b bf
       -1.8145065 1.4239151 0.9905995 -0.60635203
000060 3a cd a6 3f 87 81 9d bf a0 c1 59 3e c0 cf 5c c0
       1.303138 -1.2305154 0.21265268 -3.45018
000070 f5 c8 ae 40 86 e8 54 bf d1 d4 b5 3f a4 4a 55 3f
       5.462031 -0.831673 1.4205571 0.8331702

res_blocks.0.batch_norm.running_var f4 [32]
000000 c4 97 00 41 68 e5 37 41 64 e4 51 41 96 ad 37 41
       8.037052 11.493507 13.118259 11.479879
000010 d3 21 23 41 f1 e5 17 41 19 bc 22 41 69 ce b9 40
       10.195758 9.493638 10.170922 5.8064466
000020 28 41 49 41 5b 40 03 41 d6 a7 1c 41 02 5b 3d 41
       12.578407 8.203212 9.790976 11.834719
000030 2b 81 ad 41 34 92 dc 40 3f e6 76 41 4f d3 42 41
       21.68807 6.892847 15.431212 12.176589
000040 91 4d 5e 41 30 7f 11 41 05 b1 10 41 78 d8 6b 41
       13.893937 9.093552 9.043218 14.740349
000050 22 85 33 41 d7 d8 11 41 55 e9 4b 41 ce e1 d5 40
       11.220003 9.115439 12.744466 6.683814
000060 5d 50 13 41 31 73 2f 41 0a a5 22 41 7a bb e2 41
       9.20712 10.965623 10.165293 28.341541
000070 bc 56 13 42 44 ff b3 40 19 7e 35 41 13 dd 01 41
       36.8347 5.6249104 11.343286 8.116473

res_blocks.1.conv.weight f4 [32, 32, 3, 3]
000000 bb f5 a8 3d 6a db dc 3d 2a 8e 50 bd b2 a7 36 3e
       0.08249994 0.107840374 -0.05091683 0.17837408
000010 a5 51 e1 bd 9b 09 a8 3a a7 9b 7d bd 44 bf e2 bb
       -0.110019006 0.0012820245 -0.06191602 -0.0069197733
000020 93 4d 2e 3d 12 9e 20 bb 5c 54 a5 bc 43 61 3a 3d
       0.04255445 -0.002450828 -0.020181827 0.045502912
000030 d1 0d 4c bd f2 bd e1 3d a8 df 25 3d 84 50 80 bc
       -0.049817864 0.11022557 0.0404965 -0.015663393
000040 54 a6 a1 bd 16 65 a7 3d 0f 34 83 3c bd 0f e3 bd
       -0.07893053 0.081735775 0.016016034 -0.11086986
000050 db a9 0a be 54 e3 30 be 9f b7 78 be c7 09 07 3d
       -0.13541357 -0.17274219 -0.24288796 0.03296831
000060 79 17 0c be 86 10 e6 bd 81 b8 af bb e6 65 04 3d
       -0.13680829 -0.1123362 -0.0053625708 0.03232374
000070 08 0d ce 3d eb 71 d4 bd 20 9a 83 bd 5c 0c 6b bd
       0.10061079 -0.10373291 -0.064258814 -0.057384834
000080 fd 51 b1 bb 68 d3 59 3d 31 ae 60 be 6b 86 64 bd
       -0.005411385 0.05318013 -0.21941449 -0.055792253
000090 04 20 21 bc 80 0c 47 3d 68 d3 33 bd 8d a0 b2 3d
       -0.009834293 0.048595905 -0.043902785 0.08722029
0000a0 8e c9 85 bd e4 4f 22 3c e8 d4 95 bd d6 88 dc bd
       -0.06532584 0.009906743 -0.07315999 -0.10768287
0000b0 52 94 19 bd 5b 4e b8 bd 84 c7 df 3c 87 ac 5b bd
       -0.037494965 -0.0899932 0.027316816 -0.05363133
0000c0 05 24 c9 bd d0 90 d5 bd 42 ec 5f 3d 49 7f 5c bd
       -0.09821323 -0.104280114 0.054668672 -0.053832326
0000d0 db c9 dd bd 1a 9b 11 3e 47 7d 9e 3a c7 f7 94 3c
       -0.108295165 0.14219323 0.0012091779 0.018184556
0000e0 97 d6 f4 bb 8a 8f 80 bd 6b 1d 46 bd 76 11 83 3d
       -0.00747187 -0.06277378 -0.0483679 0.06399815
0000f0 4e 56 97 bd 48 90 fe bc e5 00 aa bd cf 40 ea bc
       -0.07389508 -0.031074658 -0.08300952 -0.028595356
000100 d1 83 71 bc 1b 9d 3d bc 1d 3e 17 be 8b c0 3e bd
       -0.0147409 -0.011573101 -0.14769788 -0.046570342
000110 02 fb 52 3d fc da 49 3d 7e be 78 3d c2 50 71 3d
       0.05150891 0.049281105 0.060728543 0.058914907
000120 18 91 44 ba 9b 03 50 3d 08 ff 5b 3d 0a 26 05 be
       -0.00074984273 0.05078469 0.053710014 -0.13002792
000130 88 eb 8e bd 17 0b 4a 3d 33 fe 8f bd 98 52 e3 ba
       -0.06978518 0.049326982 -0.070309065 -0.001734334
000140 6c 66 50 3d 5b 20 f7 3d 0d 18 54 3d 19 bc 73 3c
       0.050878927 0.12066718 0.05178075 0.014876389
000150 60 c6 6e bd d5 73 b2 bc 42 6e a4 3d d5 1d 1d bd
       -0.058294654 -0.021783749 0.080288425 -0.03835853
000160 3e da ae bd 46 e1 3a bb a1 eb 9f bd ea 15 81 3d
       -0.0853772 -0.002851562 -0.078086145 0.06303008
000170 9e 3f de bd c4 11 43 bd 5b 3a 94 3a 69 4e 1d 3d
       -0.10851978 -0.047624364 0.0011308895 0.038404856
000180 4d 8c 0c 3e fa f2 e7 bc 30 f3 0e be 7e 73 31 bd
       0.13725396 -0.028314102 -0.13959956 -0.043323033
000190 d5 4f 8b 3d a3 c8 f0 bc 5a d2 26 3e 1a 84 96 3c
       0.06802336 -0.029392546 0.1629118 0.018373538
0001a0 1a dc ed bd 99 07 fa bd c4 f2 82 3d fa 8a ee bc
       -0.11614247 -0.122084804 0.0639396 -0.029119004
0001b0 cf cc e8 3d 3a d0 05 3d d6 af c5 bd ce 53 6d 3c
       0.11367189 0.032669283 -0.09652679 0.014485313
0001c0 c5 a4 bb bd 9c 80 68 bd ed cf be bd 57 3f 92 3d
       -0.09162287 -0.056763276 -0.093170024 0.07140987
0001d0 61 cf 74 bd 9e 82 28 3e 37 ff c2 3d ce ed a6 3c
       -0.059768084 0.16456077 0.095213346 0.020377066
0001e0 19 33 d8 bd 36 13 10 3d 7a 27 bb 3d 65 04 b5 3d
       -0.10556621 0.03517457 0.09138389 0.08838729
0001f0 9d 8f b3 bd 83 36 92 3d 9c 79 c8 3d fb ff 62 3d
       -0.087676264 0.071393035 0.0978882 0.055419903
000200 6d af ac 3d 07 9a ad 3c 7e fd 64 3c cb 95 5c bd
       0.08431897 0.02119161 0.013976453 -0.05385379
000210 ec 70 bd 3d d5 82 a7 3d 2a bf ae bd 46 d5 48 bd
       0.09250054 0.08179251 -0.085325554 -0.04903152
000220 2d 88 d1 3c 7a f7 1b bd 3e 42 ed 3d 95 e4 01 bd
       0.025577629 -0.03807781 0.115849 -0.031712133
000230 78 a7 23 3d 80 1e 37 3c 5c 4d cb bb b3 12 43 3d
       0.039954633 0.011176705 -0.0062042903 0.047625255
000240 8c 9b 7b 3d 49 9d ef bc a9 7d e7 3d 43 56 ab 3d
       0.061427638 -0.029249804 0.11303265 0.083660625
000250 00 c8 b1 3c 5e 6a f8 3c c2 10 a7 3c 00 11 39 bd
       0.021701813 0.030324157 0.020393733 -0.045182228
000260 32 1d 2d bd 55 03 54 be ee de 7c bd 59 7b 19 38
       -0.04226417 -0.20704396 -0.06173604 3.659292e-05
000270 33 fa d1 bc 13 bf a1 bb 9b 28 6e 3d 2e 0c 24 bd
       -0.025632 -0.004936108 0.058144193 -0.040050678
000280 a2 e6 13 3e cd 31 3d bc af c6 ae bc 25 66 55 3d
       0.14443448 -0.011547518 -0.021334974 0.052099366
000290 93 07 d3 bc 26 25 7d 3d cb ff ac 3d a9 93 24 3e
       -0.025760448 0.061803006 0.08447226 0.16071953
0002a0 0d 52 fe 3c fb 4b df 3c a1 8e 0a bd 99 ab d5 3c
       0.031044984 0.02725791 -0.033827428 0.0260828
0002b0 6f 29 12 3d 25 af ec bd 26 3f 73 3d f0 81 37 3d
       0.035684045 -0.11556844 0.059386395 0.044801652
0002c0 34 f2 02 bd 87 f7 4c bd a6 5e bb bc 8b b5 20 bc
       -0.031969264 -0.050040748 -0.02287228 -0.009808908
0002d0 0f b6 b7 bc 1e 6b c8 bd 60 83 d0 bd d0 8b f8 bd
       -0.02242568 -0.09786056 -0.10181308 -0.12136042
0002e0 c1 0a 34 ba ca ef 0f be 94 34 3a bd b2 4f 53 bd
       -0.00068680575 -0.14056316 -0.0454603 -0.051589675
0002f0 fa 8e aa bd 55 0a 8f 3b 5c c9 0f 3d 84 8f 37 bd
       -0.08328052 0.0043652453 0.03510414 -0.0448146
000300 ab ad fe bc 68 98 0a bd 28 ba 14 bd de ec 8e 3d
       -0.03108867 -0.033836752 -0.036310345 0.069787726
000310 8e 48 e4 3d e4 51 91 bd 2f f3 03 ba 7c 84 1a 3d
       0.11146651 -0.070956975 -0.00050334906 0.037724003
000320 fa 93 7d bd 19 1d 65 3d cc ab c3 bd 7d 1b ce 3d
       -0.0619087 0.055935953 -0.09554252 0.10063837
000330 0a 43 ba 3d 4e ec 50 bc 90 df fe bd 4a af a0 bc
       0.09094818 -0.012751652 -0.12444985 -0.019614834
000340 80 07 e4 bb 12 85 0f 3d 93 46 0d be f2 08 f6 3c
       -0.006958902 0.035039015 -0.13796453 0.030033562
000350 1d b7 20 3d 34 4a 2c 3e 6e 08 24 3e e2 40 40 3c
       0.03923713 0.16825181 0.1601884 0.011734219
000360 8e d4 1c 3e 13 6a 1a 3d f7 d1 79 bd f5 0c 98 bd
       0.15315458 0.037698817 -0.060991254 -0.07424346
000370 0e 96 2b 3e ad ea d9 3d a3 42 46 3e 16 d0 08 be
       0.1675646 0.10640464 0.19361357 -0.13360628
000380 9b 00 d2 bd 4e 65 8b 3c f0 81 f7 3b c3 1c 29 bd
       -0.10254022 0.01701608 0.0075533316 -0.041287195
000390 7a cc ce 3c ee 01 c3 bd c7 e0 41 bd c7 e0 a4 bd
       0.025243986 -0.095218524 -0.047333505 -0.080506854
0003a0 77 51 22 bd 8b 00 5d 3d 4c 42 35 ba 57 42 40 3d
       -0.039628472 0.053955596 -0.0006914481 0.046938267
0003b0 98 cb 14 bc e6 17 fd 3d 48 84 f8 bb 6c d1 d6 bc
       -0.009081744 0.12358074 -0.0075841285 -0.026222907
0003c0 86 c9 9c 3e e8 80 66 3d 03 94 9f 3d f2 f0 04 be
       0.306225 0.05627528 0.07791903 -0.12982538
0003d0 c7 87 80 3d 55 ec 12 3e 14 2e 18 3d 86 8b 7b bc
       0.062758975 0.14347966 0.03715332 -0.015353089
0003e0 42 59 a5 bd d4 00 77 3e fd f1 68 bd 54 ae 8f 3d
       -0.08073665 0.2412141 -0.056871403 0.07015672
0003f0 f1 cb d8 bc 42 9d 76 3d f8 4b 2e be 30 a4 4c be
       -0.026464434 0.060208566 -0.17021167 -0.19984508

res_blocks.1.batch_norm.weight f4 [32]
000000 c9 1e 1e 3f 08 68 18 3f 11 15 25 3f d7 42 0f 3f
       0.61765724 0.5953374 0.6448527 0.55961365
000010 dc e7 0e 3f 4f ec 28 3f 71 3c 1d 3f ae 6b 35 3f
       0.5582254 0.6598558 0.6142035 0.7086743
000020 2c 2d 1e 3f b3 f2 31 3f 2b c0 25 3f 3e 0d 0b 3f
       0.61787677 0.69510955 0.6474635 0.5431708
000030 6d 32 11 3f 47 ba 34 3f c7 e4 32 3f 64 73 33 3f
       0.5671757 0.70596737 0.69880337 0.7009795
000040 db 17 2b 3f 06 50 1c 3f af e9 35 3f 42 7d 1e 3f
       0.66833276 0.61059606 0.710597 0.6190988
000050 10 de 11 3f ea a8 17 3f 06 d2 36 3f c3 4b 31 3f
       0.56979465 0.5924212 0.7141422 0.6925623
000060 7d 4a 31 3f 0d 88 26 3f 84 11 32 3f 30 d2 ff 3e
       0.69254285 0.65051347 0.69557977 0.49965048
000070 d7 26 06 3f bf bf 38 3f 21 23 32 3f 94 de 22 3f
       0.52403015 0.7216758 0.6958485 0.6362088

res_blocks.1.batch_norm.bias f4 [32]
000000 d7 05 41 bd f9 b6 9e 3b ee 7d f0 3c 56 4f 61 3a
       -0.04712471 0.0048435894 0.029356923 0.0008594891
000010 f6 e2 82 3c 4c b2 c7 bc bb 72 ac bc 8a 0e 19 3d
       0.015977364 -0.02437701 -0.021050802 0.03736738
000020 b1 4e bc 3c 4f 4f 08 3d 97 44 0a 3c 27 10 65 bc
       0.022986742 0.03327876 0.008439205 -0.013980902
000030 8b f5 e2 38 52 b0 67 3d e0 85 f9 3b e7 53 da 3c
       0.00010822256 0.056564637 0.007614836 0.026651336
000040 10 94 32 3d fa e5 48 3c 3b 79 92 3d 6e 0c 81 3c
       0.043598235 0.012261862 0.07152029 0.015752997
000050 ab fd be 3b 8e 19 10 3c 4a c5 6e 3d 34 bc 18 3d
       0.0058285794 0.008795155 0.05829362 0.03728886
000060 34 89 56 3b 98 e7 a7 3b 40 58 9b 3c b0 65 43 bd
       0.0032735588 0.0051240437 0.01896298 -0.0477044
000070 15 e8 ab bc f4 8f dd 3c 28 0c 89 3c 79 fe ac 3d
       -0.020984689 0.027046181 0.01672943 0.08446974

res_blocks.1.batch_norm.running_mean f4 [32]
000000 2f db 6e be 87 96 9b bf 12 46 ff be e9 a1 66 bf
       -0.233258 -1.2155312 -0.49858147 -0.90090805
000010 89 9b 9d be c7 31 af bf 35 ab 94 bf d6 59 95 bd
       -0.30782726 -1.3687066 -1.1614748 -0.072925255
000020 61 3d 8b 3f b7 a9 98 3f 18 35 5c bf 81 7d 11 c0
       1.0878106 1.1926793 -0.86018515 -2.2732852
000030 91 8c b4 bf cb 3f 1c 3e 35 a0 a9 3e 80 6e d4 3f
       -1.4105397 0.1525871 0.3313004 1.6596222
000040 c6 89 52 3f 54 0d f8 3f 03 34 b3 3e 5a 9a 02 c0
       0.82241476 1.9379067 0.3500062 -2.0406709
000050 c0 41 e8 bf da 42 b6 3f ee 97 7d 3f e3 39 1b bf
       -1.8145065 1.4239151 0.9905995 -0.60635203
000060 3a cd a6 3f 87 81 9d bf a0 c1 59 3e c0 cf 5c c0
       1.303138 -1.2305154 0.21265268 -3.45018
000070 f5 c8 ae 40 86 e8 54 bf d1 d4 b5 3f a4 4a 55 3f
       5.462031 -0.831673 1.4205571 0.8331702

res_blocks.1.batch_norm.running_var f4 [32]
000000 c4 97 00 41 68 e5 37 41 64 e4 51 41 96 ad 37 41
       8.037052 11.493507 13.118259 11.479879
000010 d3 21 23 41 f1 e5 17 41 19 bc 22 41 69 ce b9 40
       10.195758 9.493638 10.170922 5.8064466
000020 28 41 49 41 5b 40 03 41 d6 a7 1c 41 02 5b 3d 41
       12.578407 8.203212 9.790976 11.834719
000030 2b 81 ad 41 34 92 dc 40 3f e6 76 41 4f d3 42 41
       21.68807 6.892847 15.431212 12.176589
000040 91 4d 5e 41 30 7f 11 41 05 b1 10 41 78 d8 6b 41
       13.893937 9.093552 9.043218 14.740349
000050 22 85 33 41 d7 d8 11 41 55 e9 4b 41 ce e1 d5 40
       11.220003 9.115439 12.744466 6.683814
000060 5d 50 13 41 31 73 2f 41 0a a5 22 41 7a bb e2 41
       9.20712 10.965623 10.165293 28.341541
000070 bc 56 13 42 44 ff b3 40 19 7e 35 41 13 dd 01 41
       36.8347 5.6249104 11.343286 8.116473

res_blocks.2.conv.weight f4 [32, 32, 3, 3]
000000 bb f5 a8 3d 6a db dc 3d 2a 8e 50 bd b2 a7 36 3e
       0.08249994 0.107840374 -0.05091683 0.17837408
000010 a5 51 e1 bd 9b 09 a8 3a a7 9b 7d bd 44 bf e2 bb
       -0.110019006 0.0012820245 -0.06191602 -0.0069197733
000020 93 4d 2e 3d 12 9e 20 bb 5c 54 a5 bc 43 61 3a 3d
       0.04255445 -0.002450828 -0.020181827 0.045502912
000030 d1 0d 4c bd f2 bd e1 3d a8 df 25 3d 84 50 80 bc
       -0.049817864 0.11022557 0.0404965 -0.015663393
000040 54 a6 a1 bd 16 65 a7 3d 0f 34 83 3c bd 0f e3 bd
       -0.07893053 0.081735775 0.016016034 -0.11086986
000050 db a9 0a be 54 e3 30 be 9f b7 78 be c7 09 07 3d
       -0.13541357 -0.17274219 -0.24288796 0.03296831
000060 79 17 0c be 86 10 e6 bd 81 b8 af bb e6 65 04 3d
       -0.13680829 -0.1123362 -0.0053625708 0.03232374
000070 08 0d ce 3d eb 71 d4 bd 20 9a 83 bd 5c 0c 6b bd
       0.10061079 -0.10373291 -0.064258814 -0.057384834
000080 fd 51 b1 bb 68 d3 59 3d 31 ae 60 be 6b 86 64 bd
       -0.005411385 0.05318013 -0.21941449 -0.055792253
000090 04 20 21 bc 80 0c 47 3d 68 d3 33 bd 8d a0 b2 3d
       -0.009834293 0.048595905 -0.043902785 0.08722029
0000a0 8e c9 85 bd e4 4f 22 3c e8 d4 95 bd d6 88 dc bd
       -0.06532584 0.009906743 -0.07315999 -0.10768287
0000b0 52 94 19 bd 5b 4e b8 bd 84 c7 df 3c 87 ac 5b bd
       -0.037494965 -0.0899932 0.027316816 -0.05363133
0000c0 05 24 c9 bd d0 90 d5 bd 42 ec 5f 3d 49 7f 5c bd
       -0.09821323 -0.104280114 0.054668672 -0.053832326
0000d0 db c9 dd bd 1a 9b 11 3e 47 7d 9e 3a c7 f7 94 3c
       -0.108295165 0.14219323 0.0012091779 0.018184556
0000e0 97 d6 f4 bb 8a 8f 80 bd 6b 1d 46 bd 76 11 83 3d
       -0.00747187 -0.06277378 -0.0483679 0.06399815
0000f0 4e 56 97 bd 48 90 fe bc e5 00 aa bd cf 40 ea bc
       -0.07389508 -0.031074658 -0.08300952 -0.028595356
000100 d1 83 71 bc 1b 9d 3d bc 1d 3e 17 be 8b c0 3e bd
       -0.0147409 -0.011573101 -0.14769788 -0.046570342
000110 02 fb 52 3d fc da 49 3d 7e be 78 3d c2 50 71 3d
       0.05150891 0.049281105 0.060728543 0.058914907
000120 18 91 44 ba 9b 03 50 3d 08 ff 5b 3d 0a 26 05 be
       -0.00074984273 0.05078469 0.053710014 -0.13002792
000130 88 eb 8e bd 17 0b 4a 3d 33 fe 8f bd 98 52 e3 ba
       -0.06978518 0.049326982 -0.070309065 -0.001734334
000140 6c 66 50 3d 5b 20 f7 3d 0d 18 54 3d 19 bc 73 3c
       0.050878927 0.12066718 0.05178075 0.014876389
000150 60 c6 6e bd d5 73 b2 bc 42 6e a4 3d d5 1d 1d bd
       -0.058294654 -0.021783749 0.080288425 -0.03835853
000160 3e da ae bd 46 e1 3a bb a1 eb 9f bd ea 15 81 3d
       -0.0853772 -0.002851562 -0.078086145 0.06303008
000170 9e 3f de bd c4 11 43 bd 5b 3a 94 3a 69 4e 1d 3d
       -0.10851978 -0.047624364 0.0011308895 0.038404856
000180 4d 8c 0c 3e fa f2 e7 bc 30 f3 0e be 7e 73 31 bd
       0.13725396 -0.028314102 -0.13959956 -0.043323033
000190 d5 4f 8b 3d a3 c8 f0 bc 5a d2 26 3e 1a 84 96 3c
       0.06802336 -0.029392546 0.1629118 0.018373538
0001a0 1a dc ed bd 99 07 fa bd c4 f2 82 3d fa 8a ee bc
       -0.11614247 -0.122084804 0.0639396 -0.029119004
0001b0 cf cc e8 3d 3a d0 05 3d d6 af c5 bd ce 53 6d 3c
       0.11367189 0.032669283 -0.09652679 0.014485313
0001c0 c5 a4 bb bd 9c 80 68 bd ed cf be bd 57 3f 92 3d
       -0.09162287 -0.056763276 -0.093170024 0.07140987
0001d0 61 cf 74 bd 9e 82 28 3e 37 ff c2 3d ce ed a6 3c
       -0.059768084 0.16456077 0.095213346 0.020377066
0001e0 19 33 d8 bd 36 13 10 3d 7a 27 bb 3d 65 04 b5 3d
       -0.10556621 0.03517457 0.09138389 0.08838729
0001f0 9d 8f b3 bd 83 36 92 3d 9c 79 c8 3d fb ff 62 3d
       -0.087676264 0.071393035 0.0978882 0.055419903
000200 6d af ac 3d 07 9a ad 3c 7e fd 64 3c cb 95 5c bd
       0.08431897 0.02119161 0.013976453 -0.05385379
000210 ec 70 bd 3d d5 82 a7 3d 2a bf ae bd 46 d5 48 bd
       0.09250054 0.08179251 -0.085325554 -0.04903152
000220 2d 88 d1 3c 7a f7 1b bd 3e 42 ed 3d 95 e4 01 bd
       0.025577629 -0.03807781 0.115849 -0.031712133
000230 78 a7 23 3d 80 1e 37 3c 5c 4d cb bb b3 12 43 3d
       0.039954633 0.011176705 -0.0062042903 0.047625255
000240 8c 9b 7b 3d 49 9d ef bc a9 7d e7 3d 43 56 ab 3d
       0.061427638 -0.029249804 0.11303265 0.083660625
000250 00 c8 b1 3c 5e 6a f8 3c c2 10 a7 3c 00 11 39 bd
       0.021701813 0.030324157 0.020393733 -0.045182228
000260 32 1d 2d bd 55 03 54 be ee de 7c bd 59 7b 19 38
       -0.04226417 -0.20704396 -0.06173604 3.659292e-05
000270 33 fa d1 bc 13 bf a1 bb 9b 28 6e 3d 2e 0c 24 bd
       -0.025632 -0.004936108 0.058144193 -0.040050678
000280 a2 e6 13 3e cd 31 3d bc af c6 ae bc 25 66 55 3d
       0.14443448 -0.011547518 -0.021334974 0.052099366
000290 93 07 d3 bc 26 25 7d 3d cb ff ac 3d a9 93 24 3e
       -0.025760448 0.061803006 0.08447226 0.16071953
0002a0 0d 52 fe 3c fb 4b df 3c a1 8e 0a bd 99 ab d5 3c
       0.031044984 0.02725791 -0.033827428 0.0260828
0002b0 6f 29 12 3d 25 af ec bd 26 3f 73 3d f0 81 37 3d
       0.035684045 -0.11556844 0.059386395 0.044801652
0002c0 34 f2 02 bd 87 f7 4c bd a6 5e bb bc 8b b5 20 bc
       -0.031969264 -0.050040748 -0.02287228 -0.009808908
0002d0 0f b6 b7 bc 1e 6b c8 bd 60 83 d0 bd d0 8b f8 bd
       -0.02242568 -0.09786056 -0.10181308 -0.12136042
0002e0 c1 0a 34 ba ca ef 0f be 94 34 3a bd b2 4f 53 bd
       -0.00068680575 -0.14056316 -0.0454603 -0.051589675
0002f0 fa 8e aa bd 55 0a 8f 3b 5c c9 0f 3d 84 8f 37 bd
       -0.08328052 0.0043652453 0.03510414 -0.0448146
000300 ab ad fe bc 68 98 0a bd 28 ba 14 bd de ec 8e 3d
       -0.03108867 -0.033836752 -0.036310345 0.069787726
000310 8e 48 e4 3d e4 51 91 bd 2f f3 03 ba 7c 84 1a 3d
       0.11146651 -0.070956975 -0.00050334906 0.037724003
000320 fa 93 7d bd 19 1d 65 3d cc ab c3 bd 7d 1b ce 3d
       -0.0619087 0.055935953 -0.09554252 0.10063837
000330 0a 43 ba 3d 4e ec 50 bc 90 df fe bd 4a af a0 bc
       0.09094818 -0.012751652 -0.12444985 -0.019614834
000340 80 07 e4 bb 12 85 0f 3d 93 46 0d be f2 08 f6 3c
       -0.006958902 0.035039015 -0.13796453 0.030033562
000350 1d b7 20 3d 34 4a 2c 3e 6e 08 24 3e e2 40 40 3c
       0.03923713 0.16825181 0.1601884 0.011734219
000360 8e d4 1c 3e 13 6a 1a 3d f7 d1 79 bd f5 0c 98 bd
       0.15315458 0.037698817 -0.060991254 -0.07424346
000370 0e 96 2b 3e ad ea d9 3d a3 42 46 3e 16 d0 08 be
       0.1675646 0.10640464 0.19361357 -0.13360628
000380 9b 00 d2 bd 4e 65 8b 3c f0 81 f7 3b c3 1c 29 bd
       -0.10254022 0.01701608 0.0075533316 -0.041287195
000390 7a cc ce 3c ee 01 c3 bd c7 e0 41 bd c7 e0 a4 bd
       0.025243986 -0.095218524 -0.047333505 -0.080506854
0003a0 77 51 22 bd 8b 00 5d 3d 4c 42 35 ba 57 42 40 3d
       -0.039628472 0.053955596 -0.0006914481 0.046938267
0003b0 98 cb 14 bc e6 17 fd 3d 48 84 f8 bb 6c d1 d6 bc
       -0.009081744 0.12358074 -0.0075841285 -0.026222907
0003c0 86 c9 9c 3e e8 80 66 3d 03 94 9f 3d f2 f0 04 be
       0.306225 0.05627528 0.07791903 -0.12982538
0003d0 c7 87 80 3d 55 ec 12 3e 14 2e 18 3d 86 8b 7b bc
       0.062758975 0.14347966 0.03715332 -0.015353089
0003e0 42 59 a5 bd d4 00 77 3e fd f1 68 bd 54 ae 8f 3d
       -0.08073665 0.2412141 -0.056871403 0.07015672
0003f0 f1 cb d8 bc 42 9d 76 3d f8 4b 2e be 30 a4 4c be
       -0.026464434 0.060208566 -0.17021167 -0.19984508

res_blocks.2.batch_norm.weight f4 [32]
000000 c9 1e 1e 3f 08 68 18 3f 11 15 25 3f d7 42 0f 3f
       0.61765724 0.5953374 0.6448527 0.55961365
000010 dc e7 0e 3f 4f ec 28 3f 71 3c 1d 3f ae 6b 35 3f
       0.5582254 0.6598558 0.6142035 0.7086743
000020 2c 2d 1e 3f b3 f2 31 3f 2b c0 25 3f 3e 0d 0b 3f
       0.61787677 0.69510955 0.6474635 0.5431708
000030 6d 32 11 3f 47 ba 34 3f c7 e4 32 3f 64 73 33 3f
       0.5671757 0.70596737 0.69880337 0.7009795
000040 db 17 2b 3f 06 50 1c 3f af e9 35 3f 42 7d 1e 3f
       0.66833276 0.61059606 0.710597 0.6190988
000050 10 de 11 3f ea a8 17 3f 06 d2 36 3f c3 4b 31 3f
       0.56979465 0.5924212 0.7141422 0.6925623
000060 7d 4a 31 3f 0d 88 26 3f 84 11 32 3f 30 d2 ff 3e
       0.69254285 0.65051347 0.69557977 0.49965048
000070 d7 26 06 3f bf bf 38 3f 21 23 32 3f 94 de 22 3f
       0.52403015 0.7216758 0.6958485 0.6362088

res_blocks.2.batch_norm.bias f4 [32]
000000 d7 05 41 bd f9 b6 9e 3b ee 7d f0 3c 56 4f 61 3a
       -0.04712471 0.0048435894 0.029356923 0.0008594891
000010 f6 e2 82 3c 4c b2 c7 bc bb 72 ac bc 8a 0e 19 3d
       0.015977364 -0.02437701 -0.021050802 0.03736738
000020 b1 4e bc 3c 4f 4f 08 3d 97 44 0a 3c 27 10 65 bc
       0.022986742 0.03327876 0.008439205 -0.013980902
000030 8b f5 e2 38 52 b0 67 3d e0 85 f9 3b e7 53 da 3c
       0.00010822256 0.056564637 0.007614836 0.026651336
000040 10 94 32 3d fa e5 48 3c 3b 79 92 3d 6e 0c 81 3c
       0.043598235 0.012261862 0.07152029 0.015752997
000050 ab fd be 3b 8e 19 10 3c 4a c5 6e 3d 34 bc 18 3d
       0.0058285794 0.008795155 0.05829362 0.03728886
000060 34 89 56 3b 98 e7 a7 3b 40 58 9b 3c b0 65 43 bd
       0.0032735588 0.0051240437 0.01896298 -0.0477044
000070 15 e8 ab bc f4 8f dd 3c 28 0c 89 3c 79 fe ac 3d
       -0.020984689 0.027046181 0.01672943 0.08446974

res_blocks.2.batch_norm.running_mean f4 [32]
000000 2f db 6e be 87 96 9b bf 12 46 ff be e9 a1 66 bf
       -0.233258 -1.2155312 -0.49858147 -0.90090805
000010 89 9b 9d be c7 31 af bf 35 ab 94 bf d6 59 95 bd
       -0.30782726 -1.3687066 -1.1614748 -0.072925255
000020 61 3d 8b 3f b7 a9 98 3f 18 35 5c bf 81 7d 11 c0
       1.0878106 1.1926793 -0.86018515 -2.2732852
000030 91 8c b4 bf cb 3f 1c 3e 35 a0 a9 3e 80 6e d4 3f
       -1.4105397 0.1525871 0.3313004 1.6596222
000040 c6 89 52 3f 54 0d f8 3f 03 34 b3 3e 5a 9a 02 c0
       0.82241476 1.9379067 0.3500062 -2.0406709
000050 c0 41 e8 bf da 42 b6 3f ee 97 7d 3f e3 39 1b bf
       -1.8145065 1.4239151 0.9905995 -0.60635203
000060 3a cd a6 3f 87 81 9d bf a0 c1 59 3e c0 cf 5c c0
       1.303138 -1.2305154 0.21265268 -3.45018
000070 f5 c8 ae 40 86 e8 54 bf d1 d4 b5 3f a4 4a 55 3f
       5.462031 -0.831673 1.4205571 0.8331702

res_blocks.2.batch_norm.running_var f4 [32]
000000 c4 97 00 41 68 e5 37 41 64 e4 51 41 96 ad 37 41
       8.037052 11.493507 13.118259 11.479879
000010 d3 21 23 41 f1 e5 17 41 19 bc 22 41 69 ce b9 40
       10.195758 9.493638 10.170922 5.8064466
000020 28 41 49 41 5b 40 03 41 d6 a7 1c 41 02 5b 3d 41
       12.578407 8.203212 9.790976 11.834719
000030 2b 81 ad 41 34 92 dc 40 3f e6 76 41 4f d3 42 41
       21.68807 6.892847 15.431212 12.176589
000040 91 4d 5e 41 30 7f 11 41 05 b1 10 41 78 d8 6b 41
       13.893937 9.093552 9.043218 14.740349
000050 22 85 33 41 d7 d8 11 41 55 e9 4b 41 ce e1 d5 40
       11.220003 9.115439 12.744466 6.683814
000060 5d 50 13 41 31 73 2f 41 0a a5 22 41 7a bb e2 41
       9.20712 10.965623 10.165293 28.341541
000070 bc 56 13 42 44 ff b3 40 19 7e 35 41 13 dd 01 41
       36.8347 5.6249104 11.343286 8.116473

res_blocks.3.conv.weight f4 [32, 32, 3, 3]
000000 bb f5 a8 3d 6a db dc 3d 2a 8e 50 bd b2 a7 36 3e
       0.08249994 0.107840374 -0.05091683 0.17837408
000010 a5 51 e1 bd 9b 09 a8 3a a7 9b 7d bd 44 bf e2 bb
       -0.110019006 0.0012820245 -0.06191602 -0.0069197733
000020 93 4d 2e 3d 12 9e 20 bb 5c 54 a5 bc 43 61 3a 3d
       0.04255445 -0.002450828 -0.020181827 0.045502912
000030 d1 0d 4c bd f2 bd e1 3d a8 df 25 3d 84 50 80 bc
       -0.049817864 0.11022557 0.0404965 -0.015663393
000040 54 a6 a1 bd 16 65 a7 3d 0f 34 83 3c bd 0f e3 bd
       -0.07893053 0.081735775 0.016016034 -0.11086986
000050 db a9 0a be 54 e3 30 be 9f b7 78 be c7 09 07 3d
       -0.13541357 -0.17274219 -0.24288796 0.03296831
000060 79 17 0c be 86 10 e6 bd 81 b8 af bb e6 65 04 3d
       -0.13680829 -0.1123362 -0.0053625708 0.03232374
000070 08 0d ce 3d eb 71 d4 bd 20 9a 83 bd 5c 0c 6b bd
       0.10061079 -0.10373291 -0.064258814 -0.057384834
000080 fd 51 b1 bb 68 d3 59 3d 31 ae 60 be 6b 86 64 bd
       -0.005411385 0.05318013 -0.21941449 -0.055792253
000090 04 20 21 bc 80 0c 47 3d 68 d3 33 bd 8d a0 b2 3d
       -0.009834293 0.048595905 -0.043902785 0.08722029
0000a0 8e c9 85 bd e4 4f 22 3c e8 d4 95 bd d6 88 dc bd
       -0.06532584 0.009906743 -0.07315999 -0.10768287
0000b0 52 94 19 bd 5b 4e b8 bd 84 c7 df 3c 87 ac 5b bd
       -0.037494965 -0.0899932 0.027316816 -0.05363133
0000c0 05 24 c9 bd d0 90 d5 bd 42 ec 5f 3d 49 7f 5c bd
       -0.09821323 -0.104280114 0.054668672 -0.053832326
0000d0 db c9 dd bd 1a 9b 11 3e 47 7d 9e 3a c7 f7 94 3c
       -0.108295165 0.14219323 0.0012091779 0.018184556
0000e0 97 d6 f4 bb 8a 8f 80 bd 6b 1d 46 bd 76 11 83 3d
       -0.00747187 -0.06277378 -0.0483679 0.06399815
0000f0 4e 56 97 bd 48 90 fe bc e5 00 aa bd cf 40 ea bc
       -0.07389508 -0.031074658 -0.08300952 -0.028595356
000100 d1 83 71 bc 1b 9d 3d bc 1d 3e 17 be 8b c0 3e bd
       -0.0147409 -0.011573101 -0.14769788 -0.046570342
000110 02 fb 52 3d fc da 49 3d 7e be 78 3d c2 50 71 3d
       0.05150891 0.049281105 0.060728543 0.058914907
000120 18 91 44 ba 9b 03 50 3d 08 ff 5b 3d 0a 26 05 be
       -0.00074984273 0.05078469 0.053710014 -0.13002792
000130 88 eb 8e bd 17 0b 4a 3d 33 fe 8f bd 98 52 e3 ba
       -0.06978518 0.049326982 -0.070309065 -0.001734334
000140 6c 66 50 3d 5b 20 f7 3d 0d 18 54 3d 19 bc 73 3c
       0.050878927 0.12066718 0.05178075 0.014876389
000150 60 c6 6e bd d5 73 b2 bc 42 6e a4 3d d5 1d 1d bd
       -0.058294654 -0.021783749 0.080288425 -0.03835853
000160 3e da ae bd 46 e1 3a bb a1 eb 9f bd ea 15 81 3d
       -0.0853772 -0.002851562 -0.078086145 0.06303008
000170 9e 3f de bd c4 11 43 bd 5b 3a 94 3a 69 4e 1d 3d
       -0.10851978 -0.047624364 0.0011308895 0.038404856
000180 4d 8c 0c 3e fa f2 e7 bc 30 f3 0e be 7e 73 31 bd
       0.13725396 -0.028314102 -0.13959956 -0.043323033
000190 d5 4f 8b 3d a3 c8 f0 bc 5a d2 26 3e 1a 84 96 3c
       0.06802336 -0.029392546 0.1629118 0.018373538
0001a0 1a dc ed bd 99 07 fa bd c4 f2 82 3d fa 8a ee bc
       -0.11614247 -0.122084804 0.0639396 -0.029119004
0001b0 cf cc e8 3d 3a d0 05 3d d6 af c5 bd ce 53 6d 3c
       0.11367189 0.032669283 -0.09652679 0.014485313
0001c0 c5 a4 bb bd 9c 80 68 bd ed cf be bd 57 3f 92 3d
       -0.09162287 -0.056763276 -0.093170024 0.07140987
0001d0 61 cf 74 bd 9e 82 28 3e 37 ff c2 3d ce ed a6 3c
       -0.059768084 0.16456077 0.095213346 0.020377066
0001e0 19 33 d8 bd 36 13 10 3d 7a 27 bb 3d 65 04 b5 3d
       -0.10556621 0.03517457 0.09138389 0.08838729
0001f0 9d 8f b3 bd 83 36 92 3d 9c 79 c8 3d fb ff 62 3d
       -0.087676264 0.071393035 0.0978882 0.055419903
000200 6d af ac 3d 07 9a ad 3c 7e fd 64 3c cb 95 5c bd
       0.08431897 0.02119161 0.013976453 -0.05385379
000210 ec 70 bd 3d d5 82 a7 3d 2a bf ae bd 46 d5 48 bd
       0.09250054 0.08179251 -0.085325554 -0.04903152
000220 2d 88 d1 3c 7a f7 1b bd 3e 42 ed 3d 95 e4 01 bd
       0.025577629 -0.03807781 0.115849 -0.031712133
000230 78 a7 23 3d 80 1e 37 3c 5c 4d cb bb b3 12 43 3d
       0.039954633 0.011176705 -0.0062042903 0.047625255
000240 8c 9b 7b 3d 49 9d ef bc a9 7d e7 3d 43 56 ab 3d
       0.061427638 -0.029249804 0.11303265 0.083660625
000250 00 c8 b1 3c 5e 6a f8 3c c2 10 a7 3c 00 11 39 bd
       0.021701813 0.030324157 0.020393733 -0.045182228
000260 32 1d 2d bd 55 03 54 be ee de 7c bd 59 7b 19 38
       -0.04226417 -0.20704396 -0.06173604 3.659292e-05
000270 33 fa d1 bc 13 bf a1 bb 9b 28 6e 3d 2e 0c 24 bd
       -0.025632 -0.004936108 0.058144193 -0.040050678
000280 a2 e6 13 3e cd 31 3d bc af c6 ae bc 25 66 55 3d
       0.14443448 -0.011547518 -0.021334974 0.052099366
000290 93 07 d3 bc 26 25 7d 3d cb ff ac 3d a9 93 24 3e
       -0.025760448 0.061803006 0.08447226 0.16071953
0002a0 0d 52 fe 3c fb 4b df 3c a1 8e 0a bd 99 ab d5 3c
       0.031044984 0.02725791 -0.033827428 0.0260828
0002b0 6f 29 12 3d 25 af ec bd 26 3f 73 3d f0 81 37 3d
       0.035684045 -0.11556844 0.059386395 0.044801652
0002c0 34 f2 02 bd 87 f7 4c bd a6 5e bb bc 8b b5 20 bc
       -0.031969264 -0.050040748 -0.02287228 -0.009808908
0002d0 0f b6 b7 bc 1e 6b c8 bd 60 83 d0 bd d0 8b f8 bd
       -0.02242568 -0.09786056 -0.10181308 -0.12136042
0002e0 c1 0a 34 ba ca ef 0f be 94 34 3a bd b2 4f 53 bd
       -0.00068680575 -0.14056316 -0.0454603 -0.051589675
0002f0 fa 8e aa bd 55 0a 8f 3b 5c c9 0f 3d 84 8f 37 bd
       -0.08328052 0.0043652453 0.03510414 -0.0448146
000300 ab ad fe bc 68 98 0a bd 28 ba 14 bd de ec 8e 3d
       -0.03108867 -0.033836752 -0.036310345 0.069787726
000310 8e 48 e4 3d e4 51 91 bd 2f f3 03 ba 7c 84 1a 3d
       0.11146651 -0.070956975 -0.00050334906 0.037724003
000320 fa 93 7d bd 19 1d 65 3d cc ab c3 bd 7d 1b ce 3d
       -0.0619087 0.055935953 -0.09554252 0.10063837
000330 0a 43 ba 3d 4e ec 50 bc 90 df fe bd 4a af a0 bc
       0.09094818 -0.012751652 -0.12444985 -0.019614834
000340 80 07 e4 bb 12 85 0f 3d 93 46 0d be f2 08 f6 3c
       -0.006958902 0.035039015 -0.13796453 0.030033562
000350 1d b7 20 3d 34 4a 2c 3e 6e 08 24 3e e2 40 40 3c
       0.03923713 0.16825181 0.1601884 0.011734219
000360 8e d4 1c 3e 13 6a 1a 3d f7 d1 79 bd f5 0c 98 bd
       0.15315458 0.037698817 -0.060991254 -0.07424346
000370 0e 96 2b 3e ad ea d9 3d a3 42 46 3e 16 d0 08 be
       0.1675646 0.10640464 0.19361357 -0.13360628
000380 9b 00 d2 bd 4e 65 8b 3c f0 81 f7 3b c3 1c 29 bd
       -0.10254022 0.01701608 0.0075533316 -0.041287195
000390 7a cc ce 3c ee 01 c3 bd c7 e0 41 bd c7 e0 a4 bd
       0.025243986 -0.095218524 -0.047333505 -0.080506854
0003a0 77 51 22 bd 8b 00 5d 3d 4c 42 35 ba 57 42 40 3d
       -0.039628472 0.053955596 -0.0006914481 0.046938267
0003b0 98 cb 14 bc e6 17 fd 3d 48 84 f8 bb 6c d1 d6 bc
       -0.009081744 0.12358074 -0.0075841285 -0.026222907
0003c0 86 c9 9c 3e e8 80 66 3d 03 94 9f 3d f2 f0 04 be
       0.306225 0.05627528 0.07791903 -0.12982538
0003d0 c7 87 80 3d 55 ec 12 3e 14 2e 18 3d 86 8b 7b bc
       0.062758975 0.14347966 0.03715332 -0.015353089
0003e0 42 59 a5 bd d4 00 77 3e fd f1 68 bd 54 ae 8f 3d
       -0.08073665 0.2412141 -0.056871403 0.07015672
0003f0 f1 cb d8 bc 42 9d 76 3d f8 4b 2e be 30 a4 4c be
       -0.026464434 0.060208566 -0.17021167 -0.19984508

res_blocks.3.batch_norm.weight f4 [32]
000000 c9 1e 1e 3f 08 68 18 3f 11 15 25 3f d7 42 0f 3f
       0.61765724 0.5953374 0.6448527 0.55961365
000010 dc e7 0e 3f 4f ec 28 3f 71 3c 1d 3f ae 6b 35 3f
       0.5582254 0.6598558 0.6142035 0.7086743
000020 2c 2d 1e 3f b3 f2 31 3f 2b c0 25 3f 3e 0d 0b 3f
       0.61787677 0.69510955 0.6474635 0.5431708
000030 6d 32 11 3f 47 ba 34 3f c7 e4 32 3f 64 73 33 3f
       0.5671757 0.70596737 0.69880337 0.7009795
000040 db 17 2b 3f 06 50 1c 3f af e9 35 3f 42 7d 1e 3f
       0.66833276 0.61059606 0.710597 0.6190988
000050 10 de 11 3f ea a8 17 3f 06 d2 36 3f c3 4b 31 3f
       0.56979465 0.5924212 0.7141422 0.6925623
000060 7d 4a 31 3f 0d 88 26 3f 84 11 32 3f 30 d2 ff 3e
       0.69254285 0.65051347 0.69557977 0.49965048
000070 d7 26 06 3f bf bf 38 3f 21 23 32 3f 94 de 22 3f
       0.52403015 0.7216758 0.6958485 0.6362088

res_blocks.3.batch_norm.bias f4 [32]
000000 d7 05 41 bd f9 b6 9e 3b ee 7d f0 3c 56 4f 61 3a
       -0.04712471 0.0048435894 0.029356923 0.0008594891
000010 f6 e2 82 3c 4c b2 c7 bc bb 72 ac bc 8a 0e 19 3d
       0.015977364 -0.02437701 -0.021050802 0.03736738
000020 b1 4e bc 3c 4f 4f 08 3d 97 44 0a 3c 27 10 65 bc
       0.022986742 0.03327876 0.008439205 -0.013980902
000030 8b f5 e2 38 52 b0 67 3d e0 85 f9 3b e7 53 da 3c
       0.00010822256 0.056564637 0.007614836 0.026651336
000040 10 94 32 3d fa e5 48 3c 3b 79 92 3d 6e 0c 81 3c
       0.043598235 0.012261862 0.07152029 0.015752997
000050 ab fd be 3b 8e 19 10 3c 4a c5 6e 3d 34 bc 18 3d
       0.0058285794 0.008795155 0.05829362 0.03728886
000060 34 89 56 3b 98 e7 a7 3b 40 58 9b 3c b0 65 43 bd
       0.0032735588 0.0051240437 0.01896298 -0.0477044
000070 15 e8 ab bc f4 8f dd 3c 28 0c 89 3c 79 fe ac 3d
       -0.020984689 0.027046181 0.01672943 0.08446974

res_blocks.3.batch_norm.running_mean f4 [32]
000000 2f db 6e be 87 96 9b bf 12 46 ff be e9 a1 66 bf
       -0.233258 -1.2155312 -0.49858147 -0.90090805
000010 89 9b 9d be c7 31 af bf 35 ab 94 bf d6 59 95 bd
       -0.30782726 -1.3687066 -1.1614748 -0.072925255
000020 61 3d 8b 3f b7 a9 98 3f 18 35 5c bf 81 7d 11 c0
       1.0878106 1.1926793 -0.86018515 -2.2732852
000030 91 8c b4 bf cb 3f 1c 3e 35 a0 a9 3e 80 6e d4 3f
       -1.4105397 0.1525871 0.3313004 1.6596222
000040 c6 89 52 3f 54 0d f8 3f 03 34 b3 3e 5a 9a 02 c0
       0.82241476 1.9379067 0.3500062 -2.0406709
000050 c0 41 e8 bf da 42 b6 3f ee 97 7d 3f e3 39 1b bf
       -1.8145065 1.4239151 0.9905995 -0.60635203
000060 3a cd a6 3f 87 81 9d bf a0 c1 59 3e c0 cf 5c c0
       1.303138 -1.2305154 0.21265268 -3.45018
000070 f5 c8 ae 40 86 e8 54 bf d1 d4 b5 3f a4 4a 55 3f
       5.462031 -0.831673 1.4205571 0.8331702

res_blocks.3.batch_norm.running_var f4 [32]
000000 c4 97 00 41 68 e5 37 41 64 e4 51 41 96 ad 37 41
       8.037052 11.493507 13.118259 11.479879
000010 d3 21 23 41 f1 e5 17 41 19 bc 22 41 69 ce b9 40
       10.195758 9.493638 10.170922 5.8064466
000020 28 41 49 41 5b 40 03 41 d6 a7 1c 41 02 5b 3d 41
       12.578407 8.203212 9.790976 11.834719
000030 2b 81 ad 41 34 92 dc 40 3f e6 76 41 4f d3 42 41
       21.68807 6.892847 15.431212 12.176589
000040 91 4d 5e 41 30 7f 11 41 05 b1 10 41 78 d8 6b 41
       13.893937 9.093552 9.043218 14.740349
000050 22 85 33 41 d7 d8 11 41 55 e9 4b 41 ce e1 d5 40
       11.220003 9.115439 12.744466 6.683814
000060 5d 50 13 41 31 73 2f 41 0a a5 22 41 7a bb e2 41
       9.20712 10.965623 10.165293 28.341541
000070 bc 56 13 42 44 ff b3 40 19 7e 35 41 13 dd 01 41
       36.8347 5.6249104 11.343286 8.116473
