my_pt/160_model.pt (torch, 403540 bytes, 10 tensors)

conv1.weight f4 [64, 1, 5, 5]
00000000: b215 57be ecbd 72be c042 5abe b335 54be
00000010: 6ee2 afbb 14e8 41bc c977 97bd e19a babb
00000020: d581 6c3e 971f 523e a5cc 1c3e ae4b 033e
00000030: c233 9c3d 5e20 083e aeaa 35be 91b9 1fbe
00000040: 3546 b93c b2f7 e73c 809c f7bd 556c 48be
00000050: 0e8e 7e3d 8291 ad3d a02c 39be 56b5 19be
00000060: b3ec 1ebe ca26 273e b3c5 65bd 3cf3 2f3e
00000070: 53da 303e fdfd 493d 93a6 773d 82dc a93c
00000080: ef7f 393d dfdd 483c ed39 3ebe 0478 bfbd
00000090: e709 1ebd 0738 053e cec3 a63d da35 023e
000000a0: 170c 0a3e 2a3a e6bd 58fb 173e 3e0c 533e
000000b0: d9ae 6c3e e905 5ebd 7cf0 59be 356a 263e
000000c0: ac3e 97bd 357b 113e 99cb c93c f8ad e13d
000000d0: 9155 56be ffef b7bd d615 333e 7898 0b3e
000000e0: b737 eabd 467e c0bd 1523 fdbd 8bfd 1c3e
000000f0: d184 953c bc27 813d c162 343d 4660 983d
00000100: 5377 80be 271c 6d3e b531 503c 39ef 483e
00000110: 6a31 35bd 6295 78bd 0147 ee3d 91ee c33b
00000120: 55be 2a3e a55d 5f3e 9a8e d13d f496 53be
00000130: 2571 653d 8f0a 453d 68c8 2ebe 1f6f b63c
00000140: da46 fd3d 541c d73d 8c13 2d3e 4f87 49be
00000150: 0dd0 523e 1345 093d bed5 193e b473 ccbc
00000160: c604 c23d 2e35 a8bd 1417 56be 524e 563d
00000170: 160a bd3d 7b11 883d 1571 663e 3e27 4dbd
00000180: e4c3 153e 81a6 1e3e 27b8 473e 3106 d43c
00000190: 6dd8 28be 72af 5b3e a340 613e d027 85bd
000001a0: 65a1 b9bd 9344 d6bd 88da 80bc db33 1dbd
000001b0: 23b3 90bc 0d03 053e 4e44 febc edad 62bc
000001c0: 43bc e43d 5426 76bd a295 4e3e af30 ebbd
000001d0: db86 1fbe 5058 f1bd dc21 0abe 7b99 d93c
000001e0: e7ea 08be 1092 33be 85fe 27be 4f52 873d
000001f0: 0d83 733e 21db c8bd dd87 3ebe cd78 223e
00000200: 7aaf 863d 3ad4 f8bd ad83 c9bd a892 0d3e
00000210: 2dc0 a5bd a812 293d 9cc6 89be c78f 783e
00000220: fba0 98bd e20c 8f3d 1a01 0c3e 171f 39be
00000230: 43df 0ebd bec5 10bc 7e98 2ebd d6f9 093e
00000240: 8454 adbd 2ddf 9cbd 6f83 55be d4f7 40be
00000250: 9dad 7fbc e838 3d3e 89d6 8a3d c4d1 b23d
00000260: 5f1b 92be 51ff f33d 3415 02bd dae1 7dbd
00000270: 3b6f a4bd 9038 84be cd2d d4bd ddbb 4ebc
00000280: 8ff8 c3bd 43dd b23d 3443 66bd b6d7 4d3e
00000290: 67f3 043e d94f 853d 4f6a 553e 0cbd 0e3e
000002a0: c1b6 853d bfb1 733e 82a0 f73c 4d7e 44be
000002b0: b07a 28be eddd 2fbe 6386 033e 324b b9bd
000002c0: 3be4 c03d f00c 45be a249 56be f9fc 3abe
000002d0: 9669 ea3d bc42 16be e6d7 203d 0d2e 483d
000002e0: da45 16be 5e63 5b3d 4fcb c0bd 4be5 af3d
000002f0: 2da9 7f3e 624c e5bd e9cb 273e d48c f43d
00000300: 95f2 103e da55 5d3e 2ef4 b43c 8140 053d
00000310: c72f 5a3d e4de 053e 8636 473e 777a 84be
00000320: e18d 113e 4234 1a3d d8f0 4f3e 5b99 8fbe
00000330: 378b 6abe 3361 26bd bc61 a1bc 1fa9 903b
00000340: cf4a d33c 33d6 1ebe 0554 b83c 6008 0d3d
00000350: cb7e a8bd 9fed 383e 9280 223e d8de 413e
00000360: cb78 0c3e cb79 7ebd c493 283e 4652 d13d
00000370: c363 063e cfe1 28bd 74a4 0fbe 4af4 01be
00000380: a9b8 39be c04d 49be 2c3a 0abe 5052 8f3c
00000390: fb8f 793e 2303 26bd 79c3 373e eba0 4fbc
000003a0: 684b 8e3e 749c 7abd b7d8 58bd 3a5b 0cbd
000003b0: 1280 59be 0bd4 60be 8cee fb3c 0e15 0dbe
000003c0: 8762 68be 87a6 c7bc 9f3c 22be 0698 50bd
000003d0: 1744 94bd 8d43 463e 9d82 973e 58c3 debc
000003e0: defb ed3d 2dce 02be 5c2f 1ebe fe96 08be
000003f0: d675 573e 4bcb 633d e892 13be f18a 8e3d
-0.2100437 -0.23705262 -0.21314526 -0.2072361 -0.0053675687 -0.011835117 -0.07395894 -0.0056947325
0.23096402 0.20519863 0.1531244 0.12821838 0.076270595 0.13293597 -0.1774089 -0.15598132
0.022616485 0.028316353 -0.12090397 -0.19572575 0.062147193 0.08475019 -0.1808343 -0.1501058
-0.15519981 0.1632339 -0.056096744 0.1718263 0.17270784 0.049314488 0.060461592 0.02073503
0.045288023 0.012259929 -0.18576784 -0.09349063 -0.038583662 0.13009654 0.081428155 0.12715855
0.13481174 -0.11241563 0.14841974 0.20610139 0.23113574 -0.054204855 -0.21283144 0.16251452
-0.073850006 0.14207156 0.024633216 0.1101951 -0.20931078 -0.089813225 0.17488798 0.13632381
-0.11436408 -0.09399085 -0.12360207 0.15331094 0.018251808 0.06306407 0.04403949 0.07440238
-0.25091037 0.2315527 0.012707164 0.19622506 -0.044236578 -0.060689338 0.11634637 0.005979367
0.16674168 0.21813066 0.10232277 -0.20663053 0.056016106 0.048105773 -0.17068636 0.022269784
0.123670295 0.1050345 0.16901988 -0.19680522 0.20587178 0.03351314 0.15022942 -0.024957515
0.09473567 -0.08213268 -0.20907241 0.052320786 0.09230439 0.06643959 0.22504075 -0.050086252
0.14625508 0.15493204 0.19503842 0.025881859 -0.1648881 0.21453646 0.21997313 -0.06501734
-0.09063987 -0.10462298 -0.015729204 -0.03837953 -0.017663544 0.12989445 -0.03103843 -0.013835412
0.111687206 -0.060095146 0.20174268 -0.11483895 -0.15578787 -0.117844224 -0.13489479 0.026562443
-0.13370858 -0.17536187 -0.16405685 0.06607496 0.2378046 -0.098074205 -0.18606515 0.15866394
0.06576438 -0.12149854 -0.09839568 0.13825476 -0.08093295 0.041277558 -0.2690934 0.24273597
-0.074525796 0.06984879 0.13672295 -0.18078266 -0.034880888 -0.008836208 -0.042625897 0.13474211
-0.08463386 -0.07659755 -0.20850919 -0.18844539 -0.0156053575 0.1847874 0.067792006 0.08731416
-0.28536507 0.11913932 -0.031758502 -0.061982967 -0.08029028 -0.25824404 -0.10360298 -0.012618032
-0.09568893 0.087336086 -0.056216434 0.20101818 0.12983476 0.0650937 0.20841335 0.13939303
0.06528998 0.23798274 0.030227903 -0.19188805 -0.16453052 -0.17174502 0.12844233 -0.090475455
0.094185315 -0.19243217 -0.20926526 -0.18260564 0.1144592 -0.14673895 0.039268397 0.048872042
-0.14675084 0.05356156 -0.09413778 0.08588656 0.24966879 -0.111962095 0.1638638 0.11940923
0.14155038 0.21614781 0.02208909 0.03253222 0.05326822 0.13073307 0.19454393 -0.25874683
0.14214279 0.037647493 0.20306718 -0.28046688 -0.22904669 -0.04062004 -0.019699924 0.004414692
0.025792507 -0.15511398 0.022501001 0.034431815 -0.08227309 0.18059395 0.15869358 0.18932664
0.13717954 -0.06212787 0.16462618 0.102207705 0.13123994 -0.041230973 -0.14027578 -0.12690845
-0.18136849 -0.19658566 -0.13498753 0.017495304 0.2437133 -0.040530335 0.1794566 -0.012672643
0.27791905 -0.06118436 -0.05294105 -0.034266688 -0.21240261 -0.21955888 0.030753396 -0.13777563
-0.22693835 -0.024371399 -0.15843438 -0.05092623 -0.072395496 0.19361706 0.29591838 -0.027192757
0.116203055 -0.12773962 -0.15447754 -0.13338849 0.21041045 0.055613797 -0.14411509 0.06960095

conv1.bias f4 [64]
00000000: 6a5b a5bd ad55 113d f81e 8abd 3784 21bd
00000010: ed25 1dbd 4fc6 213e 0c5e 66be 6d82 393e
00000020: 6c40 8a3d bbb3 49bd b511 44be 25ee 2abe
00000030: 5438 fbbc ef92 58be 993f 0c3d ac23 5dbe
00000040: 7ee8 913d b2da fd3d 0461 ce3d 66a1 d9bd
00000050: 550b e8bd bac7 a93d 29cf 2dbd 41f2 b33c
00000060: a649 b53d 8447 b93d bc51 dbbd b80c ebbd
00000070: a640 a63d 1169 db3d 5b64 c53d a97c e93a
00000080: 2abd 383d c1b9 a73d b94c 64be cc2f b43c
00000090: 71ff 5bbe 275a 06be ceff 46be 2895 1e3e
000000a0: 0048 523e 56bb 063e 047a 86be 9127 a6bd
000000b0: b829 9bbe 70e9 c7bd 39c5 63be 71d5 2cbe
000000c0: 7127 153c 07f2 193e f1b9 7a3d efe1 aa3d
000000d0: 53bf bbbd cb52 373e aa35 853c 8e06 8cbe
000000e0: 0ccd 64be 2ab9 3a3d 7abb c0bd 9cc3 29be
000000f0: 0c36 403e 9edc 78bd 5821 363e a60f d9bb
-0.080740765 0.035482097 -0.06744188 -0.03943273 -0.038366247 0.15798305 -0.22496814 0.1811616
0.06750569 -0.04924367 -0.1914738 -0.16692407 -0.030666508 -0.211498 0.03424034 -0.21595639
0.071244225 0.123952284 0.10077098 -0.106264874 -0.113302864 0.08290048 -0.04243389 0.021966102
0.08851938 0.09046844 -0.10708949 -0.11477035 0.081177995 0.10713399 0.09638282 0.0017813641
0.045102276 0.081897266 -0.22294892 0.021995448 -0.21484162 -0.13120328 -0.19433519 0.15486586
0.20535278 0.131574 -0.26264966 -0.081130154 -0.30305266 -0.097613215 -0.22243203 -0.16878296
0.009103642 0.15033732 0.061212484 0.08343875 -0.091673516 0.17902677 0.01626094 -0.2734875
-0.22343844 0.045586742 -0.09410758 -0.16578525 0.18770617 -0.060757272 0.17786157 -0.00662418

conv2.weight f4 [32, 64, 3, 3]
00000000: 98cf 153c 18e3 0b3d 3781 ee3b 40f9 2cbd
00000010: bcba 6c3d d118 8b3c b3fb 4bbd f494 0dbd
00000020: fe5c 0c3b 04d6 07bd ce66 fe3b 6f40 0fbd
00000030: aa9e 9b3a bd20 513d 7d91 ad3c 6e07 853c
00000040: cea1 f7bc 9042 fb3b 79e7 7cbc 7ef4 03bd
00000050: 124d 473c b4ee 7cbc 7eab 08bd 0aa0 a13d
00000060: 2892 7d3c 6437 173c 5cb5 983d 8761 85bd
00000070: fa2d 0e3d cb79 16bd 2adf 7a3c 01a2 243d
00000080: 9360 253d 4dab d53c 1f83 073d 5446 00b9
00000090: 9543 3e3d f4ca c33c 01d7 563d 94a3 f8bb
000000a0: 1e08 2cbc 5b7b 4d3c 670b d4bb 0353 f4bc
000000b0: e53c 5bbd db08 aabb b2dd f9b9 9115 88bc
000000c0: c32d 013c 4b2f 3dbd 567c 79bc c41a 873c
000000d0: c128 bebc 9ab6 c6bc fee1 213d 580c 3cbd
000000e0: 2eb4 f4bc e945 413d 6e2a 33bd d37c 683d
000000f0: c969 c939 2e83 30bc eeb7 8d3d bd57 01bc
00000100: 7a37 c33c 7dee 06bd f1ac f2bb ff6d 4e3b
00000110: 1469 863a accf cc3c f8bd 483b ed5c 283d
00000120: 0708 80bc ceb5 4bbd 363c da3c aef8 83bd
00000130: 1f61 27bc bef7 7dba cd62 c7bd a5a8 abbd
00000140: 21b9 75bd 3f2a d9bc 4ab6 e6bb 09d4 8fbd
00000150: 460a 823d 3cc1 783c 9240 bfb9 fa16 2cbd
00000160: 64b0 c33c 119c 3bbd 2a2b b33c 34d8 793d
00000170: 9371 103d 6b3f b4bc 19d6 9739 edc3 8bbc
00000180: 76a7 63bd e117 9b3c 0cc8 00bd a496 d3bc
00000190: 8b0a 973c 8fd3 07bd 8b64 19bd cddb 6cbd
000001a0: c002 aebd 72bb 023d 0723 bdbb c9e0 b1bd
000001b0: bb2b fd3c 777b 3b3c 0f64 533c c96e e7bb
000001c0: f73e 803c ad28 e53b 45a7 f8bc 52c7 5c3c
000001d0: a5c4 16bd 035a b13c f415 3dbd c748 2dbd
000001e0: 49b0 9f3c 2dae f7bc 318b 8ebb 6ced d83b
000001f0: ff50 78bc 1621 81bc a64c 9c3c a32e bfbc
00000200: a7e5 4e3d ee8a 85bc 697d 073d 904a b83c
00000210: bb2d 22bd 206c 9d3d 72db b63d 591b acbc
00000220: f53b 283d b87c 823c 7d53 b13c e674 003d
00000230: 7c2a 2e3d 0e1d afbc 52af f33c 793a 89bc
00000240: 23fe 22bd cfda 1d3d d9a4 89bb 10f9 27bc
00000250: 4cae e4bc 6c1c 7bbc 7596 0fbd 9a12 c03c
00000260: 34f5 fcbb 2b33 c83c 07bc 003c 5358 16bc
00000270: ef13 383d 303b e83c 8332 0b3b 0c6f bfbc
00000280: 1fa7 14bd 40e8 dc3b adaa 393c dd06 8abd
00000290: ff61 96bc 4138 62bc bdb7 e6bc 357d 44bc
000002a0: d48a 3c3d d32a 6fbd ae68 c53b 853f d13b
000002b0: 1c33 00bc 299e f6bc 94fa 97bc 3411 79bc
000002c0: 3130 523d 3b25 99bd dd67 31bd dc50 363d
000002d0: 0a24 2dbd 7b85 253d 38b5 443d 4864 c0bc
000002e0: 4954 0c3d cba4 e53b 1cef be3d f705 8d3c
000002f0: 40c6 023d dfc8 11bd f1dd 35bd a47b 503c
00000300: 9960 cb3b e73d d0bc eb14 fc3c 07a9 d03c
00000310: d4e2 15bb 661d 7dbd 2753 623c ac64 6d3d
00000320: b7cb 97bb 9970 42bd 65bc 2fbd 24e0 a8bd
00000330: afab 8fbc ff8c 12bd 9ee1 09bb 609b 70bd
00000340: 83c4 003d 532e b4bc 7a22 3e3c 0576 593c
00000350: bedc 84bd 1ae8 05bd 49da 17bd 68b7 14bd
00000360: 88e2 00bb 2c8f 993d 7c76 083c 9bf0 6f3d
00000370: 4a8d 163d 467e d0bb 2a47 123d b6f1 b8bc
00000380: dc8e 473b e1ad a13c 3085 81bd 02ef 5d3c
00000390: 6c34 64bd 8cd9 2f3c 36ec f33c 8fa2 17bd
000003a0: 7661 9d39 9fc1 983d f392 52bd 55cc 03bd
000003b0: 78b6 893d 5201 573c e46c afbd 926f 66bd
000003c0: 7a2c 1abd 9f83 00bd acf3 493d 54c5 3a3d
000003d0: 242d 9ebd d370 61bd 88da 1bbd c940 37bc
000003e0: 144c 43bd 3a29 5c3d 6a08 f3bc ad13 84bb
000003f0: 9ba9 36bd dc21 5dbd 9a84 053c 3585 d9bc
0.0091437325 0.03415212 0.007278587 -0.04222989 0.05779527 0.016979607 -0.049800586 -0.03456588
0.0021417732 -0.033163086 0.00776372 -0.034973558 0.0011872847 0.051056612 0.021187538 0.016238894
-0.030228522 0.007667847 -0.015436047 -0.032215588 0.012164371 -0.015437771 -0.033366673 0.07891853
0.015476741 0.009229515 0.074564666 -0.065127425 0.034711815 -0.036737245 0.0153119955 0.04019356
0.040375303 0.02608266 0.03308403 -0.0001223323 0.04645117 0.023900487 0.052451137 -0.0075878594
-0.010499982 0.012541617 -0.006471086 -0.02982474 -0.05352487 -0.005189044 -0.00047658157 -0.016611846
0.007884446 -0.04618768 -0.015227398 0.016492255 -0.023212792 -0.024256993 0.039522164 -0.04591021
-0.029871073 0.047185812 -0.043741636 0.056759667 0.00038416524 -0.010773463 0.069198474 -0.007894454
0.023830164 -0.032942284 -0.00740587 0.0031498668 0.0010254704 0.02500137 0.0030630808 0.041104246
-0.015628828 -0.04973393 0.026640039 -0.06443916 -0.010216027 -0.00096881005 -0.09735642 -0.08381776
-0.059991006 -0.026509402 -0.0070407735 -0.07022864 0.06349616 0.015182789 -0.00036478468 -0.0420141
0.02388782 -0.045803133 0.021871168 0.060997203 0.035264563 -0.022002896 0.0002896048 -0.017061198
-0.055579625 0.018932285 -0.03144078 -0.025828667 0.018437644 -0.033160742 -0.0374494 -0.057826806
-0.08496618 0.031917043 -0.005771998 -0.086854525 0.030904641 0.0114430105 0.012902274 -0.007062767
0.015655024 0.0069933743 -0.030353198 0.013475256 -0.03680863 0.021649366 -0.046163514 -0.042305734
0.019493239 -0.03023442 -0.004350089 0.0066201 -0.01515603 -0.015762847 0.019079518 -0.023337668
0.050511982 -0.016301598 0.033078585 0.022496492 -0.039594393 0.07686639 0.089285746 -0.021009134
0.041072804 0.015928611 0.021646256 0.031361483 0.042520985 -0.021376159 0.029746685 -0.016751515
-0.039793145 0.03853875 -0.0042005596 -0.010252252 -0.027915142 -0.0153266005 -0.035055596 0.02344637
-0.00771966 0.024438461 0.007857329 -0.009176332 0.044940885 0.028348535 0.0021239824 -0.023368381
-0.03629219 0.0067415535 0.011332196 -0.0673959 -0.018357275 -0.013807357 -0.028163785 -0.011992742
0.046030834 -0.05839045 0.0060244417 0.006385746 -0.007824685 -0.030104714 -0.018552102 -0.015201855
0.05131549 -0.07477804 -0.043311942 0.044510707 -0.042270698 0.0404105 0.048024386 -0.023485318
0.034260068 0.0070081702 0.0932295 0.017214758 0.031927347 -0.035591956 -0.044401113 0.012724791
0.0062065837 -0.025420142 0.030771693 0.025471224 -0.0022870796 -0.061795615 0.01381377 0.057957336
-0.004632439 -0.047470663 -0.042904276 -0.082458764 -0.01753792 -0.035778996 -0.002103902 -0.058741927
0.03143741 -0.021994745 0.0116049 0.013272767 -0.06487416 -0.032692052 -0.037073407 -0.036307722
-0.0019666273 0.07498011 0.00832903 0.05857907 0.036755838 -0.006362709 0.0357124 -0.022576194
0.003045014 0.019736232 -0.063242316 0.013545753 -0.055714056 0.01073302 0.02977572 -0.037020262
0.00030017988 0.07458805 -0.051409673 -0.032177288 0.06724256 0.013122873 -0.08565691 -0.056258745
-0.037640072 -0.031375524 0.04930465 0.045598343 -0.07723454 -0.05503924 -0.038050205 -0.01118488
-0.047679976 0.053750254 -0.029667098 -0.004030666 -0.044595342 -0.05398737 0.00814929 -0.026552776

conv2.bias f4 [32]
00000000: 27c4 3dbc 402d 7abd df0f 9ebd 3a9d 33bb
00000010: 318e 9cbd 61ad 13bd 62c7 72bd c638 80bd
00000020: 2328 99bd 7cdc bcbd eb8b 4ebc 3616 26bd
00000030: 8ef4 b2bd cd54 123d f8f3 ddbc 6b95 c4bd
00000040: b8d7 d6b9 f651 afbd ee8c 3b3c 16c3 acbc
00000050: de72 eabc a1e8 d0bc 0a1b a9bd 894e 34bd
00000060: 4c36 66bc 50b9 97bd aac6 cdbd bafe e1bd
00000070: 551a 88bd 026c d9bd 20c1 60bd 2b0a d5bd
-0.011582411 -0.06107831 -0.07717871 -0.0027406947 -0.07644308 -0.03605402 -0.059272178 -0.06260829
-0.074783586 -0.092217416 -0.012606601 -0.040548526 -0.08738051 0.035725404 -0.027093872 -0.09598812
-0.00040977984 -0.08560555 0.0114471745 -0.021089118 -0.028619226 -0.025501551 -0.082571104 -0.04402021
-0.014051031 -0.074083924 -0.10047658 -0.11034913 -0.066456474 -0.10616304 -0.05487168 -0.1040233

conv3.weight f4 [16, 32, 3, 3]
00000000: f2ca 80bd fade b3bb 5823 88bd 7d4a d9bc
00000010: b18b 913d 9988 363d 4319 a33d d157 053d
00000020: 356e a3bd 659c 93bc 81b5 cbbc d342 8dbc
00000030: f08b 553c 0169 35bd 6762 87bd 5f82 08bd
00000040: 018c 75ba a8a6 4bbc 6ca6 7dbb 0d3a ca3c
00000050: cd68 c7bd ad34 a53d e7ab 5a3e 5c75 123e
00000060: 567b 2a3e d8da a0bc 8dad d33c 58f1 3d3d
00000070: 1bf4 21bd 40a4 033e 5ba3 bd3d 3030 9fbc
00000080: c4e1 78bc 7839 003e 9c1c e53c 2d37 c13d
00000090: 0e2b 283c a33b b4bd 5373 7cbc 149c 39be
000000a0: 750c e3bc bb95 99bd 16e7 b1bc c72d 023d
000000b0: 0969 2dbe 1326 e3bc f84a 82bd cbee c2bd
000000c0: fdaa 583d 6bf6 2cbd e118 063e f961 893b
000000d0: f80a 0dbe 0b62 973d 6d67 abbd 80c2 0bbe
000000e0: 72d8 05bd 1a0a 03be bbeb 11bd 742c 353e
000000f0: c306 adbd f300 debc 5ff1 ecbd f53a 863b
00000100: 1017 1ebe f130 a7bd 4d3b 0dbe 1388 29be
00000110: d987 3d38 2d70 83bd 71c9 3bbe 7231 50be
00000120: c34a 503c 6775 babd 4991 c53c 2e49 76bd
00000130: fa3e 53bd 7669 7a3d a538 9e3d 7041 983c
00000140: 7c45 3f3d 553d b8bd c608 a9bd 1b1d 2e3b
00000150: 2040 6ebd 1ce0 2d3d 3ba0 f73d 6071 a63c
00000160: e6b7 aa3c 83e2 783d 32c6 acbd f5b4 0bbe
00000170: 9526 b33d 3c0b 21bd e52d bfbc 2f69 8b3d
00000180: 7972 1ebc eed8 5ebd 005d 0a3e 1ef3 0f3d
00000190: b049 1a3c 7504 893c fbdd c83d b219 e83d
000001a0: 9b97 583c eb95 fc3b 4d93 423d 6350 0d3d
000001b0: a588 703d 71d8 953d 2128 033d b7a5 d8bd
000001c0: 5d42 c4bc bff5 02bd bef5 8ebb c20d a93c
000001d0: 360f ad3d 8991 54bd 9c54 f5bb e104 d73d
000001e0: cbff 9fbd ef46 c7bc e127 3e3d 6432 e9bc
000001f0: 9846 babd 61ce fdbd a4c9 15ba 1c5c 18be
00000200: bdb4 85bd 4251 b3bd 702d 943d 0b6d 763e
00000210: 5df7 f2bd d0c0 a33d e7cb 0e3e 997a 33bc
00000220: 0bca 793c c9f4 d9bd b83e 263d 3b4c 59bd
00000230: a81a 7cbc ebfc f23c 960f edbd b98b 0abe
00000240: 0b95 48bd fdf5 11be 95fe 82bd cd64 fabc
00000250: d052 1c3a 4b83 2d3e f1d0 90bc 5ef5 c33c
00000260: 82d7 193d 064c 7e3d ab6f 8ebd 4195 0d3e
00000270: 05dd 04be a899 b9bd a734 ae3c a634 f5bd
00000280: 55e1 523b e164 3e3c 456a 01bc abe4 9b3c
00000290: 904d e43c adec 8d3b 1b80 a8bd 1505 133e
000002a0: 333d ab3d c4e0 71bd c41d 1a3d 8440 bc39
000002b0: fe66 1cbb 741d 04be 460a 9ebd 8490 a3bd
000002c0: 08f7 ac3c 6491 20be 60f2 45bd a958 8fbd
000002d0: 038e cebd dc22 e239 850a abbd 10b9 d8bd
000002e0: dc57 54bd bce7 283d aaaa eb3d 3eda d63c
000002f0: b417 4e3e c35c 8dbc d31c 65bc 9a1d c93a
00000300: c096 a3bd 9ef6 95bd 9faf 503d 085a 6bbd
00000310: 993f ca3c 79eb fb3d 5587 8abd 1a59 1a3e
00000320: 62d1 e03d f17c dc3c edfc f03d 3182 2fbd
00000330: b70c 2e3d 6e00 9e3d 4882 6ebb 7d2d 86bd
00000340: c647 cebd 293f 50bd 3d30 4ebe ebba ebbc
00000350: 176f 1dbe adb0 ddbd e236 07be 0a66 03be
00000360: 9db0 f13d c48e f1bc cb0f bdbc 3286 f33d
00000370: ce75 e3bd a864 d33d fdf0 b63d 7ed9 babd
00000380: c65c 3d3c edc1 80bc 6475 a1bd 0c3c 253d
00000390: c1a0 8ebc ca66 a93d 4ce3 b93d cdcc 853d
000003a0: 37cf c13d 1aa4 943c daab cb3d 56bc 333d
000003b0: c121 52bd a317 6dbc bd5c 99bd 577b d63c
000003c0: 7376 e2bc 14f3 42bd e119 ccbd 7e01 0fbd
000003d0: afb8 e1ba 1b90 183c ae4d be3d f3c2 8c3d
000003e0: 5fca 573d 7971 da3d 262f 4b3e 99d5 b53d
000003f0: aabc da3b b9fc 83bd 1471 a0bd 15d6 1b3d
-0.06288709 -0.0054892274 -0.06647366 -0.026524777 0.07106722 0.044563863 0.07963803 0.03255445
-0.07980005 -0.01801891 -0.024866821 -0.017243778 0.013033852 -0.044289593 -0.06610566 -0.033327457
-0.00093668705 -0.012429871 -0.0038703931 0.024685884 -0.09736786 0.08066688 0.21354638 0.14302582
0.16648611 -0.019635603 0.025839591 0.04637274 -0.039539438 0.12855625 0.09259673 -0.019432157
-0.0151905455 0.12521923 0.027967744 0.09434352 0.010264171 -0.08800437 -0.015408355 -0.18125945
-0.0277159 -0.07499262 -0.021716636 0.031781938 -0.16934599 -0.027728116 -0.063619554 -0.095182024
0.052897442 -0.04222719 0.13095428 0.0041925875 -0.13773715 0.07391747 -0.08369336 -0.13648415
-0.03267712 -0.12796822 -0.0356252 0.17692739 -0.08448555 -0.027100062 -0.115694754 0.0040963837
-0.15438485 -0.08163632 -0.13792153 -0.16555814 4.518763e-05 -0.0641788 -0.18338563 -0.20331362
0.012713137 -0.09104424 0.024117129 -0.060128383 -0.05157373 0.06113573 0.07725648 0.01858589
0.046697125 -0.08996073 -0.082536265 0.0026567641 -0.058166623 0.042450055 0.120911084 0.020317733
0.020839643 0.060762893 -0.0843624 -0.13643248 0.08747593 -0.039317355 -0.023337314 0.068071716
-0.009670847 -0.0544061 0.13512039 0.035143964 0.0094169825 0.016725758 0.098079644 0.11333026
0.013219739 0.0077083013 0.04750376 0.03450049 0.058724064 0.073166735 0.03202069 -0.105784826
-0.023957426 -0.031972643 -0.004362791 0.020636443 0.08450167 -0.051896606 -0.007486893 0.104989775
-0.078124605 -0.024325816 0.04642475 -0.028466411 -0.09095496 -0.12392879 -0.0005713946 -0.14878887
-0.06528614 -0.08755733 0.07235229 0.24065034 -0.11863587 0.079957604 0.1394497 -0.0109545225
0.015245925 -0.10642392 0.040587157 -0.053051215 -0.015387215 0.029661616 -0.115752384 -0.13529862
-0.048970263 -0.14253993 -0.06396214 -0.030565644 0.0005963268 0.16944616 -0.017677756 0.023920711
0.03755904 0.06208422 -0.06954893 0.13826467 -0.12974937 -0.09062511 0.021265341 -0.119729325
0.0032177765 0.011620731 -0.007898872 0.019029936 0.027869016 0.0043311925 -0.08227559 0.14357407
0.08361282 -0.059052244 0.037626043 0.00035906222 -0.00238651 -0.1290186 -0.07716803 -0.079865485
0.021113887 -0.15680462 -0.04832685 -0.069993325 -0.1008568 0.0004313205 -0.08351616 -0.10582173
-0.0518416 0.041236624 0.11507161 0.026227113 0.2012623 -0.017256146 -0.013983923 0.0015343905
-0.07987738 -0.07322429 0.050948735 -0.057458907 0.024688529 0.12300772 -0.06764094 0.15073052
0.109774366 0.026915045 0.11766992 -0.04284877 0.042492595 0.07714926 -0.0036393572 -0.06551645
-0.100722834 -0.050841484 -0.20135589 -0.028775653 -0.15374409 -0.10824714 -0.1320453 -0.12831894
0.118012644 -0.029487021 -0.02307882 0.1189083 -0.11106454 0.10321933 0.089326836 -0.091235146
0.011557763 -0.015717471 -0.078837186 0.04034047 -0.017410638 0.082715586 0.090765566 0.06533203
0.09463351 0.018144656 0.099448875 0.043880783 -0.05130172 -0.014470967 -0.074883915 0.02618186
-0.027644372 -0.0475951 -0.099658735 -0.034913532 -0.0017221178 0.009311701 0.0929216 0.06873121
0.05268323 0.106661744 0.19842204 0.08878631 0.0066753225 -0.064446874 -0.07834068 0.03804596

conv3.bias f4 [16]
00000000: 826b d9bb 318d 0d3d 0cd5 aa3d d64a 1f3c
00000010: 65fd 92bd b849 953c 91d1 26bd ca2c 453c
00000020: 1ab5 053c bae8 a33d 875d aebb 7990 9bbd
00000030: 538d 52bd 7404 12bd a8b8 d93c e5b6 49bc
-0.0066351304 0.03455848 0.08341417 0.009722432 -0.071772374 0.018223628 -0.0407272 0.012034604
0.008160854 0.080033734 -0.005321208 -0.07595915 -0.05140431 -0.035648778 0.026577309 -0.012311672

linear1.weight f4 [128, 576]
00000000: 3ebb abbc 465a 333c fabf 6d3c ff89 eabc
00000010: 3b3a a43c c3c1 e7bc ecc7 053d 5ff6 00bd
00000020: f36a 2fbc 8f34 573d c4ef 24bb bf41 5bbd
00000030: 67b8 1dbd 838c 44bc cd78 8cbc 2457 bf3d
00000040: cd84 853a 97c7 aa3c 53f7 983d 93f3 6d3d
00000050: e31b 30bd d6ca 703d ffc4 5a3c 368b 283d
00000060: 345f c7bb 6474 15bd 7664 5bbd 03e5 343d
00000070: 4c75 1e3c 1a24 97ba 28c5 22bd 1dc0 8cbc
00000080: 44c1 9f3c 9206 4fbc fc91 2cbc 2933 153d
00000090: 9b8a 4c3c dc36 e33c de31 603d 3df2 dfbb
000000a0: baa4 b23c 57ba 0dbd 1155 013d 93da f93c
000000b0: bea6 d6bc cdb1 543d 286c e93c af51 39bc
000000c0: dbd8 3e3d 341d ed3b 545b 8bbd cea6 09bd
000000d0: c8fa 4f3d c595 da3b 2a87 c63c a489 9d3c
000000e0: 9fd7 98bb b4b6 913b 8f74 903b 1d0f 16bd
000000f0: c2a8 0e3d 1e80 0fbd c7f5 9dbc c1da 92bc
00000100: 0dae 90bc 3295 57bc 71e1 e7bc 4d72 bd3c
00000110: 5071 05bd bf7b d6bc 2e5f 653d 2288 f6bc
00000120: 19ef ee3c 3c1b 403d d58d 513c b254 363d
00000130: e037 62bc 9e76 bdbc d64b 083d 10b7 4bbc
00000140: c4db 3d3d a8f3 0b3d f942 113c e266 bbbc
00000150: 0d2b 53bd ed01 8bbd 1d3d 933b 2356 0c3d
00000160: e423 913c 7558 f33b 0e7c 9a3c adad 46bc
00000170: 1a53 71bd 212a a73c 49b3 463d dc85 04bd
00000180: 03b7 55bd c7bc 81bc 17c6 713b e693 7dbc
00000190: 398b f93c 7824 22bc 7b5a 5dbc 008b 323b
000001a0: 09b0 f73c e20d 6e3c aad5 82bc 9d58 3dbc
000001b0: 9188 e5bb 8eea c63c 2bc1 013d da7b e5bc
000001c0: bd2b 933b 08db 3c3c daaa 393d 147b 8e3c
000001d0: e2f9 583c 9a88 14bc 12e6 603d 741f 82bc
000001e0: d905 0fbd 17d0 f0bb 5d9e 3f3d ec03 fe3c
000001f0: b1b2 5ebc 0ff3 83bc 6ca1 f13c 9fb1 963c
00000200: 4c80 d4ba 384a 903c 7d99 c2bc edca a1bc
00000210: 63ce 323d d8fb 8b3c c211 063c db17 83bd
00000220: 529b 2ebd b44c a83c 842e f5bc 8979 25bd
00000230: 1c2b 173c 7268 373a 2ace 353b eb10 dcbb
00000240: 0df7 113d 2519 443c 2bbb cfbc db20 c03c
00000250: 352e 4d3d 1725 c4bc f860 94bc dc89 e6bb
00000260: 5dc3 70bd 17ca 823c c675 93bb 5691 e1bc
00000270: 88cb 663d 2237 01bd 5e05 7bbc af7f 99bc
00000280: cd38 95bc b742 083d 8869 8f3c 80be d9bc
00000290: 10f5 0c3d 86e8 d83b 62a3 903d adc3 1ebd
000002a0: 106d 433d 8f63 92bc cb14 9c3a c5b1 263c
000002b0: e7ac 313d e530 313d 3836 bb3c 5d17 c43c
000002c0: 5a38 43bc 08ff 863c 891e fd3c 35c3 a73b
000002d0: 90f9 f4bb b184 c93c 87e5 f43c 3145 eaba
000002e0: 16cd a83b 1be0 a6bc a04c c6bc 3d22 a1bc
000002f0: ca34 eabb fb55 983c 5971 883b 001a 3e3d
00000300: cdaa 9bbc 0887 22bd 1fd4 4f3d 4e35 a9bc
00000310: feed 9b3d ab0f 2e3d 2f83 d1bc 3eda 653c
00000320: de63 00bd 5507 123c 96aa 373d 2759 82ba
00000330: 3c48 c93c b5e0 3abd 7999 223c 8083 a9bc
00000340: dae3 863c c2bd 09bc 8f1e c5bb b299 a73c
00000350: 8ea4 4fbc 6589 19bd 781f a8bc b5b3 4dbd
00000360: 5e7f 243d 0aba e6bc 855e 443c 93bb 16ba
00000370: fed8 1abd 6400 aebb f70f d3bc 9752 103d
00000380: 34f5 2ebd 2c97 81bc e0a0 13bd 843f 763c
00000390: b61b 22bc 880d 423d 299e 8c3d 435e 7b3c
000003a0: 2086 5abc 82fa 1b3b cc82 6c3c 21d8 ccbc
000003b0: 4446 0cbd ae15 093d 0b3b 5c3d d473 0e3d
000003c0: e894 31bd e352 abbc a4b5 f2bc 3bf0 d93c
000003d0: 4e98 253d 3a32 663d 2221 b5bc 7146 333c
000003e0: 599d 85bc c188 48bd 1b4a 7cb9 8b63 3f3b
000003f0: bb7c e2bc 3833 f53c 2e3f b6bc 723a 99bc
-0.020963307 0.010946816 0.014511103 -0.028630255 0.020047298 -0.028290635 0.032661363 -0.031484958
-0.010706651 0.05254036 -0.0025167326 -0.053529497 -0.038505938 -0.011996391 -0.017147446 0.09342793
0.0010186672 0.020847125 0.07469048 0.05809362 -0.042995345 0.05878719 0.013352632 0.041148387
-0.006084347 -0.036487952 -0.053562604 0.044163715 0.00967152 -0.0011531145 -0.039738804 -0.01718145
0.019501336 -0.012635844 -0.010532852 0.036425743 0.012484218 0.02773612 0.054735057 -0.006834297
0.021807063 -0.034601536 0.031575266 0.030499732 -0.026202556 0.051927377 0.028493956 -0.011310979
0.04659353 0.0072361473 -0.06804529 -0.033606343 0.050776273 0.006670686 0.024234373 0.019230671
-0.004664376 0.0044468287 0.004408426 -0.036635507 0.03482891 -0.03503429 -0.019282235 -0.017926576
-0.017661119 -0.0131581295 -0.028305741 0.023125792 -0.032578766 -0.026182054 0.055998974 -0.03009421
0.029166745 0.046900973 0.012790163 0.044514365 -0.013807267 -0.02312785 0.033275448 -0.012433782
0.046352163 0.034167916 0.008866065 -0.022876207 -0.05155473 -0.06787477 0.0044933693 0.034261834
0.01771731 0.0074263164 0.018857982 -0.0121263685 -0.058917142 0.02040583 0.048510823 -0.03235422
-0.052176487 -0.015837086 0.0036891752 -0.015477156 0.030461894 -0.00989639 -0.013510342 0.0027243495
0.030235307 0.014529677 -0.015971024 -0.011556772 -0.0070048054 0.024281766 0.03167836 -0.028013159
0.004491298 0.0115268305 0.045328952 0.017392673 0.01324317 -0.0090657715 0.054906912 -0.015884139
-0.034917686 -0.007349025 0.046781886 0.03100773 -0.013592408 -0.01610711 0.029495917 0.018395243
-0.0016212552 0.017613515 -0.02375483 -0.019750083 0.043653857 0.017087862 0.008182945 -0.064010344
-0.042628594 0.020544387 -0.029929407 -0.040399108 0.009226587 0.00069964596 0.0027741292 -0.006715884
0.035635997 0.011968886 -0.025357803 0.023453167 0.050092895 -0.023943467 -0.018112645 -0.007035477
-0.058780063 0.015965505 -0.0045001237 -0.027535122 0.056346446 -0.03154672 -0.015321104 -0.018737642
-0.018215561 0.03326675 0.017506376 -0.026580095 0.034413397 0.006619516 0.07062413 -0.03876083
0.047711432 -0.017869739 0.0011908052 0.0101742195 0.043377783 0.04325952 0.022853002 0.023936922
-0.011915291 0.01647903 0.03089835 0.005119706 -0.007476039 0.024599405 0.029894603 -0.0017873404
0.0051514013 -0.020370534 -0.02420646 -0.019669646 -0.007147406 0.018595686 0.0041639027 0.046411514
-0.019002343 -0.039679557 0.050739404 -0.0206553 0.07613753 0.04249541 -0.025575249 0.014029084
-0.03134524 0.008912881 0.044840418 -0.0009944782 0.024570577 -0.045624454 0.009924286 -0.020692587
0.01646607 -0.008407058 -0.0060156058 0.02045903 -0.01267351 -0.037484545 -0.020522818 -0.05022021
0.04016053 -0.028164882 0.011985426 -0.00057499966 -0.037804596 -0.005310105 -0.025764449 0.035235014
-0.042714313 -0.015819155 -0.036042094 0.015029792 -0.009894302 0.047376186 0.06866104 0.015342298
-0.013337642 0.0023800437 0.014435481 -0.025005402 -0.034246698 0.03346794 0.053767245 0.03477843
-0.0433549 -0.020913547 -0.029627629 0.026603809 0.040428452 0.056200244 -0.022110526 0.0109420875
-0.01631038 -0.048958544 -0.00024060199 0.002920362 -0.027647367 0.02993165 -0.022246923 -0.018704627

linear1.bias f4 [128]
00000000: 6083 97bc 5530 273d ecf0 cbbc cc9b d53c
00000010: 4f1a a8ba 7480 103d bc18 923c c181 83bc
00000020: 5da9 a73b deb2 5d3c c12a 07bd 3290 0b3d
00000030: f095 efbc 607c f93c 6a3f cdbc 76da d7bc
00000040: 7518 88bc 8ec8 273d e836 a33c e8ed d43b
00000050: 8ae6 eabc cba3 d03c ba44 00bd d5b2 a9bc
00000060: dcca b63c 3eb4 2f3d bf74 21bc 4186 64bd
00000070: 8387 373c 4976 703b 7946 a6ba 2495 4dbc
00000080: e981 073d 77e4 a33c 7409 f83c c0a9 0dbd
00000090: b9ae 2aba 6b97 97bc 940d 2fbd 0511 943c
000000a0: 6bd8 9cbb d4b9 373d d32d 96ba cfc2 083b
000000b0: 998c 943c 153c 80bc 7d50 fa3c 85de 243c
000000c0: 6e65 dfbc 738f a0bc 8581 e6bb 07c4 1a3d
000000d0: 896d bf3c 1f31 a9bb 57eb e7bb b1e3 043c
000000e0: cef7 e53c 34db e7bc 2cc5 6abd e289 62bd
000000f0: 72ce 0c3d c651 9d3c 57d7 d3b9 7ff7 d23c
00000100: fd8c 313b 0a69 e93c 9834 2fbd f1d1 cc3c
00000110: 7597 033c cc6e 07bd 0885 41bc 6438 ba39
00000120: c296 0a3d 06e1 a43c 9704 49bb 0a48 1bbc
00000130: b104 07bd e5c2 043b c0dd 083d 8e54 f2bc
00000140: d228 f5bb 8eb5 13bc 2e5e 92bc 9569 be3c
00000150: d0ff a3bd 622e 473d 1f17 ddbc c6cd 0d3d
00000160: bc05 acbc 22ae 283d 572f 303d 6696 d9bc
00000170: 7559 8f3c 9542 e43c 67c5 5c3c 10ad 593b
00000180: 7006 c73c 389c 953a fd85 09bd 9a9a 8b3b
00000190: b28c 18bd bae7 5a3c 3a74 17bc c253 31bc
000001a0: eb49 29bd 81db 5e3c d9e1 24bd 0c51 34bd
000001b0: cf24 183d 6161 a1bc c290 383d 1612 443b
000001c0: 1449 b6bb 50ba 3e3d 3c2a b73c f183 95bc
000001d0: 1ed1 83bd b9d7 cd3b 5712 623d 78fa c4bc
000001e0: 13d6 5ebc 1cb3 c5bc 83cb 143d e025 a23b
000001f0: e2d8 4b3c af62 403c c886 bbba b6ec cb3c
-0.018495262 0.040817577 -0.024895154 0.026075266 -0.0012825223 0.035278752 0.01783406 -0.016053082
0.005116625 0.013531415 -0.032999758 0.034073062 -0.0292463 0.030454814 -0.025054652 -0.026349287
-0.016613225 0.04096275 0.019923642 0.006498087 -0.028674383 0.025468728 -0.031315543 -0.020715157
0.022313528 0.0428965 -0.009854495 -0.055792097 0.011201742 0.0036691597 -0.0012685797 -0.012547765
0.033082876 0.020006401 0.030277945 -0.034585714 -0.0006511021 -0.018504819 -0.04273756 0.018074522
-0.004786541 0.044854954 -0.0011457748 0.0020868068 0.018133448 -0.01565365 0.030555958 0.010062818
-0.027270045 -0.019599652 -0.007034483 0.037784602 0.02336766 -0.0051633264 -0.0070776152 0.0081109265
0.028072264 -0.028302766 -0.057316944 -0.055307277 0.03437657 0.019204032 -0.00040405497 0.025752781
0.0027092092 0.02849247 -0.042774767 0.025002452 0.008031716 -0.03306465 -0.011811502 0.000355187
0.03383518 0.02012683 -0.0030672902 -0.009477625 -0.03296346 0.0020257768 0.033414602 -0.029581334
-0.007481673 -0.009015454 -0.017867174 0.023243705 -0.08007777 0.04862822 -0.026988564 0.03462007
-0.020998828 0.04118169 0.043013897 -0.026560973 0.017498711 0.02786378 0.013474799 0.0033214726
0.024295062 0.0011414355 -0.033575047 0.0042603733 -0.037243553 0.013360912 -0.009244019 -0.010823192
-0.04133026 0.0136021385 -0.040254448 -0.044022605 0.03714448 -0.019699754 0.045059927 0.0029918007
-0.005562911 0.0465644 0.022359006 -0.018251391 -0.0643637 0.0062818197 0.05519327 -0.024045214
-0.013600844 -0.024133258 0.036326896 0.0049483627 0.012441846 0.011742278 -0.0014307136 0.024893146

linear2.weight f4 [10, 128]
00000000: 18a0 993e ecb1 9cbe 000f edbd c9bc 033e
00000010: b3c4 87bd 1154 5abd ce02 913d 7a45 353e
00000020: c14c 1cbc ee56 45bc 264c 8d3e 637e 83bd
00000030: d1cf 20bd a782 3c3d 42d6 7bbe 1cbe 99be
00000040: b118 d8bc abe2 16be 285a 313e f318 98be
00000050: dbb8 233e df1f d1bd d5cf 2abe bd28 0ebd
00000060: 1b78 5b3e 2a41 853d 39b7 c43c ac22 e1bd
00000070: c7b7 8dbe d450 95bd 0f60 60bd 6516 a4be
00000080: 059b b2be e8c0 473e bea3 7fbe fd87 d93d
00000090: 9c5f 533e 81a9 89be da7d 843d 796f 22be
000000a0: 6a47 2bbe ecbc 0f3e 4958 9dbd fb60 20be
000000b0: eb18 833e 3b56 30be d4fa 9f3e 8c1b 6f3e
000000c0: 3a58 d4bd d5ab 74bd 979a 12be d99c 843e
000000d0: 8371 683e 449a 73be 4117 42be 86a9 89be
000000e0: f7c2 d3bd afc6 b33d 0d9d 5ebd de91 8c3c
000000f0: af3c da3d f6eb 13bd 205c 133e a3e4 503e
00000100: b86c 893e c621 1abe 6dad 4c3e 73d3 843e
00000110: e452 8a3e 5c0f a03e 8e9b be3d 0f20 27be
00000120: b12d 5bbd 9841 823e 0b0f 303e 863c acbe
00000130: 51f2 e53d 2a8a 8ebd c293 be3e 0896 113e
00000140: 7707 f33d a914 b9be 136e 3e3e 4cd4 463e
00000150: 0d9c 7dbe b513 ae3c bd07 143e 2901 34be
00000160: 96e2 7ebc d797 bebd 7883 243e 5392 37be
00000170: df8d ccbd 8fca cf3d c8f7 3e3e 3ce8 4a3e
00000180: d8e0 a4bd 92f9 953e 1af1 15bb 80ec 1a3e
00000190: 5e98 6ebe d8b4 3ebe 3c93 7e3e d70f bfbe
000001a0: 6ac0 3abe 1cf7 abbe e9db 1b3d d68c 9e3d
000001b0: 14f1 80be 7737 a4bd 4a0e aebe 25b4 953e
000001c0: d1a2 8d3e 7ce1 e7bd 726f 3fbe 564e 3dbd
000001d0: 987e 05bd d140 bc3d cdd0 eb3c f0f2 b03d
000001e0: 3da3 213e c051 173e 5da2 5d3e b9ea 59bd
000001f0: 5ed8 a63e 308e 093e 5ba9 d03e f22e 08be
00000200: b49c 05be 53a2 983e 0a9e 603e bcb2 043d
00000210: 4957 15bd 2be7 bcbd ab39 9ebe c021 82be
00000220: 65a1 fdbd 9117 9e3e 93c1 7fbc ebd8 5b3e
00000230: 2c48 433d 100e 59bc ff65 673d 4b20 ccbd
00000240: 0060 8bbd ea61 c13e fda8 98be 5e05 e93b
00000250: cc50 6cbe 94b0 cd3d 32af ab3d ab05 b03a
00000260: 8515 57be 3b58 63be 2d8f b1be 6f80 a4be
00000270: 09fb 1d3e 792b 68be 92b8 93be f1e9 28bd
00000280: b8e1 3bbe 40a0 76be 4e34 713e c847 d2bd
00000290: 1606 62b9 bdc4 3f3e 14b5 b4be 4525 453c
000002a0: 37ed 9e3e 748c a63e 11ab 95bd 0c25 ba3d
000002b0: 291a 74be 0d7c 423e 13f3 6fbe 125e 70be
000002c0: 67c5 e6bd ad17 843d b662 973e fe28 913e
000002d0: a811 703d a4fd 60be d394 c8bd 1c5c 40be
000002e0: 6f81 623e 1a9a 67be 5bf9 0a3e 4567 53be
000002f0: 175b f93c c1c8 ae3d 0497 393e ca7f 21bc
00000300: e93f 703d f565 1b3e efbc 22bd 4e2b 743e
00000310: 07ab 613e 8d08 56be 7be0 87be c7c5 9abd
00000320: c74d cabd 6264 a13e a767 623e 7124 353e
00000330: 2533 67be 508f 70be a266 d93c 8631 cebe
00000340: 2a75 61be 8d32 2b3e 92b6 f13d bf30 143e
00000350: ceae 47be ecc0 563e 0780 803b 7623 373e
00000360: 8e85 733e 88fb 1e3e 82cb 67be 29bc 973e
00000370: 3f36 853e 0dbf 03be 2312 53be 502c 75be
00000380: 9e04 19be 1498 29be b709 bd3d 4e31 80be
00000390: edd4 683e fd1a 943e 87af 47be 07ba 23be
000003a0: 2b6a 8ebd 1d68 9bbd 56d9 43be 660a c1be
000003b0: c588 163e 6e4c 12be 80e5 093e 0b20 883d
000003c0: b228 553d bdd3 583e 18ba 8a3e bdfa ef3d
000003d0: cfdb 4cbe cb01 313e b00b f83d 4017 49bd
000003e0: 0d42 1ebe 0751 8cbd f097 843e 2546 b73e
000003f0: 8dff 91bd 47a2 923e 5675 5abe 4db0 703d
0.30004954 -0.30604494 -0.11575127 0.12864985 -0.06629314 -0.05330283 0.07080613 0.17702284
-0.009539784 -0.012044651 0.2759716 -0.06420591 -0.03926069 0.046023037 -0.24593452 -0.30027854
-0.026378961 -0.14734904 0.17319548 -0.29706535 0.15988486 -0.10211157 -0.16680844 -0.03470682
0.21432535 0.0650657 0.024013149 -0.10992941 -0.27679273 -0.07290807 -0.05477911 -0.32048336
-0.34883896 0.19507182 -0.24964806 0.10621641 0.20641941 -0.26887134 0.06469317 -0.15862836
-0.16726461 0.14036912 -0.07682855 -0.15661995 0.25604948 -0.17220394 0.31246054 0.23350352
-0.103683904 -0.059734184 -0.14316784 0.25900915 0.22699551 -0.23789316 -0.18954183 -0.2688715
-0.10339921 0.0877813 -0.054348994 0.017159399 0.10656106 -0.0361137 0.14390612 0.20399718
0.26840758 -0.15051946 0.19988032 0.25942573 0.27016366 0.31261718 0.093070135 -0.16320823
-0.05351037 0.2544067 0.17193238 -0.33639926 0.11227859 -0.069599465 0.37222105 0.14217389
0.11866658 -0.36148575 0.18596677 0.19416922 -0.2476656 0.021249631 0.14456077 -0.17578568
-0.015556952 -0.09306305 0.16065776 -0.17926912 -0.09987997 0.10146057 0.18649209 0.19815153
-0.08050698 0.2929197 -0.0022879303 0.1512928 -0.23300311 -0.18623674 0.24860853 -0.37316772
-0.18237463 -0.33586967 0.03805152 0.07741706 -0.25183928 -0.080183916 -0.33995277 0.29239002
0.27663282 -0.113223046 -0.18694857 -0.046217285 -0.032591432 0.0919205 0.028786087 0.08640087
0.15784927 0.14777279 0.21643968 -0.053202365 0.3258695 0.13433146 0.40754208 -0.13299158
-0.13048059 0.29811344 0.21935287 0.032397017 -0.036460195 -0.09223779 -0.30903372 -0.25416374
-0.12384299 0.30877355 -0.0156101165 0.21469466 0.04767625 -0.013247982 0.056493755 -0.09967097
-0.0680542 0.37770015 -0.29816428 0.0071112355 -0.23077697 0.10043445 0.08383025 0.0013429424
-0.21004303 -0.22201626 -0.34679547 -0.32129237 0.15427794 -0.22672834 -0.28851753 -0.04123873
-0.18347824 -0.24084568 0.23555109 -0.102675974 -0.00021555307 0.18727393 -0.35294402 0.0120328115
0.31040356 0.32529032 -0.07308019 0.090890974 -0.23838104 0.18992634 -0.23432569 -0.23473385
-0.1126812 0.06449828 0.29567498 0.28351587 0.05861059 -0.21971756 -0.09794011 -0.18785137
0.22119687 -0.22617379 0.13571684 -0.20644863 0.030438943 0.085343845 0.18124014 -0.009857127
0.0586547 0.15175612 -0.039730962 0.23844644 0.22037898 -0.209017 -0.26538453 -0.07557254
-0.09878116 0.31521899 0.22109853 0.17689683 -0.22578104 -0.2349217 0.026538197 -0.40272158
-0.22017351 0.16718502 0.11802401 0.1447172 -0.19500276 0.20972031 0.003921512 0.17884621
0.23781416 0.15525639 -0.22636226 0.29635742 0.2601795 -0.12865849 -0.20612387 -0.23942685
-0.14943168 -0.1656192 0.092303686 -0.25037616 0.22737475 0.2892684 -0.19500552 -0.15988933
-0.06953844 -0.075882174 -0.19125876 -0.37703246 0.14700611 -0.14286968 0.13466454 0.06646737
0.052040763 0.21174522 0.27095103 0.117177464 -0.20005725 0.1728584 0.12111604 -0.04909444
-0.15454884 -0.06851392 0.2589717 0.35795704 -0.071288206 0.28639433 -0.21333823 0.058761884

linear2.bias f4 [10]
00000000: ad4b e5bc 8e8f ad3d c7ad 1c3e 55a7 18be
00000010: e70f b73d ff8e e43d 638c f2bd 0514 063d
00000020: bd2f ddbd 56b7 11be
-0.027990187 0.084746465 0.15300666 -0.14907582 0.0893858 0.11160087 -0.11843183 0.032733936
-0.10800121 -0.14230093
