my_pt/160_deep_model.pt (torch, 859042 bytes, 56 tensors)

conv1.weight f4 [32, 1, 3, 3]
00000000: 993b 27bd fdc0 babe 6f52 81be b906 63bc
00000010: ef39 853e 89b1 a1be e6f5 513e addd 843d
00000020: a166 06be dcfd 6abe 9a1d 24be 8c20 83bd
00000030: 472e 86be 8c56 843e a1a5 4d3d 159e 9c3e
00000040: 7456 8a3e 65db 1f3e e15b 553d 69c5 9abe
00000050: 1d56 d9bd da51 673d 613c 11be d80d 463e
00000060: 6350 613e 58e3 febd 2439 fb3d b250 603e
00000070: 2117 683e 00f5 3ebe d8a5 22be 815c f3bd
00000080: 1ff1 1b3e 25b5 693e a0ef a6be 10ad c03d
00000090: 4351 58be 367e 003d 603d 673e efb7 293e
000000a0: 82c3 c8be b6a8 b23c 471e a63e 5c3a 6abe
000000b0: 0826 883d d3cd 39bd 5cf0 423e 38e8 a8be
000000c0: 91bd a2bd 8f59 ca3d cf4e f83d 3dfe 5bbe
000000d0: f3b4 523e d77a 8d3e 9f15 8cbd 976f 13be
000000e0: 0b75 21be 415c e03c cc9a 313e cf20 68be
000000f0: 040a 96bd e24a 40be ebc1 41be d515 89bd
00000100: ddad 873e c16b de3d 9800 fdbd 45e2 183e
00000110: 4bed ebbd 6b73 a33d 6e3d f7bd 4c2a 9abe
00000120: 8c71 943e 9beb 133e 8718 a03e 9081 6fbe
00000130: 4d18 843c 72c7 033e 3665 1cbe c65a fbbd
00000140: 0629 58bd 7112 59bb 5a6d 55bc 0bbd 963e
00000150: c68c 86be aa97 74be 27e9 933e 7f43 4f3e
00000160: 7b10 533e 8e50 cabd 2f6f a93e 1d9a c43d
00000170: 79d0 a5be cbe5 853e 04ee 8ebe c46f 163c
00000180: 1ad1 503e b635 73be c75c 87be 80ed 3b3e
00000190: 0b79 613e 71e9 b03d 913e 213e 854a fabd
000001a0: 63b6 4bbd 5185 98be 239f 333e 9de2 8c3e
000001b0: 9a96 443e bcfd b23c aa24 8abe fffc e23d
000001c0: 2091 363c 7a54 9a3e 95d3 94bd c401 c73d
000001d0: 23a0 0c3e 581e e5bd 2f4b 313e 8cb9 f6bd
000001e0: fe79 98be 8f3d 4c3e 13ba eabc fea4 143e
000001f0: cf66 63be 09d1 5fbe 1a5f 9ebd c4cd 683e
00000200: 3d84 86bd fd69 8f3e ef99 a73d 7862 8cbd
00000210: 9f12 483e 0c57 8fbe 429f 993c c42a 8a3e
00000220: 8502 a2be 0cec a3be 89c1 c33d 532d 0a3e
00000230: 6086 9abe ec63 e73d 12a4 7a3e 824f 8cbe
00000240: 1ea2 9cbc 6f68 02be d8b6 2a3c 67a6 aabe
00000250: c476 5abe e0b4 71bd 16e7 273e 73ec 9dbd
00000260: ff3d 09be bfd3 083c e1e0 74be 401e b73d
00000270: 5392 1c3e 6af5 3fbb fa89 00be fed5 4b3d
00000280: 783f aabe 2d75 cebd 6763 5fbe 0aeb d1bd
00000290: a307 8abe c86c a73e a963 863d aa0c ea3d
000002a0: 131c a0bd 69e1 52be 73ce 8c3c 8a3d 88be
000002b0: d650 5bbe c9ae aa3e 3745 653e c569 cc3e
000002c0: 4c0f 403d 843a 63bc c5b0 dcbd 94d2 38be
000002d0: 3299 0f3e 25a1 76be 8c55 4ebc 4384 273e
000002e0: b6d1 913e 9221 e4bd 9368 19be e63d de3d
000002f0: 94f3 993d 6e66 50bd ea23 50bd 2c0a 703d
00000300: 4958 373e d036 a4ba 2139 43be 1250 b9b9
00000310: 0ba3 5cbe 2a2c a4be 1265 db3d 8751 a7be
00000320: 1559 2fbe 8549 16bd 8b58 1b3e 8fee 443e
00000330: 0365 f6bd 6878 8cbc a012 6cbe 14ee 1e3e
00000340: 5a07 7cbe 5681 3d3e 2a23 68be 01ef 31be
00000350: 353d 50be 0080 6bbe 6571 58be a054 87be
00000360: fa7b 88bd b4e6 24be 2e72 8ebe 45ef 08be
00000370: 4eaf 8b3e 2ecd 8d3e 143a e83d 9fd8 78bc
00000380: 7c77 283e efe0 433d ea3a 7d3e e870 2fbe
00000390: 51ae 1a3d eac8 7f3e 6f93 e53d adcf 353e
000003a0: e461 233e 5b18 133e 16d1 9abe 8f31 a9bd
000003b0: b380 703e cd8a b63c 182a bf3d 0ad9 bc3d
000003c0: 900a eebd 39dc 38bc e49f 7d3e 3e5f f4bd
000003d0: 8504 b63d e6d0 d23d 36a9 73be 1199 50be
000003e0: 9a20 503d bfb8 acbd a832 5b3e d58f bcbd
000003f0: cc93 da3d 1f8e 74be 1a43 7a3e 7b8a fdbd
-0.04082832 -0.36475363 -0.25258204 -0.013856583 0.26020762 -0.3158076 0.20503959 0.06487594
-0.13125087 -0.22948402 -0.16026917 -0.06402692 -0.26207182 0.2584728 0.050206784 0.30589357
0.27019083 0.15611036 0.052089576 -0.30228737 -0.10612128 0.056474544 -0.14183189 0.19341218
0.22003321 -0.12445706 0.12266758 0.21905783 0.22665073 -0.18648148 -0.15883577 -0.11882878
0.15228699 0.22823007 -0.32604694 0.09408009 -0.21124749 0.031370364 0.22582006 0.16574071
-0.3921166 0.021808963 0.32444975 -0.22873825 0.06647879 -0.045362305 0.19037002 -0.3298967
-0.07946313 0.09880363 0.121244065 -0.21483703 0.20576839 0.27632782 -0.068400614 -0.14398037
-0.15767305 0.02738774 0.17344207 -0.22668765 -0.07326129 -0.18778566 -0.1892163 -0.06693617
0.26499835 0.10860396 -0.12353629 0.14930065 -0.115198694 0.079809986 -0.12072264 -0.30110395
0.2899288 0.14445345 0.31268713 -0.23389268 0.016124869 0.12869051 -0.15272984 -0.12273173
-0.052773498 -0.0033122564 -0.01302656 0.29441103 -0.26279277 -0.2388598 0.2888882 0.20240591
0.20611756 -0.09878646 0.3309264 0.09599707 -0.32385615 0.2615188 -0.27915967 0.00918192
0.20392266 -0.23750958 -0.2643797 0.18352318 0.2201883 0.086382754 0.15746523 -0.12221245
-0.049734484 -0.29789212 0.17541175 0.27516642 0.19198075 0.021849506 -0.26981097 0.110834114
0.011142999 0.30142576 -0.072669186 0.09717134 0.13732962 -0.11187428 0.17313837 -0.12047109
-0.29780573 0.19945358 -0.02865318 0.14516065 -0.22207187 -0.21857084 -0.07732983 0.22734743
-0.06568191 0.2801055 0.081836574 -0.06854719 0.19538353 -0.279961 0.018752698 0.26985753
-0.31642547 -0.32016027 0.09558398 0.13493852 -0.30180645 0.112983555 0.2447665 -0.2740441
-0.019120272 -0.12735151 0.01041957 -0.3333008 -0.21334368 -0.059010386 0.16396746 -0.07711115
-0.13402556 0.008351265 -0.2391391 0.089413166 0.15290193 -0.0029290565 -0.12552634 0.049764626
-0.33251548 -0.10080943 -0.21815263 -0.10249908 -0.2695895 0.3270018 0.065619774 0.11428197
-0.07817855 -0.205938 0.017188286 -0.2660945 -0.21417555 0.33336475 0.22389685 0.39924446
0.04688959 -0.013868932 -0.107759036 -0.18049079 0.14023283 -0.2408491 -0.012593638 0.16359048
0.2848031 -0.111392155 -0.14981298 0.1085165 0.07517162 -0.050878935 -0.0508155 0.05860345
0.17904772 -0.0012528542 -0.19064762 -0.00035345607 -0.21546571 -0.32064945 0.10712637 -0.32679388
-0.17123826 -0.036691207 0.15170495 0.19231628 -0.12030985 -0.017147258 -0.2305398 0.15520507
-0.2461218 0.18506369 -0.22669664 -0.17376329 -0.20335849 -0.22998047 -0.21137007 -0.2643175
-0.06664272 -0.16103631 -0.27821487 -0.13372524 0.27282184 0.27695602 0.113392025 -0.015188365
0.1645183 0.047821935 0.24729505 -0.17132914 0.037763897 0.24978986 0.11209761 0.17755003
0.15955311 0.1436476 -0.30237645 -0.08261406 0.23486595 0.022282982 0.093342006 0.092210844
-0.116231084 -0.011282974 0.24768025 -0.119322285 0.08887581 0.102937505 -0.23795018 -0.2037089
0.05081234 -0.08433675 0.21406043 -0.09207121 0.10672721 -0.2388234 0.2443966 -0.12379929

conv1.bias f4 [32]
00000000: 9704 68bc 6468 6e3c c9c8 f63d ac9f 53be
00000010: f275 e2bd 1d4b 903c bebb 07be 4699 7b3e
00000020: dcf3 82bd 04e3 7ebe d93c 883e 8957 5dbe
00000030: 5f20 5cbe 628d 28be 350f 87be 4749 50be
00000040: 5b91 343e 2328 86be 038d 563e 67b8 533e
00000050: 7e44 6dbe 1b3e 28be 4abe 8abe 852d 4abd
00000060: bf2f aebe 0047 8f3e 9889 59be be97 763e
00000070: 2803 c3bd 9403 d3bd daf9 37be 30a0 3f3e
-0.014161251 0.014551256 0.120500155 -0.20666379 -0.110576525 0.017613942 -0.13255212 0.24570188
-0.06394169 -0.24891287 0.26608923 -0.21615423 -0.21496724 -0.16460183 -0.2637879 -0.20340453
0.17633574 -0.26202497 0.20952229 0.20675813 -0.23170659 -0.16429941 -0.27098304 -0.049359817
-0.34020802 0.27983856 -0.21243894 0.24081323 -0.095220864 -0.10303417 -0.17966405 0.1871345

res_blocks.0.conv.weight f4 [32, 32, 3, 3]
00000000: a4b5 a83d 350a dd3d 20ad 4fbd 98aa 373e
00000010: 5a50 dcbd 4799 123b 9770 7dbd d222 cabb
00000020: d3dc 303d df0b 05bb b10d a4bc e4cf 363d
00000030: 7bd7 4abd 57a1 e23d 5af6 273d e559 7abc
00000040: a8fd a2bd 6108 a73d 7ae8 7a3c d3a6 e4bd
00000050: 7de9 0abe 7043 31be 9ce8 78be 5f2e 0b3d
00000060: 144f 0cbe af4a e7bd 6de7 b6bb fe36 053d
00000070: 8e7f cd3d 2b4c d4bd 22b9 84bd 722e 6cbd
00000080: d3ce adbb 80ae 583d 038e 60be 2a2e 62bd
00000090: 8bdc 21bc 6219 473d 06b2 31bd 1662 b13d
000000a0: 2bd8 86bd 36fd 1a3c d37f 95bd d176 ddbd
000000b0: 2e41 1abd 7b8b b8bd 8ecd e13c af68 5cbd
000000c0: 6edd cbbd 2e23 d5bd 8c1e 5f3d 7439 5cbd
000000d0: cdfb dfbd a440 113e a328 d03a 6aef 8d3c
000000e0: 56c0 03bc 0381 80bd 8839 44bd 9d82 813d
000000f0: cbb1 97bd 7c4b fbbc 5a15 abbd ec9e e7bc
00000100: 7c2f 70bc ab79 2abc 915a 17be bb4e 40bd
00000110: 2605 553d b428 4a3d 9e17 763d 6119 6e3d
00000120: 31e8 f8b9 5fd2 513d 856d 5f3d ac2b 05be
00000130: 9399 8ebd 2ee3 443d c4cd 8fbd 4cb2 dfba
00000140: 3e15 513d d32f f73d e6c6 563d 3f29 7d3c
00000150: d494 6cbd b104 abbc 35ed a43d f40e 19bd
00000160: 378d adbd c81d eeba 9664 9fbd 876e 813d
00000170: a115 dfbd 506c 45bd 1479 373a e4a6 1b3d
00000180: 8ed3 0c3e 646b e9bc d327 0fbe 62a2 30bd
00000190: 0fd8 8c3d d27c ecbc 76ab 263e f0ed 9a3c
000001a0: e7e2 ecbd 28e5 f9bd a94f 833d d792 eabc
000001b0: a2c7 e93d e150 063d 2da3 c6bd 6bbb 6d3c
000001c0: 37b9 bbbd cef1 67bd 829a bdbd 49fd 913d
000001d0: 833d 77bd 9f1a 283e 2d4c c23d 4293 ae3c
000001e0: 6059 d8bd c6a6 133d 8ff8 b83d 1822 b53d
000001f0: 4cd4 b2bd ebd6 923d 0d35 c83d b095 613d
00000200: c76e ab3d 6f6b b13c 39b6 6e3c 0039 60bd
00000210: eaea bd3d 2471 a83d 8945 abbd 60f9 43bd
00000220: 2d8a d63c 7f55 1bbd 9a92 ec3d 32ac 00bd
00000230: ed26 283d de1f 2c3c bb64 c8bb 187e 453d
00000240: ef68 773d 0044 efbc 2dac e73d efba ab3d
00000250: 8c08 b53c 7990 fa3c 227d a63c 809b 35bd
00000260: 3a48 2abd d9cb 53be 31bc 7abd 8930 0f3a
00000270: de32 d6bc 3572 98bb 5893 6f3d 8e1d 25bd
00000280: 7ec7 133e adb0 3fbc ee53 a9bc 9e8a 503d
00000290: e931 d8bc e56d 7a3d 9779 ad3d 189a 243e
000002a0: f88c f73c 7476 d63c 0920 09bd e316 d93c
000002b0: 769b 113d 8187 ebbd f010 753d f7d2 393d
000002c0: c96c 00bd 5707 4fbd d58b b5bc 4d9d 1cbc
000002d0: 9482 b6bc 4533 c7bd 20f5 cebd 6087 f8bd
000002e0: 6e03 51ba 1d61 10be 2ec8 39bd 841c 51bd
000002f0: 44a1 aabd 7423 8b3b 7a2e 0f3d 5838 35bd
00000300: 134a 00bd 6a11 0fbd abec 14bd 203c 8e3d
00000310: 123f e53d c12c 92bd f897 35ba 78a6 183d
00000320: 72bf 7ebd f64a 643d 82fa c3bd 0b52 cd3d
00000330: b764 bb3d 7c48 5bbc 122d febd 58e7 9bbc
00000340: e47e e8bb 55c7 0b3d 17fa 0cbe fa04 ef3c
00000350: 2bb0 203d ae68 2d3e 3c16 243e 7f05 393c
00000360: fe26 1c3e f7aa 183d ef42 76bd ac75 96bd
00000370: 3e31 2c3e 5384 da3d b7eb 463e f5bb 08be
00000380: 5fd4 d0bd 1fed 8e3c 7a90 003c c6f0 28bd
00000390: 10eb d43c 6a63 c2bd 0f78 42bd 3bcf a4bd
000003a0: 052c 20bd d4ae 5d3d e458 b4ba 05da 3d3d
000003b0: f03d 1dbc 4216 fe3d 19f8 fbbb 2cec d2bc
000003c0: a55d 9d3e b6fe 683d 18ca 9d3d 2eaa 04be
000003d0: 7dae 7f3d 1ef2 123e c471 173d 2ee9 7fbc
000003e0: f0cd a5bd 51cc 763e 0ef6 69bd c949 903d
000003f0: 0838 dabc fa62 753d bb83 2ebe 8923 4dbe
0.0823777 0.107929625 -0.050702214 0.1793617 -0.10757513 0.0022369192 -0.061874952 -0.0061687017
0.043179344 -0.0020301265 -0.02002606 0.044631854 -0.049521904 0.110659294 0.041006424 -0.015280222
-0.07958537 0.08155895 0.015314216 -0.11164632 -0.13565631 -0.17310882 -0.24307483 0.03397977
-0.13702041 -0.11293542 -0.0055817873 0.032523148 0.10034095 -0.103660904 -0.06480624 -0.05766148
-0.0053041964 0.05290079 -0.21929173 -0.055219807 -0.009879242 0.04860819 -0.043382667 0.086612865
-0.065841995 0.009459784 -0.07299771 -0.10813678 -0.037659816 -0.09010979 0.027563836 -0.05381077
-0.09954344 -0.104071006 0.05447249 -0.05376573 -0.10936699 0.14184815 0.0015881251 0.017326076
-0.008041462 -0.06274607 -0.04790643 0.06323741 -0.07406958 -0.030675642 -0.08353682 -0.028274022
-0.014659759 -0.0104049845 -0.14780642 -0.046950083 0.052006863 0.049355224 0.060081117 0.058129672
-0.00047475242 0.051226016 0.054547805 -0.13004941 -0.06962886 0.048068218 -0.070216686 -0.0017066686
0.05104565 0.120696686 0.052435778 0.015451728 -0.05775912 -0.02087626 0.08053056 -0.037367776
-0.084742 -0.0018166834 -0.07782857 0.063199095 -0.10892797 -0.048198998 0.0006998938 0.038000956
0.13752577 -0.02849359 -0.13980035 -0.04312361 0.068771474 -0.028868113 0.16276345 0.018912286
-0.11566716 -0.12201911 0.06411678 -0.028634472 0.1141503 0.032791976 -0.09699092 0.014510016
-0.09166186 -0.056627087 -0.09257986 0.071283884 -0.060361397 0.16416405 0.094871856 0.021310452
-0.10563922 0.03604772 0.09031784 0.088443935 -0.08731899 0.071698986 0.09775744 0.055074394
0.083707385 0.021657674 0.014569812 -0.05474186 0.09273322 0.08224705 -0.08362872 -0.047845244
0.026188934 -0.037923332 0.115513995 -0.03141422 0.041052748 0.010505645 -0.0061155236 0.048215955
0.060402807 -0.02920723 0.11312137 0.08385264 0.022098802 0.030586468 0.02032334 -0.04433775
-0.041572787 -0.2068323 -0.06121463 0.00054622494 -0.026147302 -0.0046522864 0.058490127 -0.04031139
0.14431569 -0.011699838 -0.020669904 0.050913446 -0.026390987 0.06113996 0.08470457 0.16074407
0.030218586 0.02617953 -0.033477817 0.026500171 0.03554865 -0.11500455 0.059830606 0.045367207
-0.031353746 -0.05054411 -0.022161404 -0.009558988 -0.022279061 -0.09726576 -0.10105348 -0.12135196
-0.00079732283 -0.14099546 -0.04535692 -0.051052585 -0.0833154 0.0042461697 0.034956433 -0.044243187
-0.031320643 -0.034928717 -0.036358517 0.06945062 0.1119367 -0.071374424 -0.0006927247 0.037268132
-0.062194295 0.05573555 -0.09569265 0.10025414 0.09150069 -0.013383981 -0.1241094 -0.019031212
-0.0070952047 0.034125645 -0.13767277 0.029177178 0.039230507 0.16934463 0.16024107 0.011292814
0.1524925 0.03727242 -0.060122427 -0.07346663 0.1681566 0.1066977 0.19425856 -0.1335295
-0.101967566 0.017447053 0.007846946 -0.041245244 0.025990993 -0.09491618 -0.047477778 -0.080473386
-0.03910448 0.054121807 -0.0013759402 0.046350498 -0.009597287 0.12406589 -0.0076894877 -0.025747381
0.30735508 0.056883536 0.07704562 -0.12955543 0.062422264 0.14350173 0.03697373 -0.015619559
-0.0809592 0.24101378 -0.05711942 0.070453234 -0.026638046 0.059908845 -0.17042439 -0.20033087

res_blocks.0.batch_norm.weight f4 [32]
00000000: 5a65 203f 8802 1a3f 5c70 273f 5e68 103f
00000010: 6ef4 0f3f 009a 2b3f b579 1f3f 07ba 383f
00000020: c384 203f f4f9 343f a92d 283f 0332 0c3f
00000030: 9297 123f 97e4 373f 1279 353f e17e 363f
00000040: 59f3 2d3f 078b 1e3f e299 383f b6ab 203f
00000050: 5f5d 133f 46c7 193f b094 393f a659 343f
00000060: 1992 333f 765f 293f 15e4 343f 0266 003f
00000070: c85c 073f ae99 3b3f 8d0d 353f e254 253f
0.6265465 0.6016011 0.6540582 0.5640925 0.56232345 0.6703186 0.62295085 0.72158855
0.6270258 0.706939 0.6569467 0.5476381 0.5726253 0.71833175 0.70887864 0.7128735
0.67949444 0.6193089 0.72109807 0.6276201 0.5756435 0.6006969 0.72492504 0.7044929
0.701448 0.66161287 0.70660526 0.5015565 0.5287595 0.7328137 0.707238 0.64582646

res_blocks.0.batch_norm.bias f4 [32]
00000000: b087 42bd 4798 943b 87a6 fd3c 87fa d23a
00000010: f5c7 853c a982 c3bc 677c a7bc d87f 213d
00000020: 390f ca3c d057 0b3d e61b 213c 8386 5abc
00000030: e98f 293a adec 703d 0a7f 013c 5c19 e53c
00000040: ea22 3b3d 3f67 5a3c 4fa9 953d e8ab 963c
00000050: 1db1 e23b 87d0 333c 3274 793d 32b7 243d
00000060: 3965 6d3b 7f26 ba3b 17f2 ab3c 36ed 42bd
00000070: c8a5 a3bc 5be3 e93c 8cc3 953c 8ff1 b33d
-0.047492683 0.0045347544 0.030963195 0.0016096391 0.016330699 -0.023866015 -0.020445062 0.039428562
0.024665462 0.03401929 0.009833312 -0.013337734 0.00064682827 0.05881946 0.007903824 0.027966194
0.045687594 0.01333028 0.07307684 0.018392518 0.006918086 0.01097501 0.060901828 0.04021377
0.0036223663 0.0056808586 0.02098946 -0.047589503 -0.019976512 0.028550794 0.01828172 0.08786308

res_blocks.0.batch_norm.running_mean f4 [32]
00000000: 7a38 66be 04d8 96bf fee1 f7be c8ba 64bf
00000010: defb 8ebe 7a26 adbf b922 94bf cd94 5ebd
00000020: da1b 8b3f aad2 9c3f bab2 5cbf 2059 13c0
00000030: 8200 b8bf 1d75 4d3e 3a40 b73e 8d45 d83f
00000040: e547 593f 36a5 fb3f fb3c bc3e d837 05c0
00000050: 8267 eabf 62ab b53f 530a 853f 92c6 20bf
00000060: 8ed6 aa3f b8f8 9abf bacb 7c3e 6abc 60c0
00000070: 4de2 af40 c6ce 57bf 2b22 b83f 46ce 513f
-0.22482482 -1.1784673 -0.48414606 -0.89347506 -0.27926534 -1.3527367 -1.1573097 -0.054341126
1.0867875 1.225179 -0.86210215 -2.3023148 -1.4375155 0.20064206 0.35791188 1.6896225
0.8487533 1.9659793 0.36765274 -2.0815334 -1.8312838 1.4192927 1.0393776 -0.62802994
1.3346727 -1.2107153 0.2468709 -3.5115 5.4963746 -0.84299886 1.4385427 0.81955373

res_blocks.0.batch_norm.running_var f4 [32]
00000000: 5e75 0641 3b5e 3d41 3220 5e41 f51a 3a41
00000010: 0bde 2541 ff2d 1f41 8a68 2741 e223 bb40
00000020: b3e8 5241 5ab4 0441 dbc3 1d41 daa4 4041
00000030: 1d76 b741 507c e740 ff74 8141 20f3 4b41
00000040: 9186 6441 bd0b 1441 d976 1341 ab11 7441
00000050: 34b3 3541 2b3d 1441 d8b5 5541 29ca e040
00000060: 989f 1741 3a01 3741 196c 2b41 94e9 ec41
00000070: 7ed2 1542 1684 bb40 1270 3c41 17e1 0241
8.403654 11.8355055 13.88286 11.631581 10.36671 9.9487295 10.463022 5.84813
13.181811 8.294031 9.860316 12.040247 22.932673 7.233925 16.182127 12.746857
14.282853 9.252866 9.216516 15.254313 11.356251 9.264934 13.356895 7.0246778
9.476463 11.437799 10.713891 29.614052 37.45556 5.859874 11.777361 8.179954

res_blocks.1.conv.weight f4 [32, 32, 3, 3]
00000000: a4b5 a83d 350a dd3d 20ad 4fbd 98aa 373e
00000010: 5a50 dcbd 4799 123b 9770 7dbd d222 cabb
00000020: d3dc 303d df0b 05bb b10d a4bc e4cf 363d
00000030: 7bd7 4abd 57a1 e23d 5af6 273d e559 7abc
00000040: a8fd a2bd 6108 a73d 7ae8 7a3c d3a6 e4bd
00000050: 7de9 0abe 7043 31be 9ce8 78be 5f2e 0b3d
00000060: 144f 0cbe af4a e7bd 6de7 b6bb fe36 053d
00000070: 8e7f cd3d 2b4c d4bd 22b9 84bd 722e 6cbd
00000080: d3ce adbb 80ae 583d 038e 60be 2a2e 62bd
00000090: 8bdc 21bc 6219 473d 06b2 31bd 1662 b13d
000000a0: 2bd8 86bd 36fd 1a3c d37f 95bd d176 ddbd
000000b0: 2e41 1abd 7b8b b8bd 8ecd e13c af68 5cbd
000000c0: 6edd cbbd 2e23 d5bd 8c1e 5f3d 7439 5cbd
000000d0: cdfb dfbd a440 113e a328 d03a 6aef 8d3c
000000e0: 56c0 03bc 0381 80bd 8839 44bd 9d82 813d
000000f0: cbb1 97bd 7c4b fbbc 5a15 abbd ec9e e7bc
00000100: 7c2f 70bc ab79 2abc 915a 17be bb4e 40bd
00000110: 2605 553d b428 4a3d 9e17 763d 6119 6e3d
00000120: 31e8 f8b9 5fd2 513d 856d 5f3d ac2b 05be
00000130: 9399 8ebd 2ee3 443d c4cd 8fbd 4cb2 dfba
00000140: 3e15 513d d32f f73d e6c6 563d 3f29 7d3c
00000150: d494 6cbd b104 abbc 35ed a43d f40e 19bd
00000160: 378d adbd c81d eeba 9664 9fbd 876e 813d
00000170: a115 dfbd 506c 45bd 1479 373a e4a6 1b3d
00000180: 8ed3 0c3e 646b e9bc d327 0fbe 62a2 30bd
00000190: 0fd8 8c3d d27c ecbc 76ab 263e f0ed 9a3c
000001a0: e7e2 ecbd 28e5 f9bd a94f 833d d792 eabc
000001b0: a2c7 e93d e150 063d 2da3 c6bd 6bbb 6d3c
000001c0: 37b9 bbbd cef1 67bd 829a bdbd 49fd 913d
000001d0: 833d 77bd 9f1a 283e 2d4c c23d 4293 ae3c
000001e0: 6059 d8bd c6a6 133d 8ff8 b83d 1822 b53d
000001f0: 4cd4 b2bd ebd6 923d 0d35 c83d b095 613d
00000200: c76e ab3d 6f6b b13c 39b6 6e3c 0039 60bd
00000210: eaea bd3d 2471 a83d 8945 abbd 60f9 43bd
00000220: 2d8a d63c 7f55 1bbd 9a92 ec3d 32ac 00bd
00000230: ed26 283d de1f 2c3c bb64 c8bb 187e 453d
00000240: ef68 773d 0044 efbc 2dac e73d efba ab3d
00000250: 8c08 b53c 7990 fa3c 227d a63c 809b 35bd
00000260: 3a48 2abd d9cb 53be 31bc 7abd 8930 0f3a
00000270: de32 d6bc 3572 98bb 5893 6f3d 8e1d 25bd
00000280: 7ec7 133e adb0 3fbc ee53 a9bc 9e8a 503d
00000290: e931 d8bc e56d 7a3d 9779 ad3d 189a 243e
000002a0: f88c f73c 7476 d63c 0920 09bd e316 d93c
000002b0: 769b 113d 8187 ebbd f010 753d f7d2 393d
000002c0: c96c 00bd 5707 4fbd d58b b5bc 4d9d 1cbc
000002d0: 9482 b6bc 4533 c7bd 20f5 cebd 6087 f8bd
000002e0: 6e03 51ba 1d61 10be 2ec8 39bd 841c 51bd
000002f0: 44a1 aabd 7423 8b3b 7a2e 0f3d 5838 35bd
00000300: 134a 00bd 6a11 0fbd abec 14bd 203c 8e3d
00000310: 123f e53d c12c 92bd f897 35ba 78a6 183d
00000320: 72bf 7ebd f64a 643d 82fa c3bd 0b52 cd3d
00000330: b764 bb3d 7c48 5bbc 122d febd 58e7 9bbc
00000340: e47e e8bb 55c7 0b3d 17fa 0cbe fa04 ef3c
00000350: 2bb0 203d ae68 2d3e 3c16 243e 7f05 393c
00000360: fe26 1c3e f7aa 183d ef42 76bd ac75 96bd
00000370: 3e31 2c3e 5384 da3d b7eb 463e f5bb 08be
00000380: 5fd4 d0bd 1fed 8e3c 7a90 003c c6f0 28bd
00000390: 10eb d43c 6a63 c2bd 0f78 42bd 3bcf a4bd
000003a0: 052c 20bd d4ae 5d3d e458 b4ba 05da 3d3d
000003b0: f03d 1dbc 4216 fe3d 19f8 fbbb 2cec d2bc
000003c0: a55d 9d3e b6fe 683d 18ca 9d3d 2eaa 04be
000003d0: 7dae 7f3d 1ef2 123e c471 173d 2ee9 7fbc
000003e0: f0cd a5bd 51cc 763e 0ef6 69bd c949 903d
000003f0: 0838 dabc fa62 753d bb83 2ebe 8923 4dbe
0.0823777 0.107929625 -0.050702214 0.1793617 -0.10757513 0.0022369192 -0.061874952 -0.0061687017
0.043179344 -0.0020301265 -0.02002606 0.044631854 -0.049521904 0.110659294 0.041006424 -0.015280222
-0.07958537 0.08155895 0.015314216 -0.11164632 -0.13565631 -0.17310882 -0.24307483 0.03397977
-0.13702041 -0.11293542 -0.0055817873 0.032523148 0.10034095 -0.103660904 -0.06480624 -0.05766148
-0.0053041964 0.05290079 -0.21929173 -0.055219807 -0.009879242 0.04860819 -0.043382667 0.086612865
-0.065841995 0.009459784 -0.07299771 -0.10813678 -0.037659816 -0.09010979 0.027563836 -0.05381077
-0.09954344 -0.104071006 0.05447249 -0.05376573 -0.10936699 0.14184815 0.0015881251 0.017326076
-0.008041462 -0.06274607 -0.04790643 0.06323741 -0.07406958 -0.030675642 -0.08353682 -0.028274022
-0.014659759 -0.0104049845 -0.14780642 -0.046950083 0.052006863 0.049355224 0.060081117 0.058129672
-0.00047475242 0.051226016 0.054547805 -0.13004941 -0.06962886 0.048068218 -0.070216686 -0.0017066686
0.05104565 0.120696686 0.052435778 0.015451728 -0.05775912 -0.02087626 0.08053056 -0.037367776
-0.084742 -0.0018166834 -0.07782857 0.063199095 -0.10892797 -0.048198998 0.0006998938 0.038000956
0.13752577 -0.02849359 -0.13980035 -0.04312361 0.068771474 -0.028868113 0.16276345 0.018912286
-0.11566716 -0.12201911 0.06411678 -0.028634472 0.1141503 0.032791976 -0.09699092 0.014510016
-0.09166186 -0.056627087 -0.09257986 0.071283884 -0.060361397 0.16416405 0.094871856 0.021310452
-0.10563922 0.03604772 0.09031784 0.088443935 -0.08731899 0.071698986 0.09775744 0.055074394
0.083707385 0.021657674 0.014569812 -0.05474186 0.09273322 0.08224705 -0.08362872 -0.047845244
0.026188934 -0.037923332 0.115513995 -0.03141422 0.041052748 0.010505645 -0.0061155236 0.048215955
0.060402807 -0.02920723 0.11312137 0.08385264 0.022098802 0.030586468 0.02032334 -0.04433775
-0.041572787 -0.2068323 -0.06121463 0.00054622494 -0.026147302 -0.0046522864 0.058490127 -0.04031139
0.14431569 -0.011699838 -0.020669904 0.050913446 -0.026390987 0.06113996 0.08470457 0.16074407
0.030218586 0.02617953 -0.033477817 0.026500171 0.03554865 -0.11500455 0.059830606 0.045367207
-0.031353746 -0.05054411 -0.022161404 -0.009558988 -0.022279061 -0.09726576 -0.10105348 -0.12135196
-0.00079732283 -0.14099546 -0.04535692 -0.051052585 -0.0833154 0.0042461697 0.034956433 -0.044243187
-0.031320643 -0.034928717 -0.036358517 0.06945062 0.1119367 -0.071374424 -0.0006927247 0.037268132
-0.062194295 0.05573555 -0.09569265 0.10025414 0.09150069 -0.013383981 -0.1241094 -0.019031212
-0.0070952047 0.034125645 -0.13767277 0.029177178 0.039230507 0.16934463 0.16024107 0.011292814
0.1524925 0.03727242 -0.060122427 -0.07346663 0.1681566 0.1066977 0.19425856 -0.1335295
-0.101967566 0.017447053 0.007846946 -0.041245244 0.025990993 -0.09491618 -0.047477778 -0.080473386
-0.03910448 0.054121807 -0.0013759402 0.046350498 -0.009597287 0.12406589 -0.0076894877 -0.025747381
0.30735508 0.056883536 0.07704562 -0.12955543 0.062422264 0.14350173 0.03697373 -0.015619559
-0.0809592 0.24101378 -0.05711942 0.070453234 -0.026638046 0.059908845 -0.17042439 -0.20033087

res_blocks.1.batch_norm.weight f4 [32]
00000000: 5a65 203f 8802 1a3f 5c70 273f 5e68 103f
00000010: 6ef4 0f3f 009a 2b3f b579 1f3f 07ba 383f
00000020: c384 203f f4f9 343f a92d 283f 0332 0c3f
00000030: 9297 123f 97e4 373f 1279 353f e17e 363f
00000040: 59f3 2d3f 078b 1e3f e299 383f b6ab 203f
00000050: 5f5d 133f 46c7 193f b094 393f a659 343f
00000060: 1992 333f 765f 293f 15e4 343f 0266 003f
00000070: c85c 073f ae99 3b3f 8d0d 353f e254 253f
0.6265465 0.6016011 0.6540582 0.5640925 0.56232345 0.6703186 0.62295085 0.72158855
0.6270258 0.706939 0.6569467 0.5476381 0.5726253 0.71833175 0.70887864 0.7128735
0.67949444 0.6193089 0.72109807 0.6276201 0.5756435 0.6006969 0.72492504 0.7044929
0.701448 0.66161287 0.70660526 0.5015565 0.5287595 0.7328137 0.707238 0.64582646

res_blocks.1.batch_norm.bias f4 [32]
00000000: b087 42bd 4798 943b 87a6 fd3c 87fa d23a
00000010: f5c7 853c a982 c3bc 677c a7bc d87f 213d
00000020: 390f ca3c d057 0b3d e61b 213c 8386 5abc
00000030: e98f 293a adec 703d 0a7f 013c 5c19 e53c
00000040: ea22 3b3d 3f67 5a3c 4fa9 953d e8ab 963c
00000050: 1db1 e23b 87d0 333c 3274 793d 32b7 243d
00000060: 3965 6d3b 7f26 ba3b 17f2 ab3c 36ed 42bd
00000070: c8a5 a3bc 5be3 e93c 8cc3 953c 8ff1 b33d
-0.047492683 0.0045347544 0.030963195 0.0016096391 0.016330699 -0.023866015 -0.020445062 0.039428562
0.024665462 0.03401929 0.009833312 -0.013337734 0.00064682827 0.05881946 0.007903824 0.027966194
0.045687594 0.01333028 0.07307684 0.018392518 0.006918086 0.01097501 0.060901828 0.04021377
0.0036223663 0.0056808586 0.02098946 -0.047589503 -0.019976512 0.028550794 0.01828172 0.08786308

res_blocks.1.batch_norm.running_mean f4 [32]
00000000: 7a38 66be 04d8 96bf fee1 f7be c8ba 64bf
00000010: defb 8ebe 7a26 adbf b922 94bf cd94 5ebd
00000020: da1b 8b3f aad2 9c3f bab2 5cbf 2059 13c0
00000030: 8200 b8bf 1d75 4d3e 3a40 b73e 8d45 d83f
00000040: e547 593f 36a5 fb3f fb3c bc3e d837 05c0
00000050: 8267 eabf 62ab b53f 530a 853f 92c6 20bf
00000060: 8ed6 aa3f b8f8 9abf bacb 7c3e 6abc 60c0
00000070: 4de2 af40 c6ce 57bf 2b22 b83f 46ce 513f
-0.22482482 -1.1784673 -0.48414606 -0.89347506 -0.27926534 -1.3527367 -1.1573097 -0.054341126
1.0867875 1.225179 -0.86210215 -2.3023148 -1.4375155 0.20064206 0.35791188 1.6896225
0.8487533 1.9659793 0.36765274 -2.0815334 -1.8312838 1.4192927 1.0393776 -0.62802994
1.3346727 -1.2107153 0.2468709 -3.5115 5.4963746 -0.84299886 1.4385427 0.81955373

res_blocks.1.batch_norm.running_var f4 [32]
00000000: 5e75 0641 3b5e 3d41 3220 5e41 f51a 3a41
00000010: 0bde 2541 ff2d 1f41 8a68 2741 e223 bb40
00000020: b3e8 5241 5ab4 0441 dbc3 1d41 daa4 4041
00000030: 1d76 b741 507c e740 ff74 8141 20f3 4b41
00000040: 9186 6441 bd0b 1441 d976 1341 ab11 7441
00000050: 34b3 3541 2b3d 1441 d8b5 5541 29ca e040
00000060: 989f 1741 3a01 3741 196c 2b41 94e9 ec41
00000070: 7ed2 1542 1684 bb40 1270 3c41 17e1 0241
8.403654 11.8355055 13.88286 11.631581 10.36671 9.9487295 10.463022 5.84813
13.181811 8.294031 9.860316 12.040247 22.932673 7.233925 16.182127 12.746857
14.282853 9.252866 9.216516 15.254313 11.356251 9.264934 13.356895 7.0246778
9.476463 11.437799 10.713891 29.614052 37.45556 5.859874 11.777361 8.179954

res_blocks.2.conv.weight f4 [32, 32, 3, 3]
00000000: a4b5 a83d 350a dd3d 20ad 4fbd 98aa 373e
00000010: 5a50 dcbd 4799 123b 9770 7dbd d222 cabb
00000020: d3dc 303d df0b 05bb b10d a4bc e4cf 363d
00000030: 7bd7 4abd 57a1 e23d 5af6 273d e559 7abc
00000040: a8fd a2bd 6108 a73d 7ae8 7a3c d3a6 e4bd
00000050: 7de9 0abe 7043 31be 9ce8 78be 5f2e 0b3d
00000060: 144f 0cbe af4a e7bd 6de7 b6bb fe36 053d
00000070: 8e7f cd3d 2b4c d4bd 22b9 84bd 722e 6cbd
00000080: d3ce adbb 80ae 583d 038e 60be 2a2e 62bd
00000090: 8bdc 21bc 6219 473d 06b2 31bd 1662 b13d
000000a0: 2bd8 86bd 36fd 1a3c d37f 95bd d176 ddbd
000000b0: 2e41 1abd 7b8b b8bd 8ecd e13c af68 5cbd
000000c0: 6edd cbbd 2e23 d5bd 8c1e 5f3d 7439 5cbd
000000d0: cdfb dfbd a440 113e a328 d03a 6aef 8d3c
000000e0: 56c0 03bc 0381 80bd 8839 44bd 9d82 813d
000000f0: cbb1 97bd 7c4b fbbc 5a15 abbd ec9e e7bc
00000100: 7c2f 70bc ab79 2abc 915a 17be bb4e 40bd
00000110: 2605 553d b428 4a3d 9e17 763d 6119 6e3d
00000120: 31e8 f8b9 5fd2 513d 856d 5f3d ac2b 05be
00000130: 9399 8ebd 2ee3 443d c4cd 8fbd 4cb2 dfba
00000140: 3e15 513d d32f f73d e6c6 563d 3f29 7d3c
00000150: d494 6cbd b104 abbc 35ed a43d f40e 19bd
00000160: 378d adbd c81d eeba 9664 9fbd 876e 813d
00000170: a115 dfbd 506c 45bd 1479 373a e4a6 1b3d
00000180: 8ed3 0c3e 646b e9bc d327 0fbe 62a2 30bd
00000190: 0fd8 8c3d d27c ecbc 76ab 263e f0ed 9a3c
000001a0: e7e2 ecbd 28e5 f9bd a94f 833d d792 eabc
000001b0: a2c7 e93d e150 063d 2da3 c6bd 6bbb 6d3c
000001c0: 37b9 bbbd cef1 67bd 829a bdbd 49fd 913d
000001d0: 833d 77bd 9f1a 283e 2d4c c23d 4293 ae3c
000001e0: 6059 d8bd c6a6 133d 8ff8 b83d 1822 b53d
000001f0: 4cd4 b2bd ebd6 923d 0d35 c83d b095 613d
00000200: c76e ab3d 6f6b b13c 39b6 6e3c 0039 60bd
00000210: eaea bd3d 2471 a83d 8945 abbd 60f9 43bd
00000220: 2d8a d63c 7f55 1bbd 9a92 ec3d 32ac 00bd
00000230: ed26 283d de1f 2c3c bb64 c8bb 187e 453d
00000240: ef68 773d 0044 efbc 2dac e73d efba ab3d
00000250: 8c08 b53c 7990 fa3c 227d a63c 809b 35bd
00000260: 3a48 2abd d9cb 53be 31bc 7abd 8930 0f3a
00000270: de32 d6bc 3572 98bb 5893 6f3d 8e1d 25bd
00000280: 7ec7 133e adb0 3fbc ee53 a9bc 9e8a 503d
00000290: e931 d8bc e56d 7a3d 9779 ad3d 189a 243e
000002a0: f88c f73c 7476 d63c 0920 09bd e316 d93c
000002b0: 769b 113d 8187 ebbd f010 753d f7d2 393d
000002c0: c96c 00bd 5707 4fbd d58b b5bc 4d9d 1cbc
000002d0: 9482 b6bc 4533 c7bd 20f5 cebd 6087 f8bd
000002e0: 6e03 51ba 1d61 10be 2ec8 39bd 841c 51bd
000002f0: 44a1 aabd 7423 8b3b 7a2e 0f3d 5838 35bd
00000300: 134a 00bd 6a11 0fbd abec 14bd 203c 8e3d
00000310: 123f e53d c12c 92bd f897 35ba 78a6 183d
00000320: 72bf 7ebd f64a 643d 82fa c3bd 0b52 cd3d
00000330: b764 bb3d 7c48 5bbc 122d febd 58e7 9bbc
00000340: e47e e8bb 55c7 0b3d 17fa 0cbe fa04 ef3c
00000350: 2bb0 203d ae68 2d3e 3c16 243e 7f05 393c
00000360: fe26 1c3e f7aa 183d ef42 76bd ac75 96bd
00000370: 3e31 2c3e 5384 da3d b7eb 463e f5bb 08be
00000380: 5fd4 d0bd 1fed 8e3c 7a90 003c c6f0 28bd
00000390: 10eb d43c 6a63 c2bd 0f78 42bd 3bcf a4bd
000003a0: 052c 20bd d4ae 5d3d e458 b4ba 05da 3d3d
000003b0: f03d 1dbc 4216 fe3d 19f8 fbbb 2cec d2bc
000003c0: a55d 9d3e b6fe 683d 18ca 9d3d 2eaa 04be
000003d0: 7dae 7f3d 1ef2 123e c471 173d 2ee9 7fbc
000003e0: f0cd a5bd 51cc 763e 0ef6 69bd c949 903d
000003f0: 0838 dabc fa62 753d bb83 2ebe 8923 4dbe
0.0823777 0.107929625 -0.050702214 0.1793617 -0.10757513 0.0022369192 -0.061874952 -0.0061687017
0.043179344 -0.0020301265 -0.02002606 0.044631854 -0.049521904 0.110659294 0.041006424 -0.015280222
-0.07958537 0.08155895 0.015314216 -0.11164632 -0.13565631 -0.17310882 -0.24307483 0.03397977
-0.13702041 -0.11293542 -0.0055817873 0.032523148 0.10034095 -0.103660904 -0.06480624 -0.05766148
-0.0053041964 0.05290079 -0.21929173 -0.055219807 -0.009879242 0.04860819 -0.043382667 0.086612865
-0.065841995 0.009459784 -0.07299771 -0.10813678 -0.037659816 -0.09010979 0.027563836 -0.05381077
-0.09954344 -0.104071006 0.05447249 -0.05376573 -0.10936699 0.14184815 0.0015881251 0.017326076
-0.008041462 -0.06274607 -0.04790643 0.06323741 -0.07406958 -0.030675642 -0.08353682 -0.028274022
-0.014659759 -0.0104049845 -0.14780642 -0.046950083 0.052006863 0.049355224 0.060081117 0.058129672
-0.00047475242 0.051226016 0.054547805 -0.13004941 -0.06962886 0.048068218 -0.070216686 -0.0017066686
0.05104565 0.120696686 0.052435778 0.015451728 -0.05775912 -0.02087626 0.08053056 -0.037367776
-0.084742 -0.0018166834 -0.07782857 0.063199095 -0.10892797 -0.048198998 0.0006998938 0.038000956
0.13752577 -0.02849359 -0.13980035 -0.04312361 0.068771474 -0.028868113 0.16276345 0.018912286
-0.11566716 -0.12201911 0.06411678 -0.028634472 0.1141503 0.032791976 -0.09699092 0.014510016
-0.09166186 -0.056627087 -0.09257986 0.071283884 -0.060361397 0.16416405 0.094871856 0.021310452
-0.10563922 0.03604772 0.09031784 0.088443935 -0.08731899 0.071698986 0.09775744 0.055074394
0.083707385 0.021657674 0.014569812 -0.05474186 0.09273322 0.08224705 -0.08362872 -0.047845244
0.026188934 -0.037923332 0.115513995 -0.03141422 0.041052748 0.010505645 -0.0061155236 0.048215955
0.060402807 -0.02920723 0.11312137 0.08385264 0.022098802 0.030586468 0.02032334 -0.04433775
-0.041572787 -0.2068323 -0.06121463 0.00054622494 -0.026147302 -0.0046522864 0.058490127 -0.04031139
0.14431569 -0.011699838 -0.020669904 0.050913446 -0.026390987 0.06113996 0.08470457 0.16074407
0.030218586 0.02617953 -0.033477817 0.026500171 0.03554865 -0.11500455 0.059830606 0.045367207
-0.031353746 -0.05054411 -0.022161404 -0.009558988 -0.022279061 -0.09726576 -0.10105348 -0.12135196
-0.00079732283 -0.14099546 -0.04535692 -0.051052585 -0.0833154 0.0042461697 0.034956433 -0.044243187
-0.031320643 -0.034928717 -0.036358517 0.06945062 0.1119367 -0.071374424 -0.0006927247 0.037268132
-0.062194295 0.05573555 -0.09569265 0.10025414 0.09150069 -0.013383981 -0.1241094 -0.019031212
-0.0070952047 0.034125645 -0.13767277 0.029177178 0.039230507 0.16934463 0.16024107 0.011292814
0.1524925 0.03727242 -0.060122427 -0.07346663 0.1681566 0.1066977 0.19425856 -0.1335295
-0.101967566 0.017447053 0.007846946 -0.041245244 0.025990993 -0.09491618 -0.047477778 -0.080473386
-0.03910448 0.054121807 -0.0013759402 0.046350498 -0.009597287 0.12406589 -0.0076894877 -0.025747381
0.30735508 0.056883536 0.07704562 -0.12955543 0.062422264 0.14350173 0.03697373 -0.015619559
-0.0809592 0.24101378 -0.05711942 0.070453234 -0.026638046 0.059908845 -0.17042439 -0.20033087

res_blocks.2.batch_norm.weight f4 [32]
00000000: 5a65 203f 8802 1a3f 5c70 273f 5e68 103f
00000010: 6ef4 0f3f 009a 2b3f b579 1f3f 07ba 383f
00000020: c384 203f f4f9 343f a92d 283f 0332 0c3f
00000030: 9297 123f 97e4 373f 1279 353f e17e 363f
00000040: 59f3 2d3f 078b 1e3f e299 383f b6ab 203f
00000050: 5f5d 133f 46c7 193f b094 393f a659 343f
00000060: 1992 333f 765f 293f 15e4 343f 0266 003f
00000070: c85c 073f ae99 3b3f 8d0d 353f e254 253f
0.6265465 0.6016011 0.6540582 0.5640925 0.56232345 0.6703186 0.62295085 0.72158855
0.6270258 0.706939 0.6569467 0.5476381 0.5726253 0.71833175 0.70887864 0.7128735
0.67949444 0.6193089 0.72109807 0.6276201 0.5756435 0.6006969 0.72492504 0.7044929
0.701448 0.66161287 0.70660526 0.5015565 0.5287595 0.7328137 0.707238 0.64582646

res_blocks.2.batch_norm.bias f4 [32]
00000000: b087 42bd 4798 943b 87a6 fd3c 87fa d23a
00000010: f5c7 853c a982 c3bc 677c a7bc d87f 213d
00000020: 390f ca3c d057 0b3d e61b 213c 8386 5abc
00000030: e98f 293a adec 703d 0a7f 013c 5c19 e53c
00000040: ea22 3b3d 3f67 5a3c 4fa9 953d e8ab 963c
00000050: 1db1 e23b 87d0 333c 3274 793d 32b7 243d
00000060: 3965 6d3b 7f26 ba3b 17f2 ab3c 36ed 42bd
00000070: c8a5 a3bc 5be3 e93c 8cc3 953c 8ff1 b33d
-0.047492683 0.0045347544 0.030963195 0.0016096391 0.016330699 -0.023866015 -0.020445062 0.039428562
0.024665462 0.03401929 0.009833312 -0.013337734 0.00064682827 0.05881946 0.007903824 0.027966194
0.045687594 0.01333028 0.07307684 0.018392518 0.006918086 0.01097501 0.060901828 0.04021377
0.0036223663 0.0056808586 0.02098946 -0.047589503 -0.019976512 0.028550794 0.01828172 0.08786308

res_blocks.2.batch_norm.running_mean f4 [32]
00000000: 7a38 66be 04d8 96bf fee1 f7be c8ba 64bf
00000010: defb 8ebe 7a26 adbf b922 94bf cd94 5ebd
00000020: da1b 8b3f aad2 9c3f bab2 5cbf 2059 13c0
00000030: 8200 b8bf 1d75 4d3e 3a40 b73e 8d45 d83f
00000040: e547 593f 36a5 fb3f fb3c bc3e d837 05c0
00000050: 8267 eabf 62ab b53f 530a 853f 92c6 20bf
00000060: 8ed6 aa3f b8f8 9abf bacb 7c3e 6abc 60c0
00000070: 4de2 af40 c6ce 57bf 2b22 b83f 46ce 513f
-0.22482482 -1.1784673 -0.48414606 -0.89347506 -0.27926534 -1.3527367 -1.1573097 -0.054341126
1.0867875 1.225179 -0.86210215 -2.3023148 -1.4375155 0.20064206 0.35791188 1.6896225
0.8487533 1.9659793 0.36765274 -2.0815334 -1.8312838 1.4192927 1.0393776 -0.62802994
1.3346727 -1.2107153 0.2468709 -3.5115 5.4963746 -0.84299886 1.4385427 0.81955373

res_blocks.2.batch_norm.running_var f4 [32]
00000000: 5e75 0641 3b5e 3d41 3220 5e41 f51a 3a41
00000010: 0bde 2541 ff2d 1f41 8a68 2741 e223 bb40
00000020: b3e8 5241 5ab4 0441 dbc3 1d41 daa4 4041
00000030: 1d76 b741 507c e740 ff74 8141 20f3 4b41
00000040: 9186 6441 bd0b 1441 d976 1341 ab11 7441
00000050: 34b3 3541 2b3d 1441 d8b5 5541 29ca e040
00000060: 989f 1741 3a01 3741 196c 2b41 94e9 ec41
00000070: 7ed2 1542 1684 bb40 1270 3c41 17e1 0241
8.403654 11.8355055 13.88286 11.631581 10.36671 9.9487295 10.463022 5.84813
13.181811 8.294031 9.860316 12.040247 22.932673 7.233925 16.182127 12.746857
14.282853 9.252866 9.216516 15.254313 11.356251 9.264934 13.356895 7.0246778
9.476463 11.437799 10.713891 29.614052 37.45556 5.859874 11.777361 8.179954

res_blocks.3.conv.weight f4 [32, 32, 3, 3]
00000000: a4b5 a83d 350a dd3d 20ad 4fbd 98aa 373e
00000010: 5a50 dcbd 4799 123b 9770 7dbd d222 cabb
00000020: d3dc 303d df0b 05bb b10d a4bc e4cf 363d
00000030: 7bd7 4abd 57a1 e23d 5af6 273d e559 7abc
00000040: a8fd a2bd 6108 a73d 7ae8 7a3c d3a6 e4bd
00000050: 7de9 0abe 7043 31be 9ce8 78be 5f2e 0b3d
00000060: 144f 0cbe af4a e7bd 6de7 b6bb fe36 053d
00000070: 8e7f cd3d 2b4c d4bd 22b9 84bd 722e 6cbd
00000080: d3ce adbb 80ae 583d 038e 60be 2a2e 62bd
00000090: 8bdc 21bc 6219 473d 06b2 31bd 1662 b13d
000000a0: 2bd8 86bd 36fd 1a3c d37f 95bd d176 ddbd
000000b0: 2e41 1abd 7b8b b8bd 8ecd e13c af68 5cbd
000000c0: 6edd cbbd 2e23 d5bd 8c1e 5f3d 7439 5cbd
000000d0: cdfb dfbd a440 113e a328 d03a 6aef 8d3c
000000e0: 56c0 03bc 0381 80bd 8839 44bd 9d82 813d
000000f0: cbb1 97bd 7c4b fbbc 5a15 abbd ec9e e7bc
00000100: 7c2f 70bc ab79 2abc 915a 17be bb4e 40bd
00000110: 2605 553d b428 4a3d 9e17 763d 6119 6e3d
00000120: 31e8 f8b9 5fd2 513d 856d 5f3d ac2b 05be
00000130: 9399 8ebd 2ee3 443d c4cd 8fbd 4cb2 dfba
00000140: 3e15 513d d32f f73d e6c6 563d 3f29 7d3c
00000150: d494 6cbd b104 abbc 35ed a43d f40e 19bd
00000160: 378d adbd c81d eeba 9664 9fbd 876e 813d
00000170: a115 dfbd 506c 45bd 1479 373a e4a6 1b3d
00000180: 8ed3 0c3e 646b e9bc d327 0fbe 62a2 30bd
00000190: 0fd8 8c3d d27c ecbc 76ab 263e f0ed 9a3c
000001a0: e7e2 ecbd 28e5 f9bd a94f 833d d792 eabc
000001b0: a2c7 e93d e150 063d 2da3 c6bd 6bbb 6d3c
000001c0: 37b9 bbbd cef1 67bd 829a bdbd 49fd 913d
000001d0: 833d 77bd 9f1a 283e 2d4c c23d 4293 ae3c
000001e0: 6059 d8bd c6a6 133d 8ff8 b83d 1822 b53d
000001f0: 4cd4 b2bd ebd6 923d 0d35 c83d b095 613d
00000200: c76e ab3d 6f6b b13c 39b6 6e3c 0039 60bd
00000210: eaea bd3d 2471 a83d 8945 abbd 60f9 43bd
00000220: 2d8a d63c 7f55 1bbd 9a92 ec3d 32ac 00bd
00000230: ed26 283d de1f 2c3c bb64 c8bb 187e 453d
00000240: ef68 773d 0044 efbc 2dac e73d efba ab3d
00000250: 8c08 b53c 7990 fa3c 227d a63c 809b 35bd
00000260: 3a48 2abd d9cb 53be 31bc 7abd 8930 0f3a
00000270: de32 d6bc 3572 98bb 5893 6f3d 8e1d 25bd
00000280: 7ec7 133e adb0 3fbc ee53 a9bc 9e8a 503d
00000290: e931 d8bc e56d 7a3d 9779 ad3d 189a 243e
000002a0: f88c f73c 7476 d63c 0920 09bd e316 d93c
000002b0: 769b 113d 8187 ebbd f010 753d f7d2 393d
000002c0: c96c 00bd 5707 4fbd d58b b5bc 4d9d 1cbc
000002d0: 9482 b6bc 4533 c7bd 20f5 cebd 6087 f8bd
000002e0: 6e03 51ba 1d61 10be 2ec8 39bd 841c 51bd
000002f0: 44a1 aabd 7423 8b3b 7a2e 0f3d 5838 35bd
00000300: 134a 00bd 6a11 0fbd abec 14bd 203c 8e3d
00000310: 123f e53d c12c 92bd f897 35ba 78a6 183d
00000320: 72bf 7ebd f64a 643d 82fa c3bd 0b52 cd3d
00000330: b764 bb3d 7c48 5bbc 122d febd 58e7 9bbc
00000340: e47e e8bb 55c7 0b3d 17fa 0cbe fa04 ef3c
00000350: 2bb0 203d ae68 2d3e 3c16 243e 7f05 393c
00000360: fe26 1c3e f7aa 183d ef42 76bd ac75 96bd
00000370: 3e31 2c3e 5384 da3d b7eb 463e f5bb 08be
00000380: 5fd4 d0bd 1fed 8e3c 7a90 003c c6f0 28bd
00000390: 10eb d43c 6a63 c2bd 0f78 42bd 3bcf a4bd
000003a0: 052c 20bd d4ae 5d3d e458 b4ba 05da 3d3d
000003b0: f03d 1dbc 4216 fe3d 19f8 fbbb 2cec d2bc
000003c0: a55d 9d3e b6fe 683d 18ca 9d3d 2eaa 04be
000003d0: 7dae 7f3d 1ef2 123e c471 173d 2ee9 7fbc
000003e0: f0cd a5bd 51cc 763e 0ef6 69bd c949 903d
000003f0: 0838 dabc fa62 753d bb83 2ebe 8923 4dbe
0.0823777 0.107929625 -0.050702214 0.1793617 -0.10757513 0.0022369192 -0.061874952 -0.0061687017
0.043179344 -0.0020301265 -0.02002606 0.044631854 -0.049521904 0.110659294 0.041006424 -0.015280222
-0.07958537 0.08155895 0.015314216 -0.11164632 -0.13565631 -0.17310882 -0.24307483 0.03397977
-0.13702041 -0.11293542 -0.0055817873 0.032523148 0.10034095 -0.103660904 -0.06480624 -0.05766148
-0.0053041964 0.05290079 -0.21929173 -0.055219807 -0.009879242 0.04860819 -0.043382667 0.086612865
-0.065841995 0.009459784 -0.07299771 -0.10813678 -0.037659816 -0.09010979 0.027563836 -0.05381077
-0.09954344 -0.104071006 0.05447249 -0.05376573 -0.10936699 0.14184815 0.0015881251 0.017326076
-0.008041462 -0.06274607 -0.04790643 0.06323741 -0.07406958 -0.030675642 -0.08353682 -0.028274022
-0.014659759 -0.0104049845 -0.14780642 -0.046950083 0.052006863 0.049355224 0.060081117 0.058129672
-0.00047475242 0.051226016 0.054547805 -0.13004941 -0.06962886 0.048068218 -0.070216686 -0.0017066686
0.05104565 0.120696686 0.052435778 0.015451728 -0.05775912 -0.02087626 0.08053056 -0.037367776
-0.084742 -0.0018166834 -0.07782857 0.063199095 -0.10892797 -0.048198998 0.0006998938 0.038000956
0.13752577 -0.02849359 -0.13980035 -0.04312361 0.068771474 -0.028868113 0.16276345 0.018912286
-0.11566716 -0.12201911 0.06411678 -0.028634472 0.1141503 0.032791976 -0.09699092 0.014510016
-0.09166186 -0.056627087 -0.09257986 0.071283884 -0.060361397 0.16416405 0.094871856 0.021310452
-0.10563922 0.03604772 0.09031784 0.088443935 -0.08731899 0.071698986 0.09775744 0.055074394
0.083707385 0.021657674 0.014569812 -0.05474186 0.09273322 0.08224705 -0.08362872 -0.047845244
0.026188934 -0.037923332 0.115513995 -0.03141422 0.041052748 0.010505645 -0.0061155236 0.048215955
0.060402807 -0.02920723 0.11312137 0.08385264 0.022098802 0.030586468 0.02032334 -0.04433775
-0.041572787 -0.2068323 -0.06121463 0.00054622494 -0.026147302 -0.0046522864 0.058490127 -0.04031139
0.14431569 -0.011699838 -0.020669904 0.050913446 -0.026390987 0.06113996 0.08470457 0.16074407
0.030218586 0.02617953 -0.033477817 0.026500171 0.03554865 -0.11500455 0.059830606 0.045367207
-0.031353746 -0.05054411 -0.022161404 -0.009558988 -0.022279061 -0.09726576 -0.10105348 -0.12135196
-0.00079732283 -0.14099546 -0.04535692 -0.051052585 -0.0833154 0.0042461697 0.034956433 -0.044243187
-0.031320643 -0.034928717 -0.036358517 0.06945062 0.1119367 -0.071374424 -0.0006927247 0.037268132
-0.062194295 0.05573555 -0.09569265 0.10025414 0.09150069 -0.013383981 -0.1241094 -0.019031212
-0.0070952047 0.034125645 -0.13767277 0.029177178 0.039230507 0.16934463 0.16024107 0.011292814
0.1524925 0.03727242 -0.060122427 -0.07346663 0.1681566 0.1066977 0.19425856 -0.1335295
-0.101967566 0.017447053 0.007846946 -0.041245244 0.025990993 -0.09491618 -0.047477778 -0.080473386
-0.03910448 0.054121807 -0.0013759402 0.046350498 -0.009597287 0.12406589 -0.0076894877 -0.025747381
0.30735508 0.056883536 0.07704562 -0.12955543 0.062422264 0.14350173 0.03697373 -0.015619559
-0.0809592 0.24101378 -0.05711942 0.070453234 -0.026638046 0.059908845 -0.17042439 -0.20033087

res_blocks.3.batch_norm.weight f4 [32]
00000000: 5a65 203f 8802 1a3f 5c70 273f 5e68 103f
00000010: 6ef4 0f3f 009a 2b3f b579 1f3f 07ba 383f
00000020: c384 203f f4f9 343f a92d 283f 0332 0c3f
00000030: 9297 123f 97e4 373f 1279 353f e17e 363f
00000040: 59f3 2d3f 078b 1e3f e299 383f b6ab 203f
00000050: 5f5d 133f 46c7 193f b094 393f a659 343f
00000060: 1992 333f 765f 293f 15e4 343f 0266 003f
00000070: c85c 073f ae99 3b3f 8d0d 353f e254 253f
0.6265465 0.6016011 0.6540582 0.5640925 0.56232345 0.6703186 0.62295085 0.72158855
0.6270258 0.706939 0.6569467 0.5476381 0.5726253 0.71833175 0.70887864 0.7128735
0.67949444 0.6193089 0.72109807 0.6276201 0.5756435 0.6006969 0.72492504 0.7044929
0.701448 0.66161287 0.70660526 0.5015565 0.5287595 0.7328137 0.707238 0.64582646

res_blocks.3.batch_norm.bias f4 [32]
00000000: b087 42bd 4798 943b 87a6 fd3c 87fa d23a
00000010: f5c7 853c a982 c3bc 677c a7bc d87f 213d
00000020: 390f ca3c d057 0b3d e61b 213c 8386 5abc
00000030: e98f 293a adec 703d 0a7f 013c 5c19 e53c
00000040: ea22 3b3d 3f67 5a3c 4fa9 953d e8ab 963c
00000050: 1db1 e23b 87d0 333c 3274 793d 32b7 243d
00000060: 3965 6d3b 7f26 ba3b 17f2 ab3c 36ed 42bd
00000070: c8a5 a3bc 5be3 e93c 8cc3 953c 8ff1 b33d
-0.047492683 0.0045347544 0.030963195 0.0016096391 0.016330699 -0.023866015 -0.020445062 0.039428562
0.024665462 0.03401929 0.009833312 -0.013337734 0.00064682827 0.05881946 0.007903824 0.027966194
0.045687594 0.01333028 0.07307684 0.018392518 0.006918086 0.01097501 0.060901828 0.04021377
0.0036223663 0.0056808586 0.02098946 -0.047589503 -0.019976512 0.028550794 0.01828172 0.08786308

res_blocks.3.batch_norm.running_mean f4 [32]
00000000: 7a38 66be 04d8 96bf fee1 f7be c8ba 64bf
00000010: defb 8ebe 7a26 adbf b922 94bf cd94 5ebd
00000020: da1b 8b3f aad2 9c3f bab2 5cbf 2059 13c0
00000030: 8200 b8bf 1d75 4d3e 3a40 b73e 8d45 d83f
00000040: e547 593f 36a5 fb3f fb3c bc3e d837 05c0
00000050: 8267 eabf 62ab b53f 530a 853f 92c6 20bf
00000060: 8ed6 aa3f b8f8 9abf bacb 7c3e 6abc 60c0
00000070: 4de2 af40 c6ce 57bf 2b22 b83f 46ce 513f
-0.22482482 -1.1784673 -0.48414606 -0.89347506 -0.27926534 -1.3527367 -1.1573097 -0.054341126
1.0867875 1.225179 -0.86210215 -2.3023148 -1.4375155 0.20064206 0.35791188 1.6896225
0.8487533 1.9659793 0.36765274 -2.0815334 -1.8312838 1.4192927 1.0393776 -0.62802994
1.3346727 -1.2107153 0.2468709 -3.5115 5.4963746 -0.84299886 1.4385427 0.81955373

res_blocks.3.batch_norm.running_var f4 [32]
00000000: 5e75 0641 3b5e 3d41 3220 5e41 f51a 3a41
00000010: 0bde 2541 ff2d 1f41 8a68 2741 e223 bb40
00000020: b3e8 5241 5ab4 0441 dbc3 1d41 daa4 4041
00000030: 1d76 b741 507c e740 ff74 8141 20f3 4b41
00000040: 9186 6441 bd0b 1441 d976 1341 ab11 7441
00000050: 34b3 3541 2b3d 1441 d8b5 5541 29ca e040
00000060: 989f 1741 3a01 3741 196c 2b41 94e9 ec41
00000070: 7ed2 1542 1684 bb40 1270 3c41 17e1 0241
8.403654 11.8355055 13.88286 11.631581 10.36671 9.9487295 10.463022 5.84813
13.181811 8.294031 9.860316 12.040247 22.932673 7.233925 16.182127 12.746857
14.282853 9.252866 9.216516 15.254313 11.356251 9.264934 13.356895 7.0246778
9.476463 11.437799 10.713891 29.614052 37.45556 5.859874 11.777361 8.179954
