my_pt/1_model.pt (torch, 402936 bytes, 10 tensors)

conv1.weight f4 [64, 1, 5, 5]
000000 ad 6b a5 3d af 2e 10 3e 2d c6 5b 3d 8e 14 d6 bc
       0.08077178 0.14080308 0.053655792 -0.026132848
000010 74 89 1a be 41 84 32 3e 07 89 1b 3e db 5f 59 bd
       -0.15091497 0.17433263 0.1518899 -0.05306993
000020 25 95 f7 3c b1 4d d5 bd a4 f3 41 3e 79 8b b4 3d
       0.030222485 -0.10415209 0.18940598 0.08815665
000030 7e f5 0e bd 75 a7 b9 bc c6 1f b7 bd 85 ba 41 bd
       -0.03490209 -0.022662858 -0.08941607 -0.04729702
000040 30 41 cb bd a5 17 79 3d 85 73 cf 3c 6c 67 8b 3d
       -0.09924543 0.060813565 0.025323639 0.068068355
000050 3e 4b c5 bd 3c 00 00 3e 4f ca 31 be 68 c6 3e be
       -0.09633492 0.1250009 -0.17362331 -0.18630373
000060 5f 75 3a be 2c 2f 94 bd 9c 2e 82 bd ee 3d b3 3d
       -0.18208836 -0.0723556 -0.06356546 0.087520465
000070 f9 ea 1d be d9 31 fc 3d b9 58 0b 3c 98 5d 17 be
       -0.15421666 0.12314195 0.00850504 -0.14781797
000080 bd fe 16 be d2 a6 2f bd 69 43 86 bd 3b 6c b1 bd
       -0.14745612 -0.0428837 -0.06555826 -0.086632214
000090 69 80 1e 3e ee 5b 19 bd 8e 69 90 bd b9 e0 61 be
       0.15478672 -0.037441187 -0.07051383 -0.22058381
0000a0 11 5b cc bd 57 d3 85 bd 15 35 b8 3d 82 ff 1b be
       -0.09978307 -0.065344505 0.089944996 -0.15234187
0000b0 c1 fe 39 be bb 91 7a 3d 73 fe 1f be 8e 3d 51 be
       -0.18163587 0.061174136 -0.15624408 -0.20433637
0000c0 a6 1d 59 be a2 70 ad bc ab a1 ec 3d d5 50 13 be
       -0.21202716 -0.021171872 0.11554273 -0.14386304
0000d0 ea 1a 2f 3e 3a ef 20 be 4c b2 97 3d cb fa 18 3e
       0.1710011 -0.15716258 0.07407054 0.1493942
0000e0 77 aa 83 bd f9 b9 c1 3d b3 e4 6d bc cd 71 1a 3e
       -0.06428998 0.094592996 -0.014519858 0.15082474
0000f0 37 e2 4e be 0f d6 02 be 71 83 24 3d c1 4b 46 bd
       -0.20203482 -0.1277697 0.040164415 -0.04841209
000100 29 d0 9e bd 52 92 42 3d 81 8e b4 bc 14 25 4e bb
       -0.07754547 0.047502823 -0.022040607 -0.0031455206
000110 05 e6 17 bd 5d 80 1c 3c f6 e2 26 bb eb bf 99 3c
       -0.037084598 0.009552089 -0.002546487 0.018768271
000120 de 98 19 be 13 59 db 3c c4 1a e9 bd 7c ae 30 3e
       -0.1499972 0.026775872 -0.11382058 0.1725406
000130 4d 05 02 3d e3 ff ae bd ff 42 f1 3c 44 0f 22 3e
       0.031743336 -0.085449 0.029450892 0.15826136
000140 c4 13 c7 bd cb ce 36 be 1a 7f 95 bb 6f db eb bd
       -0.09720567 -0.17852323 -0.004562271 -0.11516463
000150 38 b0 ec bb 08 b9 3b 3e 8a 9e 7c bc c2 ed 90 bd
       -0.0072231553 0.18332303 -0.015418658 -0.07076599
000160 05 f1 e9 bd d9 9d 78 3d d0 cc 93 bd 2d 9c 35 be
       -0.11422924 0.06069741 -0.07216799 -0.17735358
000170 d2 a9 27 be f9 3e 7c bb d9 b7 c5 3d e0 9f 22 3e
       -0.16373375 -0.0038489683 0.09654207 0.158813
000180 da 01 ce 3c d6 8e 26 bd d0 16 cc 3d 9c 8b 00 3e
       0.025147367 -0.040663563 0.09965289 0.12553257
000190 16 df 1d 3e 38 82 ce 3d 86 1a 01 3e c6 90 50 3e
       0.15417132 0.10083431 0.12607774 0.20367727
0001a0 7b cd b8 bd a8 4a 31 3c 32 e6 0c be 25 80 0d 3e
       -0.09023567 0.010821022 -0.13759688 0.13818415
0001b0 0c cf 2a bc a7 1f 54 bd eb 94 85 3d e0 35 47 3e
       -0.01042534 -0.051788 0.065225445 0.19454145
0001c0 fa 3d 43 be 6e 91 b7 bd 39 03 16 3e 8b ba 33 be
       -0.19066611 -0.089632854 0.14649667 -0.17551629
0001d0 aa fc a9 3d 66 01 d9 3b 55 98 21 3b 22 a5 48 be
       0.08300145 0.006622481 0.0024657447 -0.19594243
0001e0 5d 6b c2 3c 63 ff 34 3e 63 22 d4 3d 09 da 2a bd
       0.023732835 0.17675547 0.10358121 -0.04171184
0001f0 76 72 06 be b3 71 fe bd e3 c0 0d 3b d4 2d 9d bd
       -0.13129601 -0.1242403 0.0021629862 -0.07674757
000200 ee 99 11 3e 0d 02 ee bc 4e b2 49 3d 4e 5c e6 3d
       0.14218876 -0.029053712 0.04924231 0.112480745
000210 41 ef cb bd 39 8e 22 3e fb 81 c1 bd 83 ec 29 be
       -0.099577434 0.15874566 -0.0944862 -0.16594128
000220 b9 10 04 3e bf 81 ce bc cc 68 90 3d 77 fb 36 3e
       0.12897004 -0.025208352 0.070512384 0.17869364
000230 89 f9 d2 bd c3 43 0e be 55 c9 3b be 52 ff f0 bd
       -0.10301501 -0.13893037 -0.18338521 -0.117674485
000240 5a 54 f4 3d 38 0d b8 bb 55 44 42 3d b4 b5 33 3d
       0.11930151 -0.00561681 0.047428448 0.043874457
000250 73 31 10 3e 3b 3a 9f 3c 08 27 22 be 84 ea a8 3d
       0.14081363 0.019436946 -0.15835202 0.08247855
000260 66 7f 74 bd 0e 39 01 3e f1 41 28 3e cf 90 96 3b
       -0.05969181 0.12619421 0.16431405 0.0045948992
000270 06 85 f8 bd df cb 7b 3d 5c 71 f8 bd d2 ac e8 3c
       -0.12134747 0.061473724 -0.121309966 0.02840272
000280 46 ca 37 be 09 eb 31 3d f4 72 b9 bd 84 50 f1 3d
       -0.17948255 0.043437038 -0.09055129 0.11782935
000290 6b f1 ac 3d 07 c9 12 be 7a 20 63 3d 68 ef 3a 3e
       0.08444484 -0.14334498 0.055450894 0.18255389
0002a0 60 50 31 3e 0f 89 57 3d 75 10 1b bc f4 67 7b 3a
       0.17315817 0.052620944 -0.009464373 0.00095903804
0002b0 fd 76 a2 bc c7 14 c6 bd 0a 2c 35 3d ca 4e 49 be
       -0.019832129 -0.09671932 0.044231452 -0.19658962
0002c0 67 40 08 be fc 24 8e 3d 03 18 2d bd 6b c2 29 be
       -0.13305818 0.06940648 -0.042259227 -0.16578071
0002d0 cc 80 d0 3d ad 2b 13 be e4 75 4d 3e f8 8d 58 bb
       0.10180816 -0.1437213 0.20064503 -0.0033043604
0002e0 d4 e4 0a 3e e9 c0 04 3c c2 fd 46 3e be 65 be 3d
       0.13563854 0.008102634 0.19432738 0.092967495
0002f0 e9 d5 2f 3e 3a 8f 08 3e b6 e5 60 bd 54 46 24 3e
       0.17171444 0.13335887 -0.05490657 0.16042453
000300 a3 8d 02 3e fb dc 12 be 6b a5 ce 3d 5c 1b cb 3d
       0.12749343 -0.1434211 0.10090145 0.09917328
000310 5c 39 cc 3d 46 b4 85 3d 2f 4a da 3d 7f e8 32 be
       0.09971878 0.06528525 0.10658681 -0.17471503
000320 b4 af d5 3d 49 43 c0 3c 44 da 45 3e 1c 87 0d 3e
       0.10433903 0.023469584 0.19321543 0.13821071
000330 1f bc 1d be a2 3b 8a 3c 3c 9c cd bb f1 da e2 3d
       -0.15403794 0.016874138 -0.006274728 0.11076916
000340 14 4e 21 be 50 3f f2 bd 3a 95 2d 3e 87 d8 2b 3e
       -0.1575244 -0.11828482 0.16951457 0.16781817
000350 89 93 4f 3e 5c 20 4b bd cd 74 07 3e 5c a2 48 be
       0.20271124 -0.049591407 0.1322815 -0.19593185
000360 fa 74 1d be be 05 27 be 28 ef 3d 3e 69 c1 ee 3d
       -0.15376654 -0.16310784 0.18548262 0.11657984
000370 32 72 46 bd 0e f2 ee bd c9 90 12 3e 65 3e f2 3d
       -0.04844875 -0.11667262 0.14313044 0.11828307
000380 9c 1a 25 3e 75 4a 6a 3d 03 70 3c 3e 08 c6 83 bd
       0.16123432 0.057199914 0.18402104 -0.06434256
000390 4d 7a 9a bc 6f 4c 32 3e f1 0a 02 3e a7 49 0f 3e
       -0.018857146 0.1741197 0.12699486 0.1399294
0003a0 75 0e 27 3e 88 d0 3c 3e 39 df 1f be 8b 47 ef bd
       0.16314109 0.18438923 -0.15612496 -0.116835676
0003b0 47 7f 24 be 92 d8 dd bd 47 c2 89 3c db d2 29 be
       -0.16064177 -0.10832323 0.016816271 -0.16584341
0003c0 b9 13 4a bd af 92 7e 3d 79 cb 24 3e a1 26 36 be
       -0.049335215 0.062151607 0.16093244 -0.17788173
0003d0 44 66 3b 3e 78 ec e1 3d e2 6f 21 be 51 1b be 3c
       0.1830073 0.11031431 -0.15765336 0.023206385
0003e0 6c 13 44 3e a7 8c c3 3b 9f ad fb 3d 18 c4 06 be
       0.19148034 0.005967695 0.12288975 -0.13160741
0003f0 7f 07 05 3e e2 49 72 3a 97 b4 70 38 7e 28 8d bd
       0.12991141 0.0009242577 5.7388646e-05 -0.06892489

conv1.bias f4 [64]
000000 35 ce e4 bb db 2a 26 be a2 fd a0 bd ae 71 2a be
       -0.0069825896 -0.16227286 -0.078608766 -0.16644928
000010 86 d4 41 3e 74 e2 d1 bd 87 49 10 3d e3 27 32 be
       0.18928728 -0.10248271 0.03522637 -0.17398028
000020 4e 33 31 3e 87 2f db 3c ec 84 eb 3d 86 be fb 3a
       0.17304727 0.026756061 0.11499962 0.0019206561
000030 15 2c 37 3e 9d 4a d3 3d b0 61 2a 3e ae a3 3a 3d
       0.1788791 0.10316966 0.16638827 0.045566253
000040 c5 e7 9e bd e8 2f 25 be 0e bc 54 3e 91 18 43 3d
       -0.0775905 -0.16131556 0.20774862 0.04763085
000050 88 bc 05 be 8b 37 5e 3d 84 d1 59 bc 29 38 d2 3d
       -0.130602 0.05425219 -0.013294581 0.10264618
000060 6a 31 e2 bd 9c 4f 00 bd 99 f2 2e be 0c 5c 55 3c
       -0.11044581 -0.03132592 -0.17084731 0.013022434
000070 d9 12 ab 3d 6a 80 1d be 53 59 d8 bd a8 83 17 be
       0.08353204 -0.15381017 -0.10563912 -0.14796317
000080 8f 9b 1d 3e e9 b4 9e bd 30 ac 21 be 4f 15 8a bd
       0.15391372 -0.077493496 -0.1578834 -0.067423455
000090 a1 88 70 bd eb 5d 29 3e 19 29 50 be 60 25 58 bd
       -0.05872405 0.16539733 -0.20328178 -0.05277002
0000a0 76 b7 d7 3d 75 91 71 3d 73 c7 16 3e ab 6a 1c be
       0.10533039 0.05897661 0.14724521 -0.15275066
0000b0 af 11 07 be 8b 44 2c 3e fc 6d 13 bc 8d a4 3a 3e
       -0.1319034 0.16823022 -0.00899839 0.18226834
0000c0 76 26 43 3e 97 35 46 3d e2 d2 c8 bc a8 b1 94 3d
       0.1905764 0.04839095 -0.02451462 0.07260448
0000d0 9f c8 a4 bd e1 19 88 bd 05 87 ca bd 24 f1 d1 3d
       -0.08046078 -0.06645561 -0.09889034 0.10251072
0000e0 43 c0 c2 bd 4c da 78 3d 98 1e 53 be c1 53 b1 bc
       -0.09509327 0.06075506 -0.2061714 -0.021646382
0000f0 a0 af 3b 3e 04 64 ae bd 10 5b 48 be 46 af 46 bd
       0.18328714 -0.0851517 -0.19565988 -0.048506998

conv2.weight f4 [32, 64, 3, 3]
000000 69 0e 87 3c 4b 5f 68 bb c2 01 e1 3c ae 21 3b bd
       0.016486363 -0.003545719 0.027466659 -0.045686416
000010 d3 63 c2 bc 36 5e 64 bc be ff 2c bd 8e 46 e5 bb
       -0.02372924 -0.013938477 -0.042236082 -0.006996936
000020 00 0a 69 bb 6c 83 77 3b 6a 2a 42 bd da 8c c2 3c
       -0.003555894 0.0037767543 -0.04740373 0.023748804
000030 4d 1b 3e bd a7 68 36 bd 66 0d bb 3c 57 7b 1d 3c
       -0.046412755 -0.044533398 0.022833537 0.009611926
000040 c6 e9 11 bc 8d 05 82 bc 47 c4 e2 bc 9c e0 0c bc
       -0.008905834 -0.015871787 -0.027681483 -0.008598473
000050 9e 1f e4 3c fe 62 46 3a 5c 08 8a bc 02 45 03 bd
       0.027847107 0.00075678516 -0.01684969 -0.032048233
000060 db 24 1d 3d 85 8d 0e 3d f7 ca 08 3d ed d3 16 bd
       0.038365226 0.034802932 0.033396687 -0.036823202
000070 73 1c 0c bb 83 40 de 3c b4 ba 7a bc 28 0c af ba
       -0.0021379262 0.027130371 -0.015303303 -0.0013355063
000080 83 b1 c9 bb fa ba 94 3c d1 15 e9 3c b2 71 12 3b
       -0.0061551942 0.018155564 0.028452786 0.00223456
000090 d5 a6 09 b9 1a 35 f5 3c 9c a6 7c bc ee 0c f6 3c
       -0.00013127488 0.029932547 -0.015420582 0.030035462
0000a0 a8 14 91 bc 6d 46 17 3d 2a dc 03 3d ed b4 81 3b
       -0.017710045 0.036932398 0.032192387 0.0039583356
0000b0 42 8b ee bc ca 18 a4 bc ea 5e f7 bb 34 af 27 bd
       -0.029119138 -0.020031352 -0.0075491564 -0.04093857
0000c0 26 fe 8e ba d7 1e e0 bc 83 eb 42 3c b3 aa 07 3d
       -0.0010909482 -0.027358456 0.011896971 0.033121776
0000d0 47 28 85 bc 3d 4d 53 bc 21 91 b4 3b a9 24 77 3c
       -0.016254557 -0.012896833 0.005510465 0.015084424
0000e0 96 68 51 bc ac b1 17 3d 05 c1 40 bc d4 63 40 bd
       -0.012781283 0.037034675 -0.011764769 -0.046970204
0000f0 a7 00 f0 ba dd e0 e9 bc b6 11 41 3c 3c de 64 3b
       -0.0018310741 -0.028549606 0.011784008 0.00349225
000100 1d 80 e9 3c d1 d8 15 bd 75 87 d4 bc a1 5e 9e bb
       0.028503472 -0.036583725 -0.025943497 -0.004833058
000110 c1 b5 12 bd cb f7 49 3c 57 03 a6 3c b2 55 55 bc
       -0.035817865 0.012327145 0.020265264 -0.01302092
000120 5b 68 f9 3b ca ce 17 bb 70 26 b5 3c b8 50 68 bc
       0.007611317 -0.0023164027 0.022113055 -0.014179401
000130 f4 45 2f 3d 56 47 d4 3c 13 6b 07 3d 72 d8 f7 3b
       0.042791322 0.025912922 0.0330611 0.007563644
000140 fd e2 47 bc 45 81 9f 3c bf 05 f1 3c 64 d0 e7 bc
       -0.012200114 0.01947082 0.029421685 -0.02829761
000150 7c 8e 90 bc 01 f2 83 bc fd fd 11 3d 2e cf 83 3c
       -0.017646067 -0.016106607 0.035642613 0.016090002
000160 56 d3 27 bd 37 1c e9 3b 0a 37 86 3c bf f6 1a 3c
       -0.04097303 0.007113959 0.016383667 0.009458243
000170 f1 2d cf 3c 85 bf 82 3b c4 bc cd bb 48 81 ad 3c
       0.025290461 0.003990116 -0.006278606 0.02117981
000180 4f 3b 45 3c 9f 85 17 bd 99 16 f7 3c a1 d5 1c bd
       0.012038066 -0.036992665 0.030162143 -0.03828967
000190 73 83 9b bb 4d 6f 91 bb c4 9d 1d 3d 40 91 96 bc
       -0.0047458946 -0.004438317 0.038480535 -0.018379807
0001a0 92 36 29 bd 58 63 22 3a 2e 5e 60 3c 60 3d f5 3c
       -0.041311808 0.0006194613 0.013694329 0.029936492
0001b0 a3 77 1c bd 9a 18 0a bd 14 a3 b0 bc 73 24 29 bd
       -0.038200032 -0.033714868 -0.021562137 -0.041294526
0001c0 bb 26 2e bc a8 19 41 bd 8d c4 64 3b 93 dd 9c ba
       -0.010629351 -0.04714361 0.0034907192 -0.001196789
0001d0 fe d9 1a bd c7 a2 58 b9 bf bc 8f bb a6 bd db bb
       -0.03780555 -0.00020660005 -0.004386514 -0.0067059575
0001e0 40 7e 91 3c 89 1f 0b bd 8b 65 d7 3c c6 15 de bc
       0.017760396 -0.03396562 0.026293537 -0.027109992
0001f0 ad 08 b1 3c cc 91 31 3b d9 27 96 3c 37 36 86 3c
       0.021610582 0.0027094958 0.018329548 0.016383274
000200 6f 5a b5 3a c9 40 2c 3d 5c 3e 1d bd d5 7e 39 bd
       0.0013836155 0.04205397 -0.03838955 -0.045286972
000210 71 44 7f bb 55 e9 f5 3a b8 6a d5 bc 08 0a c7 bb
       -0.0038950706 0.0018761555 -0.026051864 -0.006074194
000220 9d a6 c1 bc 02 af a9 bc ca d7 9c bc 52 f4 66 3c
       -0.023639018 -0.020713333 -0.019145865 0.014096336
000230 7d 3f 91 3b 85 85 b6 3c 36 a5 46 3d 4e d0 3e 3c
       0.004432617 0.022280464 0.0484974 0.011646343
000240 6e 81 84 b9 e2 db 18 bb 34 11 fc ba f9 f1 cd bc
       -0.00025273435 -0.002332442 -0.0019231201 -0.025139796
000250 7e f8 96 bc 4a 55 0d bd 37 e7 bc bc 2e 69 03 3d
       -0.018429037 -0.034505166 -0.02305947 0.03208273
000260 68 08 2c bd e2 f6 15 3c ad 6b 9d 3c 9d d5 b0 3c
       -0.042000204 0.0091531 0.019216383 0.021586234
000270 ea 84 15 bd 65 92 82 3b 8e dc 15 3d b9 72 ee 3c
       -0.03650371 0.0039847367 0.03658729 0.029107438
000280 4f 1e 9a bc 08 e0 7c 3c a2 c7 27 bd 43 18 8e 3c
       -0.01881328 0.015434273 -0.04096187 0.017345553
000290 db fe 93 bc b4 a5 3f 3b 4e 9c de bc 7d 0a 5f 3b
       -0.01806586 0.0029243054 -0.027174141 0.003403335
0002a0 5d c4 46 bd 7f 6a 09 bd c7 14 2f 3c 34 56 ef b9
       -0.04852711 -0.03354883 0.010686106 -0.0004564986
0002b0 de 5b 7d bc 07 35 b5 3b ce a5 03 3d 3c 78 4e bc
       -0.015463797 0.005530003 0.032140546 -0.012601908
0002c0 2d 62 4b bc cb fd 03 3d d2 af 2d 3c ce d6 a1 bc
       -0.012413544 0.032224458 0.010601001 -0.019755747
0002d0 00 a2 9d 3b a5 cb a3 3b 1c 9e 54 bc 18 d7 38 3d
       0.0048105717 0.0049986416 -0.012977149 0.045127004
0002e0 cb 9a 09 3b 21 8a 0b bd 6e 63 d8 bb 78 44 a9 3c
       0.0020996805 -0.034067277 -0.00660365 0.020662531
0002f0 38 65 34 3d e0 71 02 bd a5 db c1 bb 9b e9 e7 3c
       0.044041842 -0.03184688 -0.0059160762 0.028309634
000300 e6 5a 8c bb 33 8a 95 bc 22 99 17 bd 92 2d cf bc
       -0.004283297 -0.018254375 -0.037011273 -0.025290284
000310 e9 68 1b bd 5a 12 14 bd a3 35 b5 3c db a3 5a 3b
       -0.037941847 -0.036150314 0.022120303 0.0033361826
000320 35 0e 17 bd 90 f2 b2 3c 64 06 0a bc 45 e2 40 bd
       -0.036878783 0.021844178 -0.008424375 -0.047090787
000330 59 f5 16 3d 3d 31 b0 3c 5d ed d4 3c 77 78 c1 bb
       0.036855076 0.021507854 0.02599209 -0.005904253
000340 88 ca 28 3d db 70 3e 3d 9b f3 17 bd 8d c7 be bc
       0.041208774 0.046494346 -0.037097555 -0.023288513
000350 6a 85 10 3d 9a 21 9d 3c d9 36 be bc ff b7 c0 bc
       0.035283484 0.019181062 -0.023219513 -0.023525236
000360 03 a1 93 bc 1c ef b4 bc 2e eb 7c 3c f3 94 92 bc
       -0.018021112 -0.022086672 0.015436931 -0.01789329
000370 0c 1e 20 3d 26 e4 14 3d fc 3b a8 bc 62 eb 06 bd
       0.039091155 0.03635039 -0.020536415 -0.032939322
000380 b4 46 02 3d c1 c6 d1 3c 40 51 47 3d 24 d0 1a 3c
       0.03180571 0.025607469 0.04866147 0.009449039
000390 f6 0a 2d 3d 41 b1 a1 bc a4 ee 98 bc c5 96 35 3d
       0.04224678 -0.019737842 -0.01866848 0.04433324
0003a0 c6 2c fe bc 6d 4f 1c 3d e3 c1 12 bc 9d d6 9e bc
       -0.031027209 0.038161684 -0.008957359 -0.019389445
0003b0 fd 52 c5 bc 21 29 96 3c 65 37 97 bc ac 23 1b bd
       -0.024087423 0.018330159 -0.018459031 -0.037875816
0003c0 d1 f5 cb bc 40 30 90 3c 69 2a 5e bb b6 7c 8a 3c
       -0.024897488 0.017601132 -0.003389979 0.01690517
0003d0 7f 45 f7 3c 87 ea cc bc 48 d4 3f bc 7f ac 6e bb
       0.030184506 -0.025014175 -0.011708327 -0.0036418734
0003e0 7b 7a 37 bc 09 cd 99 3c 72 65 a0 3b a5 f6 89 ba
       -0.011198635 0.018774526 0.0048949057 -0.0010525776
0003f0 06 71 10 bd 47 c9 23 bc b3 9c 03 3d 0b 5a c9 bc
       -0.035264038 -0.009996719 0.032131862 -0.024579069

conv2.bias f4 [32]
000000 2b 97 6d bd 87 94 86 3c e2 36 71 bd 8c a4 b1 3c
       -0.058005493 0.016428245 -0.05889023 0.021684907
000010 6f 31 0f bd 29 58 8e 3c 2c 61 8e bd 22 37 1f bd
       -0.034959253 0.017376022 -0.06952128 -0.038870938
000020 68 66 04 bd e8 19 98 3c 03 78 17 bd 40 26 87 bc
       -0.032324225 0.01856704 -0.036979686 -0.016497731
000030 68 8a 09 3c 68 5c f0 3c 17 5a 0b 3c c7 43 97 bc
       0.008394815 0.029340938 0.008505366 -0.018464936
000040 7e 32 16 bd 14 c9 87 bc 53 5f e3 bc ca 99 0a bd
       -0.036669247 -0.016575374 -0.027755415 -0.03383807
000050 84 99 94 3c 7c 25 8f 3c 87 14 a3 3c 32 85 ad bc
       0.018139608 0.017473929 0.01990725 -0.021181677
000060 b6 d3 f0 bc 43 a0 ab bc f5 31 65 3c 53 00 60 3c
       -0.029397827 -0.020950442 0.013988961 0.013671952
000070 f5 5f 7e bc 45 49 73 bc a3 0d 03 3c c9 64 53 3d
       -0.015525808 -0.014849012 0.007998857 0.051609788

conv3.weight f4 [16, 32, 3, 3]
000000 92 dc 0e 3d f8 15 1a 3c a2 ff 96 bc ce e1 00 bd
       0.03487832 0.009404652 -0.018432442 -0.031465344
000010 25 a1 62 3d ee ba 46 3d f5 ad 0c bd 26 cf 0f bd
       0.05532946 0.048518114 -0.034345586 -0.03510966
000020 c0 b9 2b 3d 61 b8 da 3c ae df 8b 3d 8c 82 33 3d
       0.041925192 0.026699247 0.06829773 0.04382567
000030 75 cb b3 bc 14 81 00 bc 09 13 8f 3d 39 44 93 bd
       -0.021947602 -0.007843275 0.069860525 -0.07190747
000040 19 ce 91 bc ab a3 89 3d 10 02 55 b9 5d af a4 3b
       -0.01779847 0.0672067 -0.00020314031 0.0050257877
000050 dc 26 43 3d d4 39 bb 3d 3c cf b3 3d bb 0e 57 3d
       0.04764448 0.09141889 0.08779761 0.052504282
000060 ba 14 11 bd f2 60 37 3d cb 96 c6 3d 1a 2b 1f 3d
       -0.035420157 0.04477019 0.0969673 0.038859464
000070 3d 03 d3 3c e3 cf 2f 3c 3f 9e 5d bc 4f a9 13 3d
       0.02575838 0.010730716 -0.013526498 0.036050137
000080 e0 ff 9d bd cc 5c 4b 3d a9 8f 89 bd 00 0a 76 bc
       -0.0771482 0.049649045 -0.06716854 -0.015017033
000090 7c 57 5d 3d 27 0d ba bb a9 fd 89 3d b6 a6 09 bd
       0.05403851 -0.0056778374 0.06737835 -0.033606254
0000a0 6e 24 e2 bc aa 69 38 bd f4 5e 8e bd c7 aa 7c 3c
       -0.027605262 -0.045022644 -0.069517046 0.015421576
0000b0 69 91 47 bd ef e4 80 3c 42 4a c3 bc a4 3e 03 bd
       -0.04872266 0.015734164 -0.02383912 -0.03204216
0000c0 9f e5 ff bc 64 2c 8a 3c 25 0d bb bc bd ff 2c bc
       -0.031237422 0.01686687 -0.022833416 -0.01055902
0000d0 9f c6 3b bb 9a 6c 26 bd d5 54 83 3d 6b f9 9b 3d
       -0.0028652323 -0.040630914 0.06412665 0.07615932
0000e0 82 8d 71 bc 18 1f 0e 3c 1e ad 03 3c bc f8 32 bd
       -0.014743211 0.0086744055 0.00803688 -0.043694243
0000f0 81 d3 30 3d 40 87 7b bd 75 c3 c6 3c e9 73 b5 bd
       0.043170456 -0.06140828 0.024263123 -0.08859999
000100 da 8a 61 bd 7a e9 a0 bd 49 07 24 3d e1 a8 87 3c
       -0.05506406 -0.07857032 0.04004601 0.01656002
000110 f2 7a 72 bd 8b a6 a0 3d 03 f3 1d bd 60 03 a9 bd
       -0.05919928 0.078442656 -0.038561832 -0.08252597
000120 be aa 8f 3c 56 4d 53 bd 3c 04 1f bd 42 e3 5b bd
       0.01753747 -0.051587425 -0.038822398 -0.053683527
000130 f2 a2 7e 3d 88 39 43 3c e6 f5 2a 3d 3f a5 a7 3d
       0.062167116 0.011915572 0.041738413 0.08185815
000140 23 90 d7 3c d1 f6 46 bc d9 87 fd bc e9 11 06 bc
       0.026313847 -0.012143807 -0.030948566 -0.008182981
000150 01 b0 38 3c d1 9b 73 bd 63 12 25 bd 0d 0d 29 ba
       0.011272431 -0.05947477 -0.040300738 -0.0006448783
000160 e3 0c 53 bc 48 51 4d bd 0b f8 9e 3d 15 86 9d 3c
       -0.01288149 -0.050126344 0.07762154 0.019228974
000170 89 5b 90 3d 67 7c 17 3d b3 19 0c bd a4 3e 93 bc
       0.07048709 0.036983874 -0.034204196 -0.017974205
000180 ee 27 8b bd 73 ff 23 bd 26 c3 34 bd 91 fd 53 ba
       -0.06794725 -0.040038537 -0.04413142 -0.00080867956
000190 64 d7 37 bd 00 f3 4b 3d d4 69 fb 3b 9c 91 0e bd
       -0.044883147 0.04979229 0.007672528 -0.034806833
0001a0 ab 54 99 bc bf bd c5 bc b4 f4 9d bd d7 5b 69 bd
       -0.01871713 -0.02413833 -0.07712689 -0.05697235
0001b0 27 10 91 3d 51 57 83 bb 5e bf fc 3c a4 89 58 3d
       0.07083159 -0.0040082117 0.03085297 0.05286564
0001c0 1b e9 1f 3b a6 a8 ac 3c 0f 91 2b 3d 63 ff 2e 3d
       0.0024400416 0.021076512 0.041886386 0.042724025
0001d0 90 ad bf bc b4 51 7f bd ab 43 2d bc 84 11 47 3d
       -0.02339819 -0.062333778 -0.010575215 0.04860069
0001e0 a4 dd d2 bd 76 1f 1f bd 13 70 61 bd dc 16 60 bd
       -0.10296181 -0.038848363 -0.055038523 -0.0547093
0001f0 4f 53 72 bd 0f 8c bb bd 81 13 72 bd 0c b1 8d 3c
       -0.05916148 -0.091575734 -0.05910063 0.017296337
000200 9e 56 e3 bc 94 4c 80 bc 2e 51 84 3d 49 e8 02 3c
       -0.027751263 -0.015661515 0.06460796 0.007989951
000210 cd 56 66 3d 7c 5e d5 bc 58 fc 9b 3d 93 95 0e bd
       0.056235123 -0.02604603 0.0761649 -0.034810614
000220 f2 c7 26 bd 8e e9 28 3d fa 34 fb 3a 1f d7 80 3d
       -0.040718026 0.04123836 0.0019165569 0.06291031
000230 47 b7 63 3d 65 db 94 bc 4b 4e e9 3c 37 48 bf bc
       0.05559471 -0.018171022 0.028479716 -0.023349864
000240 60 af 8a 3d 01 74 ea 3c d7 d5 a8 3d da 82 d8 3c
       0.067717314 0.028619768 0.08243912 0.026429582
000250 ea 11 6c 3d 9c 89 46 bc 1f 3f 73 38 a1 19 a1 3c
       0.05763427 -0.01211777 5.79945e-05 0.019665541
000260 67 1f 94 3c 70 d4 ac bd e8 ed 47 bd 87 14 8d bc
       0.01808138 -0.08438957 -0.04881087 -0.017221702
000270 f8 08 93 bc 4a a6 63 bd df 74 8e bd 64 06 0a 3d
       -0.017948613 -0.055578507 -0.06955885 0.0336975
000280 e2 5d f9 3c 46 12 97 bd 59 20 f9 3c 45 7d 23 3d
       0.030440275 -0.07376532 0.030410932 0.03991439
000290 3a 97 a2 bc 9d 58 84 bd 2d ef 4d 3d 22 a3 89 3d
       -0.019847501 -0.06462214 0.050276924 0.06720568
0002a0 28 e5 55 bd 6b 55 1d bd a2 f5 a3 bc 63 10 ee bc
       -0.052220494 -0.03841154 -0.020014588 -0.029060548
0002b0 57 3b 3b bb 44 bc ef bc 53 89 c7 3c f2 2e 63 bd
       -0.0028569305 -0.029264577 0.024357473 -0.055464692
0002c0 38 89 5a bd d7 ce 18 bc 40 08 88 38 1f 26 30 bd
       -0.05335352 -0.009326658 6.486522e-05 -0.043005105
0002d0 da cb 8e 3d 14 20 e9 b9 90 dd 9a 3d 2c 1c 93 3d
       0.06972475 -0.00044465123 0.07561791 0.07183108
0002e0 8f 44 33 3c 1f 87 74 3d 5e 2d 12 bd 99 3b 8a bd
       0.010941639 0.059699174 -0.035687797 -0.067496486
0002f0 80 cf 2d 3d c5 31 9b bd d6 2c 12 39 19 35 86 3a
       0.042434216 -0.07577852 0.00013940348 0.0010239213
000300 d5 fe c1 3c 3c d5 16 bd ba 24 aa 3c d7 1f 23 3d
       0.023681084 -0.03682445 0.020769466 0.039825287
000310 df 7a dd bc 05 5f ec bc 57 85 31 3d 6b 93 8c bc
       -0.027036129 -0.028853903 0.043340053 -0.017160138
000320 73 db 1f 3d 8f 9e 33 bd d2 90 38 3d a0 c7 2a bd
       0.039027642 -0.043852385 0.045059986 -0.041694283
000330 bb be 43 bd b0 14 10 bd b3 49 e1 bc 71 e1 3f bd
       -0.047789317 -0.03517598 -0.027500963 -0.046845857
000340 1a d7 2a 3d 42 a1 4c bd 63 88 33 bc 83 f8 38 bc
       0.041709043 -0.049958475 -0.01095781 -0.011289719
000350 eb fc 01 3d b6 fb 43 3d 26 71 65 3d 6e 8b 01 3d
       0.031735342 0.047847472 0.05601611 0.03162711
000360 3f 3d 86 3d 32 47 af 3c 24 fd 7f 3d 63 90 fa bc
       0.065546505 0.021396253 0.062497273 -0.030586427
000370 bc a2 91 bb b5 fc 92 3c 5b d7 1e bd 58 69 e9 bc
       -0.0044444483 0.017942766 -0.038779598 -0.028492615
000380 29 ca 89 3d 11 39 f8 bc 97 49 4c bd bf 26 6c bd
       0.06728012 -0.030300649 -0.04987487 -0.05765414
000390 9f bb 7f bb 7c 02 56 3d 93 88 5c 3b 75 41 3a 3d
       -0.0039021743 0.052248463 0.003365074 0.04547258
0003a0 b3 68 1c bd 50 60 7b 3d be e4 fa 3c 7d a1 5b bd
       -0.038185786 0.061371148 0.03062665 -0.053620804
0003b0 02 87 9e bd f3 ca 0f bd 85 6c 0c 3d 85 da d8 bc
       -0.077405944 -0.035105657 0.03428318 -0.026471386
0003c0 30 5d af 3c 62 26 57 bd 44 60 03 3c c4 85 57 bd
       0.02140674 -0.05252684 0.008018557 -0.052617803
0003d0 07 70 ca bb 55 8a 44 3d fa 93 93 3c 88 bf 1b 3d
       -0.0061779055 0.047983486 0.018014897 0.038024455
0003e0 9a ca 47 bc f8 9a f8 3c 69 ac 9e bc c0 6e 8a bb
       -0.0121943 0.030347332 -0.019369321 -0.004224628
0003f0 ee 09 4b bd e4 6c 1a bd e5 35 21 bd 7e 3c 85 bd
       -0.049570017 -0.037701502 -0.03935804 -0.065056786

conv3.bias f4 [16]
000000 b7 9b e8 bc 4a 08 15 bd f9 2b e6 3c 4e 54 c1 3b
       -0.028394563 -0.03638486 0.02809714 0.0058999425
000010 b9 7c 8e 39 6c b6 50 3c 46 c8 2f 3d 24 2c 1c bd
       0.00027177276 0.012738805 0.042915605 -0.038128033
000020 63 e6 d6 b7 68 53 01 3d 12 10 22 3d 91 e8 a9 3c
       -2.561807e-05 0.031573683 0.039566107 0.02074078
000030 66 eb 62 bc f2 4a d3 bc e4 ad fe 3c 60 da e7 3b
       -0.013850069 -0.025792573 0.031088777 0.007075593

linear1.weight f4 [128, 576]
000000 ab 11 76 3c 4b 65 a3 3c 99 75 3d bd df 5c 2d 3c
       0.015018861 0.019945761 -0.046254728 0.010581224
000010 02 20 4e 3c 08 c1 1b 3c ff 8c 0d bc 55 2b 28 bd
       0.012580873 0.009506471 -0.008639573 -0.04105695
000020 16 27 79 bc dd fc 1c 3d da c1 80 3b 32 94 56 3c
       -0.015207073 0.038327087 0.003929359 0.013096856
000030 bd 2e a0 bc 49 ad 76 3c 17 8a 83 3c ec c8 6c 3c
       -0.019553537 0.015055963 0.016057057 0.0144522
000040 71 d8 85 bc 64 55 fc 3c 12 d6 10 bd a4 10 36 bd
       -0.016338559 0.030802436 -0.035360403 -0.044449463
000050 f5 93 a8 bc 08 03 18 3d 96 55 cc bc 92 31 5d bc
       -0.020578364 0.037112266 -0.024943154 -0.013500588
000060 23 30 1e bd 3a 55 34 bd 42 d1 30 b9 f8 b2 af bc
       -0.038620126 -0.04402659 -0.00016862623 -0.021447644
000070 77 29 ce 3c fc a3 f7 bc 61 da f5 bb 5b 1b 8a 3c
       0.025166256 -0.030229561 -0.0075028394 0.016858747
000080 57 44 1f bd 42 a8 84 bc 3d 92 ee bc 13 4c 96 3c
       -0.038883533 -0.016193513 -0.029122466 0.018346822
000090 94 95 a7 3c b7 9d 7b 3c 3a fd 74 3c 9e 4c 1c 3a
       0.020457067 0.015357426 0.014952952 0.00059623446
0000a0 88 ce 05 3d d0 c7 c4 bc 0d 0a 0d 3c d2 9e 8c 3c
       0.032667667 -0.02402106 0.008608353 0.017165575
0000b0 04 75 9f ba 10 cf 83 bc f7 e3 f8 bc 56 be a3 3c
       -0.0012165611 -0.016089946 -0.03038214 0.01998822
0000c0 03 ea 00 bd 20 c6 9c 3c 17 ea 0a 3a ba 65 50 3c
       -0.03147317 0.019137442 0.00052991643 0.012719566
0000d0 d8 24 e8 bc c1 8e 74 3c ab 67 d3 3c 5c 49 a3 3b
       -0.028337881 0.014926613 0.025806269 0.0049831104
0000e0 a3 96 38 3d ab 4f ba bc 5c 47 a2 bc 0e 70 7b 3a
       0.045065533 -0.022743067 -0.019809417 0.00095915876
0000f0 b5 e5 fe bc 42 6d 2d 3c 3c 10 91 bc 0e 3c 08 bc
       -0.031115392 0.010585131 -0.017707936 -0.008315099
000100 28 56 af bc bc ca 4a 3c 6e 9f 26 bd cd 9c 6e bc
       -0.021403387 0.012377437 -0.040679388 -0.014563751
000110 86 d3 79 bc e7 c5 85 bc 5d 81 3f 39 f3 22 1c bd
       -0.015248185 -0.016329719 0.00018263371 -0.038119268
000120 66 ef 62 bc c0 90 ab bc 05 70 e7 3c 1e 76 41 3d
       -0.013851022 -0.020943046 0.028251657 0.047231786
000130 25 b7 d2 3b f2 e8 81 bc 54 f7 0a 3d a7 74 e0 3c
       0.006430524 -0.015858147 0.033927277 0.027399374
000140 c9 17 0d bc 65 de da 3c 54 8c 3b 3d e7 f0 94 bb
       -0.008611628 0.026717374 0.045788124 -0.0045453194
000150 b3 79 b9 3c 5b f8 da bc 31 0d a0 bb 0c 35 13 3d
       0.022641039 -0.026729753 -0.004884385 0.03593926
000160 c8 70 99 bc bd 09 ca 3a b7 e1 b1 3b cf 0c f0 bc
       -0.018730536 0.0015414279 0.0054285186 -0.029302983
000170 d0 b4 6f 3c 8a c6 04 3d 8f ea 05 3d 2d 2f e0 bc
       0.014630511 0.032415904 0.032694396 -0.027366245
000180 1f 36 ab bc 62 08 5b 3d 85 2b ee bc 12 a3 bb 3c
       -0.02089983 0.05347479 -0.029073486 0.022904906
000190 a5 69 23 3d e8 0f 16 bd 2a 6b 27 bd 25 de bd 3c
       0.039895672 -0.036636263 -0.040873684 0.023177216
0001a0 aa 4f d8 bc fb df 40 3c 1b cc 3c bc be 89 99 3c
       -0.026405174 0.011772151 -0.011523272 0.018742438
0001b0 c2 04 e2 3c f8 4a 2c bc 24 33 37 bc ab 04 df bb
       0.02759016 -0.010515921 -0.0111816265 -0.0068059764
0001c0 89 6b f3 bb f1 dd 70 bc c5 52 aa bc 68 20 b4 3c
       -0.0074285907 -0.014701352 -0.02079142 0.021988109
0001d0 73 ad a7 bc 66 56 9a bc 93 ef 19 bd a5 f6 12 3c
       -0.02046845 -0.018840026 -0.03758199 0.008969937
0001e0 a5 a5 a3 3c ca 2a aa 3b f1 51 17 3c 78 94 83 bc
       0.019976446 0.005193089 0.009235845 -0.016062006
0001f0 39 67 a3 3c 74 46 b1 3c 20 3f 0a 3c cb 4d 45 3d
       0.019946681 0.02164004 0.008437902 0.048169892
000200 b0 95 c5 3b cc 52 1d bc bc 2a 92 3c 59 81 2c 3d
       0.006029807 -0.00960226 0.017842643 0.042115543
000210 22 6c c2 3b 57 78 f2 3c dd a2 30 bc 08 90 85 3c
       0.0059333006 0.029598398 -0.010781017 0.016304031
000220 5a 63 e2 3b c0 e5 e9 bb f5 37 b2 bc 8b 2a f3 bc
       0.0069088163 -0.007137984 -0.021755198 -0.029683372
000230 2a a8 55 bd cf ac 14 bd 2e 34 22 bd a6 1e 2d bd
       -0.052162327 -0.036297616 -0.039600544 -0.042265557
000240 ce f9 99 bc 79 5a 82 3c 7a b1 15 bc 07 8d db 3c
       -0.018795874 0.015912281 -0.009136552 0.026800646
000250 c5 94 87 3c 67 4f eb bb 7a e1 cd bb f8 97 a7 bc
       0.016550431 -0.0071810964 -0.0062829824 -0.020458207
000260 e4 84 82 3c 04 41 09 3d 7b 98 f7 3c e3 4f 4b 3b
       0.015932508 0.03350927 0.030224076 0.0031022958
000270 a5 c6 0d 3d f9 68 05 bc 94 00 5c bb 16 2f 08 3d
       0.03461327 -0.008142703 -0.003356968 0.03324803
000280 ae 44 98 bc 98 64 39 b9 42 e7 09 3d 9d ca 2b bc
       -0.018587437 -0.00017680449 0.03366781 -0.0104853185
000290 43 2b ed 3b 31 2c c6 3c 3f f5 01 bd a0 5b d6 bc
       0.007237823 0.024190994 -0.031728026 -0.026166737
0002a0 c7 25 27 bd be 81 ac 3c 48 fe 3c bc fd 42 22 3b
       -0.04080751 0.02105796 -0.011535235 0.0024759166
0002b0 f5 17 ff 3c 4b 6b c6 3b 61 54 e6 3b dd 0a 25 bd
       0.031139353 0.006055271 0.0070291017 -0.040293563
0002c0 1c aa f8 bc 7f c6 b5 3b 41 26 05 bd 34 fe 96 bc
       -0.030354552 0.005547344 -0.032507185 -0.01843176
0002d0 71 2e 2e 3d 8b 1c 1e 3d 38 c7 cf 3c 12 29 ef 3c
       0.04252476 0.03860144 0.02536355 0.029194389
0002e0 31 67 f4 bc a2 28 0d 3b cf d8 db bb f5 35 2a bc
       -0.029834362 0.0021539112 -0.006709195 -0.010388841
0002f0 39 b0 f5 3b 5f c7 88 3c 08 9a 12 3d 58 68 7d bb
       0.007497814 0.01669663 0.035791427 -0.003866693
000300 7a ff f0 bc ce 31 46 3d 6e 20 21 bd 42 5c 46 bd
       -0.029418696 0.04838734 -0.039337568 -0.048427828
000310 fb 63 12 bb 63 eb 1a 3d d3 e3 31 bd f9 61 26 3d
       -0.0022337425 0.03782214 -0.04343016 0.040620778
000320 6c c8 25 bd 31 fa 3b 3b 1b e9 3d 3d 28 48 8f 3c
       -0.04047434 0.0028683061 0.046364885 0.017490461
000330 2f c7 07 bc 27 71 a6 3a 05 18 71 39 e4 d0 71 bc
       -0.008287235 0.0012698517 0.00022992499 -0.014759276
000340 37 2e c5 3c 82 12 77 ba a2 d6 b8 bb 97 4c 14 bb
       0.024069889 -0.000942506 -0.0056408206 -0.002262866
000350 e1 3d 96 bc 12 0c 85 bc 20 88 2e 3c 62 95 70 bc
       -0.018340053 -0.016241107 0.010652572 -0.014684053
000360 58 3e 1f bd 8f 63 0b bd 38 5b fe bb 63 24 e4 bc
       -0.038877815 -0.034030493 -0.007762339 -0.027849382
000370 c8 54 8a b8 63 e6 a4 bc 5c ac 05 3d f8 1a 21 bc
       -6.5961445e-05 -0.020129388 0.032635078 -0.00983309
000380 41 7a 43 3d 55 f5 ec bc 92 8f 21 3d b4 0c 49 3c
       0.047724012 -0.028925577 0.03944356 0.012271095
000390 59 82 99 3c a8 49 47 3c b3 ab df ba 9d d3 53 bd
       0.018738912 0.012163557 -0.001706472 -0.051715482
0003a0 75 8f a2 bc 41 d4 46 3d 96 52 d8 3c 44 29 a0 3c
       -0.019843796 0.048542265 0.026406568 0.019550927
0003b0 b7 9c a6 ba ac a1 26 bd cd bf 6c 3c 8f 07 e9 ba
       -0.00127115 -0.040681526 0.014450026 -0.0017778742
0003c0 e1 fe 49 bc b8 90 b6 bb 9d 3c c7 bc fa 4a 7c bb
       -0.012328834 -0.005571451 -0.024320895 -0.0038496838
0003d0 7b a8 63 bb 86 95 1e 3d e3 d1 d3 bc 97 ab 17 3d
       -0.0034737873 0.038716815 -0.025856918 0.037028875
0003e0 ab b5 3f 3c 1d 32 0e 3d 02 c8 42 bc e3 f9 21 bd
       0.011701028 0.03471576 -0.011888506 -0.03954495
0003f0 fb aa 81 ba 54 5c 13 3c cb a2 10 bd 6c 1c 24 3d
       -0.0009892875 0.008994181 -0.0353115 0.040066168

linear1.bias f4 [128]
000000 82 60 a4 bc 6f 91 df 3c 30 79 11 3a 82 09 bf 3b
       -0.02006555 0.027291028 0.00055493694 0.005829991
000010 2a 11 fd bc 95 e0 be bc f5 89 2e 3d fe da a0 3c
       -0.030891974 -0.023300448 0.042612035 0.019635674
000020 99 ed 16 bd a4 84 31 bd 8b e1 35 bd b0 eb 27 bd
       -0.036847685 -0.043339387 -0.044404548 -0.040996253
000030 31 94 63 3b 2c 2b 00 3d 02 1e c8 bc 95 39 bf bb
       0.003472578 0.031291172 -0.024428371 -0.0058357217
000040 43 54 26 bd 3b ae 18 bc f2 3e 31 3d 96 e9 1b 3d
       -0.040607702 -0.0093188835 0.04327292 0.03806456
000050 09 9a 8e bb 83 8e e7 bc 19 b4 e7 bc 4a a9 04 3d
       -0.0043518585 -0.028266197 -0.02828412 0.03238801
000060 2c 81 a1 bc 56 2d f8 3c 99 b0 a3 bc 6d 73 d2 3c
       -0.019714914 0.030295055 -0.01998167 0.025689805
000070 9a 72 a3 3a c4 57 a4 bc d9 3f 0b bd ef 88 ac bc
       0.0012470067 -0.020061381 -0.033996437 -0.021061389
000080 b8 6d 84 3c 6c a7 89 3c e8 76 19 3d ab 9b 1c 3d
       0.0161656 0.016803466 0.037466913 0.038234394
000090 ca 70 3c 3b 75 a4 04 3d 6f e6 ff bc 98 60 f3 3c
       0.002875375 0.0323834 -0.031237809 0.029709145
0000a0 c5 d5 94 bc 12 44 26 3c 90 a5 8e bc 95 4f 32 bd
       -0.01816834 0.010148065 -0.01741293 -0.043532927
0000b0 21 df 8d bc 98 1b 21 bd f9 81 1a bd c2 ac 2b 3d
       -0.01731831 -0.039332956 -0.037721608 0.0419128
0000c0 08 5b f9 3c f3 a1 3c bd 1b 29 bb 3c 04 80 af bc
       0.030438915 -0.046052884 0.022846749 -0.021423347
0000d0 51 7d 1b bd 7b 18 a0 3b ae 62 b6 bc cb b5 0e bc
       -0.037961308 0.004885731 -0.022263851 -0.008710335
0000e0 1e dc d1 3c 83 30 0b 3d 81 1d 58 3c 6b 41 f3 3c
       0.025617655 0.03398181 0.013190628 0.02969428
0000f0 e2 68 f2 3c 0b f4 2c bc 2b 77 09 bd fc 8a b6 3c
       0.029591028 -0.010556231 -0.033560913 0.02228307
000100 2b bd 8b bc 30 51 f8 3c 5e 63 1c bd 05 10 06 bd
       -0.017057976 0.03031215 -0.0381807 -0.03273012
000110 87 d8 0a bd 2b a2 ac 3c 0c 66 27 3d 74 98 cb bb
       -0.033897903 0.021073421 0.040868804 -0.006213242
000120 75 32 48 3c 72 46 08 bd 0f f3 0b 3d 64 05 a9 bc
       0.012219061 -0.033270307 0.034167346 -0.020632453
000130 5a 46 93 bc 10 7e 60 3a 32 f3 20 bd bc e2 4d 3c
       -0.017977882 0.00085637067 -0.03929443 0.012566265
000140 b8 35 2e bd 17 f2 82 bc ad 23 85 bc c2 12 10 3d
       -0.0425317 -0.015984578 -0.016252363 0.03517414
000150 cf 0e 0d bd 90 2c e4 3c d1 ac 44 3b b4 80 ba 3b
       -0.03443795 0.02785328 0.0030010233 0.005691612
000160 31 e4 0a bd 2e 83 ad bc 03 d5 70 3c b2 50 bc 3c
       -0.033909027 -0.021180715 0.014699223 0.022987697
000170 69 bf f2 bc 27 74 9f 3b 27 d5 44 ba 43 ec 14 3c
       -0.029632287 0.0048661414 -0.0007508569 0.009089532
000180 e7 af ce 3c a3 85 f1 bc 71 cf e5 3b 58 79 11 bc
       0.025230361 -0.029482668 0.0070132543 -0.008879028
000190 59 4f a4 3c 19 25 d6 bc 6d fb 17 b8 80 b4 ce 3c
       0.020057367 -0.026140736 -3.6235364e-05 0.025232553
0001a0 eb 69 09 3d 55 10 b1 3c 90 03 bc 3b 67 0e 2f 3d
       0.033548277 0.021614233 0.0057377294 0.042738345
0001b0 6f e5 76 bc 97 1c d9 ba aa b3 ce bc 01 c5 f9 3c
       -0.01506935 -0.0016564307 -0.025232155 0.030489447
0001c0 f1 f0 8e bc 3b 2e 1c 3d 1e c3 dc bc 47 27 65 3c
       -0.017448874 0.038130026 -0.026948508 0.013986415
0001d0 97 20 d7 bc 34 27 72 3b 60 d6 a7 3c aa be 17 3d
       -0.026260657 0.0036949636 0.020487964 0.037047066
0001e0 4f a5 dc 3b df b0 f1 bc e2 50 07 bd 72 e5 85 3c
       0.0067335735 -0.029503284 -0.03303612 0.01634476
0001f0 b3 c3 81 bc de ad b3 3c eb a8 71 bc 88 b3 8c 3a
       -0.015840387 0.021933492 -0.014749746 0.0010734657

linear2.weight f4 [10, 128]
000000 18 f7 14 be 54 c8 5d be 43 4f 80 bd 16 5e b4 bd
       -0.14547384 -0.2165845 -0.06265118 -0.08807008
000010 67 e3 1f bd ff c1 ea 3d 63 29 60 3d 73 87 d8 bb
       -0.039035227 0.11462783 0.05472697 -0.0066079437
000020 cc 0f b1 3d 4c a6 4f bd 64 65 bf 3d 53 3a 5c 3d
       0.08645591 -0.050695702 0.093455106 0.05376656
000030 fe 16 cc 3d d5 2a cb bd 47 13 59 3d 22 59 13 be
       0.09965323 -0.09920279 0.0529969 -0.1438947
000040 f3 a2 ce 3c 3b bf 2e bc 47 f0 13 bc ad d4 ca bc
       0.025224185 -0.01066571 -0.009029455 -0.024759615
000050 14 40 d5 bd 19 04 92 bd 52 eb d8 bc 71 54 87 3d
       -0.104126126 -0.07129688 -0.026479397 0.06607903
000060 a8 75 5b ba 24 b6 03 3e 92 a7 ad bd 5d 75 4a 3d
       -0.0008371719 0.1286245 -0.08479227 0.049428333
000070 6a fd b4 bd e6 60 32 3e b5 07 48 bc c3 b0 f6 bc
       -0.088373974 0.17419776 -0.012208869 -0.030113583
000080 cc 84 f5 bc 04 24 c9 3d 51 50 de 3c 24 16 64 bd
       -0.029970549 0.098213226 0.027137907 -0.055685177
000090 e0 10 77 bc af 12 e7 3d 69 5a 75 3c a0 d6 0c bd
       -0.015079707 0.112828605 0.014975169 -0.03438437
0000a0 dd 28 7e bd c0 9d 17 be b1 87 5c bd 25 64 9b 3c
       -0.06205069 -0.1480627 -0.053840343 0.018968651
0000b0 37 c5 44 3d 04 68 64 3d 24 72 ba bc 63 d7 18 3e
       0.04803964 0.05576326 -0.022759505 0.14925914
0000c0 ec 83 a7 3d 2b 6e d4 bc 4f 51 0b 3e 1d 28 1a be
       0.08179459 -0.025931438 0.13605236 -0.15054365
0000d0 4e 22 91 bd c6 6d f0 3c 29 88 d9 3d a1 c2 04 3e
       -0.07086621 0.029349219 0.106216736 0.1296487
0000e0 fb 98 07 3e 4c ef ee 3d 3c 1f fd bc 95 8f dd bd
       0.13241951 0.11666736 -0.030898683 -0.10818402
0000f0 c2 54 cc bd b8 5b 0e 3e 29 ac 04 3e d5 ca f9 bd
       -0.09977104 0.13902175 0.12956299 -0.1219689
000100 38 52 59 3d a0 db b6 3d 35 9c da bd 42 5e 2f 3e
       0.053056926 0.08928609 -0.106743254 0.171258
000110 55 24 38 3d 28 56 01 be 7f a0 ec 3d 80 26 2f be
       0.044956524 -0.12630522 0.1155405 -0.1710453
000120 83 e5 b8 3d db db d5 bd 4f 48 fa bc 4c e6 20 be
       0.09028151 -0.10442325 -0.030552058 -0.15712851
000130 0f 32 9d bd 49 bb 8f bd 6d 6d df 3d a8 51 90 bd
       -0.076755635 -0.07018144 0.10909543 -0.07046825
000140 a8 ef 50 bd 62 05 1f bd fc 31 6d 3d 68 c6 b9 3d
       -0.051009804 -0.038823493 0.057908997 0.09071046
000150 02 00 bd 3d 8f 78 5b bd 91 81 4e bd 5b 09 ed bd
       0.09228517 -0.05358177 -0.050416533 -0.1157405
000160 8d 9c d2 3d 40 76 ce bd 8c 28 f1 3d 2a 98 a1 bd
       0.10283766 -0.10081148 0.11775312 -0.07890351
000170 12 fa d7 bd 64 97 bc bd fd 50 1c 3d bc 9b 8b 3d
       -0.10545744 -0.09208563 0.038163174 0.06816813
000180 5f 8c 27 3d 61 ca 48 3c cd fa 16 be 46 5d 4e bb
       0.040905353 0.012255282 -0.1474411 -0.00314887
000190 02 4e 14 be a0 1b fb bc d5 0d 55 3e 0b 5b fa bd
       -0.14482883 -0.030652821 0.20806058 -0.12224396
0001a0 cb b8 c9 3d a2 43 e2 bc df a9 23 be 17 7f fb bd
       0.098496996 -0.02762014 -0.1598277 -0.122801
0001b0 e0 9d 53 3c e8 f5 b1 3d c6 69 0d 3e 82 87 c0 bd
       0.012916058 0.08689481 0.1380988 -0.09400846
0001c0 ab e1 87 bd 83 3f 88 3d 32 4a dd 3d 67 50 2e 3d
       -0.066348396 0.06652739 0.10805167 0.042557146
0001d0 72 86 e6 bd cd 57 ae 3c 95 90 c9 3c 82 e1 1e be
       -0.11256112 0.021282101 0.024605075 -0.15515712
0001e0 08 6b 05 bb de 5c e4 3d 16 74 3d bd 1b 4d af bd
       -0.0020357985 0.111505255 -0.046253286 -0.085596286
0001f0 8f b0 ca 3d c1 a3 db 3d 1e 79 d3 bd 19 9d be 3d
       0.09896957 0.10724593 -0.10325836 0.09307308
000200 96 53 17 3e 99 69 b3 3d 69 90 4d 3e 2d 81 ad bc
       0.14777979 0.087603755 0.2007462 -0.02117976
000210 a6 6b 01 3d ec d7 48 3d ce dd 8b bc 15 97 ff 3d
       0.031596802 0.049034044 -0.017073538 0.124799885
000220 6c 2e a1 bd 43 9b d0 bb a3 cc 83 bd df de 99 3c
       -0.078701824 -0.006366165 -0.06435516 0.018783031
000230 36 1c 6f 3d fb 98 eb 3d ee ba 7f bc e8 0a 47 3d
       0.058376513 0.11503788 -0.015608532 0.048594385
000240 f9 38 1e 3c 12 73 72 bd 5d 7a 7d bd ea b1 c9 bd
       0.009657138 -0.05919177 -0.061884273 -0.098483875
000250 f1 4f 18 3e a3 88 dd bd da d1 53 3d 9e 2e c0 bd
       0.14874245 -0.10817077 0.051713802 -0.093838915
000260 6e 09 25 3d 9b 2f f7 bd bd 6a b6 3d 97 3e 09 be
       0.040292196 -0.12069627 0.089070775 -0.13402782
000270 e4 09 80 3d 3b b5 21 be a1 46 2f bd f1 3c e1 bc
       0.062518865 -0.1579179 -0.042791966 -0.02749488
000280 0a 36 f1 3d b1 41 ae 3d 53 82 9e 3c a4 ed 0f be
       0.11777885 0.085086234 0.019349253 -0.14055496
000290 9e ab cd bd 77 14 45 bd c1 68 4f bd 50 09 a3 bd
       -0.10042499 -0.04811522 -0.05063701 -0.079607606
0002a0 69 c3 34 be 4e 57 85 3d a2 2e 9b bd 10 94 0e 3d
       -0.17652668 0.06510793 -0.07577254 0.034809172
0002b0 1d e8 ba bd 31 7f f6 3d 0c e8 8d bc 7a 21 d9 3d
       -0.09126303 0.120359786 -0.017322563 0.10602088
0002c0 b8 f9 80 bd 3b f1 94 3c 0d a8 9b 3c 6c dd 98 bd
       -0.0629763 0.018181434 0.019001031 -0.07464108
0002d0 55 fc fe bd 3d 26 01 3e 41 0d a1 bd ab 65 dc 3d
       -0.12450472 0.12612243 -0.07863856 0.10761579
0002e0 31 d5 4c bd 90 d8 18 be 08 0c 26 bd 31 2d a0 3d
       -0.050008003 -0.14926362 -0.040538818 0.078211196
0002f0 ae 79 b6 bc 69 3a ae bb 0b 48 b8 bd 6c a7 47 3d
       -0.022274818 -0.0053170216 -0.08998116 0.04874365
000300 46 65 05 bd 62 d5 89 3d c6 81 3f bd 5a 84 ef 3d
       -0.032567285 0.06730153 -0.04675462 0.11695166
000310 d7 b3 af bd 31 f9 50 3d 81 e9 ed bd 84 ca 37 3e
       -0.085792236 0.051018897 -0.11616803 0.17948347
000320 cf b2 8c 3d db 3c 16 3e df 16 2a 3a 00 6b 52 3b
       0.068700425 0.14671652 0.00064883934 0.0032107234
000330 cc a2 d6 3d 61 62 01 bd 25 f4 cd bc ea 31 7b 3d
       0.1048027 -0.031587962 -0.025140831 0.0613269
000340 89 5b 12 3e 21 cf 0c 3e 3b f3 c6 bc 39 28 a5 3d
       0.1429273 0.13750888 -0.024285903 0.080643125
000350 40 95 15 3d ef 11 d3 3d 93 3e 39 bd ef bf ef bd
       0.03651929 0.10306155 -0.04522569 -0.1170653
000360 e0 60 0a bb 11 0d 95 3d 7c 5d fc 3d d0 97 4b bc
       -0.002111487 0.07277883 0.12322518 -0.012426332
000370 68 25 04 be 9c 38 12 3e c3 69 8f 3d 97 4a d0 3d
       -0.12904894 0.14279407 0.07002594 0.10170477
000380 95 0d 0b 3d 72 04 90 3c 3e 93 0c 3d 8c 57 1f be
       0.0339485 0.017580245 0.03432011 -0.1556074
000390 f3 a2 f5 3d 80 43 b0 3d 83 7c 1c be 86 4a 97 bd
       0.11993971 0.086066246 -0.15281872 -0.07387261
0003a0 11 d8 8f 3c 79 6b ba 3d 27 9e c5 3d 8e 26 ba 3d
       0.017559083 0.0910253 0.09649306 0.09089385
0003b0 bb 90 28 3d f0 e3 67 bd 32 7b 30 be a0 03 ad 3d
       0.04115365 -0.056613863 -0.17234495 0.08447957
0003c0 a1 4f 0d 3e 65 7b 50 3d 25 25 00 be 8e d0 9c 3d
       0.13799907 0.05089893 -0.1251417 0.07656966
0003d0 40 b0 0f 3e b0 34 ea bd da a8 90 3c 62 c3 cc 3d
       0.14032078 -0.114358306 0.01765864 0.09998204
0003e0 36 1e 23 3e f5 60 b6 bd fe 68 49 bd 00 0a 0a be
       0.15929493 -0.08905212 -0.049172394 -0.13480377
0003f0 fa bd 14 be f6 0e a9 bd 6a 3e bb bd 49 7c e8 bd
       -0.14525595 -0.08254807 -0.09142764 -0.113518305

linear2.bias f4 [10]
000000 b6 72 0c 3c 03 36 fa bb b7 b2 c1 3d 64 85 2f bc
       0.008572271 -0.007635833 0.09457915 -0.010712955
000010 e5 99 42 3d 93 95 71 3d 62 7f b2 bd 20 c0 33 bd
       0.047510047 0.058980536 -0.087157026 -0.043884397
000020 d7 fa 5e 3d b7 91 c4 bc
       0.05443844 -0.023995264
