my_pt/200_model.pt (torch, 403540 bytes, 10 tensors)

conv1.weight f4 [64, 1, 5, 5]
0	0xbe5a3d0c	-0.2131235
1	0xbe7b2c89	-0.24528708
2	0xbe600eaf	-0.21880601
3	0xbe58845d	-0.21144243
4	0xbbbbe4f7	-0.005734082
5	0xbc877df2	-0.016539548
6	0xbda15b9d	-0.07878802
7	0xbbf9e724	-0.007626431
8	0x3e703d61	0.23460914
9	0x3e50c379	0.20387067
10	0x3e189c7f	0.14903449
11	0x3e01c5c3	0.12673096
12	0x3da802fb	0.082036935
13	0x3e0a1974	0.13486272
14	0xbe37657c	-0.17909807
15	0xbe221b52	-0.15830734
16	0x3cb59d52	0.022169743
17	0x3d047f25	0.032347817
18	0xbe001af4	-0.12510282
19	0xbe4e965c	-0.20174545
20	0x3d74837d	0.05969571
21	0x3da9addc	0.08285114
22	0xbe38b12a	-0.18036333
23	0xbe1e38b1	-0.15451314
24	0xbe21c76e	-0.15798733
25	0x3e28970a	0.16463867
26	0xbd6aa998	-0.057290643
27	0x3e30fcfb	0.17284004
28	0x3e2fa7a8	0.171538
29	0x3d381f2c	0.044951603
30	0x3d7ae7c0	0.06125617
31	0x3c9d9e4c	0.01924052
32	0x3d3cb2f3	0.046069097
33	0x3c2eca29	0.010668316
34	0xbe424c3f	-0.18974398
35	0xbdc1b7ba	-0.09458871
36	0xbd26c885	-0.040718574
37	0x3e04c3b1	0.12965275
38	0x3da64d68	0.08120233
39	0x3e029931	0.1275375
40	0x3e093b50	0.13401532
41	0xbdec3007	-0.11532598
42	0x3e18fc72	0.1494005
43	0x3e57d168	0.21075976
44	0x3e725365	0.23664625
45	0xbd6362b4	-0.055514053
46	0xbe5982ab	-0.21241252
47	0x3e281e02	0.16417697
48	0xbd9858a2	-0.0743878
49	0x3e135521	0.14387943
50	0x3cc3e7a5	0.023914168
51	0x3de10e5e	0.109890684
52	0xbe55a303	-0.20862965
53	0xbdbae1e9	-0.0912512
54	0x3e342378	0.17591655
55	0x3e0ae238	0.13562858
56	0xbdec2a59	-0.11531515
57	0xbdc1fea7	-0.09472399
58	0xbe0247cf	-0.12722705
59	0x3e1f4c38	0.15556419
60	0x3ca11dd5	0.019667545
61	0x3d838196	0.06421201
62	0x3d33f416	0.04393395
63	0x3d8e97a8	0.0696252
64	0xbe832384	-0.25613034
65	0x3e6ee3fe	0.2332916
66	0x3c7453bb	0.014912541
67	0x3e49705e	0.19671771
68	0xbd408994	-0.047006205
69	0xbd83fcd7	-0.0644471
70	0x3dee7c09	0.116447516
71	0x3bd8241f	0.006596103
72	0x3e2bbd15	0.16771348
73	0x3e601e30	0.21886516
74	0x3dcecaaf	0.100972526
75	0xbe560e0d	-0.20903797
76	0x3d615861	0.055015925
77	0x3d44e4a5	0.048069615
78	0xbe311472	-0.17292956
79	0x3caedc11	0.02134517
80	0x3dfd3398	0.12363356
81	0x3dd8df9a	0.105895236
82	0x3e2de212	0.1698077
83	0xbe4c756f	-0.19966672
84	0x3e52cc90	0.20585847
85	0x3d069555	0.032857258
86	0x3e1ba33e	0.1519899
87	0xbcc474c3	-0.023981458
88	0x3dbfc592	0.093638554
89	0xbdaa1d7e	-0.083064064
90	0xbe598099	-0.21240462
91	0x3d599ed4	0.053129986
92	0x3dbff5fb	0.09373089
93	0x3d8991b4	0.06717244
94	0x3e67cbb5	0.22636302
95	0xbd4cb99e	-0.049981706
96	0x3e1825d1	0.14858176
97	0x3e1fc642	0.15602973
98	0x3e4a38ca	0.19748226
99	0x3cddbf2f	0.027068703
100	0xbe2a4b6a	-0.1663033
101	0x3e5da833	0.21646194
102	0x3e61b9ea	0.22043577
103	0xbd8b5150	-0.068026185
104	0xbdb5e113	-0.0888082
105	0xbdda074e	-0.106459245
106	0xbc5a68c6	-0.013330644
107	0xbd20b28b	-0.03923277
108	0xbcb29600	-0.021800041
109	0x3e071cdd	0.13194604
110	0xbcf72df4	-0.03017328
111	0xbc326db7	-0.010890416
112	0x3de70037	0.11279338
113	0xbd7744bf	-0.060368296
114	0x3e509f49	0.20373262
115	0xbde37ef4	-0.11108199
116	0xbe2255a4	-0.15852982
117	0xbdf2beb1	-0.11852778
118	0xbe0a5bcc	-0.1351158
119	0x3ce61308	0.028085247
120	0xbe07fddb	-0.13280432
121	0xbe360f8a	-0.17779365
122	0xbe2656cc	-0.16244048
123	0x3d847ad6	0.064687416
124	0x3e767b59	0.24070491
125	0xbdd04448	-0.101692736
126	0xbe402dad	-0.18767424
127	0x3e23cbf7	0.15995775
128	0x3d899a34	0.06718865
129	0xbdfc3217	-0.123142414
130	0xbdd1d9e7	-0.1024664
131	0x3e0e344b	0.13887136
132	0xbd982f98	-0.07430953
133	0x3d33d1e3	0.043901335
134	0xbe8bc3e6	-0.27297896
135	0x3e7d9dc1	0.2476721
136	0xbd9109b4	-0.07081929
137	0x3d98784d	0.074448206
138	0x3e0b5298	0.13605726
139	0xbe3b2d9b	-0.18279116
140	0xbd090015	-0.033447344
141	0xbc0e10b6	-0.008670976
142	0xbd273fb9	-0.040832255
143	0x3e0c6072	0.13708666
144	0xbdacbea0	-0.08434796
145	0xbda58f93	-0.08084025
146	0xbe5c3786	-0.21505556
147	0xbe41ef11	-0.18938853
148	0xbc52a45a	-0.012856567
149	0x3e4267da	0.18984929
150	0x3d90cc8d	0.07070265
151	0x3db2338b	0.08701237
152	0xbe94559a	-0.2897156
153	0x3df4b194	0.11947933
154	0xbd09ab02	-0.03361035
155	0xbd7fce7d	-0.062452782
156	0xbda58194	-0.08081356
157	0xbe866b1f	-0.26253602
158	0xbdd11304	-0.10208705
159	0xbc0964c2	-0.008385839
160	0xbdcafa8f	-0.099110715
161	0x3db2e8aa	0.087357834
162	0xbd60db11	-0.054896418
163	0x3e4f74f6	0.20259461
164	0x3e04a137	0.12952124
165	0x3d882a13	0.0664865
166	0x3e5ad9ac	0.21372098
167	0x3e15d10d	0.14630528
168	0x3d8b3a8d	0.06798277
169	0x3e750386	0.23927125
170	0x3d07b9f7	0.033136334
171	0xbe45d321	-0.1931882
172	0xbe2b0dc6	-0.16704473
173	0xbe30b6f1	-0.17257287
174	0x3e0354f5	0.12825377
175	0xbdb0b161	-0.08627582
176	0x3dc36630	0.09540975
177	0xbe464e94	-0.19365913
178	0xbe5adb19	-0.21372642
179	0xbe3bc093	-0.1833518
180	0x3dec5b67	0.11540871
181	0xbe1bc6e1	-0.15212585
182	0x3d15b90c	0.036553428
183	0x3d4792a4	0.04872383
184	0xbe1820de	-0.14856288
185	0x3d5eea38	0.054422587
186	0xbdc7f479	-0.09763426
187	0x3db49d0f	0.08819019
188	0x3e8312fc	0.2560042
189	0xbded1e40	-0.11578035
190	0x3e27bce4	0.1638065
191	0x3df35907	0.11882215
192	0x3e1459de	0.14487407
193	0x3e618bab	0.22025935
194	0x3c9a0a54	0.018803753
195	0x3d0ca5d8	0.03433785
196	0x3d619d1c	0.05508147
197	0x3e0a2703	0.13491444
198	0x3e473269	0.19452824
199	0xbe87755d	-0.2645673
200	0x3e103b7a	0.14085189
201	0x3d1cda76	0.038294278
202	0x3e529e8f	0.20568298
203	0xbe92334e	-0.28554767
204	0xbe71caf5	-0.23612578
205	0xbd268221	-0.040651444
206	0xbca486c8	-0.0200838
207	0x3b697875	0.0035624777
208	0x3cca3fc4	0.024688609
209	0xbe1d20bd	-0.1534452
210	0x3cce3f76	0.025176745
211	0x3d0b6cb2	0.034039207
212	0xbdab2323	-0.08356311
213	0x3e3d5575	0.1848963
214	0x3e28e06a	0.16491857
215	0x3e43d7d0	0.19125295
216	0x3e0d3fb7	0.13793837
217	0xbd7f54a4	-0.06233658
218	0x3e2958a9	0.16537727
219	0x3dd62d09	0.104578085
220	0x3e08d794	0.13363487
221	0xbd325bad	-0.04354446
222	0xbe1077f1	-0.14108254
223	0xbe079cd9	-0.13243426
224	0xbe3b5074	-0.18292409
225	0xbe4e9233	-0.20172958
226	0xbe0da912	-0.13834026
227	0x3c8acd27	0.016943527
228	0x3e7c91ee	0.24665043
229	0xbd358e48	-0.044325143
230	0x3e3b05c8	0.18263924
231	0xbc2f7218	-0.010708354
232	0x3e917587	0.2840998
233	0xbd78a00f	-0.06069952
234	0xbd609c9c	-0.054836854
235	0xbd091da9	-0.03347555
236	0xbe5c6670	-0.21523452
237	0xbe5fb8ad	-0.21847792
238	0x3d059f35	0.032622535
239	0xbe0d3e7e	-0.1379337
240	0xbe6d31bf	-0.23163508
241	0xbce214f2	-0.027597878
242	0xbe237347	-0.15961944
243	0xbd55ecbb	-0.052227717
244	0xbd9858b7	-0.07438796
245	0x3e458a74	0.19291097
246	0x3e99da5a	0.30049402
247	0xbcdea468	-0.027178004
248	0x3deb7c78	0.1149835
249	0xbe071411	-0.13191248
250	0xbe20f77b	-0.15719406
251	0xbe08cec9	-0.13360132
252	0x3e597ec7	0.21239768
253	0x3d67dd50	0.056607544
254	0xbe1650de	-0.14679286
255	0x3d8b7172	0.06808747

conv1.bias f4 [64]
0	0xbda04b3c	-0.0782685
1	0x3d0564fd	0.032567013
2	0xbd8f2cc7	-0.069909625
3	0xbd26db23	-0.04073633
4	0xbd1ef732	-0.038809963
5	0x3e208cd4	0.15678722
6	0xbe67b09d	-0.22625966
7	0x3e37a522	0.17934087
8	0x3d81620d	0.0631753
9	0xbd52bea8	-0.051451355
10	0xbe465451	-0.19368102
11	0xbe2f8210	-0.17139459
12	0xbd0023fc	-0.031284317
13	0xbe5ccae5	-0.21561773
14	0x3cf3ac77	0.029745324
15	0xbe5e63b5	-0.21717723
16	0x3d9082de	0.07056211
17	0x3dfc82d3	0.1232964
18	0x3dca9909	0.098924704
19	0xbddac381	-0.10681821
20	0xbdedf385	-0.11618713
21	0x3da701e1	0.08154655
22	0xbd3dbbf4	-0.046321824
23	0x3cae6fe8	0.021293595
24	0x3dafdc50	0.08586943
25	0x3db593c4	0.08866075
26	0xbddaf142	-0.106905475
27	0xbdec61af	-0.11542069
28	0x3da1abf4	0.078941256
29	0x3ddd52d9	0.108068176
30	0x3dc03595	0.0938522
31	0x3a8f0bf1	0.0010913593
32	0x3d39dabc	0.045374617
33	0x3da475c5	0.08030275
34	0xbe66d4d1	-0.2254212
35	0x3c9e947a	0.019357909
36	0xbe5e88d5	-0.21731885
37	0xbe064bc0	-0.13114834
38	0xbe49fa6d	-0.19724436
39	0x3e1dffb2	0.15429571
40	0x3e5045b7	0.20339094
41	0x3e023273	0.12714557
42	0xbe8768de	-0.26447195
43	0xbdb34be7	-0.087547116
44	0xbe9c0c47	-0.30478117
45	0xbdcc8e5e	-0.09988092
46	0xbe66079d	-0.22463842
47	0xbe2c9804	-0.16854864
48	0x3bb447b7	0.005501713
49	0x3e173fa1	0.14770366
50	0x3d7f24e8	0.062291056
51	0x3da58e47	0.08083778
52	0xbdbef0c5	-0.09323267
53	0x3e377e99	0.17919387
54	0x3c4687f4	0.012117375
55	0xbe8e90d7	-0.2784488
56	0xbe666efd	-0.22503276
57	0x3d3957eb	0.04524986
58	0xbdbe6f40	-0.09298563
59	0xbe2e49e3	-0.17020373
60	0x3e414f7f	0.18877982
61	0xbd8658fb	-0.065599404
62	0x3e34f852	0.17672852
63	0xbc017049	-0.007900306

conv2.weight f4 [32, 64, 3, 3]
0	0x3b82a65f	0.003987118
1	0x3d0ab6fd	0.033865917
2	0x3c1825bf	0.009286343
3	0xbd3aea8c	-0.045633838
4	0x3d6e7b7b	0.05822323
5	0x3c86f81a	0.016475726
6	0xbd4d9d4c	-0.050198838
7	0xbd0f0e27	-0.034925606
8	0x3bd7aedb	0.0065821237
9	0xbcff535b	-0.031167677
10	0x3c4a455e	0.01234564
11	0xbd11a728	-0.035559803
12	0x3a44ff8a	0.0007514885
13	0x3d4a4cf2	0.049389787
14	0x3c9a09ee	0.018803563
15	0x3c72efa6	0.014827644
16	0xbd015521	-0.031575326
17	0x3b496efb	0.0030736316
18	0xbc522927	-0.012827194
19	0xbd10f015	-0.03538521
20	0x3c458926	0.0120566245
21	0xbc7ce68f	-0.015435829
22	0xbd0f98f8	-0.03505799
23	0x3da40b6a	0.080099896
24	0x3c9417c7	0.018077744
25	0x3be40be7	0.0069594267
26	0x3da05151	0.0782801
27	0xbd8502fa	-0.06494708
28	0x3d072321	0.032992486
29	0xbd1c882f	-0.038215812
30	0x3c97ce52	0.018530998
31	0x3d2515ea	0.040304102
32	0x3d2be2af	0.04196423
33	0x3cd62ed8	0.026145384
34	0x3d0dbcba	0.03460381
35	0x3a405bdd	0.00073379074
36	0x3d41c2ae	0.0473048
37	0x3cc50b3f	0.024053214
38	0x3d609d28	0.054837376
39	0xbbd7a66a	-0.0065811174
40	0xbc1e52ad	-0.009663266
41	0x3c376241	0.011192859
42	0xbbb1f30b	-0.0054305843
43	0xbcd86a45	-0.02641786
44	0xbd5cbdc9	-0.05389193
45	0xbb05156e	-0.0020306963
46	0x3a90662f	0.0011016781
47	0xbc89f67d	-0.016841168
48	0x3c2275d1	0.009915785
49	0xbd3ac1d4	-0.045595005
50	0xbc7dcbfc	-0.015490528
51	0x3c854f7a	0.016273249
52	0xbcb3e5f3	-0.021960234
53	0xbceaae4d	-0.028647566
54	0x3d31420d	0.04327588
55	0xbd409cd9	-0.04702458
56	0xbceb7938	-0.028744325
57	0x3d3febc4	0.046855703
58	0xbd38b3b9	-0.045093272
59	0x3d6cef98	0.057845682
60	0x3a993ea0	0.0011691637
61	0xbc209e33	-0.009803343
62	0x3d8eb363	0.06967809
63	0xbb7c33b9	-0.0038482978
64	0x3cda3d15	0.026640454
65	0xbd00fe34	-0.031492427
66	0xbba9e563	-0.0051848157
67	0x3a848b17	0.0010112253
68	0x386e40fa	5.6804136e-05
69	0x3ccea152	0.025223408
70	0x35df1d9a	1.662341e-06
71	0x3d33ded2	0.04391367
72	0xbc3e852d	-0.011628431
73	0xbd45ecc7	-0.04832151
74	0x3cdf9b9c	0.02729588
75	0xbd8aae11	-0.06771482
76	0xbc390aec	-0.011294108
77	0x39ea0145	0.00044632904
78	0xbdccc297	-0.099980526
79	0xbdb2fd2b	-0.08739694
80	0xbd7cc197	-0.06170806
81	0xbce852af	-0.02835974
82	0xbc10c510	-0.008836046
83	0xbd956321	-0.07294298
84	0x3d86d72b	0.06584009
85	0x3c704397	0.014664552
86	0x3af92e1e	0.0019010936
87	0xbd310202	-0.043214805
88	0x3cbfb5a7	0.023402048
89	0xbd479496	-0.048725687
90	0x3cadfd2e	0.02123889
91	0x3d874490	0.06604874
92	0x3d139330	0.03602904
93	0xbcb606c2	-0.02222002
94	0xb8fbc78e	-0.000120057826
95	0xbc9995a5	-0.018748114
96	0xbd675208	-0.056474715
97	0x3c8f0ec3	0.017463094
98	0xbd0f5915	-0.034997065
99	0xbcdb591c	-0.02677589
100	0x3c8d3c54	0.01724068
101	0xbcf60757	-0.030032797
102	0xbd22f61e	-0.039785497
103	0xbd771666	-0.060324095
104	0xbdaedc6c	-0.08538136
105	0x3cf28f56	0.029609364
106	0xbb6dc095	-0.0036278118
107	0xbdb55ff7	-0.088561945
108	0x3d0164e8	0.031590372
109	0x3c2d1e09	0.010566243
110	0x3c3b8d1e	0.011447219
111	0xbc02f7f3	-0.007993686
112	0x3c95e7ff	0.0182991
113	0x3bd8a2ff	0.0066112275
114	0xbcf3d55c	-0.029764824
115	0x3c63df43	0.01390821
116	0xbd13e9d2	-0.03611166
117	0x3cc93b8a	0.024564523
118	0xbd4187d2	-0.04724867
119	0xbd359dba	-0.044339873
120	0x3cb156f0	0.0216479
121	0xbcf6225f	-0.030045686
122	0xbb69744e	-0.0035622302
123	0x3c0d8d33	0.008639622
124	0xbc719a17	-0.014746211
125	0xbc7c683b	-0.01540571
126	0x3ca2283e	0.01979458
127	0xbcb6ded2	-0.022323046
128	0x3d5a33a0	0.05327189
129	0xbc87ffdd	-0.016601497
130	0x3d00ca80	0.03144312
131	0x3ca9d7a1	0.020732703
132	0xbd2dbd30	-0.04241675
133	0x3d9d26b9	0.076734014
134	0x3dbb138a	0.09134586
135	0xbcb23d7d	-0.021757836
136	0x3d2ac818	0.04169473
137	0x3c83d4a0	0.016092598
138	0x3caf6f5d	0.021415407
139	0x3cfe55ea	0.031046826
140	0x3d2bbe8c	0.041929767
141	0xbcc70e8f	-0.024298934
142	0x3ceed5af	0.029154627
143	0xbca30b48	-0.01990284
144	0xbd283253	-0.041063618
145	0x3d28657a	0.0411124
146	0xbba38c8c	-0.0049911197
147	0xbc505b67	-0.0127171045
148	0xbcd3d37e	-0.025857683
149	0xbc862927	-0.016377045
150	0xbd134495	-0.035954077
151	0x3cc0588d	0.023479724
152	0xbc24e182	-0.010063531
153	0x3cbf9443	0.023386126
154	0x3bda7180	0.0066663623
155	0xbbb691da	-0.005571586
156	0x3d3ee991	0.046609465
157	0x3cfe543b	0.031046024
158	0x3b943320	0.004522696
159	0xbcc1ea71	-0.02367136
160	0xbd125555	-0.03572591
161	0x3bd713ed	0.0065636546
162	0x3c392e00	0.011302471
163	0xbd9534dd	-0.072854735
164	0xbc9017fc	-0.017589562
165	0xbc891bcd	-0.01673689
166	0xbcde3c2d	-0.027128303
167	0xbc2f5603	-0.010701659
168	0x3d3b92b5	0.045794208
169	0xbd70c333	-0.058779906
170	0x3c03ce8d	0.008044851
171	0x3befb771	0.007315569
172	0xbc146be5	-0.009058927
173	0xbd0771e2	-0.03306759
174	0xbc8ead2a	-0.017416555
175	0xbc6446e2	-0.013932915
176	0x3d5016e8	0.050803095
177	0xbd9df523	-0.07712772
178	0xbd3621f5	-0.044465978
179	0x3d394962	0.045236
180	0xbd2075ff	-0.03917503
181	0x3d1ecbd6	0.03876861
182	0x3d42a014	0.047515944
183	0xbcb0b349	-0.021569865
184	0x3d143980	0.03618765
185	0x3c08563a	0.008321339
186	0x3dc15231	0.09439505
187	0x3c6fd305	0.014637713
188	0x3d041c85	0.03225376
189	0xbd17a587	-0.037023094
190	0xbd39f5bd	-0.04540037
191	0x3c3da8ac	0.011575859
192	0x3bb865a5	0.0056273513
193	0xbcd2d4f2	-0.025736306
194	0x3cff9ac6	0.031201731
195	0x3cc8a668	0.024493411
196	0xbb98c90d	-0.004662639
197	0xbd8ae4f8	-0.067819536
198	0x3c6209dd	0.013796297
199	0x3d79bd50	0.060971558
200	0xbb3d7fe8	-0.002891535
201	0xbd43999e	-0.047753923
202	0xbd3067f5	-0.04306789
203	0xbdaa23aa	-0.08307584
204	0xbc80385b	-0.015651872
205	0xbd172ab8	-0.036905974
206	0xbb267a36	-0.0025402433
207	0xbd6f75c0	-0.058461905
208	0x3cfd505c	0.030922107
209	0xbcb5b903	-0.022182947
210	0x3c26aaae	0.010172529
211	0x3c3e2204	0.01160479
212	0xbd86c0dd	-0.065797545
213	0xbd05f223	-0.032701623
214	0xbd182cc3	-0.037152063
215	0xbd0df609	-0.034658466
216	0xbb9f6396	-0.0048641665
217	0x3da2d561	0.07950855
218	0x3c1e4c40	0.009661734
219	0x3d7139d3	0.058893036
220	0x3d152610	0.036413252
221	0xbb88a46d	-0.0041699917
222	0x3d1ab5b4	0.03777094
223	0xbcb90afc	-0.022588246
224	0x3b9495a1	0.0045344387
225	0x3caffe17	0.021483464
226	0xbd81fe68	-0.06347352
227	0x3c45feb1	0.012084649
228	0xbd5b174d	-0.05348902
229	0x3c5f7797	0.013639352
230	0x3cfdd49f	0.030985175
231	0xbd23890c	-0.03992562
232	0xbb0145f2	-0.0019725529
233	0x3d9912a3	0.07474258
234	0xbd546773	-0.05185647
235	0xbd07c71e	-0.033148877
236	0x3d898190	0.06714165
237	0x3c67ee0e	0.014155878
238	0xbdb3dc14	-0.08782211
239	0xbd6b4c66	-0.057445906
240	0xbd220d7d	-0.039563645
241	0xbd0a9638	-0.033834666
242	0x3d535b27	0.0516006
243	0x3d47e48d	0.048801947
244	0xbda93123	-0.08261325
245	0xbd590ca5	-0.052990574
246	0xbd231fea	-0.039825357
247	0xbbef6afe	-0.0073064556
248	0xbd3eed27	-0.046612885
249	0x3d626eb7	0.055281367
250	0xbcdb3252	-0.026757393
251	0xbb43e500	-0.0029891133
252	0xbd3b882c	-0.04578416
253	0xbd5bf0a5	-0.053696293
254	0x3c0c0db1	0.008548186
255	0xbcd9056b	-0.026491841

conv2.bias f4 [32]
0	0xbc34e1bc	-0.011040147
1	0xbd7eb2a4	-0.062182084
2	0xbda43742	-0.08018352
3	0xbb3736ef	-0.0027956327
4	0xbd9cad7c	-0.07650277
5	0xbd1be03c	-0.038055643
6	0xbd6bdddc	-0.05758463
7	0xbd7c8ff4	-0.061660722
8	0xbd9ab42a	-0.07553895
9	0xbdbbedcd	-0.09176216
10	0xbc6327e2	-0.013864489
11	0xbd257b30	-0.040400684
12	0xbdb4ef2c	-0.08834681
13	0x3d13db4e	0.036097817
14	0xbce52ed4	-0.027976431
15	0xbdc8d660	-0.09806514
16	0xb8d077db	-9.940538e-05
17	0xbdb16a8f	-0.086629026
18	0x3c4a1e42	0.012336316
19	0xbcb088f2	-0.021549676
20	0xbcef270b	-0.029193422
21	0xbcca0b5c	-0.02466362
22	0xbda65fac	-0.08123717
23	0xbd30b5b2	-0.04314203
24	0xbc70656e	-0.01467262
25	0xbd9b8668	-0.07593995
26	0xbdcf5004	-0.10122684
27	0xbde86fe3	-0.11349466
28	0xbd8b5ad0	-0.068044305
29	0xbdd9f6a0	-0.10642743
30	0xbd63c8ba	-0.05561135
31	0xbdd7a7b5	-0.105300345

conv3.weight f4 [16, 32, 3, 3]
0	0xbd8dba75	-0.069203295
1	0xbbd99980	-0.006640613
2	0xbd8d2f3a	-0.068937734
3	0xbcf560a0	-0.029953301
4	0x3d92c87e	0.07167147
5	0x3d335d72	0.04379029
6	0x3da760cf	0.08172762
7	0x3d026630	0.031835735
8	0xbda912ea	-0.08255561
9	0xbc94ec52	-0.018179093
10	0xbcd15a48	-0.025555745
11	0xbca3af21	-0.019980969
12	0x3c1a15de	0.009404628
13	0xbd4806f8	-0.04883477
14	0xbd8e2905	-0.069414176
15	0xbd0ebeb1	-0.034849826
16	0xbb173534	-0.0023072483
17	0xbc790696	-0.015199324
18	0xbbd5a6ff	-0.0065201516
19	0x3cc844f8	0.02444695
20	0xbdceefee	-0.10104357
21	0x3da986ca	0.08277662
22	0x3e6596ba	0.22420779
23	0x3e11a87a	0.14224425
24	0x3e2f1def	0.17101263
25	0xbcbe0b15	-0.023198644
26	0x3cca4471	0.024690839
27	0x3d5783be	0.052615874
28	0xbd2bfce8	-0.041989237
29	0x3e0730b6	0.13202175
30	0x3dcb9331	0.09940184
31	0xbcb1a6d9	-0.021686004
32	0xbc46741b	-0.012112643
33	0x3e041dfe	0.12902066
34	0x3ccdf792	0.025142465
35	0x3dc0c76e	0.09413038
36	0x3c086ee2	0.008327218
37	0xbdb9e184	-0.09076217
38	0xbc87d6e1	-0.016581954
39	0xbe3c6ced	-0.18400927
40	0xbcd9e7a5	-0.026599715
41	0xbda774cb	-0.08176573
42	0xbcac82e3	-0.021058505
43	0x3d022242	0.031770952
44	0xbe33df0d	-0.17565556
45	0xbced2b0d	-0.028951192
46	0xbd85f952	-0.06541695
47	0xbdc2b9e5	-0.09508113
48	0x3d4aca9c	0.04950963
49	0xbd33ec54	-0.043926552
50	0x3e073dc7	0.1320716
51	0x3bc8c45f	0.006126925
52	0xbe0fa0c9	-0.14026178
53	0x3d99e412	0.07514204
54	0xbda58429	-0.08081848
55	0xbe0e63e9	-0.139053
56	0xbcedb185	-0.029015312
57	0xbe042a43	-0.12906747
58	0xbd11b7e5	-0.035575766
59	0x3e3921d0	0.18079305
60	0xbdac72df	-0.084203474
61	0xbcfb8e10	-0.03070739
62	0xbdf6fe24	-0.12060192
63	0x3b1fe4b1	0.0024397785
64	0xbe2097bb	-0.1568288
65	0xbda11048	-0.078644335
66	0xbe0c8fc0	-0.13726711
67	0xbe2d57dc	-0.16928047
68	0xba8d7351	-0.0010791813
69	0xbd84be5e	-0.06481622
70	0xbe44e6b5	-0.19228633
71	0xbe5ac250	-0.21363187
72	0x3c6983ef	0.014252647
73	0xbdc6f65b	-0.09714957
74	0x3ce2b9fb	0.027676573
75	0xbd80baea	-0.06285651
76	0xbd63d867	-0.0556263
77	0x3d82cd86	0.06386857
78	0x3d9da71c	0.07697889
79	0x3c68e22f	0.014214083
80	0x3d3b95b7	0.045797076
81	0xbdb65b97	-0.08904188
82	0xbdb0e381	-0.08637143
83	0x3ba2f06b	0.0049725077
84	0xbd82187f	-0.063523285
85	0x3d396fef	0.045272764
86	0x3df71be4	0.120658666
87	0x3cacb53f	0.021082519
88	0x3cca334c	0.024682663
89	0x3d7aec6e	0.061260633
90	0xbda90470	-0.082527995
91	0xbe13cd28	-0.1443373
92	0x3db2e41f	0.08734917
93	0xbd25d78b	-0.04048876
94	0xbcc7f3b9	-0.024408208
95	0x3d8da87c	0.069169015
96	0xbc28bfa6	-0.010299599
97	0xbd610e62	-0.054945357
98	0x3e104c73	0.14091663
99	0x3d173291	0.03691346
100	0x3c2311c7	0.009952969
101	0x3c9cfa3c	0.01916229
102	0x3dd29f9b	0.102843486
103	0x3dee5ac7	0.11638408
104	0x3c8a94d8	0.016916677
105	0x3c0d25ae	0.008614941
106	0x3d59b9b6	0.053155623
107	0x3d0ed5e5	0.034871954
108	0x3d826e9c	0.06368753
109	0x3d9a324a	0.07529123
110	0x3d0de9cf	0.034646805
111	0xbddc8e25	-0.107692994
112	0xbcc69c52	-0.024244461
113	0xbcfce49f	-0.030870734
114	0xbb98fcfe	-0.004668831
115	0x3c9dec9d	0.019277865
116	0x3db26173	0.08709993
117	0xbd5b06b8	-0.053473204
118	0xbbe7d61c	-0.0070750844
119	0x3dd8f6bf	0.10593938
120	0xbda2ac94	-0.07943073
121	0xbd016923	-0.031594407
122	0x3d3b2c42	0.045696504
123	0xbd0c1466	-0.03419914
124	0xbdbfed8d	-0.09371481
125	0xbe02074a	-0.12698093
126	0xb88552f8	-6.357388e-05
127	0xbe1d0529	-0.15334
128	0xbd8254bf	-0.0636382
129	0xbdba8fe2	-0.09109475
130	0x3d99b52f	0.07505261
131	0x3e7db00e	0.24774191
132	0xbdefd7b4	-0.11711064
133	0x3daf9594	0.08573452
134	0x3e16ac79	0.1471423
135	0xbc0ee927	-0.00872258
136	0x3c7c2489	0.01538957
137	0xbdde0152	-0.108400956
138	0x3d2d6df0	0.042341173
139	0xbd6a87ca	-0.057258405
140	0xbcc243cb	-0.023713967
141	0x3d032b1c	0.032023534
142	0xbdf6f446	-0.1205831
143	0xbe0fb3ee	-0.14033481
144	0xbd4c0c00	-0.04981613
145	0xbe1a6469	-0.15077366
146	0xbd89d176	-0.06729405
147	0xbd04b3a1	-0.03239787
148	0xbb25098a	-0.0025182688
149	0x3e2f0e75	0.17095359
150	0xbc5c942d	-0.013463062
151	0x3ce2dfd1	0.027694615
152	0x3d2c168a	0.042013682
153	0x3d81d842	0.06340076
154	0xbd85de66	-0.0653656
155	0x3e10f3b2	0.14155462
156	0xbe064363	-0.13111643
157	0xbdb82352	-0.08991112
158	0x3c97287e	0.018451925
159	0xbdfc0421	-0.12305475
160	0xb9a9a6cc	-0.00032358465
161	0x3c3aba06	0.0113968905
162	0xbc36802f	-0.01113896
163	0x3c9aee2d	0.0189124
164	0x3d05592d	0.032555748
165	0x3b5889c0	0.003304109
166	0xbdb1e6d4	-0.08686605
167	0x3e1230c6	0.14276418
168	0x3dad18a7	0.08451968
169	0xbd69e114	-0.057099417
170	0x3d2934d1	0.041310135
171	0xba7127f0	-0.00091993716
172	0xbb915b07	-0.0044359
173	0xbe074bb2	-0.13212469
174	0xbda4959d	-0.08036349
175	0xbda77fde	-0.081786856
176	0x3cc159ed	0.02360245
177	0xbe25ba63	-0.16184382
178	0xbd56d39b	-0.052447896
179	0xbd959ce5	-0.07305316
180	0xbdd07d47	-0.10180145
181	0xbb885bb4	-0.0041613225
182	0xbdbd84c6	-0.0925384
183	0xbddeb136	-0.10873644
184	0xbd603905	-0.054741878
185	0x3d39f71e	0.045401685
186	0x3df47b1f	0.11937546
187	0x3cdab01f	0.02669531
188	0x3e5688e4	0.20950657
189	0xbca74bcc	-0.020421885
190	0xbc7b8f74	-0.015354026
191	0xbaa0ed14	-0.0012277686
192	0xbdaaaed5	-0.08334128
193	0xbd96f08b	-0.07370099
194	0x3d58401f	0.052795526
195	0xbd8146ad	-0.063123085
196	0x3cd65ad9	0.026166366
197	0x3dfea6d2	0.12434162
198	0xbd8f9654	-0.07011095
199	0x3e1ff560	0.15620947
200	0x3dea0bea	0.11428054
201	0x3cdb55ab	0.026774248
202	0x3dfb65ee	0.12275301
203	0xbd31c168	-0.043397337
204	0x3d2b08ec	0.041756555
205	0x3da037db	0.078231536
206	0xbb8b60eb	-0.004253497
207	0xbd85781f	-0.06517052
208	0xbdcfc809	-0.101455756
209	0xbd497544	-0.0491841
210	0xbe559319	-0.20856895
211	0xbcd51426	-0.026010584
212	0xbe22d8ac	-0.15902966
213	0xbdde529b	-0.108555995
214	0xbe0b6b09	-0.1361505
215	0xbe08964f	-0.13338588
216	0x3df848c2	0.121232525
217	0xbcdffb17	-0.027341409
218	0xbcc08c63	-0.023504442
219	0x3df95bbb	0.12175699
220	0xbde8b00a	-0.11361702
221	0x3dd707ea	0.10499556
222	0x3dbbbb8a	0.091666296
223	0xbdbae5b4	-0.09125844
224	0x3c635617	0.013875506
225	0xbc87d065	-0.016578862
226	0xbda50a23	-0.08058574
227	0x3d25465c	0.040350303
228	0xbcafd663	-0.021464532
229	0x3db7d559	0.0897624
230	0x3dbf6317	0.09345072
231	0x3d85891e	0.06520294
232	0x3dc2e1f2	0.09515752
233	0x3ca422a9	0.020036059
234	0x3dc9d1dd	0.09854481
235	0x3d454a9f	0.048166867
236	0xbd6183db	-0.055057388
237	0xbc34decf	-0.01103945
238	0xbd96d401	-0.07364655
239	0x3ce6029a	0.028077412
240	0xbcd6999e	-0.026196297
241	0xbd4d15c5	-0.05006959
242	0xbdcde41c	-0.10053274
243	0xbd091571	-0.033467714
244	0xbb004483	-0.0019572086
245	0x3bda264e	0.0066573983
246	0x3dc47475	0.09592525
247	0x3d92744e	0.071510896
248	0x3d55e2ec	0.052218363
249	0x3de4ad87	0.1116591
250	0x3e57c619	0.21071662
251	0x3dc04c8d	0.09389601
252	0x3c1ba102	0.0094988365
253	0xbd8719dd	-0.0659673
254	0xbda16fef	-0.07882678
255	0x3d1c586b	0.03817026

conv3.bias f4 [16]
0	0xbbdbd871	-0.0067091514
1	0x3d137e91	0.036009375
2	0x3daa43b9	0.08313698
3	0x3c49be51	0.012313441
4	0xbd922534	-0.07136002
5	0x3c9aaee8	0.01888223
6	0xbd2aaca6	-0.041668557
7	0x3c391b4c	0.011298012
8	0x3c100438	0.008790068
9	0x3da56c9f	0.080773585
10	0xbbda163b	-0.006655482
11	0xbd9bc175	-0.076052584
12	0xbd55acec	-0.052166864
13	0xbd0ead0d	-0.034833003
14	0x3cea84a2	0.028627697
15	0xbc3ab8c8	-0.011396594

linear1.weight f4 [128, 576]
0	0xbca9a6c2	-0.0207094
1	0x3c4c728f	0.012478485
2	0x3c804824	0.0156594
3	0xbcf494ac	-0.029856049
4	0x3ca41ab3	0.020032262
5	0xbcebb0b8	-0.02877079
6	0x3d0631a8	0.0327622
7	0xbd011aae	-0.031519584
8	0xbc232c4d	-0.009959293
9	0x3d5fbfe0	0.054626346
10	0xbacfa9c9	-0.0015843447
11	0xbd5f7216	-0.05455216
12	0xbd1a893e	-0.03772854
13	0xbc27ded0	-0.010245994
14	0xbc7e3e34	-0.01551776
15	0x3dc8f1f1	0.09811772
16	0x3adb7ac0	0.0016744956
17	0x3cb00762	0.021487895
18	0x3d9d459e	0.07679294
19	0x3d7b3a14	0.061334684
20	0xbd2e4bf1	-0.042552892
21	0x3d8077cf	0.06272852
22	0x3c546f46	0.012965983
23	0x3d2ab5ab	0.04167716
24	0xbbce5ad6	-0.0062974496
25	0xbd186a9d	-0.03721105
26	0xbd5f1f4d	-0.05447321
27	0x3d3837e0	0.04497516
28	0x3c0d6831	0.008630798
29	0x38d8a681	0.000103306964
30	0xbd274683	-0.04083873
31	0xbc85b681	-0.016322376
32	0x3ca35979	0.019940125
33	0xbc51803f	-0.012786924
34	0xbc3da1e5	-0.011574243
35	0x3d1bc278	0.038027257
36	0x3c511299	0.012760782
37	0x3cee639c	0.029100232
38	0x3d6abd4a	0.057309426
39	0xbbbc14e1	-0.0057397936
40	0x3cae25b6	0.021258216
41	0xbd0c7f19	-0.034300897
42	0x3d0630da	0.032761432
43	0x3d00c1b5	0.031434733
44	0xbcd518f7	-0.02601288
45	0x3d5701cf	0.05249196
46	0x3cf2665e	0.029589828
47	0xbc290d65	-0.010318135
48	0x3d425e3f	0.04745316
49	0x3bbc76d3	0.0057514696
50	0xbd8adf8d	-0.0678092
51	0xbd0975b6	-0.033559524
52	0x3d58b9c7	0.052911546
53	0x3bd4f27d	0.0064986334
54	0x3ccc7cd7	0.024961872
55	0x3c9f9df8	0.019484505
56	0xbb8d5dbd	-0.004314153
57	0x3bac2c72	0.0052543217
58	0x3b827aa6	0.003981906
59	0xbd168f81	-0.03675795
60	0x3d0c8d76	0.034314595
61	0xbd17fd65	-0.03710689
62	0xbca1e9c6	-0.019764792
63	0xbc9a8fd0	-0.018867403
64	0xbc96706d	-0.018364156
65	0xbc560614	-0.013062973
66	0xbceba25c	-0.028763942
67	0x3cb6091b	0.022221139
68	0xbd07d2f4	-0.033160165
69	0xbcd40921	-0.02588326
70	0x3d6d9072	0.057999082
71	0xbcf65665	-0.030070493
72	0x3cf7ae48	0.030234471
73	0x3d468c1c	0.048473462
74	0x3c57a80f	0.013162627
75	0x3d3d4186	0.046205066
76	0xbc4a9a09	-0.012365826
77	0xbcb27a09	-0.021786707
78	0x3d04f8a0	0.03246367
79	0xbc527d59	-0.012847268
80	0x3d41ecda	0.04734502
81	0x3d0bb481	0.03410769
82	0x3c090a8f	0.008364334
83	0xbcbb90fe	-0.022896286
84	0xbd56e93b	-0.05246852
85	0xbd8ea33b	-0.069647275
86	0x3b75badf	0.0037495417
87	0x3d07469e	0.03302633
88	0x3c91dd49	0.017805712
89	0x3bb3f620	0.005491987
90	0x3c9b04ee	0.01892325
91	0xbc3de1b3	-0.011589455
92	0xbd7b65c3	-0.061376344
93	0x3ca65249	0.020302908
94	0x3d49f4c1	0.04930568
95	0xbd0bdc12	-0.034145422
96	0xbd58d5e0	-0.052938342
97	0xbc8ef691	-0.017451556
98	0x3b8a0159	0.0042115864
99	0xbc7d639e	-0.015465645
100	0x3cf8d5bc	0.030375354
101	0xbc22bb61	-0.00993237
102	0xbc55f815	-0.013059636
103	0x3b4f9e64	0.0031680102
104	0x3cf7ab1c	0.030232958
105	0x3c724fd5	0.014789541
106	0xbc7ef38d	-0.015560997
107	0xbc367cbd	-0.011138138
108	0xbbe3ecc8	-0.0069557168
109	0x3cc9792c	0.024593912
110	0x3d07775d	0.033072818
111	0xbcdd81ea	-0.027039487
112	0x3b928231	0.0044710864
113	0x3c46ef9d	0.012142089
114	0x3d3c53cf	0.045978364
115	0x3c950d85	0.018194923
116	0x3c6aab3c	0.014323052
117	0xbbffee8f	-0.007810421
118	0x3d62177b	0.055198174
119	0xbc691eb2	-0.01422851
120	0xbd0f694d	-0.035012532
121	0xbc0f93f1	-0.008763299
122	0x3d3c9104	0.046036735
123	0x3d07fbd6	0.033199154
124	0xbc7110f6	-0.014713516
125	0xbc683751	-0.014173345
126	0x3cf713b5	0.030160764
127	0x3c947192	0.01812056
128	0xbb0d2c29	-0.0021541214
129	0x3c88f66b	0.016719064
130	0xbcd39a57	-0.02583043
131	0xbc9ba4d5	-0.018999496
132	0x3d3604c8	0.044438154
133	0x3c8b4d48	0.017004624
134	0x3c0e30f2	0.008678662
135	0xbd851e80	-0.06499958
136	0xbd318dc6	-0.043348096
137	0x3c9d33ee	0.019189801
138	0xbcee1acf	-0.029065518
139	0xbd2eb7b5	-0.042655665
140	0x3c227fb1	0.009918139
141	0x3af1d8de	0.0018451472
142	0x3b2e0270	0.0026551746
143	0xbc03437f	-0.008011698
144	0x3d10fd93	0.035398077
145	0x3c40106b	0.011722664
146	0xbcd25cfe	-0.025679108
147	0x3cb4de6f	0.02207872
148	0x3d4a892a	0.049447216
149	0xbcc342a0	-0.02383548
150	0xbc96e750	-0.018420845
151	0xbc03e7c5	-0.008050864
152	0xbd7999ab	-0.060937565
153	0x3c7c8b2c	0.015414041
154	0xbba85a34	-0.005137706
155	0xbceb0893	-0.028690612
156	0x3d6bf188	0.05760339
157	0xbd001a4c	-0.03127508
158	0xbc852b22	-0.016255919
159	0xbc92f986	-0.017941248
160	0xbc8b7e34	-0.017027952
161	0x3d086ada	0.033305027
162	0x3c8f19bf	0.017468331
163	0xbcd8b3a0	-0.02645284
164	0x3d179005	0.037002582
165	0x3c01bb2a	0.007918159
166	0x3d94e031	0.072693236
167	0xbd1ef3e8	-0.038806826
168	0x3d43f1da	0.04783807
169	0xbc858328	-0.016297892
170	0x3b0d678d	0.0021576614
171	0x3c3d6a12	0.011560934
172	0x3d377181	0.04478598
173	0x3d352ed8	0.044234127
174	0x3cc57218	0.024102256
175	0x3cd310fb	0.025764933
176	0xbc3292c7	-0.010899252
177	0x3c91ce6b	0.017798623
178	0x3d039ad1	0.032130066
179	0x3bc591fd	0.006029366
180	0xbbe2d5a5	-0.006922441
181	0x3ccc2fa6	0.024925064
182	0x3cfb026d	0.030640805
183	0xbab168d3	-0.0013535268
184	0x3b9fc0e2	0.0048752883
185	0xbcac9783	-0.02106834
186	0xbccd6f68	-0.025077537
187	0xbca3b86a	-0.019985396
188	0xbbc961e2	-0.0061457017
189	0x3c9c9453	0.019113695
190	0x3bc6f2e3	0.006071435
191	0x3d412e57	0.047163334
192	0xbca03ada	-0.019559313
193	0xbd233520	-0.039845586
194	0x3d4ead7e	0.050458424
195	0xbcb06ed4	-0.021537222
196	0x3d9fb3c9	0.07797963
197	0x3d332e8b	0.04374556
198	0xbcd15a1a	-0.02555566
199	0x3c73c9f7	0.014879695
200	0xbd02cd30	-0.031933963
201	0x3c14631f	0.009056835
202	0x3d3833dc	0.044971332
203	0xba6bdd4e	-0.00089975155
204	0x3cd56c44	0.026052602
205	0xbd3e536b	-0.046466272
206	0x3c309713	0.010778206
207	0xbca8672a	-0.020557005
208	0x3c85cfc1	0.016334416
209	0xbc18462a	-0.009294072
210	0xbbc2e02f	-0.005947135
211	0x3ca627cf	0.020282654
212	0xbc562cbb	-0.013072188
213	0xbd1a672d	-0.037696052
214	0xbcb4fef0	-0.02209422
215	0xbd51fa55	-0.051264126
216	0x3d285fee	0.04110711
217	0xbce23536	-0.027613264
218	0x3c309299	0.010777139
219	0xba0dcbd3	-0.00054090953
220	0xbd1a889a	-0.03772793
221	0xbb88125f	-0.0041525806
222	0xbcd333d7	-0.025781555
223	0x3d0f6c55	0.035015423
224	0xbd2e0f34	-0.042494968
225	0xbc80e0d0	-0.015732199
226	0xbd14e521	-0.036351327
227	0x3c700ee3	0.014651987
228	0xbc397712	-0.0113198925
229	0x3d48c8c0	0.049019575
230	0x3d90d42c	0.070717186
231	0x3c8209cd	0.015873814
232	0xbc5b213e	-0.013374625
233	0x3b1d97d8	0.0024046805
234	0x3c721f6d	0.014778
235	0xbcd1b85c	-0.025600605
236	0xbd0eb836	-0.034843646
237	0x3d0c12c1	0.034197573
238	0x3d645be4	0.055751696
239	0x3d18572e	0.037192516
240	0xbd2ff1e5	-0.042955298
241	0xbcabbd55	-0.020964304
242	0xbcfd0e73	-0.030890679
243	0x3cdb440f	0.026765851
244	0x3d2df739	0.042472098
245	0x3d64cd78	0.055860013
246	0xbcbd3bd9	-0.023099827
247	0x3c159ac8	0.009131141
248	0xbc7ffd4f	-0.015624358
249	0xbd4ccea8	-0.05000177
250	0xbad6a7b6	-0.0016376886
251	0x3abe9fb8	0.001454345
252	0xbce65d8d	-0.02812078
253	0x3cf47077	0.029838784
254	0xbcb50d10	-0.022100955
255	0xbc9dc54a	-0.019259114

linear1.bias f4 [128]
0	0xbc975034	-0.018470861
1	0x3d273f64	0.04083194
2	0xbccb4556	-0.024813335
3	0x3cd4daa6	0.025983166
4	0xbb0b4630	-0.0021251552
5	0x3d11addd	0.0355662
6	0x3c8eb27d	0.017419094
7	0xbc845fbc	-0.016158931
8	0x3ba67974	0.0050803963
9	0x3c6d51d8	0.014484845
10	0xbd07f822	-0.033195622
11	0x3d0c7740	0.034293413
12	0xbcf248c3	-0.029575711
13	0x3cfd7c8a	0.030943174
14	0xbcd22208	-0.025650993
15	0xbcd9a9b9	-0.026570188
16	0xbc849a2c	-0.016186796
17	0x3d290f80	0.041274548
18	0x3ca14a3f	0.019688724
19	0x3be3ffa4	0.006957965
20	0xbce9a1ab	-0.028519472
21	0x3cd5735e	0.026055988
22	0xbd008d32	-0.031384654
23	0xbcad81a5	-0.021179983
24	0x3cb71ef1	0.022353621
25	0x3d30ba45	0.04314639
26	0xbc2046f7	-0.009782544
27	0xbd662fde	-0.056197993
28	0x3c339d37	0.010962776
29	0x3b6b73ad	0.0035927102
30	0xbb018ff4	-0.001976964
31	0xbc52ed5e	-0.012873976
32	0x3d06e0a7	0.03292909
33	0x3ca424c5	0.020037064
34	0x3cf92fdb	0.030418327
35	0xbd0ddec1	-0.034636263
36	0xb98c560f	-0.00026767
37	0xbc960f64	-0.018317886
38	0xbd3015d3	-0.042989563
39	0x3c933dd1	0.017973812
40	0xbb8b8c49	-0.0042586667
41	0x3d3b7589	0.045766387
42	0xba935bfb	-0.0011242622
43	0x3b25063f	0.0025180725
44	0x3c9505fb	0.018191328
45	0xbc80f84b	-0.015743395
46	0x3cfafa11	0.03063682
47	0x3c2667e5	0.010156606
48	0xbce06cf1	-0.027395697
49	0xbca2d57d	-0.01987719
50	0xbbe20b7a	-0.006898341
51	0x3d1cecaf	0.038311657
52	0x3cc1785f	0.023616968
53	0xbbc303c4	-0.0059513766
54	0xbbf09918	-0.007342469
55	0x3c02a7ab	0.0079745455
56	0x3ce95418	0.028482482
57	0xbce5a170	-0.028031081
58	0xbd6ae4d5	-0.057347137
59	0xbd65928f	-0.056047972
60	0x3d0db1c2	0.03459335
61	0x3ca2ffa4	0.01989729
62	0x39196056	0.00014627105
63	0x3cd01a85	0.02540327
64	0x3b526b2d	0.0032107339
65	0x3ced4525	0.028963635
66	0xbd2ea326	-0.04263606
67	0x3ccab181	0.024742844
68	0x3c067d4e	0.008208586
69	0xbd077765	-0.033072848
70	0xbc3a5f56	-0.011375269
71	0xb922886e	-0.00015500348
72	0x3d09f4cb	0.03368072
73	0x3ca86d2a	0.020559866
74	0xbb294ad3	-0.0025831952
75	0xbc1db5e4	-0.009625886
76	0xbd0886fe	-0.033331864
77	0x3aa49ed7	0.0012559545
78	0x3d083b63	0.03325976
79	0xbcebc530	-0.02878055
80	0xbbec5515	-0.007212291
81	0xbc16b7df	-0.009199112
82	0xbc8e83bf	-0.017396806
83	0x3cc1bb6f	0.023648946
84	0xbda6374e	-0.08116017
85	0x3d485f2f	0.0489189
86	0xbcde64f8	-0.027147755
87	0x3d0fab39	0.0350754
88	0xbcab356d	-0.020899499
89	0x3d2b01bf	0.041749712
90	0x3d315df0	0.043302476
91	0xbcd8a2df	-0.02644485
92	0x3c94ce13	0.01816467
93	0x3ce5a8d4	0.028034605
94	0x3c59fabe	0.0133044105
95	0x3b909df9	0.004413363
96	0x3cc50cd4	0.024053968
97	0x3aabb305	0.0013099617
98	0xbd097d78	-0.033566922
99	0x3b816732	0.0039490694
100	0xbd1bde41	-0.038053755
101	0x3c55f757	0.013059459
102	0xbc1cf1b8	-0.009579115
103	0xbc3173c3	-0.010830822
104	0xbd2aefad	-0.04173248
105	0x3c60132f	0.013676449
106	0xbd2693f5	-0.040668447
107	0xbd381212	-0.04493911
108	0x3d1a946a	0.037739195
109	0xbcaa33f5	-0.020776728
110	0x3d3910de	0.0451821
111	0x3b64affe	0.0034894939
112	0xbbbd366a	-0.005774309
113	0x3d409de8	0.04702559
114	0x3cb840d8	0.022491857
115	0xbc9830fc	-0.018578045
116	0xbd8517b7	-0.06498664
117	0x3bdcfd56	0.006744067
118	0x3d647438	0.055774897
119	0xbcc9f9ea	-0.024655301
120	0xbc620e9e	-0.01379743
121	0xbcc3a52e	-0.023882475
122	0x3d1682d1	0.03674585
123	0x3ba7aaa0	0.0051167756
124	0x3c4de994	0.012567896
125	0x3c4bc6ff	0.012437581
126	0xba625f8f	-0.0008635455
127	0x3ccc97f2	0.024974797

linear2.weight f4 [10, 128]
0	0x3ea0426b	0.31300673
1	0xbea10e15	-0.31456056
2	0xbded0d29	-0.11574776
3	0x3e0ac0cb	0.13550107
4	0xbd8114f1	-0.063028224
5	0xbd65ebf0	-0.05613321
6	0x3d95d87b	0.07316681
7	0x3e3ca03c	0.184205
8	0xbc3fe6fc	-0.011712786
9	0xbc17e1e5	-0.009270166
10	0x3e9100bf	0.28320882
11	0xbd8c0b08	-0.068380415
12	0xbd25cd68	-0.040479094
13	0x3d4f92bf	0.050677057
14	0xbe81c29c	-0.25343788
15	0xbe9eaf74	-0.30993235
16	0xbce2531d	-0.027627522
17	0xbe1c8422	-0.1528478
18	0x3e36df18	0.17858541
19	0xbe9bea6d	-0.3045229
20	0x3e28282e	0.16421577
21	0xbdd4a309	-0.10382659
22	0xbe31f69a	-0.17379227
23	0xbd103f91	-0.03521687
24	0x3e617313	0.22016554
25	0x3d898e8d	0.067166425
26	0x3ccef4ff	0.025263308
27	0xbde82356	-0.11334865
28	0xbe90c10b	-0.2827228
29	0xbd981af3	-0.07427015
30	0xbd71e89f	-0.059059735
31	0xbea9a690	-0.3313489
32	0xbeb79db8	-0.35862517
33	0x3e4c6e66	0.19963989
34	0xbe83c2f9	-0.2573469
35	0x3de0f353	0.109839104
36	0x3e5c2432	0.21498182
37	0xbe8de4aa	-0.2771352
38	0x3d8b2209	0.06793601
39	0xbe29dfac	-0.1658923
40	0xbe308ffa	-0.17242423
41	0x3e12fea8	0.14354956
42	0xbda5d16a	-0.08096583
43	0xbe25a619	-0.16176642
44	0x3e8801f3	0.26563987
45	0xbe347291	-0.17621829
46	0x3ea6efaa	0.32604724
47	0x3e77c680	0.24196815
48	0xbde11038	-0.109894216
49	0xbd8355a1	-0.06412817
50	0xbe17f3fd	-0.14839168
51	0x3e895fdc	0.26830947
52	0x3e6fe44b	0.2342693
53	0xbe7b7dd9	-0.24559726
54	0xbe4c0c74	-0.19926625
55	0xbe8dfc61	-0.27731612
56	0xbdd8d4d0	-0.10587466
57	0x3db73837	0.08946269
58	0xbd651cf8	-0.05593583
59	0x3c922689	0.01784064
60	0x3de233cc	0.11045036
61	0xbd1c0d1a	-0.038098432
62	0x3e180604	0.14846045
63	0x3e577edd	0.21044488
64	0x3e8cb088	0.27478433
65	0xbe20d558	-0.15706384
66	0x3e53a76d	0.20669337
67	0x3e8868b3	0.2664238
68	0x3e8f7a32	0.28022915
69	0x3ea5068e	0.32231563
70	0x3dc0ceb8	0.094144285
71	0xbe2c73b3	-0.16841011
72	0xbd6db1b5	-0.058030803
73	0x3e85473b	0.26030907
74	0x3e350844	0.17678934
75	0xbeb13423	-0.3461009
76	0x3df155ed	0.11783967
77	0xbd8aa62c	-0.06769976
78	0x3ec54195	0.38526598
79	0x3e14ede3	0.14543872
80	0x3df9afac	0.1219171
81	0xbec128ed	-0.37726536
82	0x3e4a1794	0.19735557
83	0x3e4b4653	0.19851045
84	0xbe811e30	-0.25218344
85	0x3cb8b654	0.022547878
86	0x3e1e2f27	0.15447675
87	0xbe393f0a	-0.18090454
88	0xbc7d13ac	-0.015446585
89	0xbdc37a39	-0.095447965
90	0x3e27f3dd	0.1640162
91	0xbe3e8e9b	-0.18609087
92	0xbdd7c360	-0.10535312
93	0x3dd8826a	0.105717495
94	0x3e433d99	0.19066466
95	0x3e505e1b	0.20348398
96	0xbdaa3ca6	-0.08312349
97	0x3e9b23cb	0.30300745
98	0xbaea6625	-0.0017883225
99	0x3e1ebeca	0.15502468
100	0xbe7180f4	-0.23584348
101	0xbe44e77a	-0.19228926
102	0x3e846f5c	0.2586621
103	0xbec3ce3c	-0.38243282
104	0xbe403754	-0.18771106
105	0xbeb10659	-0.34575155
106	0x3d25b813	0.04045875
107	0x3da166ba	0.07880922
108	0xbe86c008	-0.26318383
109	0xbdaf0acf	-0.085469835
110	0xbeb3c518	-0.35111308
111	0x3e9a39d6	0.3012225
112	0x3e92702f	0.28601214
113	0xbdebd354	-0.11514917
114	0xbe44542c	-0.19172734
115	0xbd42697d	-0.047463883
116	0xbd0aae67	-0.03385773
117	0x3dc5327b	0.09628769
118	0x3ce294b9	0.027658807
119	0x3db9391d	0.090440966
120	0x3e26c3d3	0.16285639
121	0x3e1e25c8	0.154441
122	0x3e63b6cb	0.22237699
123	0xbd60ec32	-0.054912753
124	0x3eaa5e2a	0.33274966
125	0x3e0fea56	0.14054236
126	0x3ed5ed98	0.41782832
127	0xbe0cf533	-0.13765411
128	0xbe0a10e3	-0.13483004
129	0x3e9eee96	0.31041402
130	0x3e650dfb	0.22368614
131	0x3d095323	0.03352655
132	0xbd0dc1dc	-0.034608707
133	0xbdbdbae0	-0.09264159
134	0xbea2110c	-0.3165363
135	0xbe875d2c	-0.26438272
136	0xbe0652c2	-0.13117507
137	0x3ea2badf	0.31783196
138	0xbc2ff7a1	-0.010740192
139	0x3e641f83	0.22277646
140	0x3d4e4dd6	0.0503672
141	0xbc29fbc3	-0.010374966
142	0x3d773450	0.060352623
143	0xbdd608ac	-0.10450873
144	0xbd8a6cb2	-0.06759013
145	0x3ec53614	0.3851782
146	0xbe9d7a79	-0.30757502
147	0x3c051dcd	0.008124781
148	0xbe756733	-0.23965149
149	0x3dd3a2cd	0.10333786
150	0x3dabe611	0.08393491
151	0xbabf99c2	-0.0014617967
152	0xbe63639d	-0.22205968
153	0xbe6ba2ec	-0.23011369
154	0xbeb635ae	-0.3558783
155	0xbea8ab4d	-0.32943192
156	0x3e25bb92	0.16184834
157	0xbe6d0b95	-0.2314895
158	0xbe98a277	-0.2981145
159	0xbd2c5425	-0.042072434
160	0xbe40dd5b	-0.1883444
161	0xbe7f0589	-0.24904455
162	0x3e7c82da	0.24659291
163	0xbddbf909	-0.10740859
164	0x3ac1099d	0.0014727596
165	0x3e443baf	0.19163392
166	0xbeba0c9d	-0.36337748
167	0x3c7d2f5c	0.015453186
168	0x3ea6df01	0.32592013
169	0x3eab5455	0.33462778
170	0xbd95db2f	-0.073171966
171	0x3dc3198b	0.09526356
172	0xbe79791d	-0.24362607
173	0x3e480754	0.19534045
174	0xbe74b8fd	-0.23898692
175	0xbe7533a6	-0.23945484
176	0xbdea5352	-0.11441673
177	0x3d811fd1	0.063048966
178	0x3e9b266c	0.3030275
179	0x3e95e92a	0.29279453
180	0x3d7540a0	0.059876084
181	0xbe689792	-0.2271407
182	0xbdcf2e82	-0.101162925
183	0xbe4a13c1	-0.19734098
184	0x3e65675c	0.2240271
185	0xbe73a001	-0.23791505
186	0x3e0f80c7	0.14013968
187	0xbe5992cd	-0.21247406
188	0x3d060c2d	0.032726455
189	0x3db63204	0.088962585
190	0x3e3f4d30	0.18681788
191	0xbc599bbc	-0.013281759
192	0x3d6f43b3	0.058414172
193	0x3e23fc95	0.16014321
194	0xbd18937f	-0.03725004
195	0x3e8000b0	0.25000525
196	0x3e668296	0.22510752
197	0xbe5c0004	-0.21484381
198	0xbe8c9a02	-0.2746125
199	0xbda9b032	-0.0828556
200	0xbdd0dd45	-0.10198454
201	0x3ea7441b	0.32669148
202	0x3e68bd54	0.22728473
203	0x3e3945cb	0.1809303
204	0xbe6dd761	-0.23226692
205	0xbe76faa8	-0.24119055
206	0x3cccd83d	0.025005454
207	0xbed427a4	-0.41436493
208	0xbe6c5600	-0.23079681
209	0x3e2eac12	0.17057827
210	0x3df93a2c	0.121692985
211	0x3e1b62ca	0.15174404
212	0xbe4a56db	-0.19759695
213	0x3e60f369	0.21967854
214	0x3bbdb235	0.005789066
215	0x3e3c698b	0.18399636
216	0x3e7c9d6e	0.2466943
217	0x3e26538a	0.16242805
218	0xbe6e6a98	-0.2328285
219	0x3e9ccce6	0.30625075
220	0x3e8a02f2	0.26955372
221	0xbe058281	-0.13038065
222	0xbe5791c5	-0.210517
223	0xbe7858f6	-0.24252686
224	0xbe1cf2f2	-0.15327051
225	0xbe2ef792	-0.17086628
226	0x3dc6d779	0.09709067
227	0xbe83cd1a	-0.25742418
228	0x3e6f70d7	0.23382889
229	0x3e989298	0.29799342
230	0xbe52a291	-0.20569827
231	0xbe2991a9	-0.16559471
232	0xbd9082cb	-0.07056197
233	0xbda59515	-0.08085076
234	0xbe4880fe	-0.19580457
235	0xbec800e1	-0.3906317
236	0x3e1c9303	0.15290456
237	0xbe16e415	-0.14735444
238	0x3e1012a5	0.14069612
239	0x3d8cc57b	0.06873604
240	0x3d5c6cd1	0.053814713
241	0x3e61d06e	0.22052166
242	0x3e8f8934	0.28034365
243	0x3df8370c	0.12119874
244	0xbe55f52e	-0.2089431
245	0x3e356afa	0.1771659
246	0x3e002c45	0.12516887
247	0xbd55fed4	-0.052244976
248	0xbe22d271	-0.1590059
249	0xbd966f68	-0.07345468
250	0x3e8a64a4	0.27029908
251	0x3ebbffdd	0.36718646
252	0xbd9a6b69	-0.07540018
253	0x3e97af40	0.29625893
254	0xbe63ad7a	-0.22234145
255	0x3d768b1e	0.060191266

linear2.bias f4 [10]
0	0xbcd74861	-0.02627963
1	0x3db2143d	0.086952664
2	0x3e1c88b2	0.1528652
3	0xbe1b123d	-0.15143676
4	0x3dbde61b	0.09272405
5	0x3de79e44	0.11309484
6	0xbdf4cb58	-0.11952847
7	0x3d007c72	0.03136868
8	0xbde1c0cd	-0.11023102
9	0xbe1350d5	-0.14386304
