my_pt/200_deep_model.pt (torch, 859042 bytes, 56 tensors)

conv1.weight f4 [32, 1, 3, 3]
000000 cc b0 28 bd 92 cc ba be a4 78 81 be bf a5 5c bc
       -0.04118423 -0.364842 -0.25287354 -0.013467251
000010 e7 f8 84 3e 96 ce a1 be 36 40 52 3e d1 81 85 3d
       0.25971147 -0.31602925 0.20532307 0.06518901
000020 ac 7a 06 be 0b 2e 6b be 62 06 25 be 36 db 84 bd
       -0.13132733 -0.22966783 -0.16115716 -0.06487124
000030 10 4a 86 be db 2b 84 3e e2 19 4a 3d 66 0c 9d 3e
       -0.2622838 0.2581471 0.04934109 0.30673522
000040 b9 3d 8a 3e 0d 11 1f 3e 77 20 52 3d 9e 17 9b be
       0.27000216 0.15533848 0.051300492 -0.30291456
000050 16 8f da bd 91 f1 64 3d 93 1b 11 be ef 10 46 3e
       -0.10671823 0.05589444 -0.14170675 0.19342397
000060 c0 a9 61 3e 08 46 fe bd b7 d3 fb 3d 1d d0 5f 3e
       0.2203741 -0.12415701 0.12296241 0.21856733
000070 c1 35 68 3e 76 a7 3f be 50 46 22 be 06 84 f2 bd
       0.22676755 -0.18716225 -0.15847135 -0.11841588
000080 29 f0 1b 3e f8 7e 69 3e bd 4e a7 be 65 61 c0 3d
       0.15228333 0.22802341 -0.3267726 0.093935765
000090 9d 41 57 be db 87 f9 3c b7 c7 66 3e 3e 0f 2b 3e
       -0.21021123 0.030460289 0.22537123 0.16705033
0000a0 3c 49 c9 be 70 d1 b7 3c 3c 21 a6 3e 03 ec 69 be
       -0.39313686 0.022438735 0.3244723 -0.22843938
0000b0 49 91 88 3d c3 be 3d bd ba 3c 43 3e 4c 2f a9 be
       0.06668336 -0.046324503 0.19066134 -0.33043897
0000c0 b0 1a a3 bd 6d 28 cc 3d 46 b4 f7 3d 6d 5b 5c be
       -0.079640746 0.09968648 0.12094931 -0.21519251
0000d0 55 37 52 3e cb 38 8d 3e 36 48 8b bd 99 28 13 be
       0.2052892 0.27582392 -0.068008825 -0.14370956
0000e0 77 8a 21 be 5e 87 eb 3c c8 e5 31 3e d5 69 68 be
       -0.15775476 0.028751072 0.17372811 -0.22696622
0000f0 4b a6 94 bd e9 4d 40 be e7 f7 41 be ee b3 87 bd
       -0.0725828 -0.1877972 -0.18942223 -0.06626116
000100 15 ae 87 3e 7c bb df 3d 74 03 fa bd fd 6f 17 3e
       0.26500002 0.10924432 -0.1220769 0.14788814
000110 83 a2 ec bd a2 60 a1 3d 71 5b f6 bd 9c 84 9a be
       -0.11554434 0.07879759 -0.1202916 -0.30179298
000120 00 71 94 3e df 20 15 3e a8 28 a0 3e 87 18 6f be
       0.28992462 0.1456332 0.31281018 -0.233492
000130 50 b1 83 3c f7 33 04 3e 5c e2 1d be 64 81 fe bd
       0.01607576 0.12910448 -0.1541838 -0.12427023
000140 70 f2 5b bd 7f 77 60 bb 4d 58 65 bc 14 4f 96 3e
       -0.053698003 -0.0034250913 -0.013998103 0.29357207
000150 c4 33 86 be 90 35 73 be 39 12 94 3e 40 e3 4d 3e
       -0.2621137 -0.23750901 0.28920153 0.2010622
000160 dd 62 53 3e 8f 99 cc bd 71 82 a9 3e 93 a0 c4 3d
       0.20643182 -0.099902265 0.3310733 0.096009396
000170 30 e4 a5 be 38 fb 85 3e b4 4d 8f be 17 4f 01 3c
       -0.32400656 0.26168227 -0.2798897 0.007892392
000180 0c e6 50 3e 3e ae 71 be 35 ef 86 be de 2c 3b 3e
       0.20400256 -0.23601624 -0.26354375 0.18278834
000190 85 a5 61 3e e3 67 b0 3d ae 98 20 3e c7 42 f9 bd
       0.22035797 0.08613565 0.15683243 -0.1217094
0001a0 44 3b 4e bd 37 85 98 be 81 dd 33 3e ec 77 8c 3e
       -0.05034949 -0.29789135 0.17564966 0.27435243
0001b0 03 7d 43 3e e6 56 ac 3c 3c 35 8a be 55 3d e3 3d
       0.19090657 0.02103753 -0.2699374 0.110956825
0001c0 7c f2 35 3c 15 43 9a 3e 36 63 94 bd ec be c7 3d
       0.011105176 0.30129305 -0.072454855 0.09753212
0001d0 75 62 0c 3e b4 91 e5 bd 8c 88 31 3e c5 b2 f5 bd
       0.13709433 -0.11209431 0.17337245 -0.11996988
0001e0 34 8e 98 be 19 0f 4c 3e 35 a4 ec bc f8 3b 15 3e
       -0.29795992 0.19927634 -0.028886894 0.14573658
0001f0 27 cb 62 be b2 32 5f be 11 89 9e bd 11 bf 68 3e
       -0.22147809 -0.21796682 -0.07740987 0.22729136
000200 ec 20 86 bd be 77 8f 3e 71 80 a7 3d 3c 7f 8f bd
       -0.06549248 0.28021044 0.08178795 -0.0700669
000210 5e e4 47 3e 68 67 8f be 9a a4 9b 3c e0 30 89 3e
       0.19520709 -0.2800858 0.018999387 0.267951
000220 ff 0c a2 be 69 f2 a3 be e3 49 c5 3d b6 58 0a 3e
       -0.3165054 -0.32020882 0.096332334 0.13510403
000230 ee df 9a be 49 39 e9 3d 27 5e 7a 3e bf 27 8c be
       -0.3024897 0.113878794 0.24449979 -0.27374074
000240 34 51 9d bc 7e b1 02 be 85 1d 2c 3c 1b 88 aa be
       -0.01920376 -0.1276302 0.010505085 -0.33306965
000250 f5 8b 5a be dc 6b 72 bd 04 49 28 3e 84 c6 9c bd
       -0.21342452 -0.059184894 0.16434103 -0.07655051
000260 99 15 09 be a6 59 10 3c fa e6 74 be 23 64 b6 3d
       -0.13387145 0.008810436 -0.23916236 0.08905818
000270 61 c5 1c 3e 91 d3 53 bb d4 df 00 be cf 6b 4f 3d
       0.15309669 -0.0032322148 -0.12585384 0.050639924
000280 c7 2f aa be a6 f0 cd bd a7 e8 5e be 77 b8 d1 bd
       -0.33239576 -0.10055666 -0.21768437 -0.10240262
000290 52 88 8a be 4b 37 a7 3e 8a cb 86 3d b9 86 e9 3d
       -0.2705713 0.32659373 0.06581791 0.114026494
0002a0 5c 7c a0 bd ad 02 53 be 9c 01 92 3c f7 a4 88 be
       -0.0783622 -0.2060649 0.017823033 -0.26688358
0002b0 e4 dd 5a be a1 9d aa 3e 49 7a 65 3e ff 3d cd 3e
       -0.21373707 0.33323386 0.2240993 0.40086362
0002c0 e7 22 3f 3d 77 e3 79 bc eb c2 dd bd 76 2a 39 be
       0.046664145 -0.015251986 -0.10828193 -0.18082604
0002d0 95 42 0e 3e 55 94 76 be f0 c9 48 bc b2 8e 29 3e
       0.13892587 -0.24080022 -0.012255177 0.1655834
0002e0 eb 12 92 3e 8b b6 e3 bd b4 42 1a be 27 1a de 3d
       0.28530058 -0.11118802 -0.15064508 0.10844832
0002f0 f8 21 9d 3d 2c 8b 4e bd 38 36 4f bd b3 42 6f 3d
       0.07672495 -0.050425693 -0.050588816 0.05841322
000300 0f bb 37 3e 0b 1f b2 ba ac 5b 43 be ac 6d a2 39
       0.17942451 -0.0013589574 -0.19077939 0.0003098076
000310 ad 43 5c be c3 0c a4 be a0 dc da 3d 56 3e a7 be
       -0.21510191 -0.32040986 0.10686612 -0.32664746
000320 f3 4e 2f be fe e9 17 bd 66 4d 1b 3e 08 be 44 3e
       -0.1711996 -0.037088387 0.15166244 0.19213116
000330 88 26 f5 bd a3 ca 83 bc 91 fa 6a be 16 52 1f 3e
       -0.1197024 -0.016087836 -0.22947146 0.15558657
000340 8d 18 7b be 16 7f 3d 3e f2 d6 67 be 41 0b 32 be
       -0.24521084 0.1850551 -0.22640589 -0.17387106
000350 db 3c 50 be 42 03 6c be 0a d0 58 be 50 12 87 be
       -0.20335715 -0.23048118 -0.2117311 -0.2638116
000360 23 be 87 bd 7a 10 24 be 20 38 8e be 89 34 08 be
       -0.066280626 -0.1602191 -0.27777195 -0.1330129
000370 da 12 8c 3e a4 b1 8d 3e a4 d7 e6 3d 61 3a 83 bc
       0.27358133 0.27674592 0.11271599 -0.016019048
000380 30 8f 28 3e 5c 19 44 3d a6 6f 7c 3e 49 be 2f be
       0.16460872 0.047875747 0.24651965 -0.17162432
000390 1f 1d 1e 3d b2 85 80 3e 4c 56 e5 3d e5 03 35 3e
       0.03860199 0.25102 0.111981004 0.17677267
0003a0 e9 0f 24 3e bb 31 13 3e 51 e6 9a be 45 eb a6 bd
       0.16021694 0.1437444 -0.30253842 -0.08150343
0003b0 5f 9b 6f 3e 0b a9 b9 3c 7e 1b be 3d ee 13 bd 3d
       0.23399113 0.022663614 0.092825875 0.09232317
0003c0 22 c9 ec bd 2d bb 43 bc f9 62 7e 3e 39 1f f5 bd
       -0.115618005 -0.011946482 0.24842443 -0.11968846
0003d0 15 3f b5 3d 7a 3d d4 3d c2 76 73 be 43 c0 50 be
       0.088499226 0.10363288 -0.23775771 -0.20385842
0003e0 99 43 51 3d 6a 9c a9 bd 7e 11 5b 3e 50 3d bc bd
       0.051089857 -0.08281787 0.21393391 -0.09191382
0003f0 12 69 da 3d 49 61 74 be c7 48 7a 3e bb 52 fd bd
       0.10664572 -0.23865236 0.24441825 -0.12369295

conv1.bias f4 [32]
000000 e1 04 70 bc 34 ba 66 3c 0a 6e f6 3d bc a0 53 be
       -0.014649601 0.01408248 0.12032707 -0.20666784
000010 78 8f e3 bd 78 6c 9c 3c 2a 77 07 be b3 25 7b 3e
       -0.11111349 0.01909469 -0.13229051 0.245261
000020 ac 0c 83 bd 54 81 7f be 33 06 88 3e 4c 9f 5d be
       -0.06398901 -0.24951679 0.2656723 -0.21642798
000030 5d 32 5c be 12 4a 29 be 91 09 87 be c1 e4 50 be
       -0.21503587 -0.16532162 -0.26374486 -0.20399763
000040 a0 e6 34 3e 55 52 86 be da 73 56 3e 3d cd 53 3e
       0.17666101 -0.2623469 0.20942631 0.20683761
000050 7c 10 6d be 65 84 28 be 40 35 8b be 28 14 48 bd
       -0.2315082 -0.16456755 -0.27189064 -0.048847347
000060 32 a9 ae be 45 6e 8f 3e 1b 14 5a be 75 b0 75 3e
       -0.3411346 0.28013816 -0.21296732 0.23993094
000070 66 bc c1 bd 07 66 d5 bd 3b ae 36 be 29 b8 3f 3e
       -0.09459762 -0.10419851 -0.17839901 0.18722595

res_blocks.0.conv.weight f4 [32, 32, 3, 3]
000000 c0 5f a8 3d 63 29 dd 3d 0e d0 4e bd 06 57 38 3e
       0.08221388 0.107989095 -0.050491385 0.18001947
000010 96 cd d8 bd 61 58 3e 3b 2a 37 7d bd af 0a b7 bb
       -0.105860874 0.0029044377 -0.061820187 -0.0055859904
000020 83 f5 32 3d 4e d1 df ba c9 89 a3 bc ab 61 33 3d
       0.04369117 -0.0017075927 -0.019963162 0.043794315
000030 3e 8b 49 bd 74 1a e3 3d 75 78 28 3d 2c 78 75 bc
       -0.049205057 0.1108903 0.0411305 -0.0149822645
000040 5a b6 a3 bd 91 f4 a6 3d 9a 82 75 3c bc cb e5 bd
       -0.07993765 0.08152116 0.014984751 -0.112205
000050 eb 21 0b be 7f 73 31 be a1 1e 79 be 13 10 0d 3d
       -0.13587157 -0.17329215 -0.2432809 0.034439158
000060 f8 79 0c be de 2a e8 bd b1 29 bc bb 8d 9f 05 3d
       -0.13718402 -0.11336301 -0.0057422747 0.032622863
000070 c5 1c cd 3d 30 30 d4 bd 17 83 85 bd 81 bf 6c bd
       0.10015253 -0.103607535 -0.06519144 -0.05779982
000080 9a 4a ad bb 7a 41 58 3d 5d 68 60 be 33 98 60 bd
       -0.005288434 0.05279682 -0.21914811 -0.05483265
000090 f3 6d 22 bc 75 dd 46 3d fb 25 30 bd d6 4f b0 3d
       -0.009913909 0.04855104 -0.04300497 0.086089775
0000a0 a4 97 87 bd f4 fb 15 3c ea 3e 95 bd 13 01 de bd
       -0.0662072 0.009154309 -0.072873905 -0.10840049
0000b0 b7 b6 1a bd d8 ba b8 bd f9 e8 e1 3c 27 c7 5d bd
       -0.037771907 -0.090200126 0.02757691 -0.054145005
0000c0 67 93 cd bd 72 2c d5 bd 88 99 5d 3d 00 b4 5b bd
       -0.100378804 -0.10408868 0.054101497 -0.05363846
0000d0 35 62 e1 bd 73 07 11 3e fe 7c f7 3a d0 67 89 3c
       -0.1100506 0.14162998 0.0018881855 0.016773134
0000e0 b2 ac 09 bc f9 93 80 bd 73 ed 42 bd 6f 69 80 3d
       -0.00840299 -0.062782235 -0.04758973 0.0627011
0000f0 96 12 98 bd 09 3e f8 bc bd c9 ab bd e1 68 e4 bc
       -0.0742542 -0.030303018 -0.08388088 -0.027882041
000100 b5 e2 6f bc 48 dc 1e bc 78 5c 17 be 59 fc 41 bd
       -0.0146414535 -0.009696074 -0.14781368 -0.047359798
000110 75 87 55 3d 9d 1d 4b 3d 6b 85 74 3d b4 93 6b 3d
       0.052131135 0.04958879 0.05969755 0.057513908
000120 81 23 46 b9 d8 20 53 3d 68 3e 61 3d 4e 2f 05 be
       -0.00018895978 0.051544994 0.054991156 -0.13006327
000130 bd 66 8e bd d7 14 41 3d 46 d5 8f bd 11 17 c8 ba
       -0.069531895 0.047139015 -0.070231006 -0.0015265663
000140 25 33 51 3d a9 65 f7 3d 4a 83 58 3d 76 72 81 3c
       0.051074166 0.12079937 0.052859582 0.01580165
000150 95 93 6a bd bc ce a4 bc 9f 49 a5 3d e2 00 16 bd
       -0.05726965 -0.02011811 0.08070683 -0.036621936
000160 a0 81 ac bd 76 0b 94 ba a0 d0 9e bd e5 e2 81 3d
       -0.084231615 -0.001129492 -0.07754636 0.06342105
000170 a8 b8 df bd 89 52 46 bd e9 73 12 3a 1d 0d 1a 3d
       -0.10923892 -0.048418555 0.000558673 0.037610162
000180 88 21 0d 3e 53 3b ea bc ba 5e 0f be 3b ea 2f bd
       0.13782322 -0.028592741 -0.14000979 -0.04294799
000190 52 da 8d 3d 7b 1d eb bc 7d 99 26 3e 68 3c 9d 3c
       0.06926407 -0.02870058 0.16269489 0.019193843
0001a0 12 c3 ec bd fb de f9 bd f0 ad 83 3d 5a 98 e8 bc
       -0.11560644 -0.12200733 0.0642966 -0.02839296
0001b0 87 61 ea 3d 99 4f 06 3d 0d b3 c7 bd 76 10 6f 3c
       0.11444383 0.032790754 -0.09750948 0.014591327
0001c0 aa c4 bb bd d3 d0 67 bd 9d cb bc bd e2 f8 91 3d
       -0.0916837 -0.056595635 -0.09218524 0.07127549
0001d0 84 8e 78 bd 43 e8 27 3e b9 7a c1 3d bf 6a b3 3c
       -0.06068279 0.16397195 0.094472356 0.021901486
0001e0 af 8e d8 bd 2f 9a 15 3d 07 6b b7 3d 3b 0e b5 3d
       -0.1057409 0.036523994 0.08955961 0.08840605
0001f0 0b 64 b2 bd 55 10 93 3d 26 2d c8 3d 03 0a 60 3d
       -0.08710488 0.071808495 0.097742364 0.054697048
000200 cd 06 aa 3d f5 3d b5 3c 98 8e 75 3c b0 b8 63 bd
       0.083020784 0.02212427 0.01498761 -0.055596054
000210 a9 80 be 3d 69 2f a9 3d 46 fb a8 bd 3e e9 40 bd
       0.09301884 0.08260996 -0.082510516 -0.047097437
000220 29 f5 d8 3c 27 a2 1b bd 1a 36 ec 3d 88 ec ff bc
       0.026484089 -0.037996437 0.115337566 -0.031240717
000230 69 19 2b 3d 36 e0 24 3c f0 22 c7 bb 28 b2 46 3d
       0.04177228 0.010063222 -0.006077163 0.048509747
000240 54 59 74 3d 6f 2b ef bc df fa e7 3d 3c ec ab 3d
       0.059655502 -0.029195515 0.11327147 0.083946675
000250 38 54 b7 3c fc 2d fc 3c a4 0d a6 3c a1 68 33 bd
       0.022379026 0.030783646 0.020270176 -0.043800954
000260 e9 6f 28 bd 15 be 53 be 57 2c 79 bd 7a b4 6d 3a
       -0.04112235 -0.2067798 -0.0608333 0.00090677256
000270 e1 1e d9 bc 51 c9 8c bb d8 1d 71 3d 9f 56 26 bd
       -0.026503982 -0.0042964597 0.05886635 -0.040609952
000280 8b b8 13 3e 87 09 41 bc 54 3a a6 bc ab 01 4d 3d
       0.14425866 -0.011782057 -0.020291485 0.05005042
000290 b4 6f dc bc fa fe 78 3d 66 95 ad 3d bc 5d 24 3e
       -0.026908733 0.06079004 0.08475761 0.16051382
0002a0 95 5c f4 3c b8 59 d1 3c 49 b9 07 bd 1b f5 db 3c
       0.029829303 0.025555477 -0.033135686 0.026850274
0002b0 4f 74 11 3d 9c e7 ea bd 15 93 76 3d be 58 3b 3d
       0.03551131 -0.11469957 0.060198862 0.045738928
0002c0 1b 44 ff bc 88 19 50 bd ce 7a b0 bc 75 df 1a bc
       -0.031160405 -0.0508056 -0.021542933 -0.00945269
0002d0 ce 73 b6 bc 7d 4b c6 bd f8 f8 cd bd 9d 83 f8 bd
       -0.022272017 -0.09682367 -0.10057253 -0.12134478
0002e0 34 0d 67 ba 92 bf 10 be df 81 39 bd 54 95 4f bd
       -0.0008813918 -0.14135578 -0.04528987 -0.05067952
0002f0 14 a5 aa bd 5c e6 88 3b 7e cb 0e 3d 03 f2 33 bd
       -0.083322674 0.0041778516 0.034862034 -0.043931972
000300 77 80 00 bd 68 5b 12 bd 47 5a 15 bd 62 93 8d 3d
       -0.031372514 -0.035731703 -0.03646305 0.06912877
000310 12 81 e5 3d 1d e6 92 bd 7d a9 48 ba 73 82 17 3d
       0.11206259 -0.07172797 -0.000765465 0.03698964
000320 88 ad 7f bd 44 06 64 3d a7 1d c4 bd e2 7c cc 3d
       -0.06242135 0.055670038 -0.09575968 0.09984757
000330 b6 3d bc 3d e7 93 61 bc 4f f8 fd bd 7f e1 99 bc
       0.09191458 -0.013768173 -0.12400877 -0.018784283
000340 72 dc ee bb 01 00 09 3d b9 d3 0c be 7e c4 ea 3c
       -0.0072894627 0.03344727 -0.13752641 0.028658148
000350 ef bb 20 3d 70 f4 2d 3e a4 18 24 3e 7f f0 37 3c
       0.039241727 0.16987777 0.16025025 0.011226772
000360 9e a4 1b 3e 5d 44 17 3d 9e ca 73 bd 1c 51 95 bd
       0.15199515 0.03693043 -0.059519403 -0.07290861
000370 17 ac 2c 3e 8b d5 da 3d 51 8c 47 3e 38 6b 08 be
       0.16862522 0.10685261 0.1948712 -0.1332215
000380 6b 99 cf bd 99 f4 91 3c 29 af 04 3c 13 de 29 bd
       -0.10136684 0.017816829 0.008098402 -0.041471552
000390 b7 67 da 3c 39 b9 c1 bd dc a6 43 bd 2f 78 a4 bd
       0.026660783 -0.094591565 -0.04776655 -0.08030736
0003a0 7c 63 1d bd 31 42 5e 3d 12 31 e0 ba 25 82 3c 3d
       -0.038424954 0.054262344 -0.0017104468 0.046022553
0003b0 0e b6 24 bc bf df fe 3d 0d f0 fd bb 5f ac cf bc
       -0.010053171 0.1244502 -0.0077495635 -0.025350748
0003c0 16 ae 9d 3e 5e 9e 6a 3d 7a c4 9c 3d cf 89 04 be
       0.3079688 0.057279937 0.076546624 -0.12943195
0003d0 43 c7 7e 3d f9 e5 12 3e a8 c4 16 3d e8 d1 81 bc
       0.06220175 0.1434554 0.03680864 -0.015847161
0003e0 7e 5b a6 bd 53 b2 76 3e eb e9 6a bd 3b 9e 90 3d
       -0.081229195 0.24091463 -0.057351988 0.0706143
0003f0 eb fd da bc 90 75 74 3d fb ca 2e be 7b 54 4d be
       -0.026732406 0.05968243 -0.17069618 -0.20051758

res_blocks.0.batch_norm.weight f4 [32]
000000 19 f5 21 3f 68 25 1b 3f ba 0f 29 3f 76 3a 11 3f
       0.63264614 0.6060395 0.6603962 0.5672983
000010 bc b4 10 3f 95 6b 2d 3f bc 0b 21 3f f0 17 3b 3f
       0.5652578 0.6774228 0.6290853 0.730834
000020 12 33 22 3f 3b 30 37 3f 20 f4 29 3f 28 00 0d 3f
       0.6335918 0.7155797 0.6638813 0.55078363
000030 57 8b 13 3f 9c 2b 3a 3f 78 5d 37 3f 4b 9e 38 3f
       0.5763449 0.7272279 0.71626997 0.72116536
000040 dc f8 2f 3f c2 31 20 3f 45 83 3a 3f 14 31 22 3f
       0.68739104 0.62575924 0.7285655 0.6335614
000050 83 72 14 3f 68 4d 1b 3f fa 86 3b 3f 13 65 36 3f
       0.5798723 0.6066499 0.7325283 0.71247977
000060 0c 51 35 3f 7a 64 2b 3f c5 fb 36 3f b0 c9 00 3f
       0.7082679 0.6695019 0.7147792 0.5030775
000070 de 3f 08 3f df a6 3d 3f c2 22 37 3f 67 12 27 3f
       0.53222454 0.7408275 0.7153741 0.65262455

res_blocks.0.batch_norm.bias f4 [32]
000000 fb 40 43 bd 20 1f 8d 3b 83 47 03 3d 72 b5 09 3b
       -0.047669392 0.004306689 0.03205062 0.002101269
000010 92 84 87 3c 12 36 c1 bc 90 8b a4 bc 01 44 27 3d
       0.016542707 -0.023585353 -0.02008608 0.040836338
000020 9a 2f d4 3c 46 12 0e 3d 43 89 34 3c b9 25 50 bc
       0.025901604 0.034685396 0.011019054 -0.012704306
000030 b2 b4 71 3a 47 da 77 3d 7f 9f 07 3c 8d e7 ec 3c
       0.0009220346 0.0605109 0.008277773 0.028919006
000040 63 0d 41 3d e3 bf 69 3c 69 00 98 3d 17 2c a5 3c
       0.047131907 0.014266941 0.07421953 0.020162625
000050 ee 7c fb 3b fe 36 4f 3c f9 84 80 3d f1 5f 2c 3d
       0.007674805 0.0126473885 0.062753625 0.042083684
000060 ca 1f 82 3b 13 e2 c4 3b b3 cf b8 3c 7d a9 42 bd
       0.0039710747 0.0060083955 0.022559976 -0.047524918
000070 2a 17 9e bc 4c 8b f2 3c c1 c0 9f 3c 48 d3 b8 3d
       -0.019298155 0.029607438 0.019501092 0.09024674

res_blocks.0.batch_norm.running_mean f4 [32]
000000 4d 67 50 be 66 5c 94 bf ad 88 ec be c1 49 66 bf
       -0.20351906 -1.1590698 -0.46198025 -0.8995629
000010 26 6f 8b be 3c 0b b2 bf eb ab 93 bf bb 98 6f bd
       -0.27233237 -1.3909678 -1.153684 -0.058495265
000020 36 e8 8d 3f d4 05 a0 3f 5c 24 61 bf 21 43 14 c0
       1.108649 1.2501779 -0.87946105 -2.3165972
000030 b3 47 b4 bf db 1d 66 3e 14 e1 c6 3e 22 41 d5 3f
       -1.4084381 0.22472326 0.38843596 1.6660502
000040 e8 f4 5c 3f fd df ff 3f a6 2e cb 3e 7f 28 05 c0
       0.863112 1.9990231 0.39684027 -2.0805967
000050 61 2e ee bf 35 1c b8 3f 2b d2 82 3f 2f eb 22 bf
       -1.8607904 1.4383608 1.0220388 -0.6364011
000060 d7 89 aa 3f 1a ab 9b bf 69 c8 92 3e 25 b2 65 c0
       1.3323315 -1.2161591 0.28668526 -3.588998
000070 aa a1 b0 40 9e c4 5a bf 30 68 bb 3f 76 01 5c 3f
       5.5197344 -0.85456264 1.464117 0.8593973

res_blocks.0.batch_norm.running_var f4 [32]
000000 70 97 05 41 f1 27 41 41 53 e3 6a 41 5c 02 37 41
       8.349472 12.072251 14.680499 11.438076
000010 82 57 29 41 f4 9f 1c 41 fc c3 2e 41 fa 72 c2 40
       10.583864 9.789051 10.922848 6.076535
000020 f3 02 5a 41 6a ca 0d 41 c4 e3 1b 41 f0 f8 40 41
       13.62572 8.8619175 9.743107 12.060776
000030 e2 d3 b7 41 50 a1 00 41 89 ac 86 41 99 69 4e 41
       22.978458 8.039383 16.834246 12.900781
000040 51 a2 66 41 c9 d1 16 41 c4 75 1e 41 06 cd 7b 41
       14.414628 9.426217 9.903751 15.737555
000050 22 7f 30 41 c4 3a 17 41 1d 7c 55 41 25 bf e9 40
       11.031038 9.451847 13.342801 7.304583
000060 f0 2e 17 41 7b c9 35 41 6a 5f 25 41 5f 89 f5 41
       9.448959 11.36169 10.335794 30.692076
000070 8b aa 16 42 f8 81 bd 40 49 c2 43 41 49 0f 05 41
       37.666546 5.9221153 12.234933 8.316232

res_blocks.1.conv.weight f4 [32, 32, 3, 3]
000000 c0 5f a8 3d 63 29 dd 3d 0e d0 4e bd 06 57 38 3e
       0.08221388 0.107989095 -0.050491385 0.18001947
000010 96 cd d8 bd 61 58 3e 3b 2a 37 7d bd af 0a b7 bb
       -0.105860874 0.0029044377 -0.061820187 -0.0055859904
000020 83 f5 32 3d 4e d1 df ba c9 89 a3 bc ab 61 33 3d
       0.04369117 -0.0017075927 -0.019963162 0.043794315
000030 3e 8b 49 bd 74 1a e3 3d 75 78 28 3d 2c 78 75 bc
       -0.049205057 0.1108903 0.0411305 -0.0149822645
000040 5a b6 a3 bd 91 f4 a6 3d 9a 82 75 3c bc cb e5 bd
       -0.07993765 0.08152116 0.014984751 -0.112205
000050 eb 21 0b be 7f 73 31 be a1 1e 79 be 13 10 0d 3d
       -0.13587157 -0.17329215 -0.2432809 0.034439158
000060 f8 79 0c be de 2a e8 bd b1 29 bc bb 8d 9f 05 3d
       -0.13718402 -0.11336301 -0.0057422747 0.032622863
000070 c5 1c cd 3d 30 30 d4 bd 17 83 85 bd 81 bf 6c bd
       0.10015253 -0.103607535 -0.06519144 -0.05779982
000080 9a 4a ad bb 7a 41 58 3d 5d 68 60 be 33 98 60 bd
       -0.005288434 0.05279682 -0.21914811 -0.05483265
000090 f3 6d 22 bc 75 dd 46 3d fb 25 30 bd d6 4f b0 3d
       -0.009913909 0.04855104 -0.04300497 0.086089775
0000a0 a4 97 87 bd f4 fb 15 3c ea 3e 95 bd 13 01 de bd
       -0.0662072 0.009154309 -0.072873905 -0.10840049
0000b0 b7 b6 1a bd d8 ba b8 bd f9 e8 e1 3c 27 c7 5d bd
       -0.037771907 -0.090200126 0.02757691 -0.054145005
0000c0 67 93 cd bd 72 2c d5 bd 88 99 5d 3d 00 b4 5b bd
       -0.100378804 -0.10408868 0.054101497 -0.05363846
0000d0 35 62 e1 bd 73 07 11 3e fe 7c f7 3a d0 67 89 3c
       -0.1100506 0.14162998 0.0018881855 0.016773134
0000e0 b2 ac 09 bc f9 93 80 bd 73 ed 42 bd 6f 69 80 3d
       -0.00840299 -0.062782235 -0.04758973 0.0627011
0000f0 96 12 98 bd 09 3e f8 bc bd c9 ab bd e1 68 e4 bc
       -0.0742542 -0.030303018 -0.08388088 -0.027882041
000100 b5 e2 6f bc 48 dc 1e bc 78 5c 17 be 59 fc 41 bd
       -0.0146414535 -0.009696074 -0.14781368 -0.047359798
000110 75 87 55 3d 9d 1d 4b 3d 6b 85 74 3d b4 93 6b 3d
       0.052131135 0.04958879 0.05969755 0.057513908
000120 81 23 46 b9 d8 20 53 3d 68 3e 61 3d 4e 2f 05 be
       -0.00018895978 0.051544994 0.054991156 -0.13006327
000130 bd 66 8e bd d7 14 41 3d 46 d5 8f bd 11 17 c8 ba
       -0.069531895 0.047139015 -0.070231006 -0.0015265663
000140 25 33 51 3d a9 65 f7 3d 4a 83 58 3d 76 72 81 3c
       0.051074166 0.12079937 0.052859582 0.01580165
000150 95 93 6a bd bc ce a4 bc 9f 49 a5 3d e2 00 16 bd
       -0.05726965 -0.02011811 0.08070683 -0.036621936
000160 a0 81 ac bd 76 0b 94 ba a0 d0 9e bd e5 e2 81 3d
       -0.084231615 -0.001129492 -0.07754636 0.06342105
000170 a8 b8 df bd 89 52 46 bd e9 73 12 3a 1d 0d 1a 3d
       -0.10923892 -0.048418555 0.000558673 0.037610162
000180 88 21 0d 3e 53 3b ea bc ba 5e 0f be 3b ea 2f bd
       0.13782322 -0.028592741 -0.14000979 -0.04294799
000190 52 da 8d 3d 7b 1d eb bc 7d 99 26 3e 68 3c 9d 3c
       0.06926407 -0.02870058 0.16269489 0.019193843
0001a0 12 c3 ec bd fb de f9 bd f0 ad 83 3d 5a 98 e8 bc
       -0.11560644 -0.12200733 0.0642966 -0.02839296
0001b0 87 61 ea 3d 99 4f 06 3d 0d b3 c7 bd 76 10 6f 3c
       0.11444383 0.032790754 -0.09750948 0.014591327
0001c0 aa c4 bb bd d3 d0 67 bd 9d cb bc bd e2 f8 91 3d
       -0.0916837 -0.056595635 -0.09218524 0.07127549
0001d0 84 8e 78 bd 43 e8 27 3e b9 7a c1 3d bf 6a b3 3c
       -0.06068279 0.16397195 0.094472356 0.021901486
0001e0 af 8e d8 bd 2f 9a 15 3d 07 6b b7 3d 3b 0e b5 3d
       -0.1057409 0.036523994 0.08955961 0.08840605
0001f0 0b 64 b2 bd 55 10 93 3d 26 2d c8 3d 03 0a 60 3d
       -0.08710488 0.071808495 0.097742364 0.054697048
000200 cd 06 aa 3d f5 3d b5 3c 98 8e 75 3c b0 b8 63 bd
       0.083020784 0.02212427 0.01498761 -0.055596054
000210 a9 80 be 3d 69 2f a9 3d 46 fb a8 bd 3e e9 40 bd
       0.09301884 0.08260996 -0.082510516 -0.047097437
000220 29 f5 d8 3c 27 a2 1b bd 1a 36 ec 3d 88 ec ff bc
       0.026484089 -0.037996437 0.115337566 -0.031240717
000230 69 19 2b 3d 36 e0 24 3c f0 22 c7 bb 28 b2 46 3d
       0.04177228 0.010063222 -0.006077163 0.048509747
000240 54 59 74 3d 6f 2b ef bc df fa e7 3d 3c ec ab 3d
       0.059655502 -0.029195515 0.11327147 0.083946675
000250 38 54 b7 3c fc 2d fc 3c a4 0d a6 3c a1 68 33 bd
       0.022379026 0.030783646 0.020270176 -0.043800954
000260 e9 6f 28 bd 15 be 53 be 57 2c 79 bd 7a b4 6d 3a
       -0.04112235 -0.2067798 -0.0608333 0.00090677256
000270 e1 1e d9 bc 51 c9 8c bb d8 1d 71 3d 9f 56 26 bd
       -0.026503982 -0.0042964597 0.05886635 -0.040609952
000280 8b b8 13 3e 87 09 41 bc 54 3a a6 bc ab 01 4d 3d
       0.14425866 -0.011782057 -0.020291485 0.05005042
000290 b4 6f dc bc fa fe 78 3d 66 95 ad 3d bc 5d 24 3e
       -0.026908733 0.06079004 0.08475761 0.16051382
0002a0 95 5c f4 3c b8 59 d1 3c 49 b9 07 bd 1b f5 db 3c
       0.029829303 0.025555477 -0.033135686 0.026850274
0002b0 4f 74 11 3d 9c e7 ea bd 15 93 76 3d be 58 3b 3d
       0.03551131 -0.11469957 0.060198862 0.045738928
0002c0 1b 44 ff bc 88 19 50 bd ce 7a b0 bc 75 df 1a bc
       -0.031160405 -0.0508056 -0.021542933 -0.00945269
0002d0 ce 73 b6 bc 7d 4b c6 bd f8 f8 cd bd 9d 83 f8 bd
       -0.022272017 -0.09682367 -0.10057253 -0.12134478
0002e0 34 0d 67 ba 92 bf 10 be df 81 39 bd 54 95 4f bd
       -0.0008813918 -0.14135578 -0.04528987 -0.05067952
0002f0 14 a5 aa bd 5c e6 88 3b 7e cb 0e 3d 03 f2 33 bd
       -0.083322674 0.0041778516 0.034862034 -0.043931972
000300 77 80 00 bd 68 5b 12 bd 47 5a 15 bd 62 93 8d 3d
       -0.031372514 -0.035731703 -0.03646305 0.06912877
000310 12 81 e5 3d 1d e6 92 bd 7d a9 48 ba 73 82 17 3d
       0.11206259 -0.07172797 -0.000765465 0.03698964
000320 88 ad 7f bd 44 06 64 3d a7 1d c4 bd e2 7c cc 3d
       -0.06242135 0.055670038 -0.09575968 0.09984757
000330 b6 3d bc 3d e7 93 61 bc 4f f8 fd bd 7f e1 99 bc
       0.09191458 -0.013768173 -0.12400877 -0.018784283
000340 72 dc ee bb 01 00 09 3d b9 d3 0c be 7e c4 ea 3c
       -0.0072894627 0.03344727 -0.13752641 0.028658148
000350 ef bb 20 3d 70 f4 2d 3e a4 18 24 3e 7f f0 37 3c
       0.039241727 0.16987777 0.16025025 0.011226772
000360 9e a4 1b 3e 5d 44 17 3d 9e ca 73 bd 1c 51 95 bd
       0.15199515 0.03693043 -0.059519403 -0.07290861
000370 17 ac 2c 3e 8b d5 da 3d 51 8c 47 3e 38 6b 08 be
       0.16862522 0.10685261 0.1948712 -0.1332215
000380 6b 99 cf bd 99 f4 91 3c 29 af 04 3c 13 de 29 bd
       -0.10136684 0.017816829 0.008098402 -0.041471552
000390 b7 67 da 3c 39 b9 c1 bd dc a6 43 bd 2f 78 a4 bd
       0.026660783 -0.094591565 -0.04776655 -0.08030736
0003a0 7c 63 1d bd 31 42 5e 3d 12 31 e0 ba 25 82 3c 3d
       -0.038424954 0.054262344 -0.0017104468 0.046022553
0003b0 0e b6 24 bc bf df fe 3d 0d f0 fd bb 5f ac cf bc
       -0.010053171 0.1244502 -0.0077495635 -0.025350748
0003c0 16 ae 9d 3e 5e 9e 6a 3d 7a c4 9c 3d cf 89 04 be
       0.3079688 0.057279937 0.076546624 -0.12943195
0003d0 43 c7 7e 3d f9 e5 12 3e a8 c4 16 3d e8 d1 81 bc
       0.06220175 0.1434554 0.03680864 -0.015847161
0003e0 7e 5b a6 bd 53 b2 76 3e eb e9 6a bd 3b 9e 90 3d
       -0.081229195 0.24091463 -0.057351988 0.0706143
0003f0 eb fd da bc 90 75 74 3d fb ca 2e be 7b 54 4d be
       -0.026732406 0.05968243 -0.17069618 -0.20051758

res_blocks.1.batch_norm.weight f4 [32]
000000 19 f5 21 3f 68 25 1b 3f ba 0f 29 3f 76 3a 11 3f
       0.63264614 0.6060395 0.6603962 0.5672983
000010 bc b4 10 3f 95 6b 2d 3f bc 0b 21 3f f0 17 3b 3f
       0.5652578 0.6774228 0.6290853 0.730834
000020 12 33 22 3f 3b 30 37 3f 20 f4 29 3f 28 00 0d 3f
       0.6335918 0.7155797 0.6638813 0.55078363
000030 57 8b 13 3f 9c 2b 3a 3f 78 5d 37 3f 4b 9e 38 3f
       0.5763449 0.7272279 0.71626997 0.72116536
000040 dc f8 2f 3f c2 31 20 3f 45 83 3a 3f 14 31 22 3f
       0.68739104 0.62575924 0.7285655 0.6335614
000050 83 72 14 3f 68 4d 1b 3f fa 86 3b 3f 13 65 36 3f
       0.5798723 0.6066499 0.7325283 0.71247977
000060 0c 51 35 3f 7a 64 2b 3f c5 fb 36 3f b0 c9 00 3f
       0.7082679 0.6695019 0.7147792 0.5030775
000070 de 3f 08 3f df a6 3d 3f c2 22 37 3f 67 12 27 3f
       0.53222454 0.7408275 0.7153741 0.65262455

res_blocks.1.batch_norm.bias f4 [32]
000000 fb 40 43 bd 20 1f 8d 3b 83 47 03 3d 72 b5 09 3b
       -0.047669392 0.004306689 0.03205062 0.002101269
000010 92 84 87 3c 12 36 c1 bc 90 8b a4 bc 01 44 27 3d
       0.016542707 -0.023585353 -0.02008608 0.040836338
000020 9a 2f d4 3c 46 12 0e 3d 43 89 34 3c b9 25 50 bc
       0.025901604 0.034685396 0.011019054 -0.012704306
000030 b2 b4 71 3a 47 da 77 3d 7f 9f 07 3c 8d e7 ec 3c
       0.0009220346 0.0605109 0.008277773 0.028919006
000040 63 0d 41 3d e3 bf 69 3c 69 00 98 3d 17 2c a5 3c
       0.047131907 0.014266941 0.07421953 0.020162625
000050 ee 7c fb 3b fe 36 4f 3c f9 84 80 3d f1 5f 2c 3d
       0.007674805 0.0126473885 0.062753625 0.042083684
000060 ca 1f 82 3b 13 e2 c4 3b b3 cf b8 3c 7d a9 42 bd
       0.0039710747 0.0060083955 0.022559976 -0.047524918
000070 2a 17 9e bc 4c 8b f2 3c c1 c0 9f 3c 48 d3 b8 3d
       -0.019298155 0.029607438 0.019501092 0.09024674

res_blocks.1.batch_norm.running_mean f4 [32]
000000 4d 67 50 be 66 5c 94 bf ad 88 ec be c1 49 66 bf
       -0.20351906 -1.1590698 -0.46198025 -0.8995629
000010 26 6f 8b be 3c 0b b2 bf eb ab 93 bf bb 98 6f bd
       -0.27233237 -1.3909678 -1.153684 -0.058495265
000020 36 e8 8d 3f d4 05 a0 3f 5c 24 61 bf 21 43 14 c0
       1.108649 1.2501779 -0.87946105 -2.3165972
000030 b3 47 b4 bf db 1d 66 3e 14 e1 c6 3e 22 41 d5 3f
       -1.4084381 0.22472326 0.38843596 1.6660502
000040 e8 f4 5c 3f fd df ff 3f a6 2e cb 3e 7f 28 05 c0
       0.863112 1.9990231 0.39684027 -2.0805967
000050 61 2e ee bf 35 1c b8 3f 2b d2 82 3f 2f eb 22 bf
       -1.8607904 1.4383608 1.0220388 -0.6364011
000060 d7 89 aa 3f 1a ab 9b bf 69 c8 92 3e 25 b2 65 c0
       1.3323315 -1.2161591 0.28668526 -3.588998
000070 aa a1 b0 40 9e c4 5a bf 30 68 bb 3f 76 01 5c 3f
       5.5197344 -0.85456264 1.464117 0.8593973

res_blocks.1.batch_norm.running_var f4 [32]
000000 70 97 05 41 f1 27 41 41 53 e3 6a 41 5c 02 37 41
       8.349472 12.072251 14.680499 11.438076
000010 82 57 29 41 f4 9f 1c 41 fc c3 2e 41 fa 72 c2 40
       10.583864 9.789051 10.922848 6.076535
000020 f3 02 5a 41 6a ca 0d 41 c4 e3 1b 41 f0 f8 40 41
       13.62572 8.8619175 9.743107 12.060776
000030 e2 d3 b7 41 50 a1 00 41 89 ac 86 41 99 69 4e 41
       22.978458 8.039383 16.834246 12.900781
000040 51 a2 66 41 c9 d1 16 41 c4 75 1e 41 06 cd 7b 41
       14.414628 9.426217 9.903751 15.737555
000050 22 7f 30 41 c4 3a 17 41 1d 7c 55 41 25 bf e9 40
       11.031038 9.451847 13.342801 7.304583
000060 f0 2e 17 41 7b c9 35 41 6a 5f 25 41 5f 89 f5 41
       9.448959 11.36169 10.335794 30.692076
000070 8b aa 16 42 f8 81 bd 40 49 c2 43 41 49 0f 05 41
       37.666546 5.9221153 12.234933 8.316232

res_blocks.2.conv.weight f4 [32, 32, 3, 3]
000000 c0 5f a8 3d 63 29 dd 3d 0e d0 4e bd 06 57 38 3e
       0.08221388 0.107989095 -0.050491385 0.18001947
000010 96 cd d8 bd 61 58 3e 3b 2a 37 7d bd af 0a b7 bb
       -0.105860874 0.0029044377 -0.061820187 -0.0055859904
000020 83 f5 32 3d 4e d1 df ba c9 89 a3 bc ab 61 33 3d
       0.04369117 -0.0017075927 -0.019963162 0.043794315
000030 3e 8b 49 bd 74 1a e3 3d 75 78 28 3d 2c 78 75 bc
       -0.049205057 0.1108903 0.0411305 -0.0149822645
000040 5a b6 a3 bd 91 f4 a6 3d 9a 82 75 3c bc cb e5 bd
       -0.07993765 0.08152116 0.014984751 -0.112205
000050 eb 21 0b be 7f 73 31 be a1 1e 79 be 13 10 0d 3d
       -0.13587157 -0.17329215 -0.2432809 0.034439158
000060 f8 79 0c be de 2a e8 bd b1 29 bc bb 8d 9f 05 3d
       -0.13718402 -0.11336301 -0.0057422747 0.032622863
000070 c5 1c cd 3d 30 30 d4 bd 17 83 85 bd 81 bf 6c bd
       0.10015253 -0.103607535 -0.06519144 -0.05779982
000080 9a 4a ad bb 7a 41 58 3d 5d 68 60 be 33 98 60 bd
       -0.005288434 0.05279682 -0.21914811 -0.05483265
000090 f3 6d 22 bc 75 dd 46 3d fb 25 30 bd d6 4f b0 3d
       -0.009913909 0.04855104 -0.04300497 0.086089775
0000a0 a4 97 87 bd f4 fb 15 3c ea 3e 95 bd 13 01 de bd
       -0.0662072 0.009154309 -0.072873905 -0.10840049
0000b0 b7 b6 1a bd d8 ba b8 bd f9 e8 e1 3c 27 c7 5d bd
       -0.037771907 -0.090200126 0.02757691 -0.054145005
0000c0 67 93 cd bd 72 2c d5 bd 88 99 5d 3d 00 b4 5b bd
       -0.100378804 -0.10408868 0.054101497 -0.05363846
0000d0 35 62 e1 bd 73 07 11 3e fe 7c f7 3a d0 67 89 3c
       -0.1100506 0.14162998 0.0018881855 0.016773134
0000e0 b2 ac 09 bc f9 93 80 bd 73 ed 42 bd 6f 69 80 3d
       -0.00840299 -0.062782235 -0.04758973 0.0627011
0000f0 96 12 98 bd 09 3e f8 bc bd c9 ab bd e1 68 e4 bc
       -0.0742542 -0.030303018 -0.08388088 -0.027882041
000100 b5 e2 6f bc 48 dc 1e bc 78 5c 17 be 59 fc 41 bd
       -0.0146414535 -0.009696074 -0.14781368 -0.047359798
000110 75 87 55 3d 9d 1d 4b 3d 6b 85 74 3d b4 93 6b 3d
       0.052131135 0.04958879 0.05969755 0.057513908
000120 81 23 46 b9 d8 20 53 3d 68 3e 61 3d 4e 2f 05 be
       -0.00018895978 0.051544994 0.054991156 -0.13006327
000130 bd 66 8e bd d7 14 41 3d 46 d5 8f bd 11 17 c8 ba
       -0.069531895 0.047139015 -0.070231006 -0.0015265663
000140 25 33 51 3d a9 65 f7 3d 4a 83 58 3d 76 72 81 3c
       0.051074166 0.12079937 0.052859582 0.01580165
000150 95 93 6a bd bc ce a4 bc 9f 49 a5 3d e2 00 16 bd
       -0.05726965 -0.02011811 0.08070683 -0.036621936
000160 a0 81 ac bd 76 0b 94 ba a0 d0 9e bd e5 e2 81 3d
       -0.084231615 -0.001129492 -0.07754636 0.06342105
000170 a8 b8 df bd 89 52 46 bd e9 73 12 3a 1d 0d 1a 3d
       -0.10923892 -0.048418555 0.000558673 0.037610162
000180 88 21 0d 3e 53 3b ea bc ba 5e 0f be 3b ea 2f bd
       0.13782322 -0.028592741 -0.14000979 -0.04294799
000190 52 da 8d 3d 7b 1d eb bc 7d 99 26 3e 68 3c 9d 3c
       0.06926407 -0.02870058 0.16269489 0.019193843
0001a0 12 c3 ec bd fb de f9 bd f0 ad 83 3d 5a 98 e8 bc
       -0.11560644 -0.12200733 0.0642966 -0.02839296
0001b0 87 61 ea 3d 99 4f 06 3d 0d b3 c7 bd 76 10 6f 3c
       0.11444383 0.032790754 -0.09750948 0.014591327
0001c0 aa c4 bb bd d3 d0 67 bd 9d cb bc bd e2 f8 91 3d
       -0.0916837 -0.056595635 -0.09218524 0.07127549
0001d0 84 8e 78 bd 43 e8 27 3e b9 7a c1 3d bf 6a b3 3c
       -0.06068279 0.16397195 0.094472356 0.021901486
0001e0 af 8e d8 bd 2f 9a 15 3d 07 6b b7 3d 3b 0e b5 3d
       -0.1057409 0.036523994 0.08955961 0.08840605
0001f0 0b 64 b2 bd 55 10 93 3d 26 2d c8 3d 03 0a 60 3d
       -0.08710488 0.071808495 0.097742364 0.054697048
000200 cd 06 aa 3d f5 3d b5 3c 98 8e 75 3c b0 b8 63 bd
       0.083020784 0.02212427 0.01498761 -0.055596054
000210 a9 80 be 3d 69 2f a9 3d 46 fb a8 bd 3e e9 40 bd
       0.09301884 0.08260996 -0.082510516 -0.047097437
000220 29 f5 d8 3c 27 a2 1b bd 1a 36 ec 3d 88 ec ff bc
       0.026484089 -0.037996437 0.115337566 -0.031240717
000230 69 19 2b 3d 36 e0 24 3c f0 22 c7 bb 28 b2 46 3d
       0.04177228 0.010063222 -0.006077163 0.048509747
000240 54 59 74 3d 6f 2b ef bc df fa e7 3d 3c ec ab 3d
       0.059655502 -0.029195515 0.11327147 0.083946675
000250 38 54 b7 3c fc 2d fc 3c a4 0d a6 3c a1 68 33 bd
       0.022379026 0.030783646 0.020270176 -0.043800954
000260 e9 6f 28 bd 15 be 53 be 57 2c 79 bd 7a b4 6d 3a
       -0.04112235 -0.2067798 -0.0608333 0.00090677256
000270 e1 1e d9 bc 51 c9 8c bb d8 1d 71 3d 9f 56 26 bd
       -0.026503982 -0.0042964597 0.05886635 -0.040609952
000280 8b b8 13 3e 87 09 41 bc 54 3a a6 bc ab 01 4d 3d
       0.14425866 -0.011782057 -0.020291485 0.05005042
000290 b4 6f dc bc fa fe 78 3d 66 95 ad 3d bc 5d 24 3e
       -0.026908733 0.06079004 0.08475761 0.16051382
0002a0 95 5c f4 3c b8 59 d1 3c 49 b9 07 bd 1b f5 db 3c
       0.029829303 0.025555477 -0.033135686 0.026850274
0002b0 4f 74 11 3d 9c e7 ea bd 15 93 76 3d be 58 3b 3d
       0.03551131 -0.11469957 0.060198862 0.045738928
0002c0 1b 44 ff bc 88 19 50 bd ce 7a b0 bc 75 df 1a bc
       -0.031160405 -0.0508056 -0.021542933 -0.00945269
0002d0 ce 73 b6 bc 7d 4b c6 bd f8 f8 cd bd 9d 83 f8 bd
       -0.022272017 -0.09682367 -0.10057253 -0.12134478
0002e0 34 0d 67 ba 92 bf 10 be df 81 39 bd 54 95 4f bd
       -0.0008813918 -0.14135578 -0.04528987 -0.05067952
0002f0 14 a5 aa bd 5c e6 88 3b 7e cb 0e 3d 03 f2 33 bd
       -0.083322674 0.0041778516 0.034862034 -0.043931972
000300 77 80 00 bd 68 5b 12 bd 47 5a 15 bd 62 93 8d 3d
       -0.031372514 -0.035731703 -0.03646305 0.06912877
000310 12 81 e5 3d 1d e6 92 bd 7d a9 48 ba 73 82 17 3d
       0.11206259 -0.07172797 -0.000765465 0.03698964
000320 88 ad 7f bd 44 06 64 3d a7 1d c4 bd e2 7c cc 3d
       -0.06242135 0.055670038 -0.09575968 0.09984757
000330 b6 3d bc 3d e7 93 61 bc 4f f8 fd bd 7f e1 99 bc
       0.09191458 -0.013768173 -0.12400877 -0.018784283
000340 72 dc ee bb 01 00 09 3d b9 d3 0c be 7e c4 ea 3c
       -0.0072894627 0.03344727 -0.13752641 0.028658148
000350 ef bb 20 3d 70 f4 2d 3e a4 18 24 3e 7f f0 37 3c
       0.039241727 0.16987777 0.16025025 0.011226772
000360 9e a4 1b 3e 5d 44 17 3d 9e ca 73 bd 1c 51 95 bd
       0.15199515 0.03693043 -0.059519403 -0.07290861
000370 17 ac 2c 3e 8b d5 da 3d 51 8c 47 3e 38 6b 08 be
       0.16862522 0.10685261 0.1948712 -0.1332215
000380 6b 99 cf bd 99 f4 91 3c 29 af 04 3c 13 de 29 bd
       -0.10136684 0.017816829 0.008098402 -0.041471552
000390 b7 67 da 3c 39 b9 c1 bd dc a6 43 bd 2f 78 a4 bd
       0.026660783 -0.094591565 -0.04776655 -0.08030736
0003a0 7c 63 1d bd 31 42 5e 3d 12 31 e0 ba 25 82 3c 3d
       -0.038424954 0.054262344 -0.0017104468 0.046022553
0003b0 0e b6 24 bc bf df fe 3d 0d f0 fd bb 5f ac cf bc
       -0.010053171 0.1244502 -0.0077495635 -0.025350748
0003c0 16 ae 9d 3e 5e 9e 6a 3d 7a c4 9c 3d cf 89 04 be
       0.3079688 0.057279937 0.076546624 -0.12943195
0003d0 43 c7 7e 3d f9 e5 12 3e a8 c4 16 3d e8 d1 81 bc
       0.06220175 0.1434554 0.03680864 -0.015847161
0003e0 7e 5b a6 bd 53 b2 76 3e eb e9 6a bd 3b 9e 90 3d
       -0.081229195 0.24091463 -0.057351988 0.0706143
0003f0 eb fd da bc 90 75 74 3d fb ca 2e be 7b 54 4d be
       -0.026732406 0.05968243 -0.17069618 -0.20051758

res_blocks.2.batch_norm.weight f4 [32]
000000 19 f5 21 3f 68 25 1b 3f ba 0f 29 3f 76 3a 11 3f
       0.63264614 0.6060395 0.6603962 0.5672983
000010 bc b4 10 3f 95 6b 2d 3f bc 0b 21 3f f0 17 3b 3f
       0.5652578 0.6774228 0.6290853 0.730834
000020 12 33 22 3f 3b 30 37 3f 20 f4 29 3f 28 00 0d 3f
       0.6335918 0.7155797 0.6638813 0.55078363
000030 57 8b 13 3f 9c 2b 3a 3f 78 5d 37 3f 4b 9e 38 3f
       0.5763449 0.7272279 0.71626997 0.72116536
000040 dc f8 2f 3f c2 31 20 3f 45 83 3a 3f 14 31 22 3f
       0.68739104 0.62575924 0.7285655 0.6335614
000050 83 72 14 3f 68 4d 1b 3f fa 86 3b 3f 13 65 36 3f
       0.5798723 0.6066499 0.7325283 0.71247977
000060 0c 51 35 3f 7a 64 2b 3f c5 fb 36 3f b0 c9 00 3f
       0.7082679 0.6695019 0.7147792 0.5030775
000070 de 3f 08 3f df a6 3d 3f c2 22 37 3f 67 12 27 3f
       0.53222454 0.7408275 0.7153741 0.65262455

res_blocks.2.batch_norm.bias f4 [32]
000000 fb 40 43 bd 20 1f 8d 3b 83 47 03 3d 72 b5 09 3b
       -0.047669392 0.004306689 0.03205062 0.002101269
000010 92 84 87 3c 12 36 c1 bc 90 8b a4 bc 01 44 27 3d
       0.016542707 -0.023585353 -0.02008608 0.040836338
000020 9a 2f d4 3c 46 12 0e 3d 43 89 34 3c b9 25 50 bc
       0.025901604 0.034685396 0.011019054 -0.012704306
000030 b2 b4 71 3a 47 da 77 3d 7f 9f 07 3c 8d e7 ec 3c
       0.0009220346 0.0605109 0.008277773 0.028919006
000040 63 0d 41 3d e3 bf 69 3c 69 00 98 3d 17 2c a5 3c
       0.047131907 0.014266941 0.07421953 0.020162625
000050 ee 7c fb 3b fe 36 4f 3c f9 84 80 3d f1 5f 2c 3d
       0.007674805 0.0126473885 0.062753625 0.042083684
000060 ca 1f 82 3b 13 e2 c4 3b b3 cf b8 3c 7d a9 42 bd
       0.0039710747 0.0060083955 0.022559976 -0.047524918
000070 2a 17 9e bc 4c 8b f2 3c c1 c0 9f 3c 48 d3 b8 3d
       -0.019298155 0.029607438 0.019501092 0.09024674

res_blocks.2.batch_norm.running_mean f4 [32]
000000 4d 67 50 be 66 5c 94 bf ad 88 ec be c1 49 66 bf
       -0.20351906 -1.1590698 -0.46198025 -0.8995629
000010 26 6f 8b be 3c 0b b2 bf eb ab 93 bf bb 98 6f bd
       -0.27233237 -1.3909678 -1.153684 -0.058495265
000020 36 e8 8d 3f d4 05 a0 3f 5c 24 61 bf 21 43 14 c0
       1.108649 1.2501779 -0.87946105 -2.3165972
000030 b3 47 b4 bf db 1d 66 3e 14 e1 c6 3e 22 41 d5 3f
       -1.4084381 0.22472326 0.38843596 1.6660502
000040 e8 f4 5c 3f fd df ff 3f a6 2e cb 3e 7f 28 05 c0
       0.863112 1.9990231 0.39684027 -2.0805967
000050 61 2e ee bf 35 1c b8 3f 2b d2 82 3f 2f eb 22 bf
       -1.8607904 1.4383608 1.0220388 -0.6364011
000060 d7 89 aa 3f 1a ab 9b bf 69 c8 92 3e 25 b2 65 c0
       1.3323315 -1.2161591 0.28668526 -3.588998
000070 aa a1 b0 40 9e c4 5a bf 30 68 bb 3f 76 01 5c 3f
       5.5197344 -0.85456264 1.464117 0.8593973

res_blocks.2.batch_norm.running_var f4 [32]
000000 70 97 05 41 f1 27 41 41 53 e3 6a 41 5c 02 37 41
       8.349472 12.072251 14.680499 11.438076
000010 82 57 29 41 f4 9f 1c 41 fc c3 2e 41 fa 72 c2 40
       10.583864 9.789051 10.922848 6.076535
000020 f3 02 5a 41 6a ca 0d 41 c4 e3 1b 41 f0 f8 40 41
       13.62572 8.8619175 9.743107 12.060776
000030 e2 d3 b7 41 50 a1 00 41 89 ac 86 41 99 69 4e 41
       22.978458 8.039383 16.834246 12.900781
000040 51 a2 66 41 c9 d1 16 41 c4 75 1e 41 06 cd 7b 41
       14.414628 9.426217 9.903751 15.737555
000050 22 7f 30 41 c4 3a 17 41 1d 7c 55 41 25 bf e9 40
       11.031038 9.451847 13.342801 7.304583
000060 f0 2e 17 41 7b c9 35 41 6a 5f 25 41 5f 89 f5 41
       9.448959 11.36169 10.335794 30.692076
000070 8b aa 16 42 f8 81 bd 40 49 c2 43 41 49 0f 05 41
       37.666546 5.9221153 12.234933 8.316232

res_blocks.3.conv.weight f4 [32, 32, 3, 3]
000000 c0 5f a8 3d 63 29 dd 3d 0e d0 4e bd 06 57 38 3e
       0.08221388 0.107989095 -0.050491385 0.18001947
000010 96 cd d8 bd 61 58 3e 3b 2a 37 7d bd af 0a b7 bb
       -0.105860874 0.0029044377 -0.061820187 -0.0055859904
000020 83 f5 32 3d 4e d1 df ba c9 89 a3 bc ab 61 33 3d
       0.04369117 -0.0017075927 -0.019963162 0.043794315
000030 3e 8b 49 bd 74 1a e3 3d 75 78 28 3d 2c 78 75 bc
       -0.049205057 0.1108903 0.0411305 -0.0149822645
000040 5a b6 a3 bd 91 f4 a6 3d 9a 82 75 3c bc cb e5 bd
       -0.07993765 0.08152116 0.014984751 -0.112205
000050 eb 21 0b be 7f 73 31 be a1 1e 79 be 13 10 0d 3d
       -0.13587157 -0.17329215 -0.2432809 0.034439158
000060 f8 79 0c be de 2a e8 bd b1 29 bc bb 8d 9f 05 3d
       -0.13718402 -0.11336301 -0.0057422747 0.032622863
000070 c5 1c cd 3d 30 30 d4 bd 17 83 85 bd 81 bf 6c bd
       0.10015253 -0.103607535 -0.06519144 -0.05779982
000080 9a 4a ad bb 7a 41 58 3d 5d 68 60 be 33 98 60 bd
       -0.005288434 0.05279682 -0.21914811 -0.05483265
000090 f3 6d 22 bc 75 dd 46 3d fb 25 30 bd d6 4f b0 3d
       -0.009913909 0.04855104 -0.04300497 0.086089775
0000a0 a4 97 87 bd f4 fb 15 3c ea 3e 95 bd 13 01 de bd
       -0.0662072 0.009154309 -0.072873905 -0.10840049
0000b0 b7 b6 1a bd d8 ba b8 bd f9 e8 e1 3c 27 c7 5d bd
       -0.037771907 -0.090200126 0.02757691 -0.054145005
0000c0 67 93 cd bd 72 2c d5 bd 88 99 5d 3d 00 b4 5b bd
       -0.100378804 -0.10408868 0.054101497 -0.05363846
0000d0 35 62 e1 bd 73 07 11 3e fe 7c f7 3a d0 67 89 3c
       -0.1100506 0.14162998 0.0018881855 0.016773134
0000e0 b2 ac 09 bc f9 93 80 bd 73 ed 42 bd 6f 69 80 3d
       -0.00840299 -0.062782235 -0.04758973 0.0627011
0000f0 96 12 98 bd 09 3e f8 bc bd c9 ab bd e1 68 e4 bc
       -0.0742542 -0.030303018 -0.08388088 -0.027882041
000100 b5 e2 6f bc 48 dc 1e bc 78 5c 17 be 59 fc 41 bd
       -0.0146414535 -0.009696074 -0.14781368 -0.047359798
000110 75 87 55 3d 9d 1d 4b 3d 6b 85 74 3d b4 93 6b 3d
       0.052131135 0.04958879 0.05969755 0.057513908
000120 81 23 46 b9 d8 20 53 3d 68 3e 61 3d 4e 2f 05 be
       -0.00018895978 0.051544994 0.054991156 -0.13006327
000130 bd 66 8e bd d7 14 41 3d 46 d5 8f bd 11 17 c8 ba
       -0.069531895 0.047139015 -0.070231006 -0.0015265663
000140 25 33 51 3d a9 65 f7 3d 4a 83 58 3d 76 72 81 3c
       0.051074166 0.12079937 0.052859582 0.01580165
000150 95 93 6a bd bc ce a4 bc 9f 49 a5 3d e2 00 16 bd
       -0.05726965 -0.02011811 0.08070683 -0.036621936
000160 a0 81 ac bd 76 0b 94 ba a0 d0 9e bd e5 e2 81 3d
       -0.084231615 -0.001129492 -0.07754636 0.06342105
000170 a8 b8 df bd 89 52 46 bd e9 73 12 3a 1d 0d 1a 3d
       -0.10923892 -0.048418555 0.000558673 0.037610162
000180 88 21 0d 3e 53 3b ea bc ba 5e 0f be 3b ea 2f bd
       0.13782322 -0.028592741 -0.14000979 -0.04294799
000190 52 da 8d 3d 7b 1d eb bc 7d 99 26 3e 68 3c 9d 3c
       0.06926407 -0.02870058 0.16269489 0.019193843
0001a0 12 c3 ec bd fb de f9 bd f0 ad 83 3d 5a 98 e8 bc
       -0.11560644 -0.12200733 0.0642966 -0.02839296
0001b0 87 61 ea 3d 99 4f 06 3d 0d b3 c7 bd 76 10 6f 3c
       0.11444383 0.032790754 -0.09750948 0.014591327
0001c0 aa c4 bb bd d3 d0 67 bd 9d cb bc bd e2 f8 91 3d
       -0.0916837 -0.056595635 -0.09218524 0.07127549
0001d0 84 8e 78 bd 43 e8 27 3e b9 7a c1 3d bf 6a b3 3c
       -0.06068279 0.16397195 0.094472356 0.021901486
0001e0 af 8e d8 bd 2f 9a 15 3d 07 6b b7 3d 3b 0e b5 3d
       -0.1057409 0.036523994 0.08955961 0.08840605
0001f0 0b 64 b2 bd 55 10 93 3d 26 2d c8 3d 03 0a 60 3d
       -0.08710488 0.071808495 0.097742364 0.054697048
000200 cd 06 aa 3d f5 3d b5 3c 98 8e 75 3c b0 b8 63 bd
       0.083020784 0.02212427 0.01498761 -0.055596054
000210 a9 80 be 3d 69 2f a9 3d 46 fb a8 bd 3e e9 40 bd
       0.09301884 0.08260996 -0.082510516 -0.047097437
000220 29 f5 d8 3c 27 a2 1b bd 1a 36 ec 3d 88 ec ff bc
       0.026484089 -0.037996437 0.115337566 -0.031240717
000230 69 19 2b 3d 36 e0 24 3c f0 22 c7 bb 28 b2 46 3d
       0.04177228 0.010063222 -0.006077163 0.048509747
000240 54 59 74 3d 6f 2b ef bc df fa e7 3d 3c ec ab 3d
       0.059655502 -0.029195515 0.11327147 0.083946675
000250 38 54 b7 3c fc 2d fc 3c a4 0d a6 3c a1 68 33 bd
       0.022379026 0.030783646 0.020270176 -0.043800954
000260 e9 6f 28 bd 15 be 53 be 57 2c 79 bd 7a b4 6d 3a
       -0.04112235 -0.2067798 -0.0608333 0.00090677256
000270 e1 1e d9 bc 51 c9 8c bb d8 1d 71 3d 9f 56 26 bd
       -0.026503982 -0.0042964597 0.05886635 -0.040609952
000280 8b b8 13 3e 87 09 41 bc 54 3a a6 bc ab 01 4d 3d
       0.14425866 -0.011782057 -0.020291485 0.05005042
000290 b4 6f dc bc fa fe 78 3d 66 95 ad 3d bc 5d 24 3e
       -0.026908733 0.06079004 0.08475761 0.16051382
0002a0 95 5c f4 3c b8 59 d1 3c 49 b9 07 bd 1b f5 db 3c
       0.029829303 0.025555477 -0.033135686 0.026850274
0002b0 4f 74 11 3d 9c e7 ea bd 15 93 76 3d be 58 3b 3d
       0.03551131 -0.11469957 0.060198862 0.045738928
0002c0 1b 44 ff bc 88 19 50 bd ce 7a b0 bc 75 df 1a bc
       -0.031160405 -0.0508056 -0.021542933 -0.00945269
0002d0 ce 73 b6 bc 7d 4b c6 bd f8 f8 cd bd 9d 83 f8 bd
       -0.022272017 -0.09682367 -0.10057253 -0.12134478
0002e0 34 0d 67 ba 92 bf 10 be df 81 39 bd 54 95 4f bd
       -0.0008813918 -0.14135578 -0.04528987 -0.05067952
0002f0 14 a5 aa bd 5c e6 88 3b 7e cb 0e 3d 03 f2 33 bd
       -0.083322674 0.0041778516 0.034862034 -0.043931972
000300 77 80 00 bd 68 5b 12 bd 47 5a 15 bd 62 93 8d 3d
       -0.031372514 -0.035731703 -0.03646305 0.06912877
000310 12 81 e5 3d 1d e6 92 bd 7d a9 48 ba 73 82 17 3d
       0.11206259 -0.07172797 -0.000765465 0.03698964
000320 88 ad 7f bd 44 06 64 3d a7 1d c4 bd e2 7c cc 3d
       -0.06242135 0.055670038 -0.09575968 0.09984757
000330 b6 3d bc 3d e7 93 61 bc 4f f8 fd bd 7f e1 99 bc
       0.09191458 -0.013768173 -0.12400877 -0.018784283
000340 72 dc ee bb 01 00 09 3d b9 d3 0c be 7e c4 ea 3c
       -0.0072894627 0.03344727 -0.13752641 0.028658148
000350 ef bb 20 3d 70 f4 2d 3e a4 18 24 3e 7f f0 37 3c
       0.039241727 0.16987777 0.16025025 0.011226772
000360 9e a4 1b 3e 5d 44 17 3d 9e ca 73 bd 1c 51 95 bd
       0.15199515 0.03693043 -0.059519403 -0.07290861
000370 17 ac 2c 3e 8b d5 da 3d 51 8c 47 3e 38 6b 08 be
       0.16862522 0.10685261 0.1948712 -0.1332215
000380 6b 99 cf bd 99 f4 91 3c 29 af 04 3c 13 de 29 bd
       -0.10136684 0.017816829 0.008098402 -0.041471552
000390 b7 67 da 3c 39 b9 c1 bd dc a6 43 bd 2f 78 a4 bd
       0.026660783 -0.094591565 -0.04776655 -0.08030736
0003a0 7c 63 1d bd 31 42 5e 3d 12 31 e0 ba 25 82 3c 3d
       -0.038424954 0.054262344 -0.0017104468 0.046022553
0003b0 0e b6 24 bc bf df fe 3d 0d f0 fd bb 5f ac cf bc
       -0.010053171 0.1244502 -0.0077495635 -0.025350748
0003c0 16 ae 9d 3e 5e 9e 6a 3d 7a c4 9c 3d cf 89 04 be
       0.3079688 0.057279937 0.076546624 -0.12943195
0003d0 43 c7 7e 3d f9 e5 12 3e a8 c4 16 3d e8 d1 81 bc
       0.06220175 0.1434554 0.03680864 -0.015847161
0003e0 7e 5b a6 bd 53 b2 76 3e eb e9 6a bd 3b 9e 90 3d
       -0.081229195 0.24091463 -0.057351988 0.0706143
0003f0 eb fd da bc 90 75 74 3d fb ca 2e be 7b 54 4d be
       -0.026732406 0.05968243 -0.17069618 -0.20051758

res_blocks.3.batch_norm.weight f4 [32]
000000 19 f5 21 3f 68 25 1b 3f ba 0f 29 3f 76 3a 11 3f
       0.63264614 0.6060395 0.6603962 0.5672983
000010 bc b4 10 3f 95 6b 2d 3f bc 0b 21 3f f0 17 3b 3f
       0.5652578 0.6774228 0.6290853 0.730834
000020 12 33 22 3f 3b 30 37 3f 20 f4 29 3f 28 00 0d 3f
       0.6335918 0.7155797 0.6638813 0.55078363
000030 57 8b 13 3f 9c 2b 3a 3f 78 5d 37 3f 4b 9e 38 3f
       0.5763449 0.7272279 0.71626997 0.72116536
000040 dc f8 2f 3f c2 31 20 3f 45 83 3a 3f 14 31 22 3f
       0.68739104 0.62575924 0.7285655 0.6335614
000050 83 72 14 3f 68 4d 1b 3f fa 86 3b 3f 13 65 36 3f
       0.5798723 0.6066499 0.7325283 0.71247977
000060 0c 51 35 3f 7a 64 2b 3f c5 fb 36 3f b0 c9 00 3f
       0.7082679 0.6695019 0.7147792 0.5030775
000070 de 3f 08 3f df a6 3d 3f c2 22 37 3f 67 12 27 3f
       0.53222454 0.7408275 0.7153741 0.65262455

res_blocks.3.batch_norm.bias f4 [32]
000000 fb 40 43 bd 20 1f 8d 3b 83 47 03 3d 72 b5 09 3b
       -0.047669392 0.004306689 0.03205062 0.002101269
000010 92 84 87 3c 12 36 c1 bc 90 8b a4 bc 01 44 27 3d
       0.016542707 -0.023585353 -0.02008608 0.040836338
000020 9a 2f d4 3c 46 12 0e 3d 43 89 34 3c b9 25 50 bc
       0.025901604 0.034685396 0.011019054 -0.012704306
000030 b2 b4 71 3a 47 da 77 3d 7f 9f 07 3c 8d e7 ec 3c
       0.0009220346 0.0605109 0.008277773 0.028919006
000040 63 0d 41 3d e3 bf 69 3c 69 00 98 3d 17 2c a5 3c
       0.047131907 0.014266941 0.07421953 0.020162625
000050 ee 7c fb 3b fe 36 4f 3c f9 84 80 3d f1 5f 2c 3d
       0.007674805 0.0126473885 0.062753625 0.042083684
000060 ca 1f 82 3b 13 e2 c4 3b b3 cf b8 3c 7d a9 42 bd
       0.0039710747 0.0060083955 0.022559976 -0.047524918
000070 2a 17 9e bc 4c 8b f2 3c c1 c0 9f 3c 48 d3 b8 3d
       -0.019298155 0.029607438 0.019501092 0.09024674

res_blocks.3.batch_norm.running_mean f4 [32]
000000 4d 67 50 be 66 5c 94 bf ad 88 ec be c1 49 66 bf
       -0.20351906 -1.1590698 -0.46198025 -0.8995629
000010 26 6f 8b be 3c 0b b2 bf eb ab 93 bf bb 98 6f bd
       -0.27233237 -1.3909678 -1.153684 -0.058495265
000020 36 e8 8d 3f d4 05 a0 3f 5c 24 61 bf 21 43 14 c0
       1.108649 1.2501779 -0.87946105 -2.3165972
000030 b3 47 b4 bf db 1d 66 3e 14 e1 c6 3e 22 41 d5 3f
       -1.4084381 0.22472326 0.38843596 1.6660502
000040 e8 f4 5c 3f fd df ff 3f a6 2e cb 3e 7f 28 05 c0
       0.863112 1.9990231 0.39684027 -2.0805967
000050 61 2e ee bf 35 1c b8 3f 2b d2 82 3f 2f eb 22 bf
       -1.8607904 1.4383608 1.0220388 -0.6364011
000060 d7 89 aa 3f 1a ab 9b bf 69 c8 92 3e 25 b2 65 c0
       1.3323315 -1.2161591 0.28668526 -3.588998
000070 aa a1 b0 40 9e c4 5a bf 30 68 bb 3f 76 01 5c 3f
       5.5197344 -0.85456264 1.464117 0.8593973

res_blocks.3.batch_norm.running_var f4 [32]
000000 70 97 05 41 f1 27 41 41 53 e3 6a 41 5c 02 37 41
       8.349472 12.072251 14.680499 11.438076
000010 82 57 29 41 f4 9f 1c 41 fc c3 2e 41 fa 72 c2 40
       10.583864 9.789051 10.922848 6.076535
000020 f3 02 5a 41 6a ca 0d 41 c4 e3 1b 41 f0 f8 40 41
       13.62572 8.8619175 9.743107 12.060776
000030 e2 d3 b7 41 50 a1 00 41 89 ac 86 41 99 69 4e 41
       22.978458 8.039383 16.834246 12.900781
000040 51 a2 66 41 c9 d1 16 41 c4 75 1e 41 06 cd 7b 41
       14.414628 9.426217 9.903751 15.737555
000050 22 7f 30 41 c4 3a 17 41 1d 7c 55 41 25 bf e9 40
       11.031038 9.451847 13.342801 7.304583
000060 f0 2e 17 41 7b c9 35 41 6a 5f 25 41 5f 89 f5 41
       9.448959 11.36169 10.335794 30.692076
000070 8b aa 16 42 f8 81 bd 40 49 c2 43 41 49 0f 05 41
       37.666546 5.9221153 12.234933 8.316232
