my_pt/240_model.pt (torch, 403540 bytes, 10 tensors)

conv1.weight f4 [64, 1, 5, 5]
000000 73 e0 5c be 4d e2 80 be 7e d2 63 be 6c 9d 5a be
       -0.21569996 -0.25172654 -0.22248265 -0.21349114
000010 72 52 a2 bb e2 36 9c bc eb 6e a7 bd b0 ff 09 bc
       -0.004953676 -0.019069139 -0.08175453 -0.008422777
000020 a2 d4 73 3e 18 b5 4f 3e 92 9d 15 3e d2 1e 01 3e
       0.23811582 0.20283926 0.1461089 0.12609413
000030 51 b5 b0 3d 1b a8 0b 3e 6f d2 38 be 8c 0f 24 be
       0.08628333 0.13638346 -0.18049024 -0.16021556
000040 60 b1 b3 3c f9 6d 0d 3d 95 cf 02 be 4b b9 52 be
       0.021935165 0.034528706 -0.12774499 -0.20578496
000050 a7 9a 6c 3d 7d 90 a6 3d f0 ec 38 be ad 94 21 be
       0.057764675 0.08133028 -0.18059134 -0.15779372
000060 cf 94 23 be 2b 1a 2a 3e 92 00 71 bd 98 4f 32 3e
       -0.15974735 0.16611545 -0.058838435 0.17413175
000070 44 f6 2e 3e a2 68 2c 3d 46 46 7b 3d 99 51 92 3c
       0.1708613 0.042091973 0.061346315 0.017861174
000080 51 35 40 3d 96 e3 18 3c 4e cb 45 be 7c f7 c3 bd
       0.046925846 0.0093316045 -0.19315836 -0.09568688
000090 30 6b 2c bd ce c3 04 3e b3 06 a5 3d 2a 72 02 3e
       -0.04209441 0.12965319 0.080579184 0.12738863
0000a0 8c 8d 08 3e 3c 2b f0 bd 9d ec 19 3e fd d6 5a 3e
       0.13335246 -0.11726996 0.15031667 0.21371074
0000b0 90 26 76 3e 03 5c 69 bd c6 25 59 be 2c 4a 29 3e
       0.24038148 -0.056972515 -0.21205816 0.165322
0000c0 be 8f 9a bd 8b a0 13 3e 0c 0f c0 3c 9e 04 e0 3d
       -0.07546948 0.14416711 0.023444675 0.10938381
0000d0 74 4d 55 be e1 eb bc bd d8 7a 35 3e 0f 7d 0a 3e
       -0.20830327 -0.09224678 0.17722642 0.13524269
0000e0 f3 e4 ed bd c2 3f c4 bd 5a 64 05 be 86 65 20 3e
       -0.11615934 -0.09582473 -0.13026562 0.15663728
0000f0 72 a9 a8 3c 02 2b 84 3d e3 3a 2f 3d fa 04 87 3d
       0.02058861 0.064535156 0.042780768 0.06592746
000100 fe 58 85 be 3b 2e 70 3e 84 7a 84 3c 68 80 49 3e
       -0.26044458 0.23455136 0.016171701 0.1967789
000110 20 eb 45 bd fa 87 88 bd 6d 10 ef 3d 4e 19 f5 3b
       -0.048319936 -0.066665605 0.11673055 0.007479823
000120 d1 6e 2c 3e d7 05 61 3e a7 e8 cd 3d 04 f6 56 be
       0.16839148 0.21974884 0.100541405 -0.20992285
000130 95 02 60 3d d8 2f 44 3d 84 10 33 be 82 6c aa 3c
       0.054689962 0.04789719 -0.17486769 0.020803694
000140 62 53 fe 3d b5 97 d9 3d ff f1 2d 3e 8b af 4e be
       0.12418248 0.10624639 0.16986845 -0.20184152
000150 65 22 53 3e 33 9c 06 3d 0f ec 1c 3e f0 6d bf bc
       0.20618589 0.032863807 0.15324424 -0.023367852
000160 1d 64 be 3d 34 46 ab bd 06 70 5b be 6c 9b 5d 3d
       0.09296439 -0.083629996 -0.21429452 0.0541033
000170 36 b0 c2 3d c7 2e 8b 3d 25 f6 68 3e 4a 15 4a bd
       0.09506266 0.067960314 0.22750147 -0.04933671
000180 5b 4f 1a 3e 8e 12 21 3e 4c 2d 4c 3e f7 01 e3 3c
       0.15069334 0.15729734 0.19939154 0.027710898
000190 cc 42 2b be 49 cd 5e 3e e8 bd 61 3e e8 b3 91 bd
       -0.167247 0.21757998 0.220451 -0.071143925
0001a0 64 46 b4 bd d9 fc dd bd 1b c3 49 bc 98 c9 25 bd
       -0.088024884 -0.108392425 -0.012314583 -0.040475458
0001b0 42 fc cc bc 35 85 08 3e 8d 47 f3 bc 2b 66 1c bc
       -0.02502263 0.13332064 -0.029697204 -0.009545843
0001c0 15 96 e8 3d 1d 0b 77 bd bb 3a 52 3e 2b 7a de bd
       0.11356751 -0.060313333 0.20530216 -0.108631454
0001d0 72 98 24 be 59 fd f2 bd 2b 3b 0a be 2b 72 ee 3c
       -0.16073778 -0.118647285 -0.13499133 0.029107174
0001e0 1f ef 06 be fe ab 37 be 15 5a 24 be eb e6 83 3d
       -0.13177155 -0.17936704 -0.16049989 0.064405285
0001f0 5c 32 79 3e d4 4c d6 bd 99 e3 41 be 0d 51 24 3e
       0.24335617 -0.104638726 -0.18934478 0.16046543
000200 7f 24 8c 3d 02 33 fe bd c3 72 d9 bd ac 48 0d 3e
       0.068428986 -0.12412073 -0.10617592 0.13797253
000210 ef 07 93 bd 94 d5 34 3d 9e 19 8d be 2b 68 80 3e
       -0.071792476 0.044148996 -0.27558607 0.25079474
000220 0a 27 8d bd 60 47 9c 3d 9a 92 0a 3e d4 7d 3b be
       -0.06892212 0.07630801 0.13532487 -0.18309718
000230 cb 34 05 bd 9e 93 13 bc 42 09 24 bd 32 f9 0d 3e
       -0.03252105 -0.009007363 -0.04004789 0.13864592
000240 e5 6b ab bd ee 22 ac bd 9e af 61 be cf c9 43 be
       -0.083701886 -0.084051 -0.22039649 -0.19119953
000250 3c 6e 33 bc 4d 7e 46 3e 94 81 96 3d 0f 39 b2 3d
       -0.010951575 0.19384117 0.07348934 0.08702289
000260 c5 1a 96 be 54 33 f4 3d 1e 33 0d bd be f3 7f bd
       -0.293173 0.119238526 -0.034472577 -0.06248831
000270 7b a3 a7 bd fc 12 88 be 04 d8 ce bd 02 d4 c0 bb
       -0.08185478 -0.26576984 -0.100997955 -0.0058846483
000280 92 fd d0 bd 71 76 b1 3d d6 a3 5d bd ef a7 50 3e
       -0.10204615 0.08665169 -0.054111324 0.20376562
000290 ab f1 03 3e 6d 28 8a 3d 8c f9 5d 3e e4 10 1a 3e
       0.12885158 0.06745992 0.21677226 0.15045506
0002a0 c0 f4 8d 3d 55 16 75 3e a4 58 0b 3d e8 2d 47 be
       0.06931448 0.239343 0.03402008 -0.19451106
0002b0 a6 98 2d be f7 3d 32 be be 70 02 3e 31 6a ac bd
       -0.16952762 -0.1740645 0.1273832 -0.08418692
0002c0 96 ee c3 3d 1a af 47 be 73 26 5d be 4b b1 3b be
       0.09566991 -0.1950039 -0.21596698 -0.1832935
0002d0 38 82 ed 3d 36 8e 1f be 6e 83 0e 3d d7 36 4a 3d
       0.11597103 -0.15581593 0.03479331 0.049368706
0002e0 ca 37 19 be 56 ea 60 3d 4b 51 cc bd bd 1d b8 3d
       -0.14962688 0.05491098 -0.09976443 0.08990047
0002f0 06 55 85 3e dc b4 f3 bd 12 05 28 3e 9e 09 f4 3d
       0.2604143 -0.118997306 0.16408184 0.11915897
000300 76 22 17 3e 9b 34 64 3e e2 9e 86 3c 25 8f 15 3d
       0.1475924 0.22285692 0.016433183 0.036513466
000310 35 70 69 3d 90 bb 0d 3e 7b 49 47 3e 42 b2 89 be
       0.056991775 0.1384108 0.19461624 -0.26893812
000320 58 a5 0f 3e 4a c4 1f 3d 95 ea 54 3e e8 1b 94 be
       0.14027917 0.039005555 0.20792611 -0.2892754
000330 84 6d 76 be e3 bf 25 bd e2 47 a3 bc 0d fe 60 3b
       -0.24065214 -0.0404662 -0.019931737 0.0034331114
000340 50 2f c5 3c fd e3 1b be 27 3e da 3c b1 b5 0a 3d
       0.024070412 -0.1522369 0.026640965 0.03386468
000350 2d 8d ab bd 01 06 40 3e bc 1d 2d 3e b0 f4 44 3e
       -0.083765365 0.1875229 0.16905874 0.19233966
000360 b5 b0 0d 3e d7 c3 80 bd 27 4a 29 3e 3c 76 d8 3d
       0.1383694 -0.062873535 0.16532193 0.105694264
000370 97 d8 0a 3e 25 98 36 bd a9 69 11 be 2d e2 0b be
       0.13559185 -0.04457869 -0.14200462 -0.13660498
000380 ec e5 3d be cf 34 52 be b7 89 0f be 3f d5 89 3c
       -0.1854474 -0.20527957 -0.14017378 0.016825316
000390 70 a9 7e 3e 0b 89 3f bd 42 1e 3d 3e bd c9 1c bc
       0.24869323 -0.046761554 0.18468574 -0.0095695825
0003a0 aa fa 93 3e de 2b 73 bd b5 a2 65 bd 5e 52 05 bd
       0.2890218 -0.059368007 -0.056063373 -0.032549255
0003b0 cb 0a 5f be d7 ec 5e be 41 1c 0b 3d 63 8c 0d be
       -0.21781461 -0.21770035 0.033962492 -0.13823085
0003c0 e9 a1 70 be 46 10 f7 bc 24 7c 24 be d2 9e 59 bd
       -0.23499264 -0.030159127 -0.16062981 -0.05312998
0003d0 35 43 9b bd f0 a4 44 3e c5 50 9b 3e ff bb d4 bc
       -0.07581178 0.19203544 0.3033506 -0.02596855
0003e0 c6 f0 eb 3d ca 0b 09 be bf 10 23 be d1 b1 08 be
       0.11520533 -0.13383403 -0.15924357 -0.13349082
0003f0 83 ca 5b 3e 1e 39 6f 3d 1c fc 17 be 62 bf 88 3d
       0.21463971 0.05840408 -0.14842266 0.066771284

conv1.bias f4 [64]
000000 96 99 9b bd e5 9b f9 3c f4 7f 93 bd 61 d6 29 bd
       -0.075976536 0.030469844 -0.072021395 -0.041464213
000010 51 1e 1f bd fc 8f 1f 3e 0e d2 68 be 6a 54 36 3e
       -0.03884727 0.1558227 -0.2273638 0.17805639
000020 f8 46 77 3d 50 d6 57 bd 2b c4 47 be a7 14 32 be
       0.060370415 -0.05269462 -0.19508426 -0.1739069
000030 6b 0c 01 bd 9a c2 5f be 73 a4 d9 3c 37 60 5f be
       -0.031505983 -0.21851578 0.026567673 -0.21814047
000040 1d 71 90 3d 4a 25 fc 3d f5 a1 c7 3d 40 6b dc bd
       0.07052825 0.123118 0.09747688 -0.10762644
000050 72 5a f2 bd fa cf a5 3d b9 1b 48 bd ac 86 aa 3c
       -0.11833657 0.08096309 -0.048854563 0.02081617
000060 48 50 ad 3d a1 d1 b2 3d 3c 94 da bd 9b 53 ee bd
       0.08462578 0.0873139 -0.10672805 -0.1163704
000070 ad 5c 9e 3d f2 68 de 3d 3d c7 bc 3d 27 1d e5 38
       0.0773252 0.108598605 0.09217689 0.00010925001
000080 a2 03 3c 3d 97 4e a2 3d f3 71 68 be 53 2e 8e 3c
       0.045901902 0.07925146 -0.22699718 0.017356073
000090 ec 63 60 be f8 11 06 be 36 4d 4c be 06 9a 1d 3e
       -0.21913117 -0.13092792 -0.19951329 0.15390787
0000a0 c1 3e 4f 3e 5a 50 fe 3d 8c 07 88 be df 12 bc bd
       0.20238782 0.124176696 -0.26568258 -0.09183287
0000b0 30 b4 9c be 33 9a cf bd 26 d7 67 be 8a 91 2c be
       -0.30606222 -0.10136833 -0.22640666 -0.16852394
0000c0 31 d2 45 3b a3 4e 15 3e 81 68 80 3d 21 8b a2 3d
       0.0030185098 0.14580779 0.062699325 0.07936693
0000d0 70 56 c0 bd 5c ed 37 3e 55 29 18 3c 7e 44 90 be
       -0.09391487 0.17961639 0.009287198 -0.28177255
0000e0 ae 37 67 be 8f 80 3a 3d b0 d9 bb bd c3 5d 31 be
       -0.22579834 0.04553276 -0.0917238 -0.17320924
0000f0 10 e8 41 3e e7 63 8c bd c8 0c 34 3e cd 7c 12 bc
       0.18936181 -0.06854992 0.17583 -0.008940888

conv2.weight f4 [32, 64, 3, 3]
000000 bc c3 1e 3a 6e 41 0b 3d b3 64 2f 3c 10 c7 45 bd
       0.00060563884 0.033997945 0.010705161 -0.048285544
000010 88 d2 70 3d 24 9d 7a 3c ea b7 4d bd 6b 3d 11 bd
       0.05879453 0.015296254 -0.050224222 -0.035458963
000020 a0 f1 17 3c 9a 93 f7 bc fd 3f 80 3c 27 ee 11 bd
       0.0092739165 -0.03022175 0.015655512 -0.03562751
000030 62 d3 d5 39 44 17 45 3d 95 d5 88 3c 3d b8 66 3c
       0.00040784018 0.04811789 0.016703406 0.014082012
000040 ed 82 06 bd fa 6c 24 39 18 6a 3b bc 3b 0f 19 bd
       -0.032839704 0.00015680856 -0.011438869 -0.03736804
000050 4d b6 44 3c e2 80 7e bc 6b dc 14 bd f5 e3 a5 3d
       0.0120063545 -0.015533658 -0.03634302 0.0810012
000060 0c ab a1 3c ce ea c9 3b 3c f4 a5 3d a4 9c 84 bd
       0.019734882 0.006162024 0.08103225 -0.06475189
000070 dd a8 03 3d e7 3f 22 bd c1 07 ab 3c 31 9c 26 3d
       0.032143462 -0.039611723 0.02087772 0.0406763
000080 8c c8 31 3d 41 b8 d8 3c c1 4c 12 3d eb 6c 14 3b
       0.043404147 0.026455047 0.03571773 0.0022647928
000090 ac 31 43 3d 43 a5 c8 3c 91 79 69 3d f8 bf cc bb
       0.047654793 0.024492865 0.0570007 -0.0062484704
0000a0 d7 29 16 bc a6 a3 22 3c 23 a6 9a bb f7 b0 c2 bc
       -0.009165249 0.009926712 -0.004719512 -0.023766024
0000b0 36 bc 5b bd 42 0d 8b 3a 85 1e e6 3a 60 96 87 bc
       -0.05364629 0.001060881 0.0017556703 -0.016551197
0000c0 55 15 3f 3c c0 b1 39 bd 4e f2 84 bc d2 de 87 3c
       0.011662801 -0.04533553 -0.016228821 0.016585741
0000d0 9a d3 b3 bc f0 cf 03 bd 81 ca 3b 3d e0 9a 47 bd
       -0.021951485 -0.032180727 0.04584742 -0.048731685
0000e0 07 45 e4 bc 7c 4a 3f 3d e0 cb 39 bd 05 46 71 3d
       -0.027864946 0.046701893 -0.045360446 0.058904666
0000f0 c6 de d0 3a 6d e2 14 bc ca f7 8f 3d f2 f8 0e ba
       0.0015935532 -0.009087187 0.07029684 -0.0005453966
000100 ed 90 f0 3c 1b 76 fc bc 58 35 6b bb cf 1e 46 ba
       0.029365981 -0.030818036 -0.003588995 -0.00075576914
000110 16 29 c6 b9 e0 4a cf 3c f1 d3 dc ba d4 88 3c 3d
       -0.00037796114 0.025304258 -0.0016847831 0.046028927
000120 96 ec 0f bc d4 e2 41 bd e8 6c e2 3c 79 0b 8f bd
       -0.008784434 -0.04733546 0.027639821 -0.0698461
000130 13 3e 46 bc 64 77 7f 3a 06 60 cf bd 37 c4 b7 bd
       -0.012099761 0.00097452686 -0.10125737 -0.08972972
000140 cb 8d 81 bd 43 23 f0 bc 61 6d 18 bc 7b ad 98 bd
       -0.06325873 -0.02931369 -0.009303422 -0.07454964
000150 34 0c 8a 3d f0 24 5f 3c a9 40 74 3b 10 3c 36 bd
       0.06740609 0.013619646 0.0037269986 -0.044490874
000160 71 de be 3c a1 97 51 bd 4a c5 af 3c c7 67 8e 3d
       0.023299428 -0.051169995 0.02145638 0.06953388
000170 d2 e3 14 3d 6c 56 bb bc cf c9 a3 b9 45 f5 a0 bc
       0.03635008 -0.022868358 -0.00031240142 -0.019648204
000180 f7 a2 68 bd ce 7f 85 3c 25 5a 17 bd dc 06 e2 bc
       -0.05679604 0.016296294 -0.036951203 -0.027591161
000190 11 8c 8c 3c 48 e6 e1 bc bd 58 29 bd 78 0a 80 bd
       0.017156633 -0.027575627 -0.041344393 -0.06251997
0001a0 08 a0 ae bd 93 3a e4 3c 4d 42 2b bb fe f2 b7 bd
       -0.08526617 0.027859962 -0.0026132048 -0.08981894
0001b0 95 82 03 3d f9 5a 21 3c 3e 97 28 3c 8a c2 0f bc
       0.032106955 0.00984835 0.010289965 -0.008774409
0001c0 2c ad a4 3c a7 df cd 3b 0f 3c ef bc 33 8b 70 3c
       0.020102106 0.006282765 -0.029203443 0.014681625
0001d0 cf 22 14 bd 67 37 d4 3c dc 4f 43 bd dd 5f 3a bd
       -0.03616601 0.025905324 -0.04768358 -0.04550158
0001e0 50 ce bb 3c 55 a7 f5 bc 01 bf 45 bb ff 2b 2a 3c
       0.022925526 -0.029987017 -0.0030173662 0.010386466
0001f0 42 c5 68 bc 78 57 6f bc df 76 a6 3c e1 82 ad bc
       -0.014207186 -0.0146082565 0.020320354 -0.021180572
000200 08 35 62 3d c4 0b 8a bc 91 4f f9 3c df 82 a3 3c
       0.055226356 -0.016851313 0.030433448 0.019959865
000210 57 7d 34 bd 7d 28 9c 3d 85 14 bf 3d ce a9 b9 bc
       -0.044064846 0.0762491 0.09330086 -0.022663977
000220 ba d9 29 3d 5b 47 8b 3c 18 69 b0 3c db 36 fc 3c
       0.041467406 0.017001798 0.021534488 0.030787876
000230 97 e1 2a 3d cd 46 da bc b7 6f ea 3c 8c 5d af bc
       0.041719045 -0.026645089 0.028617723 -0.021406911
000240 6f 28 2c bd 1e 94 2f 3d cb 64 b1 bb 51 d5 71 bc
       -0.042030748 0.042865865 -0.005413627 -0.014760331
000250 03 bb c6 bc dc b2 8c bc 80 94 16 bd 8c 6a c4 3c
       -0.024259096 -0.01717513 -0.036762714 0.023976587
000260 e8 2a 45 bc 2f f2 b2 3c 24 82 d2 3b 31 06 72 bb
       -0.012034155 0.021843998 0.0064242054 -0.003692996
000270 3e e4 44 3d 28 aa 06 3d cf e4 cd 3b 62 7f c6 bc
       0.04806923 0.032877117 0.0062833796 -0.024230663
000280 dc 2b 0f bd 9b 00 dd 3b 67 79 37 3c 5e 90 9d bd
       -0.034953937 0.006744457 0.011198378 -0.076935515
000290 07 02 8e bc 59 44 9a bc 48 ff d3 bc 39 a9 2f bc
       -0.017334951 -0.018831419 -0.025878564 -0.010721498
0002a0 81 f1 3c 3d e1 42 71 bd 44 fc 0a 3c 4c 36 01 3c
       0.046128754 -0.05890167 0.008482996 0.007886481
0002b0 9b 77 20 bc 7b b1 0f bd 4d 88 8c bc 10 88 47 bc
       -0.009794141 -0.035081368 -0.017154837 -0.012178436
0002c0 54 ae 4b 3d 69 c0 a0 bd b9 23 37 bd b4 4e 3d 3d
       0.0497268 -0.07849199 -0.044711802 0.046217635
0002d0 ab 48 17 bd e8 a4 1a 3d cc ec 3f 3d 01 b6 a5 bc
       -0.036934536 0.037754923 0.046856686 -0.020228388
0002e0 8a fc 19 3d 26 6d 1c 3c 03 8a c3 3d 8d f7 4f 3c
       0.037594356 0.009547507 0.09547808 0.012693298
0002f0 94 8e 08 3d d0 25 1b bd 07 03 3e bd fe 86 24 3c
       0.033339098 -0.037877858 -0.046389606 0.01004195
000300 dd 6f aa 3b bb 79 d5 bc c3 9e 01 3d 46 e0 c6 3c
       0.0052013234 -0.026059022 0.031645548 0.024276864
000310 84 27 ce bb a1 a3 91 bd 69 00 5d 3c df fc 81 3d
       -0.0062913317 -0.07111288 0.013488867 0.063470595
000320 75 f6 96 ba 91 2d 45 bd 11 b5 2f bd 7c e6 ab bd
       -0.0011517542 -0.04813916 -0.042897288 -0.08393571
000330 b0 e5 65 bc c1 93 19 bd 7b 2c 19 bb f0 c8 6d bd
       -0.014031813 -0.037494425 -0.002337246 -0.058052957
000340 f9 f0 f9 3c 4b 14 b7 bc 0c d9 12 3c c6 2a 36 3c
       0.030510413 -0.022348544 0.008962881 0.011118596
000350 66 c5 87 bd fd c6 08 bd a0 84 17 bd 95 b6 08 bd
       -0.06629448 -0.033392895 -0.036991715 -0.03337725
000360 e1 61 dc bb c1 17 a8 3d d9 cd 30 3c ca 9e 71 3d
       -0.0067255353 0.08207656 0.010791265 0.058989324
000370 25 0b 15 3d 9f 60 2b bb a0 aa 1f 3d 7f f1 bc bc
       0.03638758 -0.002615012 0.03898108 -0.023064373
000380 f3 36 b0 3b 4d ca b1 3c 5f b7 81 bd 25 40 35 3c
       0.005377644 0.02170291 -0.063338034 0.0110626565
000390 1d ae 55 bd ac fc 84 3c 57 9b 05 3d 03 21 2c bd
       -0.052168 0.016233765 0.032618847 -0.04202367
0003a0 5f 4b 49 bb 4d f8 99 3d 77 12 57 bd 86 21 0a bd
       -0.003071509 0.07518063 -0.052507844 -0.033723377
0003b0 9a 0b 89 3d 3e 36 77 3c 1f d7 b6 bd 4f ca 70 bd
       0.06691666 0.015088616 -0.0892775 -0.058786687
0003c0 d9 86 27 bd 49 e3 10 bd fe 64 59 3d 5e c1 51 3d
       -0.040900085 -0.035373006 0.05307483 0.0512098
0003d0 c9 ad af bd f4 5a 54 bd ef 13 29 bd ad c4 9c bb
       -0.08578069 -0.051844552 -0.041278776 -0.004784188
0003e0 fe 58 3d bd 1d 64 67 3d 83 18 ca bc f9 57 24 bb
       -0.046227448 0.05649196 -0.024669891 -0.002507685
0003f0 61 d4 3f bd 1c 69 5b bd cc 60 12 3c 27 f3 d6 bc
       -0.0468334 -0.053567037 0.008934211 -0.026238991

conv2.bias f4 [32]
000000 4e 7e 2d bc e9 a9 80 bd 0c c7 a7 bd a5 ca 2c bb
       -0.010589195 -0.06282408 -0.08192262 -0.0026365903
000010 05 bf 9c bd da f4 21 bd 4e a1 67 bd b1 3a 79 bd
       -0.076536216 -0.03954015 -0.056550317 -0.060846988
000020 11 7b 9c bd a8 ac ba bd 64 e0 76 bc ee c1 26 bd
       -0.076406606 -0.09114963 -0.015068147 -0.04071229
000030 c4 ee b5 bd 15 ab 13 3d 2d 96 e8 bc d5 88 cb bd
       -0.088834316 0.03605183 -0.028391922 -0.09938208
000040 6e d0 96 39 4e ad b2 bd 8b 23 52 3c 88 a0 b1 bc
       0.00028765522 -0.087244615 0.012825857 -0.021682993
000050 f6 fb f1 bc cc 88 c3 bc ee e4 a4 bd 00 c7 2c bd
       -0.02953909 -0.02386894 -0.080514774 -0.04218197
000060 2a 27 78 bc 48 cd 9e bd 06 7b d0 bd 9f 8f ec bd
       -0.015146056 -0.07753998 -0.10179715 -0.11550831
000070 14 30 8d bd 36 d2 da bd 9f 61 65 bd 6a d6 d9 bd
       -0.06893936 -0.10684626 -0.0560013 -0.10636599

conv3.weight f4 [16, 32, 3, 3]
000000 40 3e 97 bd 8c dc eb bb 8a d2 90 bd 02 fe 03 bd
       -0.0738492 -0.007197922 -0.07071407 -0.032224663
000010 52 24 93 3d 39 6e 31 3d d1 23 aa 3d e3 a5 ff 3c
       0.07184662 0.043318007 0.08307613 0.03120703
000020 56 8f ac bd 7d bd 98 bc 36 a4 d6 bc 05 c6 ad bc
       -0.08425777 -0.018645043 -0.026201349 -0.021212587
000030 98 55 00 3c 28 74 53 bd b1 7a 92 bd 2a d1 13 bd
       0.007832907 -0.051624447 -0.07152308 -0.036088146
000040 16 36 2a bb 5b 1e 8a bc a5 bf 00 bc bf c4 c8 3c
       -0.002597218 -0.016860178 -0.007858192 0.024507878
000050 25 97 d3 bd 67 da ab 3d 70 53 6d 3e 47 50 11 3e
       -0.10331563 0.08391266 0.2317636 0.1419078
000060 56 b7 31 3e 02 b3 cb bc d2 74 c5 3c 34 9e 6a 3d
       0.17355093 -0.024865631 0.024103556 0.05727978
000070 23 5d 32 bd 96 53 0a 3e d6 b1 d5 3d ab 64 bb bc
       -0.043545853 0.13508448 0.1043431 -0.02287515
000080 fa fa 1c bc c6 63 07 3e cd a9 c3 3c 0a 19 bf 3d
       -0.009581322 0.13221654 0.023884678 0.09330948
000090 44 ae e2 3b 57 72 bd bd bc 36 89 bc b2 c3 3e be
       0.0069177467 -0.09250324 -0.016749732 -0.1862934
0000a0 c5 88 d4 bc a5 67 b1 bd ab 61 aa bc 08 d7 03 3d
       -0.025944123 -0.08662347 -0.020798525 0.03218749
0000b0 19 ea 37 be 1a d6 f1 bc 14 e5 88 bd e8 6b c2 bd
       -0.17960395 -0.029521037 -0.06684318 -0.09493238
0000c0 de 61 41 3d 09 48 3b bd fb 9b 07 3e be a1 ea 3b
       0.047212474 -0.045722995 0.13243096 0.0071603945
0000d0 5f 0b 12 be 51 1e 9b 3d 37 4a a2 bd 7b b4 0f be
       -0.1426215 0.07574142 -0.079243116 -0.14033692
0000e0 e8 9f d6 bc a5 b2 04 be 46 74 10 bd 60 09 3c 3e
       -0.026199296 -0.12958772 -0.035267137 0.18362951
0000f0 63 e9 ab bd 19 4f 06 bd b1 2b fe bd 15 75 75 3a
       -0.08394124 -0.032790277 -0.12410677 0.0009363455
000100 1c 0e 22 be 09 9c 9b bd 51 50 0c be 2f 45 30 be
       -0.15825695 -0.07598121 -0.13702513 -0.17213891
000110 7d 5c a6 ba 53 f0 84 bd ce 96 4b be b5 f8 61 be
       -0.0012692359 -0.06491151 -0.19881746 -0.2206753
000120 99 1d 7e 3c de 0f d0 bd dc f0 f6 3c 37 51 84 bd
       0.015509986 -0.101592764 0.030144148 -0.06460803
000130 13 c4 71 bd 3d 14 87 3d 68 07 9d 3d 8a 99 2f 3c
       -0.05902488 0.06595657 0.07667428 0.010717759
000140 14 57 38 3d 68 23 b5 bd 2e cd b6 bd cc d2 cb 3b
       0.04500492 -0.08844644 -0.08925854 0.0062201973
000150 45 de 88 bd 47 6e 43 3d 2a 8b f6 3d 73 0f b1 3c
       -0.066830195 0.04771259 0.12038262 0.021613812
000160 b4 ec e1 3c 69 2a 7c 3d 2d 32 a6 bd ff df 18 be
       0.02757869 0.061563883 -0.08115039 -0.14929198
000170 23 4c b3 3d 2c 3d 2c bd a4 05 d1 bc 85 ce 8f 3d
       0.08754756 -0.042050526 -0.025515385 0.07021812
000180 ae 25 31 bc dc 1c 63 bd 21 40 14 3e 5d cf 1c 3d
       -0.010812206 -0.055447444 0.14477588 0.038283695
000190 45 05 31 3c 37 b3 a9 3c 68 82 d8 3d bc e1 f2 3d
       0.010804479 0.02071534 0.10571748 0.11859462
0001a0 92 5e a1 3c af a8 12 3c 8f 44 6d 3d 2c 0a 10 3d
       0.019698415 0.00895135 0.05792671 0.03516595
0001b0 ba 16 89 3d f6 ba 9c 3d a8 fd 15 3d 15 9d de bd
       0.06693788 0.076528475 0.03661886 -0.10869805
0001c0 34 08 ca bc d9 44 f5 bc 1d 28 8f bb 38 56 98 3c
       -0.024662115 -0.029940056 -0.0043687955 0.0185958
0001d0 87 41 b6 3d 43 69 5e bd 07 84 d8 bb db 52 da 3d
       0.08899217 -0.054299604 -0.0066075358 0.10660335
0001e0 11 ee a4 bd a3 8f 17 bd 11 0f 36 3d 2a d9 1e bd
       -0.0805322 -0.037002217 0.044447962 -0.038781323
0001f0 96 ba c2 bd b0 2d 04 be ed c3 08 3a 02 8b 20 be
       -0.09508245 -0.12908053 0.00052171835 -0.15678027
000200 a9 0d 80 bd 52 12 c0 bd 2e 1f 9d 3d c3 8a 81 3e
       -0.062526055 -0.09378494 0.07671963 0.2530118
000210 78 4c ed bd 03 db b7 3d 09 10 1c 3e 1d 83 fd bb
       -0.11586851 0.0897732 0.15240492 -0.007736577
000220 c7 50 80 3c f3 13 e0 bd 95 9f 33 3d 6c 98 78 bd
       0.015663518 -0.10941305 0.04385336 -0.060692236
000230 60 50 f5 bc f8 59 0a 3d 2c 1d fe bd a8 34 13 be
       -0.029945552 0.033777207 -0.12407908 -0.14375556
000240 3b 80 4d bd 30 68 20 be 34 27 8f bd 8e 1e 0b bd
       -0.05017112 -0.15664744 -0.06989899 -0.033964686
000250 5f 61 a4 bb c3 00 30 3e 14 b3 29 bc 4a 47 f9 3c
       -0.0050164904 0.1718779 -0.010357637 0.030429501
000260 92 1e 39 3d 8c 8b 83 3d bd bf 7e bd b4 80 13 3e
       0.04519517 0.06423101 -0.062194575 0.14404565
000270 04 d8 07 be 1e ee b7 bd 0d 72 86 3c 78 35 00 be
       -0.13265997 -0.08980964 0.016411806 -0.12520397
000280 2f 22 4f bb 37 b3 3b 3c a0 bd 54 bc 02 a5 9b 3c
       -0.0031606068 0.011456302 -0.012984663 0.01899958
000290 be 5e 12 3d 60 4b 31 3b 8a 43 b8 bd 89 33 11 3e
       0.035734884 0.0027052984 -0.08997257 0.14179815
0002a0 14 41 ae 3d 8b 0d 64 bd 92 69 34 3d c8 60 eb ba
       0.085085064 -0.055676978 0.044045992 -0.001795792
0002b0 32 4b bf bb 62 ba 09 be f2 a7 a8 bd 4a 47 a9 bd
       -0.0058378214 -0.13450006 -0.08235158 -0.082655504
0002c0 29 ea d1 3c fd 3a 29 be 48 47 63 bd d2 2b 9a bd
       0.025624352 -0.16526408 -0.0554879 -0.07527889
0002d0 a0 fa d1 bd 94 96 f5 bb a1 b1 c9 bd 32 0b e2 bd
       -0.10252881 -0.007494757 -0.09848333 -0.110372916
0002e0 9c 5e 6a bd d3 6d 47 3d 79 7c fb 3d b7 07 dc 3c
       -0.057219133 0.04868872 0.12279601 0.026859147
0002f0 8f 17 5c 3e d0 83 bc bc b1 a3 86 bc 5c 13 65 bb
       0.21493362 -0.023012072 -0.016435476 -0.0034954166
000300 ed 84 af bd 36 57 97 bd 85 8b 5f 3d 9f 72 89 bd
       -0.085702755 -0.07389681 0.054576416 -0.06711315
000310 67 18 de 3c b4 bf ff 3d 6c a2 93 bd e6 b5 22 3e
       0.027111245 0.12487736 -0.07208714 0.15889701
000320 45 a4 f0 3d 12 c5 d8 3c 5f c5 01 3e ad 4b 30 bd
       0.11750082 0.026461158 0.12672947 -0.04304092
000330 54 c2 27 3d 91 7f a1 3d 0e 4a a1 bb d8 d6 83 bd
       0.04095681 0.078856595 -0.004922158 -0.064374626
000340 7a 08 d1 bd c5 3b 45 bd ff d6 5a be a1 e0 c9 bc
       -0.10206695 -0.048152704 -0.21371077 -0.024643244
000350 3e 4e 26 be 01 70 de bd b3 55 0e be f9 27 0c be
       -0.16240785 -0.10861207 -0.13899879 -0.13687123
000360 55 1d fe 3d 62 82 d2 bc 6f 6d c1 bc c0 d9 fd 3d
       0.124079384 -0.025696937 -0.023611752 0.12395048
000370 98 44 ec bd b0 3b d9 3d 39 2b be 3d 2e 9f bb bd
       -0.11536521 0.106070876 0.09285588 -0.091612205
000380 d3 ae 80 3c c2 98 8d bc a2 6a a6 bd 10 36 25 3d
       0.015708363 -0.017284755 -0.08125807 0.04033476
000390 1e 2e cd bc 70 b6 c0 3d 80 48 c4 3d b3 1d 85 3d
       -0.025046404 0.09409797 0.09584141 0.06499805
0003a0 d8 c5 c2 3d ad 6f b2 3c 74 f5 c8 3d 9a 52 50 3d
       0.09510392 0.021781767 0.098124415 0.050860025
0003b0 6f 13 6c bd af 90 04 bc e0 52 96 bd db 58 f0 3c
       -0.05763572 -0.008091136 -0.07340026 0.029339245
0003c0 e0 42 cd bc fc 3e 55 bd 80 7d ce bd 16 07 06 bd
       -0.025056303 -0.05206202 -0.10082531 -0.0327216
0003d0 11 b0 1b bb 89 90 9e 3b 2e e9 c9 3d 96 17 96 3d
       -0.0023756067 0.0048390073 0.098589286 0.073287174
0003e0 53 f6 53 3d 15 ab ec 3d 95 88 60 3e fa a5 c7 3d
       0.051748585 0.11556069 0.21927102 0.097484544
0003f0 85 29 3e 3c 93 dd 88 bd 95 df a1 bd 56 5b 1c 3d
       0.011606579 -0.06682887 -0.07903973 0.038173042

conv3.bias f4 [16]
000000 6a f8 e1 bb a1 33 17 3d e9 fe a9 3d 80 18 68 3c
       -0.0068960683 0.03691447 0.083005734 0.0141659975
000010 a6 e5 90 bd d2 21 9e 3c a5 cf 2b bd fa 32 32 3c
       -0.07075052 0.019303236 -0.041946072 0.010876412
000020 4d 68 1b 3c 4e 87 a7 3d d6 79 f3 bb b4 99 9b bd
       0.009485316 0.08180104 -0.0074302955 -0.07597676
000030 a3 a0 56 bd b8 1e 0c bd f7 bc f6 3c d7 07 33 bc
       -0.05239929 -0.034208983 0.030119402 -0.010927162

linear1.weight f4 [128, 576]
000000 fb 52 a8 bc c7 a6 5d 3c 2a 24 88 3c 7e ce f8 bc
       -0.02054738 0.013528532 0.016618807 -0.0303719
000010 05 af a5 3c 27 13 ee bc cc 0c 06 3d 9f 8d 01 bd
       0.020225057 -0.029061867 0.032727048 -0.0316292
000020 92 6a 1d bc 45 0c 65 3d a2 13 8d ba a3 5a 63 bd
       -0.009607928 0.055919904 -0.0010763297 -0.05550636
000030 45 08 18 bd ed 91 11 bc 90 76 68 bc 9e f1 cf 3d
       -0.03711726 -0.008884889 -0.014188424 0.10153507
000040 98 bc 0d 3b b3 4a b3 3c 98 00 a0 3d 9a 92 81 3d
       0.0021627303 0.021886205 0.07812613 0.0632679
000050 0f b3 2d bd b5 49 86 3d 3c fc 50 3c f1 e6 2c 3d
       -0.04240709 0.06557027 0.01275545 0.04221243
000060 dd ad d3 bb 16 c0 1a bd 13 c3 61 bd 26 b8 3a 3d
       -0.006459935 -0.037780844 -0.055117678 0.045585774
000070 a4 a9 02 3c 72 70 7f 3a 7d 17 2a bd 8a 23 82 bc
       0.007975016 0.00097442337 -0.041526306 -0.015886087
000080 74 7e a5 3c 19 31 53 bc 86 16 48 bc 69 23 20 3d
       0.0202019 -0.012890124 -0.012212401 0.03909627
000090 8b 91 55 3c 5c 18 f8 3c 6b 49 73 3d 60 98 9a bb
       0.013035188 0.030285053 0.05939619 -0.0047178715
0000a0 1c 40 ac 3c bc 25 0c bd d9 ab 09 3d 67 40 03 3d
       0.021026663 -0.034215674 0.033611152 0.03204384
0000b0 cb 05 d4 bc 01 dd 58 3d 6e 39 f9 3c 7f 3a 20 bc
       -0.025881669 0.05294514 0.030422892 -0.009779572
0000c0 63 52 45 3d 4a 7c 9d 3b 11 54 8a bd 29 b7 08 bd
       0.048174273 0.004806076 -0.06754316 -0.0333778
0000d0 e6 1a 5f 3d 0f c2 cf 3b d3 a4 d0 3c 37 57 a0 3c
       0.05446901 0.0063402723 0.02546922 0.019572837
0000e0 ac 38 82 bb 6f 65 c0 3b 59 26 78 3b f0 82 16 bd
       -0.003974041 0.005871467 0.0037864654 -0.036745965
0000f0 60 f7 0b 3d ac 2a 1e bd 6b 1c a5 bc dc c8 9f bc
       0.034171462 -0.038614914 -0.020155152 -0.019504957
000100 60 f4 99 bc a9 0e 53 bc a1 e3 ee bc d5 c0 b0 3c
       -0.018793285 -0.012881913 -0.029161276 0.021576324
000110 a1 62 09 bd 92 b7 d1 bc e0 6d 73 3d 4b 95 f5 bc
       -0.033541325 -0.025600228 0.059430957 -0.029978415
000120 9c 69 fd 3c cd e6 4a 3d 31 d9 5b 3c b8 d2 41 3d
       0.030934148 0.049536515 0.013418482 0.047320098
000130 e1 5d 3b bc a4 ab aa bc 57 01 03 3d d7 39 59 bc
       -0.011435957 -0.020833798 0.0319837 -0.013258419
000140 02 67 44 3d 14 06 0b 3d 7e a2 fc 3b b4 26 bd bc
       0.0479498 0.033941343 0.0077098003 -0.023089744
000150 d7 fe 59 bd 97 29 91 bd 55 01 58 3b 10 df 03 3d
       -0.05322155 -0.07088011 0.0032959778 0.03219515
000160 99 f0 93 3c 0b 24 8c 3b 37 81 9a 3c 19 bf 3a bc
       0.018059062 0.0042767576 0.018860443 -0.0113981
000170 21 b4 81 bd 2b 33 a6 3c 02 d3 4c 3d 86 5b 10 bd
       -0.06333185 0.02028807 0.05000592 -0.035243534
000180 79 0b 5b bd 42 db 98 bc d4 e9 94 3b bb 59 7d bc
       -0.053477738 -0.018659238 0.004544476 -0.015463288
000190 d3 f0 f8 3c 0e e6 21 bc dd 98 4f bc 1a 7f 6b 3b
       0.030388271 -0.0098815095 -0.012670723 0.0035933913
0001a0 0f 55 f7 3c 8d ed 74 3c 1e 78 7b bc 14 aa 32 bc
       0.030191926 0.014949215 -0.015348462 -0.010904808
0001b0 b7 d8 e1 bb 8f 4c cc 3c 5e ae 0a 3d 05 20 d8 bc
       -0.0068922895 0.02493885 0.033857696 -0.026382456
0001c0 a1 f5 93 3b 1d 07 50 3c 23 3c 3e 3d 12 d6 9a 3c
       0.004515365 0.012697008 0.04644407 0.018900905
0001d0 84 50 72 3c f7 1f ec bb f7 57 63 3d f2 7d 54 bc
       0.014789704 -0.007205959 0.05550381 -0.012969481
0001e0 52 e9 0f bd aa 94 1d bc 11 79 3a 3d a5 2c 0d 3d
       -0.03513462 -0.009617964 0.045525614 0.034466404
0001f0 1c fc 7c bc eb fc 50 bc 91 75 fa 3c 64 87 92 3c
       -0.015440967 -0.012755613 0.030573638 0.017886825
000200 b4 64 27 bb d4 1a 82 3c 23 25 e1 bc 5b 4d 96 bc
       -0.0025542201 0.015881933 -0.027483528 -0.018347433
000210 e1 97 38 3d 8b c3 8a 3c 03 a0 11 3c bf c9 86 bd
       0.045066718 0.016938945 0.008888247 -0.06581449
000220 2f 7b 34 bd 83 28 95 3c ad fe e7 bc 13 87 34 bd
       -0.04406279 0.018207794 -0.028319681 -0.04407413
000230 5d ff 29 3c 20 af 2c 3b 05 2d 29 3b 03 51 11 bc
       0.010375825 0.00263495 0.0025814187 -0.008869412
000240 0e 59 10 3d 79 aa 3f 3c 65 b9 d3 bc 43 0e af 3c
       0.03524118 0.011698359 -0.025845239 0.021369105
000250 a4 d7 49 3d 0f 74 c2 bc ad cf 98 bc d9 33 11 bc
       0.049277917 -0.023736982 -0.018653715 -0.008862459
000260 a1 2a 80 bd b9 5b 74 3c 0e ce ba bb 53 3e f1 bc
       -0.06258131 0.0149144465 -0.005700833 -0.029448664
000270 25 4c 6f 3d 77 8a ff bc 0b 52 8b bc 6a 5b 8e bc
       0.058422226 -0.031193955 -0.017006895 -0.017377574
000280 2f 18 84 bc 1e 2e 09 3d 28 7d 8f 3c 5b 40 d8 bc
       -0.016124813 0.033491246 0.017515734 -0.026397875
000290 e7 c7 1e 3d 11 96 12 3c e9 e3 97 3d fc 87 1e bd
       0.03876486 0.008946911 0.07416517 -0.038703904
0002a0 c0 72 44 3d 5b d9 79 bc 9a f2 3a 3b f4 66 4e 3c
       0.047960997 -0.0152495755 0.002852595 0.012597788
0002b0 08 2b 3c 3d 8a 7d 38 3d 2a 69 cb 3c c6 d8 dc 3c
       0.045939475 0.0450416 0.02483042 0.026958834
0002c0 46 13 27 bc 01 72 98 3c a1 41 07 3d e6 a9 d9 3b
       -0.010197466 0.018609049 0.033021573 0.006642568
0002d0 b3 a5 d3 bb 6e 09 ce 3c 7b eb fe 3c cd 73 95 ba
       -0.006458962 0.02515098 0.031118145 -0.0011402309
0002e0 75 d2 97 3b 62 43 b0 bc 99 c0 d1 bc a5 3e a4 bc
       0.0046332427 -0.021516506 -0.025604533 -0.020049402
0002f0 fe a5 ac bb 86 92 a0 3c 40 de f7 3b e0 7c 44 3d
       -0.0052688112 0.019601118 0.007564336 0.047970653
000300 8a ba a2 bc 72 5c 23 bd bd cc 4d 3d 77 12 b6 bc
       -0.01986434 -0.039883085 0.05024408 -0.022225602
000310 54 2b a2 3d b5 c3 36 3d f8 33 d1 bc 88 8b 7d 3c
       0.079184204 0.044620235 -0.025537476 0.015475161
000320 38 eb 04 bd 52 3b 11 3c 78 3e 38 3d c6 4e 68 ba
       -0.032450885 0.008864241 0.04498145 -0.0008861836
000330 cf 83 de 3c 32 34 40 bd f5 33 3b 3c 60 44 a7 bc
       0.02716246 -0.046924777 0.011425962 -0.020418346
000340 52 21 85 3c d7 b9 22 bc 24 12 bb bb 02 76 a5 3c
       0.01625124 -0.009932003 -0.0057089496 0.020197872
000350 72 51 5d bc 86 47 1b bd 3a d3 be bc 96 ca 54 bd
       -0.013508188 -0.037910007 -0.02329408 -0.051951014
000360 5b 58 2b 3d e6 b3 de bc 50 c1 26 3c ce 35 15 ba
       0.04183231 -0.027185392 0.010177925 -0.00056919164
000370 54 eb 1a bd 09 ec 6a bb 16 ba d2 bc fb e5 0e 3d
       -0.037822083 -0.0035846254 -0.025723498 0.034887295
000380 b8 bc 2c bd 8a d1 80 bc 69 07 16 bd 5d 99 6c 3c
       -0.042172164 -0.015724916 -0.03662816 0.0144408615
000390 ef 99 48 bc 78 4a 4e 3d 30 f6 93 3d f6 e6 83 3c
       -0.012243732 0.050363988 0.07224691 0.016101342
0003a0 9d 8e 59 bc ef ae 2d 3b 63 ce 71 3c da b7 d5 bc
       -0.013278631 0.0026501974 0.014758679 -0.026088644
0003b0 73 b2 10 bd 68 7f 0e 3d 7c 76 6a 3d 17 8f 1f 3d
       -0.035326432 0.034789473 0.0572419 0.03895482
0003c0 9f e2 2e bd 2b ee ac bc cd 38 02 bd d7 8b db 3c
       -0.04269659 -0.021109661 -0.03179245 0.02680008
0003d0 38 6d 33 3d e0 9c 63 3d 6a e8 c0 bc 5e cb fe 3b
       0.04380533 0.05556953 -0.023548324 0.007775708
0003e0 73 ff 78 bc b1 3e 4f bd db 4d 27 bb 5e 9c 00 3a
       -0.015197623 -0.050596897 -0.0025528583 0.0004906113
0003f0 77 55 e9 bc 5d 8c f3 3c 2b 66 b4 bc 07 4d a1 bc
       -0.028483136 0.029730016 -0.022021374 -0.01969005

linear1.bias f4 [128]
000000 e6 24 98 bc 26 36 27 3d b7 2d cb bc 5a 0d d4 3c
       -0.018572282 0.040823124 -0.024802072 0.025885273
000010 10 ba 2d bb 90 79 12 3d 4f d6 8c 3c 1b e0 84 bc
       -0.0026508607 0.035760462 0.017192034 -0.016220143
000020 18 e0 a4 3b 1a 8d 73 3c 2f 7a 08 bd 38 d4 0c 3d
       0.005031597 0.014865184 -0.03331965 0.034382075
000030 a3 ac f3 bc 63 37 00 3d 84 bc d5 bc 4b dc da bc
       -0.029745406 0.03130282 -0.026090868 -0.026716372
000040 11 0f 82 bc 05 2c 2a 3d a9 10 a0 3c 1c fc ef 3b
       -0.015876325 0.041545887 0.019539194 0.007323755
000050 be 66 e9 bc 59 2e d8 3c 14 a9 00 bd ae b6 ae bc
       -0.028491374 0.026389288 -0.031411245 -0.021327343
000060 f6 8c b6 3c 3a 5f 31 3d 11 a6 21 bc 6a c6 67 bd
       0.022284012 0.043303706 -0.0098662535 -0.056585707
000070 7c bd 2e 3c e1 d7 61 3b e5 79 28 bb 94 59 56 bc
       0.010665294 0.003446095 -0.002570742 -0.0130828805
000080 08 a6 06 3d 2c e6 a4 3c b1 4e fa 3c 0c 04 0e bd
       0.032873183 0.020129286 0.030555101 -0.03467183
000090 ed bc 45 b8 73 46 94 bc b4 8e 31 bd 6f 15 92 3c
       -4.714441e-05 -0.018099999 -0.043348983 0.017832486
0000a0 6a 4d 7d bb 8f 18 3e 3d 9a dc 96 ba 76 6d 38 3b
       -0.0038650879 0.04641014 -0.0011509836 0.0028141416
0000b0 bb e2 94 3c 12 f9 81 bc 31 52 fa 3c 7e d0 24 3c
       0.01817452 -0.015865836 0.03055677 0.010059474
0000c0 b0 1d df bc 20 86 a5 bc 17 ee dc bb f6 8a 1e 3d
       -0.027235836 -0.020205557 -0.0067422497 0.038706742
0000d0 73 27 c3 3c d4 6b dc bb 36 6c f7 bb 7e 58 00 3c
       0.023822522 -0.0067267213 -0.0075507415 0.007833598
0000e0 12 2f ec 3c 46 2f e5 bc 7a d3 6a bd 15 7a 67 bd
       0.028831039 -0.027976643 -0.057330586 -0.05651291
0000f0 c0 1d 0e 3d ff a3 a7 3c 54 85 0c 3a ee 0a ce 3c
       0.03469634 0.020463942 0.00053604436 0.025151696
000100 1e 47 81 3b 1c 59 ef 3c a5 dd 2e bd 06 02 c9 3c
       0.0039452454 0.029217295 -0.042691845 0.024537098
000110 4a 56 07 3c c2 e4 07 bd 31 e8 33 bc 68 99 0d ba
       0.008260319 -0.033177145 -0.010980652 -0.00054015825
000120 77 91 09 3d 13 96 ab 3c 35 fb 12 bb 23 d6 1d bc
       0.03358599 0.020945584 -0.0022427563 -0.009633574
000130 86 2a 09 bd 9c 58 41 3a c3 cb 07 3d 9f ed e8 bc
       -0.03348782 0.00073755695 0.033153307 -0.028433619
000140 d9 7d e9 bb 15 5c 16 bc 1b 65 8c bc a0 38 c4 3c
       -0.007125598 -0.0091772275 -0.017138055 0.023952782
000150 18 06 a8 bd 96 30 49 3d c2 c0 de bc 3f 2c 11 3d
       -0.08204287 0.0491186 -0.027191523 0.035442587
000160 0e 0e aa bc af e2 2c 3d 42 01 32 3d b7 d9 d8 bc
       -0.020758655 0.04220837 0.04345823 -0.026471002
000170 2a 2c 99 3c b0 6e e6 3c b6 1b 58 3c 9b 22 a0 3b
       0.018697817 0.028128952 0.013190201 0.004886938
000180 7f c0 c3 3c 4f 87 b4 3a 30 ac 09 bd a0 2f 7a 3b
       0.0238955 0.0013773235 -0.033611476 0.003817536
000190 90 55 1e bd 19 40 53 3c a5 30 22 bc c9 43 32 bc
       -0.038655818 0.0128937 -0.009899293 -0.010880419
0001a0 9e d3 2b bd 68 10 61 3c 6a 2e 28 bd 62 d4 39 bd
       -0.04194986 0.013736822 -0.04105989 -0.04536856
0001b0 3f 40 1c 3d 40 ee b0 bc 76 ea 39 3d 61 fe 76 3b
       0.038147207 -0.021597981 0.045389615 0.0037688243
0001c0 26 16 c4 bb b7 4c 42 3d 13 fd b8 3c 17 60 9a bc
       -0.0059840856 0.047436442 0.022581613 -0.018844647
0001d0 8b 07 86 bd 52 0a e7 3b 36 5e 66 3d b4 b6 cd bc
       -0.065444075 0.007050791 0.05624219 -0.025111534
0001e0 06 9a 65 bc 86 f5 be bc 09 e2 17 3d 61 1b ab 3b
       -0.014013773 -0.023310434 0.0370808 0.0052217697
0001f0 4d be 50 3c 20 6c 53 3c 26 45 e6 b9 a6 95 cc 3c
       0.012740684 0.012904197 -0.00043920538 0.024973702

linear2.weight f4 [10, 128]
000000 c6 46 a5 3e 37 44 a4 be f5 a3 ed bd c6 66 10 3e
       0.32280558 -0.32083294 -0.11603538 0.14101705
000010 9e fd 78 bd 83 7f 6e bd e2 6d 99 3d 94 35 42 3e
       -0.060788743 -0.058227073 0.074916616 0.18965751
000020 09 95 5a bc dd a7 e8 bb bd b3 93 3e b9 a9 92 bd
       -0.013341197 -0.007100089 0.28848067 -0.07161278
000030 da cf 29 bd 0e 5d 5e 3d 24 95 84 be 32 51 a2 be
       -0.04145799 0.054287963 -0.25895035 -0.31702572
000040 9e 02 ec bc cd 74 20 be 6c 0c 3b 3e 4b bb 9e be
       -0.028809842 -0.15669556 0.18266457 -0.31002268
000050 4c b6 2b 3e 0e 18 d7 bd c6 71 37 be 92 7f 12 bd
       0.1676876 -0.10502635 -0.17914495 -0.03576619
000060 2f 0e 66 3e d3 d1 8c 3d e9 55 d7 3c e1 b4 ed bd
       0.22466348 0.06875958 0.026286082 -0.116067655
000070 32 f7 92 be 95 36 9a bd a0 d3 7e bd 14 b9 ad be
       -0.2870422 -0.07529942 -0.06221354 -0.33930266
000080 4e 51 bb be 3a de 4f 3e 02 b1 86 be 1a 8b e6 3d
       -0.36585468 0.20299616 -0.2630692 0.11257
000090 cd e3 62 3e 04 18 91 be ec 10 90 3d 65 8a 2f be
       0.22157212 -0.28338635 0.070344776 -0.17142637
0000a0 a2 c1 34 be b2 77 15 3e 4f 39 ac bd 0e 5b 29 be
       -0.1765199 0.14596441 -0.08409368 -0.16538641
0000b0 d7 a7 8b 3e c8 9e 37 be bc 23 ac 3e b2 30 7e 3e
       0.2727649 -0.17931664 0.33621013 0.24823263
0000c0 ab bf ea bd c0 fb 89 bd eb 07 1c be 0f e8 8c 3e
       -0.11462339 -0.067374706 -0.15237395 0.27520797
0000d0 b9 88 75 3e 77 7f 80 be 0e 69 53 be f0 35 91 be
       0.23977937 -0.25097248 -0.20645544 -0.28361464
0000e0 50 6a dd bd 21 b9 b9 3d b6 d8 69 bd 9d 47 95 3c
       -0.10811293 0.09068514 -0.057091437 0.018222624
0000f0 f0 80 e8 3d 34 ea 22 bd 73 b1 1b 3e 03 8c 5c 3e
       0.11352718 -0.039774135 0.1520441 0.21537785
000100 d6 fe 8e 3e 27 2a 26 be 46 9f 58 3e 17 30 8b 3e
       0.279288 -0.16227017 0.21154508 0.27185127
000110 40 62 93 3e 42 a8 a8 3e cb e7 c2 3d 41 7c 30 be
       0.28785896 0.3294087 0.09516867 -0.17234899
000120 a4 b1 7b bd 45 8e 87 3e 47 dc 38 3e 78 0d b5 be
       -0.06144871 0.2647573 0.18052779 -0.35361838
000130 71 15 fa 3d 9b cb 87 bd c4 31 ca 3e 91 7d 17 3e
       0.12211121 -0.066306315 0.39491093 0.14793994
000140 c5 b4 fe 3d ac 28 c7 be fe c2 52 3e bf c3 4e 3e
       0.12436823 -0.38898218 0.20582196 0.20191859
000150 d6 e8 82 be 52 75 c1 3c 8b 1b 26 3e 50 39 3d be
       -0.25568265 0.023615513 0.16221444 -0.18478894
000160 da 7d 79 bc 19 11 c7 bd c7 aa 2a 3e f6 d9 43 be
       -0.015227759 -0.09720058 0.16666709 -0.19126114
000170 03 99 e0 bd 66 c3 de 3d 33 af 46 3e 00 5d 54 3e
       -0.10966685 0.10877113 0.1940277 0.20738602
000180 8f 16 ae bd 44 05 9f 3e 5a d2 c9 ba fc af 21 3e
       -0.085003965 0.31058705 -0.0015397773 0.15789789
000190 0d a8 73 be 60 7a 49 be 04 64 88 3e 0b 43 c7 be
       -0.23794575 -0.19675589 0.26638806 -0.38918337
0001a0 cb ba 44 be 95 d5 b4 be 4d 2f 2d 3d a7 ce a2 3d
       -0.19211881 -0.353192 0.042281438 0.07949572
0001b0 0d 25 8b be a9 41 b7 bd 14 2a b8 be c1 ac 9d 3e
       -0.27176705 -0.089480706 -0.35969603 0.30795863
0001c0 32 32 96 3e cc 33 ee bd 34 24 48 be 93 db 45 bd
       0.2933517 -0.11630973 -0.1954506 -0.048305105
0001d0 15 a1 0d bd 30 9a cb 3d 9f f0 d9 3c 9a 9a bf 3d
       -0.034577448 0.09941518 0.026603995 0.0935566
0001e0 c8 d1 2a 3e a9 4e 23 3e c5 9c 68 3e 49 10 66 bd
       0.16681588 0.15947975 0.22716053 -0.056167874
0001f0 73 0b ad 3e 3e c2 14 3e d2 d1 d9 3e 98 a3 10 be
       0.33797798 0.14527223 0.42542893 -0.14124906
000200 22 6c 0d be 57 9d a3 3e 46 70 68 3e 4c 3c 0d 3d
       -0.1381078 0.31955978 0.22699079 0.03448133
000210 61 f9 08 bd 4c 81 bd bd 19 ef a4 be b0 31 8b be
       -0.03344095 -0.09253177 -0.32213667 -0.27186346
000220 6b 1a 0c be 72 08 a6 3e 1d 47 ef bb 1a 0b 6a 3e
       -0.13681953 0.32428318 -0.0073021785 0.22855797
000230 bf 00 57 3d 84 a4 01 bc bb 63 81 3d 83 9d dd bd
       0.052490946 -0.007912759 0.0631785 -0.108210586
000240 04 9d 89 bd a0 06 c8 3e 3b 1e a1 be f3 49 11 3c
       -0.067194015 0.39067554 -0.31468377 0.0088677285
000250 4a 55 7c be ce 24 d8 3d 3a de ab 3d 38 cc 79 bb
       -0.2464191 0.10553895 0.08391996 -0.0038116109
000260 f1 dd 6c be 78 f2 71 be 89 b7 b9 be aa c8 ab be
       -0.23131539 -0.2362765 -0.3627284 -0.33551532
000270 cf 54 2b 3e 45 b3 70 be af 66 9c be 85 5d 2f bd
       0.1673157 -0.23505886 -0.3054709 -0.042813797
000280 19 c2 44 be 42 a8 82 be 2f 7f 82 3e 1a ee e3 bd
       -0.19214667 -0.25518996 0.25487658 -0.11129399
000290 fd 30 42 3b 12 89 47 3e 01 15 be be 8d ce 93 3c
       0.002963125 0.19485882 -0.371254 0.018042827
0002a0 b4 cb ac 3e 17 ee ae 3e 0d f1 95 bd fc a9 ca 3d
       0.33749163 0.34166023 -0.073213674 0.09895703
0002b0 f7 81 7d be 9b 49 4c 3e f8 f5 77 be 39 d7 78 be
       -0.24756609 0.19949953 -0.24214923 -0.24300851
0002c0 84 17 ed bd 8c 2f 7e 3d 23 f6 9d 3e 70 88 99 3e
       -0.11576751 0.062057063 0.3085185 0.29986906
0002d0 d7 78 78 3d 97 37 6e be 51 eb d4 bd c2 88 51 be
       0.060662117 -0.23263393 -0.103964455 -0.20462325
0002e0 c6 04 68 3e 6d d7 7c be a3 1c 13 3e ef 23 5e be
       0.22658071 -0.24691553 0.14366393 -0.21693395
0002f0 57 4b 0d 3d 94 39 bc 3d 20 9a 43 3e 55 54 83 bc
       0.034495678 0.0919067 0.19101763 -0.016031424
000300 fd 94 6e 3d 36 a8 2a 3e 1d fc 0f bd 66 7d 84 3e
       0.058247555 0.1666573 -0.035152543 0.2587692
000310 ca 30 6a 3e c1 89 60 be 94 2b 90 be 1a d3 b4 bd
       0.22870174 -0.21927549 -0.28158247 -0.08829327
000320 25 89 d5 bd 67 99 ab 3e 45 7a 6d 3e 4e 4a 3c 3e
       -0.10426549 0.33515474 0.23191173 0.1838772
000330 3f b4 72 be 65 a8 7b be 69 c9 c2 3c 18 be d8 be
       -0.23701571 -0.24575956 0.02377768 -0.4233253
000340 66 df 74 be 2e 65 31 3e 1f 7d ff 3d 60 16 21 3e
       -0.23913345 0.17323753 0.12475037 0.15731192
000350 ba 73 4c be 03 96 68 3e 04 65 f5 3b 41 5f 40 3e
       -0.19966021 0.22713475 0.0074888486 0.18786336
000360 d5 c6 81 3e 7e f9 2b 3e ab 9c 73 be 5b a8 a0 3e
       0.2534701 0.16794392 -0.23790233 0.31378445
000370 e8 7a 8d 3e 93 ed 06 be c2 f9 5a be 44 b1 7a be
       0.27632833 -0.13176565 -0.21384338 -0.24481684
000380 4b cc 1f be 35 54 33 be 38 b4 ce 3d 34 90 86 be
       -0.15605275 -0.17512591 0.10092968 -0.26281893
000390 70 5f 74 3e c6 e0 9b 3e 84 36 5b be 15 f6 2d be
       0.23864532 0.30444926 -0.21407515 -0.16988404
0003a0 ce a8 91 bd 0e 49 ad bd f5 0d 4c be b7 0f cd be
       -0.07112275 -0.084612 -0.19927199 -0.40051052
0003b0 1c 14 21 3e 05 7d 1a be 0c d0 14 3e e0 01 90 3d
       0.15730327 -0.15086754 0.14532489 0.07031608
0003c0 77 02 61 3d 82 bc 68 3e de 39 93 3e 05 a1 fe 3d
       0.05493399 0.2272816 0.28755087 0.12433056
0003d0 a0 cf 5c be 94 a4 38 3e 13 57 03 3e a7 13 60 bd
       -0.21563578 0.18031532 0.12826185 -0.054706242
0003e0 b7 55 26 be f0 d2 9d bd 8e d7 8e 3e 2d 79 bf 3e
       -0.16243635 -0.07706249 0.2789883 0.37397137
0003f0 31 b4 a0 bd a2 7d 9b 3e 21 a8 6a be a9 78 7b 3d
       -0.07846869 0.30369288 -0.22915699 0.061394367

linear2.bias f4 [10]
000000 e6 76 cd bc b0 93 b5 3d cd b9 1c 3e 82 e7 1c be
       -0.02508111 0.0886606 0.15305252 -0.15322688
000010 c3 af c2 3d 0e 9b e9 3d 92 7c f6 bd b9 c5 f8 3c
       0.0950618 0.114065275 -0.12035479 0.030367719
000020 84 12 e5 bd 67 83 14 be
       -0.11185172 -0.14503251
