my_pt/240_deep_model.pt (torch, 859042 bytes, 56 tensors)

conv1.weight f4 [32, 1, 3, 3]
000000 25 4b 29 bd 8e d5 ba be 07 9b 81 be 55 b0 57 bc
       -0.04133143 -0.36491054 -0.2531359 -0.013164599
000010 2d c7 84 3e 83 de a1 be 23 7e 52 3e 8b d8 85 3d
       0.2593321 -0.31615075 0.2055593 0.06535443
000020 e3 90 06 be 8b 16 6b be ba a3 25 be 8a 04 86 bd
       -0.13141207 -0.22957818 -0.16175738 -0.065438345
000030 c2 6f 86 be 69 f4 83 3e 21 2b 47 3d 96 55 9d 3e
       -0.2625714 0.25772408 0.048625115 0.3072936
000040 83 28 8a 3e d3 53 1e 3e 27 52 4f 3d d9 60 9b be
       0.26984033 0.15461664 0.050615456 -0.30347326
000050 4f 12 db bd ec 8d 63 3d 65 d9 10 be eb 36 46 3e
       -0.106968515 0.05555527 -0.1414543 0.19356887
000060 86 46 62 3e da 8c fd bd 73 57 fc 3d d2 a6 5f 3e
       0.22097215 -0.12380381 0.12321367 0.2184098
000070 2a 48 68 3e 84 77 40 be 37 89 21 be 56 91 f1 bd
       0.22683778 -0.18795592 -0.15775 -0.11795299
000080 de da 1b 3e 25 cd 69 3e 4d 74 a7 be 55 7d c0 3d
       0.1522021 0.22832163 -0.32705918 0.09398905
000090 1e 5a 56 be 99 24 f4 3c e1 87 66 3e 9e 2a 2c 3e
       -0.20932814 0.029802607 0.22512771 0.16813132
0000a0 04 a5 c9 be 16 90 bc 3c f8 16 a6 3e e0 a8 69 be
       -0.3938371 0.023017924 0.324394 -0.22818327
0000b0 40 88 88 3d d1 f5 3f bd a4 56 43 3e 10 4a a9 be
       0.066666126 -0.04686529 0.1907602 -0.33064318
0000c0 94 17 a3 bd be 56 cd 3d dd 66 f7 3d 38 77 5c be
       -0.079634815 0.100263104 0.120801665 -0.21529853
0000d0 4f da 51 3e b9 17 8d 3e 5d 7b 8a bd b8 eb 12 be
       0.20493434 0.2755716 -0.06761811 -0.14347732
0000e0 58 99 21 be 8f fd f4 3c 5c 36 32 3e ea 97 68 be
       -0.15781152 0.029906062 0.17403549 -0.227142
0000f0 51 82 93 bd 81 41 40 be 8c 17 42 be 83 66 86 bd
       -0.0720259 -0.18774988 -0.18954295 -0.06562521
000100 fa cc 87 3e 59 d0 e1 3d 5e c0 f7 bd ef 69 16 3e
       0.26523572 0.11026067 -0.12097238 0.14688848
000110 6a 65 ec bd d7 b1 9f 3d b6 d4 f5 bd 03 b1 9a be
       -0.11542781 0.07797592 -0.12003462 -0.30213174
000120 bc 60 94 3e 72 c6 15 3e 74 2d a0 3e 6f e8 6e be
       0.28980052 0.14626482 0.31284678 -0.23330854
000130 2c ae 83 3c a4 e1 04 3e 17 09 1f be 9a 52 00 be
       0.016074263 0.129767 -0.15530811 -0.1253151
000140 b1 3c 5d bd 56 ec 58 bb 87 5a 68 bc 02 37 96 3e
       -0.054012958 -0.0033099852 -0.01418174 0.29338843
000150 8b f2 85 be 70 c2 71 be 4c 7a 94 3e 23 1b 4d 3e
       -0.26161608 -0.23609328 0.28999555 0.20029883
000160 a2 ff 53 3e e0 a8 cd bd 06 b7 a9 3e ef 97 c5 3d
       0.20702985 -0.10041976 0.33147448 0.0964812
000170 c0 d8 a5 be 66 46 86 3e 75 74 8f be e3 8b e4 3b
       -0.3239193 0.26225585 -0.28018537 0.0069746836
000180 19 04 51 3e 43 a6 70 be 27 a7 86 be c5 14 3b 3e
       0.2041172 -0.23500924 -0.26299402 0.18269642
000190 19 f3 61 3e 5f 2a b0 3d f7 71 20 3e 07 04 f8 bd
       0.2206539 0.08601832 0.15668474 -0.12110143
0001a0 f8 b2 4f bd d4 81 98 be 54 f9 33 3e ca 17 8c 3e
       -0.050707787 -0.2978655 0.1757558 0.273619
0001b0 aa c2 42 3e 26 5f a9 3c bb 56 8a be 64 0f e3 3d
       0.19019571 0.020675253 -0.27019295 0.1108692
0001c0 2a 7b 33 3c 1f 11 9a 3e f5 0d 94 bd fa f8 c7 3d
       0.010954658 0.30091187 -0.072292246 0.097642854
0001d0 42 eb 0b 3e 3e b4 e5 bd 3d ed 31 3e b2 ac f4 bd
       0.13663962 -0.11216019 0.17375655 -0.119470015
0001e0 42 a7 98 be d6 03 4c 3e 49 c3 ed bc 38 5b 15 3e
       -0.29815108 0.19923338 -0.029023783 0.14585578
0001f0 a1 62 62 be 53 c1 5e be 2f 54 9e bd 29 cf 68 3e
       -0.22107936 -0.21753435 -0.077309005 0.22735275
000200 d5 5f 85 bd 28 95 8f 3e 20 b8 a7 3d 2b ab 91 bd
       -0.06512419 0.28043485 0.08189416 -0.07112726
000210 93 ab 47 3e bf 63 8f be 31 57 9e 3c 76 96 88 3e
       0.19499044 -0.28005788 0.019328685 0.26677293
000220 f4 02 a2 be a6 e9 a3 be cb c1 c6 3d fd 6b 0a 3e
       -0.31642878 -0.32014197 0.09704932 0.13517757
000230 e7 17 9b be 0f 6d ea 3d 9b 19 7a 3e f1 f8 8b be
       -0.30291674 0.114465825 0.2442383 -0.27338365
000240 e3 93 9c bc ed cf 02 be 7f 12 2e 3c 89 78 aa be
       -0.019113487 -0.1277463 0.010624527 -0.33295086
000250 9b 9c 5a be bd d8 72 bd 38 92 28 3e f3 bb 9b bd
       -0.21348803 -0.05928873 0.16462028 -0.07604208
000260 0b ec 08 be b0 84 18 3c 60 ed 74 be 5a 6b b5 3d
       -0.13371293 0.009308979 -0.23918676 0.08858366
000270 ac dc 1c 3e 3f c0 61 bb 1e 2a 01 be 1e ff 51 3d
       0.15318555 -0.0034446863 -0.12613723 0.05126869
000280 3a 25 aa be dd 93 cd bd a2 88 5e be b1 7b d1 bd
       -0.33231527 -0.10037968 -0.21731809 -0.102286704
000290 94 d9 8a be b7 1c a7 3e 6c b9 87 3d 16 b0 e9 3d
       -0.27119124 0.32639095 0.06627163 0.11410539
0002a0 1e 77 a0 bd c1 13 53 be 8b 0b 94 3c 8a d4 88 be
       -0.0783522 -0.20613004 0.01807191 -0.26724654
0002b0 1b 55 5a be 5b a8 aa 3e 42 08 66 3e b7 f2 cd 3e
       -0.21321528 0.3333157 0.22464088 0.4022424
0002c0 07 b7 3e 3d ed df 81 bc 85 29 de bd 31 80 39 be
       0.046561267 -0.015853846 -0.10847763 -0.18115307
0002d0 80 4a 0d 3e 9a 6f 76 be 06 bd 45 bc cc fb 2a 3e
       0.1379795 -0.2406601 -0.0120689925 0.16697615
0002e0 ea 34 92 3e 54 ef e3 bd cc 2b 1b be 48 e1 dd 3d
       0.28555995 -0.111296326 -0.15153426 0.108339846
0002f0 ce ce 9e 3d 2a c9 4d bd 3c fa 4e bd ed fd 6e 3d
       0.077542886 -0.050240673 -0.05053161 0.05834763
000300 21 e0 37 3e e0 2a c2 ba f6 6a 43 be e0 5b 34 3a
       0.17956592 -0.0014813803 -0.19083771 0.00068801455
000310 a2 fc 5b be 05 f6 a3 be 93 b8 da 3d b5 2d a7 be
       -0.2148309 -0.32023636 0.10679736 -0.3265206
000320 96 61 2f be 70 6f 18 bd 41 3c 1b 3e 5c 50 44 3e
       -0.1712707 -0.03721565 0.15159704 0.1917128
000330 60 4f f4 bd 5b f4 7c bc 08 55 6a be 28 3c 1f 3e
       -0.11929202 -0.015439118 -0.22884 0.15550292
000340 6e 92 7a be 0b 6d 3d 3e f5 b1 67 be 1d 17 32 be
       -0.24469921 0.18498628 -0.22626479 -0.1739163
000350 2d 2c 50 be 62 52 6c be 51 14 59 be 62 da 86 be
       -0.20329352 -0.23078302 -0.21199156 -0.26338488
000360 1a d0 87 bd d8 9d 23 be d2 49 8e be 14 cc 07 be
       -0.06631489 -0.15978181 -0.27790695 -0.13261443
000370 1d 39 8c 3e 6f 64 8d 3e 0f c1 e5 3d 2c b6 88 bc
       0.27387324 0.27615687 0.11218464 -0.016688429
000380 1a 57 28 3e 73 6c 44 3d 62 c6 7b 3e 3b 26 30 be
       0.16439477 0.047954988 0.24587396 -0.17202084
000390 7a 4c 20 3d 15 c1 80 3e 76 67 e4 3d c2 b5 34 3e
       0.039135434 0.2514731 0.11152546 0.1764746
0003a0 23 71 24 3e cf 43 13 3e 05 09 9b be 2b 49 a5 bd
       0.16058783 0.14381336 -0.3028032 -0.08070596
0003b0 66 05 6f 3e e1 32 bb 3c ea 3f bd 3d a5 b3 bd 3d
       0.23341903 0.02285141 0.09240706 0.0926278
0003c0 cd 5a ec bd 5a ec 4b bc b3 e7 7e 3e 03 9b f5 bd
       -0.115407564 -0.012446487 0.24893074 -0.11992457
0003d0 bb 64 b5 3d c2 5a d5 3d 22 38 73 be 6f ec 50 be
       0.088571034 0.10417701 -0.23751882 -0.20402692
0003e0 1f ca 51 3d ff f6 a7 bd d3 01 5b 3e c4 dc bb bd
       0.05121815 -0.08201408 0.21387415 -0.09172967
0003f0 6b 14 da 3d 25 33 74 be 48 27 7a 3e 5e 1f fd bd
       0.10648426 -0.23847635 0.24429047 -0.123594984

conv1.bias f4 [32]
000000 43 50 73 bc c0 e3 5f 3c 1f 33 f6 3d 0c 7a 53 be
       -0.014850679 0.01366514 0.12021469 -0.20652026
000010 9a 42 e4 bd 5b 1a a6 3c a7 4b 07 be 9e ea 7a 3e
       -0.11145516 0.02027624 -0.13212453 0.24503562
000020 3a fd 82 bd f8 a9 7f be 5f ed 87 3e 1b ab 5d be
       -0.063959554 -0.24967182 0.26548287 -0.21647303
000030 a4 5f 5c be b8 d7 29 be e9 f7 86 be 72 54 51 be
       -0.21520859 -0.16586196 -0.26361015 -0.2044237
000040 35 1e 35 3e b1 75 86 be b9 3f 56 3e 02 e1 53 3e
       0.17687304 -0.26261666 0.20922746 0.20691302
000050 30 e3 6c be 0d b9 28 be f9 90 8b be 16 e6 46 bd
       -0.2313354 -0.16476841 -0.27259043 -0.04855927
000060 5d 15 af be 64 84 8f 3e 0c 7f 5a be 26 1b 75 3e
       -0.34195986 0.28030694 -0.21337527 0.23936138
000070 f1 99 c0 bd 27 02 d7 bd 74 d3 35 be 39 fd 3f 3e
       -0.09404362 -0.104984574 -0.17756444 0.1874894

res_blocks.0.conv.weight f4 [32, 32, 3, 3]
000000 91 0e a8 3d 2c 28 dd 3d 05 59 4e bd 5d e4 38 3e
       0.08205903 0.10798678 -0.050377864 0.18055864
000010 4a 1e d6 bd d0 45 58 3b 28 fe 7c bd f0 0f ab bb
       -0.10454996 0.0033000596 -0.06176582 -0.0052204058
000020 73 28 34 3d ce ea d4 ba 8a ab a3 bc 45 3d 31 3d
       0.043983888 -0.0016244294 -0.019979257 0.04327132
000030 fd 04 49 bd 76 72 e3 3d 38 f5 28 3d b8 38 72 bc
       -0.049077023 0.11105816 0.041249484 -0.014784031
000040 42 2d a4 bd 26 16 a7 3d a2 f7 6f 3c 26 b2 e6 bd
       -0.08016445 0.08158521 0.014646443 -0.11264448
000050 f4 43 0b be a0 a7 31 be 30 4e 79 be 6a da 0e 3d
       -0.13600141 -0.173491 -0.24346232 0.034876265
000060 5f 93 0c be fb 85 e8 bd ae e8 be bb be f9 05 3d
       -0.13728093 -0.1135368 -0.0058260774 0.032708876
000070 37 d9 cc 3d 50 32 d4 bd f4 20 86 bd 56 65 6d bd
       0.10002368 -0.10361159 -0.06549254 -0.05795797
000080 50 ce ab bb 62 97 57 3d 49 51 60 be 68 52 5f bd
       -0.0052431 0.052634604 -0.21906008 -0.054521948
000090 78 b9 22 bc 09 d2 46 3d 2f 0a 2f bd af 93 af 3d
       -0.0099319145 0.04854015 -0.04273432 0.0857309
0000a0 21 19 88 bd f2 08 12 3c ba 1e 95 bd 57 7a de bd
       -0.06645418 0.008913266 -0.07281251 -0.10863178
0000b0 0d 03 1b bd a7 20 b9 bd 76 41 e3 3c 29 24 5e bd
       -0.037844706 -0.09039431 0.027741175 -0.054233704
0000c0 c1 d9 ce bd a2 27 d5 bd 56 20 5d 3d 34 5b 5b bd
       -0.10100127 -0.1040795 0.053985916 -0.053553775
0000d0 9b 5b e2 bd e4 f4 10 3e 5f dc 0d 3b 7f 47 85 3c
       -0.110526286 0.14155918 0.0021646244 0.016269444
0000e0 09 2c 0f bc c8 9d 80 bd 62 27 42 bd df 0f 7f 3d
       -0.008738526 -0.062800944 -0.04740084 0.062270995
0000f0 0a 7e 98 bd 4e 08 f7 bc 90 70 ac bd cf a0 e2 bc
       -0.07445915 -0.030155327 -0.08419907 -0.02766457
000100 31 e3 6d bc a7 e1 15 bc 59 66 17 be 12 00 43 bd
       -0.014519499 -0.009148038 -0.14785136 -0.04760749
000110 a1 7e 56 3d b4 99 4b 3d c3 4f 73 3d 3c e7 69 3d
       0.052366856 0.04970713 0.05940224 0.057105288
000120 d8 1c c4 38 9c 23 54 3d f7 05 63 3d d2 4f 05 be
       9.351381e-05 0.051791772 0.05542561 -0.1301873
000130 7e 6a 8e bd b4 50 3e 3d 1e 2f 90 bd e4 d6 cb ba
       -0.069539055 0.046463683 -0.07040237 -0.0015551713
000140 c0 38 51 3d 44 64 f7 3d aa 4c 5a 3d a4 78 84 3c
       0.05107951 0.12079671 0.05329577 0.016170807
000150 13 53 69 bd 86 e7 9f bc 6d 5f a5 3d f4 3a 14 bd
       -0.05696399 -0.019519579 0.08074842 -0.036189035
000160 2e eb ab bd 61 b6 24 ba 06 6d 9e bd 91 ea 81 3d
       -0.08394466 -0.000628328 -0.07735638 0.06343568
000170 fb 09 e0 bd 38 bd 47 bd 28 5f b1 39 90 24 19 3d
       -0.109394036 -0.048764437 0.00033830968 0.037388384
000180 dc 2a 0d 3e 3a e1 eb bc a3 94 0f be 3e 88 2f bd
       0.13785881 -0.02879392 -0.14021544 -0.04285454
000190 f9 ab 8e 3d 8b 6b e9 bc 68 79 26 3e 6c c8 9e 3c
       0.06966395 -0.028493663 0.1625725 0.019382678
0001a0 56 6c ec bd 10 f3 f9 bd 58 eb 83 3d e1 f7 e6 bc
       -0.11544101 -0.122045636 0.06441373 -0.02819437
0001b0 e2 d1 ea 3d fd 5b 06 3d fd 63 c8 bd 9c 21 6f 3c
       0.11465813 0.03280257 -0.09784696 0.014595415
0001c0 74 fe bb bd 3e bb 67 bd 58 4a bc bd 24 c8 91 3d
       -0.091793925 -0.056575052 -0.091938674 0.07118252
0001d0 c0 b4 79 bd 83 b4 27 3e c1 cc c0 3d 4a f1 b6 3c
       -0.060963392 0.16377454 0.09414054 0.022331852
0001e0 86 ae d8 bd bd 1e 17 3d 3b 58 b6 3d 5a f0 b4 3d
       -0.10580163 0.03689455 0.089035474 0.08834906
0001f0 ba ec b1 bd 7a 34 93 3d 28 d2 c7 3d 4d 53 5e 3d
       -0.0868773 0.071877435 0.09756881 0.05427866
000200 c4 13 a9 3d b8 16 b7 3c f7 c0 79 3c 6c 47 66 bd
       0.08255723 0.0223497 0.01524376 -0.056220457
000210 90 aa be 3d 67 b7 a9 3d b9 45 a7 bd 5d b3 3e bd
       0.09309876 0.08286934 -0.081675954 -0.046557773
000220 1d 13 da 3c 57 fb 1b bd 53 cf eb 3d ad 23 00 bd
       0.026620442 -0.038081493 0.11514153 -0.031284023
000230 da 04 2d 3d f2 83 1e 3c 6a 1a c8 bb 1c 98 47 3d
       0.042240955 0.009675013 -0.0061066644 0.048729047
000240 a3 3a 72 3d c8 5d ee bc 44 3a e8 3d 47 15 ac 3d
       0.05913795 -0.029097453 0.11339238 0.08402496
000250 c9 db b8 3c b4 2b fd 3c 3a 69 a5 3c 9d e9 31 bd
       0.02256574 0.030904628 0.020191777 -0.04343568
000260 c3 ab 26 bd 53 a3 53 be 80 e9 77 bd 01 22 9b 3a
       -0.04069115 -0.20667772 -0.060525417 0.0011835695
000270 a9 4f db bc 20 56 85 bb 64 6d 72 3d 81 7a 27 bd
       -0.026771383 -0.004069105 0.059186354 -0.040888313
000280 43 96 13 3e 4e 9d 42 bc 9b e6 a4 bc cb 10 4a 3d
       0.14412789 -0.011878325 -0.020129493 0.04933242
000290 98 2b df bc ca cb 77 3d 2d e9 ad 3d 00 6f 24 3e
       -0.027242467 0.060497083 0.084917404 0.16057968
0002a0 a2 7b f1 3c ef d1 cd 3c 9f bb 06 bd 6a 3e dd 3c
       0.029477898 0.025124518 -0.032893773 0.0270073
0002b0 e2 ac 11 3d 0b 1d ea bd 49 fa 76 3d 65 9a 3c 3d
       0.035565265 -0.11431321 0.060297284 0.04604568
0002c0 74 98 fd bc 3d c9 50 bd 9c ec ac bc 92 6c 18 bc
       -0.030956484 -0.050973166 -0.021108918 -0.009303229
0002d0 40 a3 b6 bc ca 9f c5 bd ed 3a cd bd e2 8c f8 bd
       -0.02229464 -0.09649618 -0.10021005 -0.12136246
0002e0 29 17 7b ba 48 07 11 be c1 5f 39 bd e4 99 4e bd
       -0.0009578341 -0.14162934 -0.045257334 -0.05043973
0002f0 c5 ba aa bd 18 76 87 3b 9f ca 0e 3d 09 93 32 bd
       -0.08336405 0.004133951 0.034861203 -0.043597255
000300 4f af 00 bd fa ac 14 bd 7b 67 15 bd ac 41 8d 3d
       -0.031417187 -0.036297776 -0.03647564 0.068972915
000310 06 ff e5 3d 26 45 93 bd 34 56 5e ba 1b 8d 16 3d
       0.112302825 -0.071909234 -0.0008481473 0.036755662
000320 a6 10 80 bd 8d 5f 63 3d 72 53 c4 bd 70 d3 cb 3d
       -0.062531754 0.055511046 -0.095862284 0.09952438
000330 d7 db bc 3d 15 64 67 bc 7b cd fd bd a6 e6 97 bc
       0.092216186 -0.0141229825 -0.12392708 -0.018542599
000340 d6 95 f3 bb 77 b2 06 3d c5 a2 0c be f8 8e e7 3c
       -0.0074336333 0.03288504 -0.13733967 0.028266415
000350 c9 e5 20 3d 63 61 2e 3e f9 07 24 3e 17 f6 34 3c
       0.03928164 0.17029338 0.16018666 0.0110450005
000360 a0 19 1b 3e be 0d 16 3d f2 c6 71 bd 61 b3 94 bd
       0.15146494 0.0366342 -0.05902762 -0.07260776
000370 0c f1 2c 3e 27 30 db 3d c5 f5 47 3e 19 33 08 be
       0.16888827 0.10702544 0.19527347 -0.13300742
000380 6b ad ce bd 07 bf 93 3c f1 b4 08 3c c7 8f 29 bd
       -0.100916706 0.018035425 0.008343921 -0.041396882
000390 d5 3e dd 3c 89 65 c1 bd 8e eb 43 bd 3f 67 a4 bd
       0.0270075 -0.094431944 -0.047832064 -0.08027505
0003a0 1f b5 1b bd e7 ec 5e 3d 9d 4d 0a bb 0b f1 3a 3d
       -0.038014527 0.054425146 -0.002110339 0.045640033
0003b0 ac 8b 2a bc 67 68 ff 3d 9e 87 00 bc fe 6d cd bc
       -0.010409277 0.12471085 -0.007844834 -0.025076862
0003c0 db e4 9d 3e c4 c0 6b 3d bc 2b 9c 3d 5b 78 04 be
       0.30838665 0.057556883 0.07625529 -0.12936537
0003d0 0c 2d 7e 3d c2 e4 12 3e 12 75 16 3d 8f b8 82 bc
       0.06205468 0.14345077 0.03673274 -0.015957145
0003e0 9f aa a6 bd 12 94 76 3e 10 9b 6b bd 64 02 91 3d
       -0.08138012 0.24079922 -0.057520926 0.07080534
0003f0 a1 40 dc bc bb f9 73 3d 4f d8 2e be 93 a7 4d be
       -0.026886286 0.059564333 -0.17074703 -0.20083456

res_blocks.0.batch_norm.weight f4 [32]
000000 5e 27 23 3f c3 0a 1c 3f c9 60 2a 3f 7b df 11 3f
       0.63731945 0.6095392 0.6655393 0.5698163
000010 6b 55 11 3f 67 de 2e 3f 52 4a 22 3f ce e7 3c 3f
       0.5677096 0.6830811 0.63394654 0.73791206
000020 e8 74 23 3f d8 dc 38 3f 0b 2b 2b 3f b3 a2 0d 3f
       0.6385026 0.7221198 0.66862553 0.55326384
000030 ed 55 14 3f 1d ea 3b 3f 2d cf 38 3f 65 56 3a 3f
       0.5794361 0.73404104 0.72191125 0.7278808
000040 be 93 31 3f 9c 73 21 3f 26 02 3c 3f 51 59 23 3f
       0.6936606 0.6306703 0.7344078 0.6380816
000050 d1 4e 15 3f 06 7c 1c 3f 2c 06 3d 3f eb 17 38 3f
       0.5832339 0.61126745 0.7383754 0.71911496
000060 32 91 36 3f 68 03 2d 3f 13 8a 38 3f 22 15 01 3f
       0.713153 0.6758332 0.72085685 0.5042287
000070 95 ef 08 3f dd 3f 3f 3f 2d ab 38 3f c3 6a 28 3f
       0.53490573 0.7470682 0.72136194 0.65787905

res_blocks.0.batch_norm.bias f4 [32]
000000 4f 47 43 bd bb 24 8d 3b cd 37 07 3d 11 0f 22 3b
       -0.047675427 0.004307357 0.0330122 0.0024728219
000010 a3 b6 8a 3c 88 26 be bc 66 80 a1 bc 72 24 2c 3d
       0.016932791 -0.023211733 -0.019714545 0.042026944
000020 e6 72 db 3c 18 0c 10 3d 21 42 40 3c 7f c0 47 bc
       0.026788186 0.035167783 0.011734516 -0.012191891
000030 eb eb b3 3a 3c bc 7c 3d 7c 98 0b 3c a5 d0 f2 3c
       0.0013726925 0.06170295 0.008520242 0.029640505
000040 c1 a5 45 3d e8 fb 74 3c ca c5 99 3d d2 6c b0 3c
       0.04825378 0.014952637 0.075084284 0.021536265
000050 9a ac 07 3c 37 e1 61 3c fc a1 83 3d a6 12 33 3d
       0.0082808975 0.013786606 0.064273804 0.043718956
000060 ba 62 86 3b 98 91 d3 3b 8e 3a c1 3c 50 c1 41 bd
       0.0041011246 0.006456565 0.023587491 -0.047303498
000070 1c aa 99 bc 19 1f f8 3c f8 a8 a7 3c 46 89 bc 3d
       -0.018757872 0.030288266 0.020466313 0.0920587

res_blocks.0.batch_norm.running_mean f4 [32]
000000 28 7c 36 be 73 02 8f bf 92 7a f1 be 5d e1 56 bf
       -0.178208 -1.1172622 -0.47163826 -0.8393763
000010 2d ee 5f be a7 a3 ad bf 66 33 93 bf 02 a6 72 bd
       -0.218682 -1.3565568 -1.150006 -0.05924035
000020 40 44 87 3f b5 38 a3 3f 81 70 5e bf 95 4a 14 c0
       1.0567703 1.2751681 -0.8689042 -2.3170521
000030 d9 d7 b3 bf 31 40 7c 3e 6e 94 c3 3e 2d 70 d7 3f
       -1.4050246 0.24633862 0.3819918 1.6831108
000040 9a 60 5b 3f 11 bd f8 3f 99 ca ba 3e 11 50 05 c0
       0.8569428 1.9432698 0.36482695 -2.0830119
000050 17 91 e7 bf cc 45 b5 3f b7 c5 8c 3f 5d 21 21 bf
       -1.8091153 1.4161925 1.0997838 -0.62941533
000060 e5 f0 aa 3f c6 82 9b bf 8e 4e 8c 3e 2d a2 63 c0
       1.3354765 -1.2149284 0.27403682 -3.5567734
000070 16 3a ae 40 14 3e 50 bf 4d 8a b5 3f 09 a9 4f 3f
       5.4445906 -0.81344724 1.4182831 0.811173

res_blocks.0.batch_norm.running_var f4 [32]
000000 6f 83 07 41 1a f7 3c 41 a5 92 62 41 38 f4 37 41
       8.469588 11.810328 14.160802 11.497124
000010 39 5c 29 41 02 2d 28 41 49 8b 2b 41 c8 c1 c1 40
       10.585015 10.510988 10.721505 6.054905
000020 5a 88 4a 41 6a 50 0c 41 8a de 23 41 1c 0e 48 41
       12.658289 8.769632 10.241831 12.503445
000030 3c 61 b5 41 82 d0 f0 40 41 76 83 41 6f d7 50 41
       22.672478 7.5254526 16.432741 13.052596
000040 63 e1 70 41 ad 6b 1c 41 41 ac 19 41 b9 98 73 41
       15.055026 9.776288 9.604554 15.224786
000050 e9 80 34 41 4a ba 16 41 1b 7d 57 41 90 b3 f4 40
       11.281472 9.420481 13.468043 7.6469193
000060 92 9e 18 41 5e 7c 43 41 a6 81 31 41 c7 a4 f8 41
       9.538713 12.217863 11.094152 31.080458
000070 76 6e 18 42 b0 fe c4 40 b2 d5 49 41 78 5b 04 41
       38.107872 6.15609 12.614672 8.272331

res_blocks.1.conv.weight f4 [32, 32, 3, 3]
000000 91 0e a8 3d 2c 28 dd 3d 05 59 4e bd 5d e4 38 3e
       0.08205903 0.10798678 -0.050377864 0.18055864
000010 4a 1e d6 bd d0 45 58 3b 28 fe 7c bd f0 0f ab bb
       -0.10454996 0.0033000596 -0.06176582 -0.0052204058
000020 73 28 34 3d ce ea d4 ba 8a ab a3 bc 45 3d 31 3d
       0.043983888 -0.0016244294 -0.019979257 0.04327132
000030 fd 04 49 bd 76 72 e3 3d 38 f5 28 3d b8 38 72 bc
       -0.049077023 0.11105816 0.041249484 -0.014784031
000040 42 2d a4 bd 26 16 a7 3d a2 f7 6f 3c 26 b2 e6 bd
       -0.08016445 0.08158521 0.014646443 -0.11264448
000050 f4 43 0b be a0 a7 31 be 30 4e 79 be 6a da 0e 3d
       -0.13600141 -0.173491 -0.24346232 0.034876265
000060 5f 93 0c be fb 85 e8 bd ae e8 be bb be f9 05 3d
       -0.13728093 -0.1135368 -0.0058260774 0.032708876
000070 37 d9 cc 3d 50 32 d4 bd f4 20 86 bd 56 65 6d bd
       0.10002368 -0.10361159 -0.06549254 -0.05795797
000080 50 ce ab bb 62 97 57 3d 49 51 60 be 68 52 5f bd
       -0.0052431 0.052634604 -0.21906008 -0.054521948
000090 78 b9 22 bc 09 d2 46 3d 2f 0a 2f bd af 93 af 3d
       -0.0099319145 0.04854015 -0.04273432 0.0857309
0000a0 21 19 88 bd f2 08 12 3c ba 1e 95 bd 57 7a de bd
       -0.06645418 0.008913266 -0.07281251 -0.10863178
0000b0 0d 03 1b bd a7 20 b9 bd 76 41 e3 3c 29 24 5e bd
       -0.037844706 -0.09039431 0.027741175 -0.054233704
0000c0 c1 d9 ce bd a2 27 d5 bd 56 20 5d 3d 34 5b 5b bd
       -0.10100127 -0.1040795 0.053985916 -0.053553775
0000d0 9b 5b e2 bd e4 f4 10 3e 5f dc 0d 3b 7f 47 85 3c
       -0.110526286 0.14155918 0.0021646244 0.016269444
0000e0 09 2c 0f bc c8 9d 80 bd 62 27 42 bd df 0f 7f 3d
       -0.008738526 -0.062800944 -0.04740084 0.062270995
0000f0 0a 7e 98 bd 4e 08 f7 bc 90 70 ac bd cf a0 e2 bc
       -0.07445915 -0.030155327 -0.08419907 -0.02766457
000100 31 e3 6d bc a7 e1 15 bc 59 66 17 be 12 00 43 bd
       -0.014519499 -0.009148038 -0.14785136 -0.04760749
000110 a1 7e 56 3d b4 99 4b 3d c3 4f 73 3d 3c e7 69 3d
       0.052366856 0.04970713 0.05940224 0.057105288
000120 d8 1c c4 38 9c 23 54 3d f7 05 63 3d d2 4f 05 be
       9.351381e-05 0.051791772 0.05542561 -0.1301873
000130 7e 6a 8e bd b4 50 3e 3d 1e 2f 90 bd e4 d6 cb ba
       -0.069539055 0.046463683 -0.07040237 -0.0015551713
000140 c0 38 51 3d 44 64 f7 3d aa 4c 5a 3d a4 78 84 3c
       0.05107951 0.12079671 0.05329577 0.016170807
000150 13 53 69 bd 86 e7 9f bc 6d 5f a5 3d f4 3a 14 bd
       -0.05696399 -0.019519579 0.08074842 -0.036189035
000160 2e eb ab bd 61 b6 24 ba 06 6d 9e bd 91 ea 81 3d
       -0.08394466 -0.000628328 -0.07735638 0.06343568
000170 fb 09 e0 bd 38 bd 47 bd 28 5f b1 39 90 24 19 3d
       -0.109394036 -0.048764437 0.00033830968 0.037388384
000180 dc 2a 0d 3e 3a e1 eb bc a3 94 0f be 3e 88 2f bd
       0.13785881 -0.02879392 -0.14021544 -0.04285454
000190 f9 ab 8e 3d 8b 6b e9 bc 68 79 26 3e 6c c8 9e 3c
       0.06966395 -0.028493663 0.1625725 0.019382678
0001a0 56 6c ec bd 10 f3 f9 bd 58 eb 83 3d e1 f7 e6 bc
       -0.11544101 -0.122045636 0.06441373 -0.02819437
0001b0 e2 d1 ea 3d fd 5b 06 3d fd 63 c8 bd 9c 21 6f 3c
       0.11465813 0.03280257 -0.09784696 0.014595415
0001c0 74 fe bb bd 3e bb 67 bd 58 4a bc bd 24 c8 91 3d
       -0.091793925 -0.056575052 -0.091938674 0.07118252
0001d0 c0 b4 79 bd 83 b4 27 3e c1 cc c0 3d 4a f1 b6 3c
       -0.060963392 0.16377454 0.09414054 0.022331852
0001e0 86 ae d8 bd bd 1e 17 3d 3b 58 b6 3d 5a f0 b4 3d
       -0.10580163 0.03689455 0.089035474 0.08834906
0001f0 ba ec b1 bd 7a 34 93 3d 28 d2 c7 3d 4d 53 5e 3d
       -0.0868773 0.071877435 0.09756881 0.05427866
000200 c4 13 a9 3d b8 16 b7 3c f7 c0 79 3c 6c 47 66 bd
       0.08255723 0.0223497 0.01524376 -0.056220457
000210 90 aa be 3d 67 b7 a9 3d b9 45 a7 bd 5d b3 3e bd
       0.09309876 0.08286934 -0.081675954 -0.046557773
000220 1d 13 da 3c 57 fb 1b bd 53 cf eb 3d ad 23 00 bd
       0.026620442 -0.038081493 0.11514153 -0.031284023
000230 da 04 2d 3d f2 83 1e 3c 6a 1a c8 bb 1c 98 47 3d
       0.042240955 0.009675013 -0.0061066644 0.048729047
000240 a3 3a 72 3d c8 5d ee bc 44 3a e8 3d 47 15 ac 3d
       0.05913795 -0.029097453 0.11339238 0.08402496
000250 c9 db b8 3c b4 2b fd 3c 3a 69 a5 3c 9d e9 31 bd
       0.02256574 0.030904628 0.020191777 -0.04343568
000260 c3 ab 26 bd 53 a3 53 be 80 e9 77 bd 01 22 9b 3a
       -0.04069115 -0.20667772 -0.060525417 0.0011835695
000270 a9 4f db bc 20 56 85 bb 64 6d 72 3d 81 7a 27 bd
       -0.026771383 -0.004069105 0.059186354 -0.040888313
000280 43 96 13 3e 4e 9d 42 bc 9b e6 a4 bc cb 10 4a 3d
       0.14412789 -0.011878325 -0.020129493 0.04933242
000290 98 2b df bc ca cb 77 3d 2d e9 ad 3d 00 6f 24 3e
       -0.027242467 0.060497083 0.084917404 0.16057968
0002a0 a2 7b f1 3c ef d1 cd 3c 9f bb 06 bd 6a 3e dd 3c
       0.029477898 0.025124518 -0.032893773 0.0270073
0002b0 e2 ac 11 3d 0b 1d ea bd 49 fa 76 3d 65 9a 3c 3d
       0.035565265 -0.11431321 0.060297284 0.04604568
0002c0 74 98 fd bc 3d c9 50 bd 9c ec ac bc 92 6c 18 bc
       -0.030956484 -0.050973166 -0.021108918 -0.009303229
0002d0 40 a3 b6 bc ca 9f c5 bd ed 3a cd bd e2 8c f8 bd
       -0.02229464 -0.09649618 -0.10021005 -0.12136246
0002e0 29 17 7b ba 48 07 11 be c1 5f 39 bd e4 99 4e bd
       -0.0009578341 -0.14162934 -0.045257334 -0.05043973
0002f0 c5 ba aa bd 18 76 87 3b 9f ca 0e 3d 09 93 32 bd
       -0.08336405 0.004133951 0.034861203 -0.043597255
000300 4f af 00 bd fa ac 14 bd 7b 67 15 bd ac 41 8d 3d
       -0.031417187 -0.036297776 -0.03647564 0.068972915
000310 06 ff e5 3d 26 45 93 bd 34 56 5e ba 1b 8d 16 3d
       0.112302825 -0.071909234 -0.0008481473 0.036755662
000320 a6 10 80 bd 8d 5f 63 3d 72 53 c4 bd 70 d3 cb 3d
       -0.062531754 0.055511046 -0.095862284 0.09952438
000330 d7 db bc 3d 15 64 67 bc 7b cd fd bd a6 e6 97 bc
       0.092216186 -0.0141229825 -0.12392708 -0.018542599
000340 d6 95 f3 bb 77 b2 06 3d c5 a2 0c be f8 8e e7 3c
       -0.0074336333 0.03288504 -0.13733967 0.028266415
000350 c9 e5 20 3d 63 61 2e 3e f9 07 24 3e 17 f6 34 3c
       0.03928164 0.17029338 0.16018666 0.0110450005
000360 a0 19 1b 3e be 0d 16 3d f2 c6 71 bd 61 b3 94 bd
       0.15146494 0.0366342 -0.05902762 -0.07260776
000370 0c f1 2c 3e 27 30 db 3d c5 f5 47 3e 19 33 08 be
       0.16888827 0.10702544 0.19527347 -0.13300742
000380 6b ad ce bd 07 bf 93 3c f1 b4 08 3c c7 8f 29 bd
       -0.100916706 0.018035425 0.008343921 -0.041396882
000390 d5 3e dd 3c 89 65 c1 bd 8e eb 43 bd 3f 67 a4 bd
       0.0270075 -0.094431944 -0.047832064 -0.08027505
0003a0 1f b5 1b bd e7 ec 5e 3d 9d 4d 0a bb 0b f1 3a 3d
       -0.038014527 0.054425146 -0.002110339 0.045640033
0003b0 ac 8b 2a bc 67 68 ff 3d 9e 87 00 bc fe 6d cd bc
       -0.010409277 0.12471085 -0.007844834 -0.025076862
0003c0 db e4 9d 3e c4 c0 6b 3d bc 2b 9c 3d 5b 78 04 be
       0.30838665 0.057556883 0.07625529 -0.12936537
0003d0 0c 2d 7e 3d c2 e4 12 3e 12 75 16 3d 8f b8 82 bc
       0.06205468 0.14345077 0.03673274 -0.015957145
0003e0 9f aa a6 bd 12 94 76 3e 10 9b 6b bd 64 02 91 3d
       -0.08138012 0.24079922 -0.057520926 0.07080534
0003f0 a1 40 dc bc bb f9 73 3d 4f d8 2e be 93 a7 4d be
       -0.026886286 0.059564333 -0.17074703 -0.20083456

res_blocks.1.batch_norm.weight f4 [32]
000000 5e 27 23 3f c3 0a 1c 3f c9 60 2a 3f 7b df 11 3f
       0.63731945 0.6095392 0.6655393 0.5698163
000010 6b 55 11 3f 67 de 2e 3f 52 4a 22 3f ce e7 3c 3f
       0.5677096 0.6830811 0.63394654 0.73791206
000020 e8 74 23 3f d8 dc 38 3f 0b 2b 2b 3f b3 a2 0d 3f
       0.6385026 0.7221198 0.66862553 0.55326384
000030 ed 55 14 3f 1d ea 3b 3f 2d cf 38 3f 65 56 3a 3f
       0.5794361 0.73404104 0.72191125 0.7278808
000040 be 93 31 3f 9c 73 21 3f 26 02 3c 3f 51 59 23 3f
       0.6936606 0.6306703 0.7344078 0.6380816
000050 d1 4e 15 3f 06 7c 1c 3f 2c 06 3d 3f eb 17 38 3f
       0.5832339 0.61126745 0.7383754 0.71911496
000060 32 91 36 3f 68 03 2d 3f 13 8a 38 3f 22 15 01 3f
       0.713153 0.6758332 0.72085685 0.5042287
000070 95 ef 08 3f dd 3f 3f 3f 2d ab 38 3f c3 6a 28 3f
       0.53490573 0.7470682 0.72136194 0.65787905

res_blocks.1.batch_norm.bias f4 [32]
000000 4f 47 43 bd bb 24 8d 3b cd 37 07 3d 11 0f 22 3b
       -0.047675427 0.004307357 0.0330122 0.0024728219
000010 a3 b6 8a 3c 88 26 be bc 66 80 a1 bc 72 24 2c 3d
       0.016932791 -0.023211733 -0.019714545 0.042026944
000020 e6 72 db 3c 18 0c 10 3d 21 42 40 3c 7f c0 47 bc
       0.026788186 0.035167783 0.011734516 -0.012191891
000030 eb eb b3 3a 3c bc 7c 3d 7c 98 0b 3c a5 d0 f2 3c
       0.0013726925 0.06170295 0.008520242 0.029640505
000040 c1 a5 45 3d e8 fb 74 3c ca c5 99 3d d2 6c b0 3c
       0.04825378 0.014952637 0.075084284 0.021536265
000050 9a ac 07 3c 37 e1 61 3c fc a1 83 3d a6 12 33 3d
       0.0082808975 0.013786606 0.064273804 0.043718956
000060 ba 62 86 3b 98 91 d3 3b 8e 3a c1 3c 50 c1 41 bd
       0.0041011246 0.006456565 0.023587491 -0.047303498
000070 1c aa 99 bc 19 1f f8 3c f8 a8 a7 3c 46 89 bc 3d
       -0.018757872 0.030288266 0.020466313 0.0920587

res_blocks.1.batch_norm.running_mean f4 [32]
000000 28 7c 36 be 73 02 8f bf 92 7a f1 be 5d e1 56 bf
       -0.178208 -1.1172622 -0.47163826 -0.8393763
000010 2d ee 5f be a7 a3 ad bf 66 33 93 bf 02 a6 72 bd
       -0.218682 -1.3565568 -1.150006 -0.05924035
000020 40 44 87 3f b5 38 a3 3f 81 70 5e bf 95 4a 14 c0
       1.0567703 1.2751681 -0.8689042 -2.3170521
000030 d9 d7 b3 bf 31 40 7c 3e 6e 94 c3 3e 2d 70 d7 3f
       -1.4050246 0.24633862 0.3819918 1.6831108
000040 9a 60 5b 3f 11 bd f8 3f 99 ca ba 3e 11 50 05 c0
       0.8569428 1.9432698 0.36482695 -2.0830119
000050 17 91 e7 bf cc 45 b5 3f b7 c5 8c 3f 5d 21 21 bf
       -1.8091153 1.4161925 1.0997838 -0.62941533
000060 e5 f0 aa 3f c6 82 9b bf 8e 4e 8c 3e 2d a2 63 c0
       1.3354765 -1.2149284 0.27403682 -3.5567734
000070 16 3a ae 40 14 3e 50 bf 4d 8a b5 3f 09 a9 4f 3f
       5.4445906 -0.81344724 1.4182831 0.811173

res_blocks.1.batch_norm.running_var f4 [32]
000000 6f 83 07 41 1a f7 3c 41 a5 92 62 41 38 f4 37 41
       8.469588 11.810328 14.160802 11.497124
000010 39 5c 29 41 02 2d 28 41 49 8b 2b 41 c8 c1 c1 40
       10.585015 10.510988 10.721505 6.054905
000020 5a 88 4a 41 6a 50 0c 41 8a de 23 41 1c 0e 48 41
       12.658289 8.769632 10.241831 12.503445
000030 3c 61 b5 41 82 d0 f0 40 41 76 83 41 6f d7 50 41
       22.672478 7.5254526 16.432741 13.052596
000040 63 e1 70 41 ad 6b 1c 41 41 ac 19 41 b9 98 73 41
       15.055026 9.776288 9.604554 15.224786
000050 e9 80 34 41 4a ba 16 41 1b 7d 57 41 90 b3 f4 40
       11.281472 9.420481 13.468043 7.6469193
000060 92 9e 18 41 5e 7c 43 41 a6 81 31 41 c7 a4 f8 41
       9.538713 12.217863 11.094152 31.080458
000070 76 6e 18 42 b0 fe c4 40 b2 d5 49 41 78 5b 04 41
       38.107872 6.15609 12.614672 8.272331

res_blocks.2.conv.weight f4 [32, 32, 3, 3]
000000 91 0e a8 3d 2c 28 dd 3d 05 59 4e bd 5d e4 38 3e
       0.08205903 0.10798678 -0.050377864 0.18055864
000010 4a 1e d6 bd d0 45 58 3b 28 fe 7c bd f0 0f ab bb
       -0.10454996 0.0033000596 -0.06176582 -0.0052204058
000020 73 28 34 3d ce ea d4 ba 8a ab a3 bc 45 3d 31 3d
       0.043983888 -0.0016244294 -0.019979257 0.04327132
000030 fd 04 49 bd 76 72 e3 3d 38 f5 28 3d b8 38 72 bc
       -0.049077023 0.11105816 0.041249484 -0.014784031
000040 42 2d a4 bd 26 16 a7 3d a2 f7 6f 3c 26 b2 e6 bd
       -0.08016445 0.08158521 0.014646443 -0.11264448
000050 f4 43 0b be a0 a7 31 be 30 4e 79 be 6a da 0e 3d
       -0.13600141 -0.173491 -0.24346232 0.034876265
000060 5f 93 0c be fb 85 e8 bd ae e8 be bb be f9 05 3d
       -0.13728093 -0.1135368 -0.0058260774 0.032708876
000070 37 d9 cc 3d 50 32 d4 bd f4 20 86 bd 56 65 6d bd
       0.10002368 -0.10361159 -0.06549254 -0.05795797
000080 50 ce ab bb 62 97 57 3d 49 51 60 be 68 52 5f bd
       -0.0052431 0.052634604 -0.21906008 -0.054521948
000090 78 b9 22 bc 09 d2 46 3d 2f 0a 2f bd af 93 af 3d
       -0.0099319145 0.04854015 -0.04273432 0.0857309
0000a0 21 19 88 bd f2 08 12 3c ba 1e 95 bd 57 7a de bd
       -0.06645418 0.008913266 -0.07281251 -0.10863178
0000b0 0d 03 1b bd a7 20 b9 bd 76 41 e3 3c 29 24 5e bd
       -0.037844706 -0.09039431 0.027741175 -0.054233704
0000c0 c1 d9 ce bd a2 27 d5 bd 56 20 5d 3d 34 5b 5b bd
       -0.10100127 -0.1040795 0.053985916 -0.053553775
0000d0 9b 5b e2 bd e4 f4 10 3e 5f dc 0d 3b 7f 47 85 3c
       -0.110526286 0.14155918 0.0021646244 0.016269444
0000e0 09 2c 0f bc c8 9d 80 bd 62 27 42 bd df 0f 7f 3d
       -0.008738526 -0.062800944 -0.04740084 0.062270995
0000f0 0a 7e 98 bd 4e 08 f7 bc 90 70 ac bd cf a0 e2 bc
       -0.07445915 -0.030155327 -0.08419907 -0.02766457
000100 31 e3 6d bc a7 e1 15 bc 59 66 17 be 12 00 43 bd
       -0.014519499 -0.009148038 -0.14785136 -0.04760749
000110 a1 7e 56 3d b4 99 4b 3d c3 4f 73 3d 3c e7 69 3d
       0.052366856 0.04970713 0.05940224 0.057105288
000120 d8 1c c4 38 9c 23 54 3d f7 05 63 3d d2 4f 05 be
       9.351381e-05 0.051791772 0.05542561 -0.1301873
000130 7e 6a 8e bd b4 50 3e 3d 1e 2f 90 bd e4 d6 cb ba
       -0.069539055 0.046463683 -0.07040237 -0.0015551713
000140 c0 38 51 3d 44 64 f7 3d aa 4c 5a 3d a4 78 84 3c
       0.05107951 0.12079671 0.05329577 0.016170807
000150 13 53 69 bd 86 e7 9f bc 6d 5f a5 3d f4 3a 14 bd
       -0.05696399 -0.019519579 0.08074842 -0.036189035
000160 2e eb ab bd 61 b6 24 ba 06 6d 9e bd 91 ea 81 3d
       -0.08394466 -0.000628328 -0.07735638 0.06343568
000170 fb 09 e0 bd 38 bd 47 bd 28 5f b1 39 90 24 19 3d
       -0.109394036 -0.048764437 0.00033830968 0.037388384
000180 dc 2a 0d 3e 3a e1 eb bc a3 94 0f be 3e 88 2f bd
       0.13785881 -0.02879392 -0.14021544 -0.04285454
000190 f9 ab 8e 3d 8b 6b e9 bc 68 79 26 3e 6c c8 9e 3c
       0.06966395 -0.028493663 0.1625725 0.019382678
0001a0 56 6c ec bd 10 f3 f9 bd 58 eb 83 3d e1 f7 e6 bc
       -0.11544101 -0.122045636 0.06441373 -0.02819437
0001b0 e2 d1 ea 3d fd 5b 06 3d fd 63 c8 bd 9c 21 6f 3c
       0.11465813 0.03280257 -0.09784696 0.014595415
0001c0 74 fe bb bd 3e bb 67 bd 58 4a bc bd 24 c8 91 3d
       -0.091793925 -0.056575052 -0.091938674 0.07118252
0001d0 c0 b4 79 bd 83 b4 27 3e c1 cc c0 3d 4a f1 b6 3c
       -0.060963392 0.16377454 0.09414054 0.022331852
0001e0 86 ae d8 bd bd 1e 17 3d 3b 58 b6 3d 5a f0 b4 3d
       -0.10580163 0.03689455 0.089035474 0.08834906
0001f0 ba ec b1 bd 7a 34 93 3d 28 d2 c7 3d 4d 53 5e 3d
       -0.0868773 0.071877435 0.09756881 0.05427866
000200 c4 13 a9 3d b8 16 b7 3c f7 c0 79 3c 6c 47 66 bd
       0.08255723 0.0223497 0.01524376 -0.056220457
000210 90 aa be 3d 67 b7 a9 3d b9 45 a7 bd 5d b3 3e bd
       0.09309876 0.08286934 -0.081675954 -0.046557773
000220 1d 13 da 3c 57 fb 1b bd 53 cf eb 3d ad 23 00 bd
       0.026620442 -0.038081493 0.11514153 -0.031284023
000230 da 04 2d 3d f2 83 1e 3c 6a 1a c8 bb 1c 98 47 3d
       0.042240955 0.009675013 -0.0061066644 0.048729047
000240 a3 3a 72 3d c8 5d ee bc 44 3a e8 3d 47 15 ac 3d
       0.05913795 -0.029097453 0.11339238 0.08402496
000250 c9 db b8 3c b4 2b fd 3c 3a 69 a5 3c 9d e9 31 bd
       0.02256574 0.030904628 0.020191777 -0.04343568
000260 c3 ab 26 bd 53 a3 53 be 80 e9 77 bd 01 22 9b 3a
       -0.04069115 -0.20667772 -0.060525417 0.0011835695
000270 a9 4f db bc 20 56 85 bb 64 6d 72 3d 81 7a 27 bd
       -0.026771383 -0.004069105 0.059186354 -0.040888313
000280 43 96 13 3e 4e 9d 42 bc 9b e6 a4 bc cb 10 4a 3d
       0.14412789 -0.011878325 -0.020129493 0.04933242
000290 98 2b df bc ca cb 77 3d 2d e9 ad 3d 00 6f 24 3e
       -0.027242467 0.060497083 0.084917404 0.16057968
0002a0 a2 7b f1 3c ef d1 cd 3c 9f bb 06 bd 6a 3e dd 3c
       0.029477898 0.025124518 -0.032893773 0.0270073
0002b0 e2 ac 11 3d 0b 1d ea bd 49 fa 76 3d 65 9a 3c 3d
       0.035565265 -0.11431321 0.060297284 0.04604568
0002c0 74 98 fd bc 3d c9 50 bd 9c ec ac bc 92 6c 18 bc
       -0.030956484 -0.050973166 -0.021108918 -0.009303229
0002d0 40 a3 b6 bc ca 9f c5 bd ed 3a cd bd e2 8c f8 bd
       -0.02229464 -0.09649618 -0.10021005 -0.12136246
0002e0 29 17 7b ba 48 07 11 be c1 5f 39 bd e4 99 4e bd
       -0.0009578341 -0.14162934 -0.045257334 -0.05043973
0002f0 c5 ba aa bd 18 76 87 3b 9f ca 0e 3d 09 93 32 bd
       -0.08336405 0.004133951 0.034861203 -0.043597255
000300 4f af 00 bd fa ac 14 bd 7b 67 15 bd ac 41 8d 3d
       -0.031417187 -0.036297776 -0.03647564 0.068972915
000310 06 ff e5 3d 26 45 93 bd 34 56 5e ba 1b 8d 16 3d
       0.112302825 -0.071909234 -0.0008481473 0.036755662
000320 a6 10 80 bd 8d 5f 63 3d 72 53 c4 bd 70 d3 cb 3d
       -0.062531754 0.055511046 -0.095862284 0.09952438
000330 d7 db bc 3d 15 64 67 bc 7b cd fd bd a6 e6 97 bc
       0.092216186 -0.0141229825 -0.12392708 -0.018542599
000340 d6 95 f3 bb 77 b2 06 3d c5 a2 0c be f8 8e e7 3c
       -0.0074336333 0.03288504 -0.13733967 0.028266415
000350 c9 e5 20 3d 63 61 2e 3e f9 07 24 3e 17 f6 34 3c
       0.03928164 0.17029338 0.16018666 0.0110450005
000360 a0 19 1b 3e be 0d 16 3d f2 c6 71 bd 61 b3 94 bd
       0.15146494 0.0366342 -0.05902762 -0.07260776
000370 0c f1 2c 3e 27 30 db 3d c5 f5 47 3e 19 33 08 be
       0.16888827 0.10702544 0.19527347 -0.13300742
000380 6b ad ce bd 07 bf 93 3c f1 b4 08 3c c7 8f 29 bd
       -0.100916706 0.018035425 0.008343921 -0.041396882
000390 d5 3e dd 3c 89 65 c1 bd 8e eb 43 bd 3f 67 a4 bd
       0.0270075 -0.094431944 -0.047832064 -0.08027505
0003a0 1f b5 1b bd e7 ec 5e 3d 9d 4d 0a bb 0b f1 3a 3d
       -0.038014527 0.054425146 -0.002110339 0.045640033
0003b0 ac 8b 2a bc 67 68 ff 3d 9e 87 00 bc fe 6d cd bc
       -0.010409277 0.12471085 -0.007844834 -0.025076862
0003c0 db e4 9d 3e c4 c0 6b 3d bc 2b 9c 3d 5b 78 04 be
       0.30838665 0.057556883 0.07625529 -0.12936537
0003d0 0c 2d 7e 3d c2 e4 12 3e 12 75 16 3d 8f b8 82 bc
       0.06205468 0.14345077 0.03673274 -0.015957145
0003e0 9f aa a6 bd 12 94 76 3e 10 9b 6b bd 64 02 91 3d
       -0.08138012 0.24079922 -0.057520926 0.07080534
0003f0 a1 40 dc bc bb f9 73 3d 4f d8 2e be 93 a7 4d be
       -0.026886286 0.059564333 -0.17074703 -0.20083456

res_blocks.2.batch_norm.weight f4 [32]
000000 5e 27 23 3f c3 0a 1c 3f c9 60 2a 3f 7b df 11 3f
       0.63731945 0.6095392 0.6655393 0.5698163
000010 6b 55 11 3f 67 de 2e 3f 52 4a 22 3f ce e7 3c 3f
       0.5677096 0.6830811 0.63394654 0.73791206
000020 e8 74 23 3f d8 dc 38 3f 0b 2b 2b 3f b3 a2 0d 3f
       0.6385026 0.7221198 0.66862553 0.55326384
000030 ed 55 14 3f 1d ea 3b 3f 2d cf 38 3f 65 56 3a 3f
       0.5794361 0.73404104 0.72191125 0.7278808
000040 be 93 31 3f 9c 73 21 3f 26 02 3c 3f 51 59 23 3f
       0.6936606 0.6306703 0.7344078 0.6380816
000050 d1 4e 15 3f 06 7c 1c 3f 2c 06 3d 3f eb 17 38 3f
       0.5832339 0.61126745 0.7383754 0.71911496
000060 32 91 36 3f 68 03 2d 3f 13 8a 38 3f 22 15 01 3f
       0.713153 0.6758332 0.72085685 0.5042287
000070 95 ef 08 3f dd 3f 3f 3f 2d ab 38 3f c3 6a 28 3f
       0.53490573 0.7470682 0.72136194 0.65787905

res_blocks.2.batch_norm.bias f4 [32]
000000 4f 47 43 bd bb 24 8d 3b cd 37 07 3d 11 0f 22 3b
       -0.047675427 0.004307357 0.0330122 0.0024728219
000010 a3 b6 8a 3c 88 26 be bc 66 80 a1 bc 72 24 2c 3d
       0.016932791 -0.023211733 -0.019714545 0.042026944
000020 e6 72 db 3c 18 0c 10 3d 21 42 40 3c 7f c0 47 bc
       0.026788186 0.035167783 0.011734516 -0.012191891
000030 eb eb b3 3a 3c bc 7c 3d 7c 98 0b 3c a5 d0 f2 3c
       0.0013726925 0.06170295 0.008520242 0.029640505
000040 c1 a5 45 3d e8 fb 74 3c ca c5 99 3d d2 6c b0 3c
       0.04825378 0.014952637 0.075084284 0.021536265
000050 9a ac 07 3c 37 e1 61 3c fc a1 83 3d a6 12 33 3d
       0.0082808975 0.013786606 0.064273804 0.043718956
000060 ba 62 86 3b 98 91 d3 3b 8e 3a c1 3c 50 c1 41 bd
       0.0041011246 0.006456565 0.023587491 -0.047303498
000070 1c aa 99 bc 19 1f f8 3c f8 a8 a7 3c 46 89 bc 3d
       -0.018757872 0.030288266 0.020466313 0.0920587

res_blocks.2.batch_norm.running_mean f4 [32]
000000 28 7c 36 be 73 02 8f bf 92 7a f1 be 5d e1 56 bf
       -0.178208 -1.1172622 -0.47163826 -0.8393763
000010 2d ee 5f be a7 a3 ad bf 66 33 93 bf 02 a6 72 bd
       -0.218682 -1.3565568 -1.150006 -0.05924035
000020 40 44 87 3f b5 38 a3 3f 81 70 5e bf 95 4a 14 c0
       1.0567703 1.2751681 -0.8689042 -2.3170521
000030 d9 d7 b3 bf 31 40 7c 3e 6e 94 c3 3e 2d 70 d7 3f
       -1.4050246 0.24633862 0.3819918 1.6831108
000040 9a 60 5b 3f 11 bd f8 3f 99 ca ba 3e 11 50 05 c0
       0.8569428 1.9432698 0.36482695 -2.0830119
000050 17 91 e7 bf cc 45 b5 3f b7 c5 8c 3f 5d 21 21 bf
       -1.8091153 1.4161925 1.0997838 -0.62941533
000060 e5 f0 aa 3f c6 82 9b bf 8e 4e 8c 3e 2d a2 63 c0
       1.3354765 -1.2149284 0.27403682 -3.5567734
000070 16 3a ae 40 14 3e 50 bf 4d 8a b5 3f 09 a9 4f 3f
       5.4445906 -0.81344724 1.4182831 0.811173

res_blocks.2.batch_norm.running_var f4 [32]
000000 6f 83 07 41 1a f7 3c 41 a5 92 62 41 38 f4 37 41
       8.469588 11.810328 14.160802 11.497124
000010 39 5c 29 41 02 2d 28 41 49 8b 2b 41 c8 c1 c1 40
       10.585015 10.510988 10.721505 6.054905
000020 5a 88 4a 41 6a 50 0c 41 8a de 23 41 1c 0e 48 41
       12.658289 8.769632 10.241831 12.503445
000030 3c 61 b5 41 82 d0 f0 40 41 76 83 41 6f d7 50 41
       22.672478 7.5254526 16.432741 13.052596
000040 63 e1 70 41 ad 6b 1c 41 41 ac 19 41 b9 98 73 41
       15.055026 9.776288 9.604554 15.224786
000050 e9 80 34 41 4a ba 16 41 1b 7d 57 41 90 b3 f4 40
       11.281472 9.420481 13.468043 7.6469193
000060 92 9e 18 41 5e 7c 43 41 a6 81 31 41 c7 a4 f8 41
       9.538713 12.217863 11.094152 31.080458
000070 76 6e 18 42 b0 fe c4 40 b2 d5 49 41 78 5b 04 41
       38.107872 6.15609 12.614672 8.272331

res_blocks.3.conv.weight f4 [32, 32, 3, 3]
000000 91 0e a8 3d 2c 28 dd 3d 05 59 4e bd 5d e4 38 3e
       0.08205903 0.10798678 -0.050377864 0.18055864
000010 4a 1e d6 bd d0 45 58 3b 28 fe 7c bd f0 0f ab bb
       -0.10454996 0.0033000596 -0.06176582 -0.0052204058
000020 73 28 34 3d ce ea d4 ba 8a ab a3 bc 45 3d 31 3d
       0.043983888 -0.0016244294 -0.019979257 0.04327132
000030 fd 04 49 bd 76 72 e3 3d 38 f5 28 3d b8 38 72 bc
       -0.049077023 0.11105816 0.041249484 -0.014784031
000040 42 2d a4 bd 26 16 a7 3d a2 f7 6f 3c 26 b2 e6 bd
       -0.08016445 0.08158521 0.014646443 -0.11264448
000050 f4 43 0b be a0 a7 31 be 30 4e 79 be 6a da 0e 3d
       -0.13600141 -0.173491 -0.24346232 0.034876265
000060 5f 93 0c be fb 85 e8 bd ae e8 be bb be f9 05 3d
       -0.13728093 -0.1135368 -0.0058260774 0.032708876
000070 37 d9 cc 3d 50 32 d4 bd f4 20 86 bd 56 65 6d bd
       0.10002368 -0.10361159 -0.06549254 -0.05795797
000080 50 ce ab bb 62 97 57 3d 49 51 60 be 68 52 5f bd
       -0.0052431 0.052634604 -0.21906008 -0.054521948
000090 78 b9 22 bc 09 d2 46 3d 2f 0a 2f bd af 93 af 3d
       -0.0099319145 0.04854015 -0.04273432 0.0857309
0000a0 21 19 88 bd f2 08 12 3c ba 1e 95 bd 57 7a de bd
       -0.06645418 0.008913266 -0.07281251 -0.10863178
0000b0 0d 03 1b bd a7 20 b9 bd 76 41 e3 3c 29 24 5e bd
       -0.037844706 -0.09039431 0.027741175 -0.054233704
0000c0 c1 d9 ce bd a2 27 d5 bd 56 20 5d 3d 34 5b 5b bd
       -0.10100127 -0.1040795 0.053985916 -0.053553775
0000d0 9b 5b e2 bd e4 f4 10 3e 5f dc 0d 3b 7f 47 85 3c
       -0.110526286 0.14155918 0.0021646244 0.016269444
0000e0 09 2c 0f bc c8 9d 80 bd 62 27 42 bd df 0f 7f 3d
       -0.008738526 -0.062800944 -0.04740084 0.062270995
0000f0 0a 7e 98 bd 4e 08 f7 bc 90 70 ac bd cf a0 e2 bc
       -0.07445915 -0.030155327 -0.08419907 -0.02766457
000100 31 e3 6d bc a7 e1 15 bc 59 66 17 be 12 00 43 bd
       -0.014519499 -0.009148038 -0.14785136 -0.04760749
000110 a1 7e 56 3d b4 99 4b 3d c3 4f 73 3d 3c e7 69 3d
       0.052366856 0.04970713 0.05940224 0.057105288
000120 d8 1c c4 38 9c 23 54 3d f7 05 63 3d d2 4f 05 be
       9.351381e-05 0.051791772 0.05542561 -0.1301873
000130 7e 6a 8e bd b4 50 3e 3d 1e 2f 90 bd e4 d6 cb ba
       -0.069539055 0.046463683 -0.07040237 -0.0015551713
000140 c0 38 51 3d 44 64 f7 3d aa 4c 5a 3d a4 78 84 3c
       0.05107951 0.12079671 0.05329577 0.016170807
000150 13 53 69 bd 86 e7 9f bc 6d 5f a5 3d f4 3a 14 bd
       -0.05696399 -0.019519579 0.08074842 -0.036189035
000160 2e eb ab bd 61 b6 24 ba 06 6d 9e bd 91 ea 81 3d
       -0.08394466 -0.000628328 -0.07735638 0.06343568
000170 fb 09 e0 bd 38 bd 47 bd 28 5f b1 39 90 24 19 3d
       -0.109394036 -0.048764437 0.00033830968 0.037388384
000180 dc 2a 0d 3e 3a e1 eb bc a3 94 0f be 3e 88 2f bd
       0.13785881 -0.02879392 -0.14021544 -0.04285454
000190 f9 ab 8e 3d 8b 6b e9 bc 68 79 26 3e 6c c8 9e 3c
       0.06966395 -0.028493663 0.1625725 0.019382678
0001a0 56 6c ec bd 10 f3 f9 bd 58 eb 83 3d e1 f7 e6 bc
       -0.11544101 -0.122045636 0.06441373 -0.02819437
0001b0 e2 d1 ea 3d fd 5b 06 3d fd 63 c8 bd 9c 21 6f 3c
       0.11465813 0.03280257 -0.09784696 0.014595415
0001c0 74 fe bb bd 3e bb 67 bd 58 4a bc bd 24 c8 91 3d
       -0.091793925 -0.056575052 -0.091938674 0.07118252
0001d0 c0 b4 79 bd 83 b4 27 3e c1 cc c0 3d 4a f1 b6 3c
       -0.060963392 0.16377454 0.09414054 0.022331852
0001e0 86 ae d8 bd bd 1e 17 3d 3b 58 b6 3d 5a f0 b4 3d
       -0.10580163 0.03689455 0.089035474 0.08834906
0001f0 ba ec b1 bd 7a 34 93 3d 28 d2 c7 3d 4d 53 5e 3d
       -0.0868773 0.071877435 0.09756881 0.05427866
000200 c4 13 a9 3d b8 16 b7 3c f7 c0 79 3c 6c 47 66 bd
       0.08255723 0.0223497 0.01524376 -0.056220457
000210 90 aa be 3d 67 b7 a9 3d b9 45 a7 bd 5d b3 3e bd
       0.09309876 0.08286934 -0.081675954 -0.046557773
000220 1d 13 da 3c 57 fb 1b bd 53 cf eb 3d ad 23 00 bd
       0.026620442 -0.038081493 0.11514153 -0.031284023
000230 da 04 2d 3d f2 83 1e 3c 6a 1a c8 bb 1c 98 47 3d
       0.042240955 0.009675013 -0.0061066644 0.048729047
000240 a3 3a 72 3d c8 5d ee bc 44 3a e8 3d 47 15 ac 3d
       0.05913795 -0.029097453 0.11339238 0.08402496
000250 c9 db b8 3c b4 2b fd 3c 3a 69 a5 3c 9d e9 31 bd
       0.02256574 0.030904628 0.020191777 -0.04343568
000260 c3 ab 26 bd 53 a3 53 be 80 e9 77 bd 01 22 9b 3a
       -0.04069115 -0.20667772 -0.060525417 0.0011835695
000270 a9 4f db bc 20 56 85 bb 64 6d 72 3d 81 7a 27 bd
       -0.026771383 -0.004069105 0.059186354 -0.040888313
000280 43 96 13 3e 4e 9d 42 bc 9b e6 a4 bc cb 10 4a 3d
       0.14412789 -0.011878325 -0.020129493 0.04933242
000290 98 2b df bc ca cb 77 3d 2d e9 ad 3d 00 6f 24 3e
       -0.027242467 0.060497083 0.084917404 0.16057968
0002a0 a2 7b f1 3c ef d1 cd 3c 9f bb 06 bd 6a 3e dd 3c
       0.029477898 0.025124518 -0.032893773 0.0270073
0002b0 e2 ac 11 3d 0b 1d ea bd 49 fa 76 3d 65 9a 3c 3d
       0.035565265 -0.11431321 0.060297284 0.04604568
0002c0 74 98 fd bc 3d c9 50 bd 9c ec ac bc 92 6c 18 bc
       -0.030956484 -0.050973166 -0.021108918 -0.009303229
0002d0 40 a3 b6 bc ca 9f c5 bd ed 3a cd bd e2 8c f8 bd
       -0.02229464 -0.09649618 -0.10021005 -0.12136246
0002e0 29 17 7b ba 48 07 11 be c1 5f 39 bd e4 99 4e bd
       -0.0009578341 -0.14162934 -0.045257334 -0.05043973
0002f0 c5 ba aa bd 18 76 87 3b 9f ca 0e 3d 09 93 32 bd
       -0.08336405 0.004133951 0.034861203 -0.043597255
000300 4f af 00 bd fa ac 14 bd 7b 67 15 bd ac 41 8d 3d
       -0.031417187 -0.036297776 -0.03647564 0.068972915
000310 06 ff e5 3d 26 45 93 bd 34 56 5e ba 1b 8d 16 3d
       0.112302825 -0.071909234 -0.0008481473 0.036755662
000320 a6 10 80 bd 8d 5f 63 3d 72 53 c4 bd 70 d3 cb 3d
       -0.062531754 0.055511046 -0.095862284 0.09952438
000330 d7 db bc 3d 15 64 67 bc 7b cd fd bd a6 e6 97 bc
       0.092216186 -0.0141229825 -0.12392708 -0.018542599
000340 d6 95 f3 bb 77 b2 06 3d c5 a2 0c be f8 8e e7 3c
       -0.0074336333 0.03288504 -0.13733967 0.028266415
000350 c9 e5 20 3d 63 61 2e 3e f9 07 24 3e 17 f6 34 3c
       0.03928164 0.17029338 0.16018666 0.0110450005
000360 a0 19 1b 3e be 0d 16 3d f2 c6 71 bd 61 b3 94 bd
       0.15146494 0.0366342 -0.05902762 -0.07260776
000370 0c f1 2c 3e 27 30 db 3d c5 f5 47 3e 19 33 08 be
       0.16888827 0.10702544 0.19527347 -0.13300742
000380 6b ad ce bd 07 bf 93 3c f1 b4 08 3c c7 8f 29 bd
       -0.100916706 0.018035425 0.008343921 -0.041396882
000390 d5 3e dd 3c 89 65 c1 bd 8e eb 43 bd 3f 67 a4 bd
       0.0270075 -0.094431944 -0.047832064 -0.08027505
0003a0 1f b5 1b bd e7 ec 5e 3d 9d 4d 0a bb 0b f1 3a 3d
       -0.038014527 0.054425146 -0.002110339 0.045640033
0003b0 ac 8b 2a bc 67 68 ff 3d 9e 87 00 bc fe 6d cd bc
       -0.010409277 0.12471085 -0.007844834 -0.025076862
0003c0 db e4 9d 3e c4 c0 6b 3d bc 2b 9c 3d 5b 78 04 be
       0.30838665 0.057556883 0.07625529 -0.12936537
0003d0 0c 2d 7e 3d c2 e4 12 3e 12 75 16 3d 8f b8 82 bc
       0.06205468 0.14345077 0.03673274 -0.015957145
0003e0 9f aa a6 bd 12 94 76 3e 10 9b 6b bd 64 02 91 3d
       -0.08138012 0.24079922 -0.057520926 0.07080534
0003f0 a1 40 dc bc bb f9 73 3d 4f d8 2e be 93 a7 4d be
       -0.026886286 0.059564333 -0.17074703 -0.20083456

res_blocks.3.batch_norm.weight f4 [32]
000000 5e 27 23 3f c3 0a 1c 3f c9 60 2a 3f 7b df 11 3f
       0.63731945 0.6095392 0.6655393 0.5698163
000010 6b 55 11 3f 67 de 2e 3f 52 4a 22 3f ce e7 3c 3f
       0.5677096 0.6830811 0.63394654 0.73791206
000020 e8 74 23 3f d8 dc 38 3f 0b 2b 2b 3f b3 a2 0d 3f
       0.6385026 0.7221198 0.66862553 0.55326384
000030 ed 55 14 3f 1d ea 3b 3f 2d cf 38 3f 65 56 3a 3f
       0.5794361 0.73404104 0.72191125 0.7278808
000040 be 93 31 3f 9c 73 21 3f 26 02 3c 3f 51 59 23 3f
       0.6936606 0.6306703 0.7344078 0.6380816
000050 d1 4e 15 3f 06 7c 1c 3f 2c 06 3d 3f eb 17 38 3f
       0.5832339 0.61126745 0.7383754 0.71911496
000060 32 91 36 3f 68 03 2d 3f 13 8a 38 3f 22 15 01 3f
       0.713153 0.6758332 0.72085685 0.5042287
000070 95 ef 08 3f dd 3f 3f 3f 2d ab 38 3f c3 6a 28 3f
       0.53490573 0.7470682 0.72136194 0.65787905

res_blocks.3.batch_norm.bias f4 [32]
000000 4f 47 43 bd bb 24 8d 3b cd 37 07 3d 11 0f 22 3b
       -0.047675427 0.004307357 0.0330122 0.0024728219
000010 a3 b6 8a 3c 88 26 be bc 66 80 a1 bc 72 24 2c 3d
       0.016932791 -0.023211733 -0.019714545 0.042026944
000020 e6 72 db 3c 18 0c 10 3d 21 42 40 3c 7f c0 47 bc
       0.026788186 0.035167783 0.011734516 -0.012191891
000030 eb eb b3 3a 3c bc 7c 3d 7c 98 0b 3c a5 d0 f2 3c
       0.0013726925 0.06170295 0.008520242 0.029640505
000040 c1 a5 45 3d e8 fb 74 3c ca c5 99 3d d2 6c b0 3c
       0.04825378 0.014952637 0.075084284 0.021536265
000050 9a ac 07 3c 37 e1 61 3c fc a1 83 3d a6 12 33 3d
       0.0082808975 0.013786606 0.064273804 0.043718956
000060 ba 62 86 3b 98 91 d3 3b 8e 3a c1 3c 50 c1 41 bd
       0.0041011246 0.006456565 0.023587491 -0.047303498
000070 1c aa 99 bc 19 1f f8 3c f8 a8 a7 3c 46 89 bc 3d
       -0.018757872 0.030288266 0.020466313 0.0920587

res_blocks.3.batch_norm.running_mean f4 [32]
000000 28 7c 36 be 73 02 8f bf 92 7a f1 be 5d e1 56 bf
       -0.178208 -1.1172622 -0.47163826 -0.8393763
000010 2d ee 5f be a7 a3 ad bf 66 33 93 bf 02 a6 72 bd
       -0.218682 -1.3565568 -1.150006 -0.05924035
000020 40 44 87 3f b5 38 a3 3f 81 70 5e bf 95 4a 14 c0
       1.0567703 1.2751681 -0.8689042 -2.3170521
000030 d9 d7 b3 bf 31 40 7c 3e 6e 94 c3 3e 2d 70 d7 3f
       -1.4050246 0.24633862 0.3819918 1.6831108
000040 9a 60 5b 3f 11 bd f8 3f 99 ca ba 3e 11 50 05 c0
       0.8569428 1.9432698 0.36482695 -2.0830119
000050 17 91 e7 bf cc 45 b5 3f b7 c5 8c 3f 5d 21 21 bf
       -1.8091153 1.4161925 1.0997838 -0.62941533
000060 e5 f0 aa 3f c6 82 9b bf 8e 4e 8c 3e 2d a2 63 c0
       1.3354765 -1.2149284 0.27403682 -3.5567734
000070 16 3a ae 40 14 3e 50 bf 4d 8a b5 3f 09 a9 4f 3f
       5.4445906 -0.81344724 1.4182831 0.811173

res_blocks.3.batch_norm.running_var f4 [32]
000000 6f 83 07 41 1a f7 3c 41 a5 92 62 41 38 f4 37 41
       8.469588 11.810328 14.160802 11.497124
000010 39 5c 29 41 02 2d 28 41 49 8b 2b 41 c8 c1 c1 40
       10.585015 10.510988 10.721505 6.054905
000020 5a 88 4a 41 6a 50 0c 41 8a de 23 41 1c 0e 48 41
       12.658289 8.769632 10.241831 12.503445
000030 3c 61 b5 41 82 d0 f0 40 41 76 83 41 6f d7 50 41
       22.672478 7.5254526 16.432741 13.052596
000040 63 e1 70 41 ad 6b 1c 41 41 ac 19 41 b9 98 73 41
       15.055026 9.776288 9.604554 15.224786
000050 e9 80 34 41 4a ba 16 41 1b 7d 57 41 90 b3 f4 40
       11.281472 9.420481 13.468043 7.6469193
000060 92 9e 18 41 5e 7c 43 41 a6 81 31 41 c7 a4 f8 41
       9.538713 12.217863 11.094152 31.080458
000070 76 6e 18 42 b0 fe c4 40 b2 d5 49 41 78 5b 04 41
       38.107872 6.15609 12.614672 8.272331
