my_pt/280_deep_model.pt (torch, 859042 bytes, 56 tensors)

conv1.weight f4 [32, 1, 3, 3]
-0.041407 -0.36480203 -0.25327823 -0.01291976 0.25897828 -0.3163925 0.205768 0.065530226
-0.13160595 -0.22938287 -0.16207471 -0.06579337 -0.2624358 0.25763652 0.048224814 0.30800277
0.26975912 0.15417293 0.0502282 -0.30371875 -0.10719659 0.05525772 -0.14127646 0.19366169
0.22144157 -0.12346496 0.12363777 0.21821015 0.22664501 -0.18835984 -0.15744206 -0.117818564
0.15224887 0.2283371 -0.32741207 0.094050825 -0.20868571 0.029389307 0.22501925 0.16886422
-0.3943785 0.023637215 0.32429817 -0.22785772 0.06693136 -0.04752663 0.19069238 -0.330895
-0.07963523 0.10103003 0.12088016 -0.21523082 0.20477593 0.27530217 -0.067319915 -0.14325488
-0.15783723 0.030792423 0.17427133 -0.22728577 -0.07168766 -0.18778345 -0.18967053 -0.065016575
0.26509464 0.110543944 -0.12013142 0.14574099 -0.115593426 0.0773091 -0.11978662 -0.30247042
0.28979892 0.14680152 0.31291133 -0.23305449 0.016237592 0.13047926 -0.15627502 -0.12599821
-0.054119255 -0.0033574016 -0.014735347 0.29276076 -0.26106018 -0.23517282 0.29020843 0.19984886
0.20753206 -0.10064994 0.33175945 0.09684331 -0.32390356 0.2627169 -0.28041926 0.006316665
0.20424026 -0.23428097 -0.26248237 0.18235485 0.22082852 0.085884415 0.15635999 -0.120866835
-0.05107311 -0.29812008 0.17557113 0.2728204 0.18955436 0.02010407 -0.27038026 0.11059408
0.010671126 0.3006885 -0.07241895 0.0977864 0.13657641 -0.11230638 0.17381155 -0.11920658
-0.29840052 0.19896549 -0.029245418 0.14599101 -0.2207918 -0.21716747 -0.07731893 0.22768527
-0.06474706 0.28052443 0.08202914 -0.07189306 0.1949969 -0.2800882 0.019529361 0.2658223
-0.31633916 -0.32008794 0.09780692 0.13539036 -0.30320546 0.11512981 0.24404196 -0.27322543
-0.019299971 -0.1279535 0.010512848 -0.33285773 -0.2135263 -0.059377678 0.16476706 -0.075711995
-0.13348366 0.009691034 -0.23922473 0.088256225 0.15324597 -0.0036493842 -0.12637235 0.05174914
-0.33223447 -0.10020205 -0.21695839 -0.10204235 -0.27158916 0.3263964 0.06667874 0.114310175
-0.0781353 -0.20605017 0.018707918 -0.26771438 -0.21287027 0.33340746 0.22488679 0.40332702
0.04661979 -0.01672827 -0.10873089 -0.1812908 0.13737124 -0.2404598 -0.0117888 0.16828789
0.28594545 -0.11115456 -0.15220405 0.10828419 0.07855906 -0.050032403 -0.05044222 0.05815938
0.1797675 -0.0016644564 -0.19105145 0.0011310437 -0.21467598 -0.32015893 0.10672167 -0.3265033
-0.17136924 -0.037231658 0.15157764 0.19142185 -0.1188987 -0.014764297 -0.22820388 0.15525754
-0.24435495 0.18504074 -0.22613427 -0.17394726 -0.20316438 -0.23096873 -0.21219899 -0.26305497
-0.06608624 -0.15934967 -0.2776097 -0.13202734 0.27433258 0.27614903 0.11186346 -0.017168256
0.16493867 0.047754366 0.24545947 -0.17215306 0.039416466 0.25195062 0.111431055 0.17569478
0.16068487 0.14391261 -0.3027692 -0.07994125 0.23275891 0.023018725 0.09200059 0.09285185
-0.11512062 -0.012738176 0.24959597 -0.120036945 0.08840844 0.10454169 -0.23720518 -0.2040772
0.051351562 -0.08109938 0.2140679 -0.0915086 0.106161736 -0.238406 0.24419098 -0.12380865
00000000: 639a 29bd 55c7 babe afad 81be 67ad 53bc
00000010: cd98 843e 33fe a1be d9b4 523e b634 863d
00000020: b6c3 06be 58e3 6abe eaf6 25be adbe 86bd
00000030: fc5d 86be efe8 833e 6287 453d 8ab2 9d3e
00000040: de1d 8a3e 82df 1d3e 16bc 4d3d 0681 9bbe
00000050: e389 dbbd eb55 623d c7aa 10be 404f 463e
00000060: 94c1 623e 32db fcbd cd35 fd3d 7b72 5f3e
00000070: a115 683e 67e1 40be 7e38 21be dc4a f1bd
00000080: 21e7 1b3e 33d1 693e 8ea2 a7be b89d c03d
00000090: b5b1 55be d8c1 f03c 726b 663e beea 2c3e
000000a0: fbeb c9be d5a2 c13c 690a a63e 8953 69be
000000b0: 4f13 893d 49ab 42bd dd44 433e 126b a9be
000000c0: cc17 a3bd d5e8 ce3d 0490 f73d 7865 5cbe
000000d0: c8b0 513e 68f4 8c3e 06df 89bd 68b1 12be
000000e0: 15a0 21be 6440 fc3c 2f74 323e 9abd 68be
000000f0: fbd0 92bd 4e4a 40be fe38 42be 6927 85bd
00000100: 7cba 873e dd64 e23d 7607 f6bd 203d 153e
00000110: 3fbc ecbd 3c54 9e3d b052 f5bd 67dd 9abe
00000120: 8660 943e 2353 163e ea35 a03e d6a5 6ebe
00000130: b304 853c 5b9c 053e 8f06 20be ad05 01be
00000140: 27ac 5dbd da07 5cbb 866c 71bc bde4 953e
00000150: aea9 85be 25d1 70be 3396 943e 2ea5 4c3e
00000160: 4983 543e 8e21 cebd 60dc a93e c955 c63d
00000170: b0d6 a5be d482 863e 1d93 8fbe 07fc ce3b
00000180: 5c24 513e 5ae7 6fbe 1764 86be 3bbb 3a3e
00000190: df20 623e 2be4 af3d d51c 203e 0889 f7bd
000001a0: 0a32 51bd 32a3 98be ebc8 333e 1eaf 8b3e
000001b0: 8a1a 423e 4ab1 a43c 486f 8abe 267f e23d
000001c0: f2d5 2e3c d8f3 993e 6350 94bd 3c44 c83d
000001d0: b0da 0b3e e300 e6bd a8fb 313e 9422 f4bd
000001e0: f4c7 98be 9cbd 4b3e 1694 efbc ab7e 153e
000001f0: 3f17 62be 2661 5ebe 6359 9ebd 5426 693e
00000200: 1b9a 84bd e6a0 8f3e e5fe a73d ab3c 93bd
00000210: 44ad 473e b867 8fbe 0afc 9f3c dc19 883e
00000220: 35f7 a1be 91e2 a3be ff4e c83d c5a3 0a3e
00000230: bf3d 9bbe 2ec9 eb3d 23e6 793e 34e4 8bbe
00000240: f91a 9ebc 3e06 03be 153e 2c3c 546c aabe
00000250: a3a6 5abe 0236 73bd b2b8 283e e40e 9bbd
00000260: f1af 08be 25c7 1e3c 54f7 74be aebf b43d
00000270: 83ec 1c3e 822a 6fbb c167 01be e8f6 533d
00000280: a31a aabe bb36 cdbd 572a 5ebe 94fb d0bd
00000290: bc0d 8bbe 6e1d a73e dd8e 883d 741b ea3d
000002a0: 6605 a0bd d1fe 52be 5941 993c dc11 89be
000002b0: aafa 59be 62b4 aa3e b948 663e e180 ce3e
000002c0: 65f4 3e3d ba09 89bc 4dae debd 4ca4 39be
000002d0: 0cab 0c3e 183b 76be d025 41bc a953 2c3e
000002e0: 7167 923e 01a5 e3bd 61db 1bbe 1ac4 dd3d
000002f0: 93e3 a03d c7ee 4cbd 809c 4ebd 8838 6e3d
00000300: f914 383e e429 daba fea2 43be 873f 943a
00000310: 05d4 5bbe dfeb a3be e490 da3d 712b a7be
00000320: 6b7b 2fbe 3980 18bd 2b37 1b3e 1704 443e
00000330: 2981 f3bd f3e5 71bc 47ae 69be d5fb 1e3e
00000340: 2f38 7abe 527b 3d3e be8f 67be 3b1f 32be
00000350: 530a 50be 1183 6cbe b14a 59be 24af 86be
00000360: 3958 87bd 8f2c 23be dc22 8ebe 2d32 07be
00000370: 5275 8c3e 6863 8d3e ab18 e53d 71a4 8cbc
00000380: afe5 283e 159a 433d ba59 7b3e e448 30be
00000390: 2973 213d acff 803e f735 e43d 55e9 333e
000003a0: 938a 243e d45d 133e 9104 9bbe 3db8 a3bd
000003b0: 5a58 6e3e c491 bc3c ce6a bc3d 1c29 be3d
000003c0: 5cc4 ebbd c8b3 50bc 1696 7f3e eed5 f5bd
000003d0: 7c0f b53d f419 d63d eae5 72be 9df9 50be
000003e0: 0456 523d 6f17 a6bd 9e34 5b3e dc68 bbbd
000003f0: 536b d93d b420 74be 330d 7a3e 648f fdbd

conv1.bias f4 [32]
-0.015055069 0.013376903 0.120085955 -0.20649791 -0.111780435 0.021203928 -0.13196866 0.2447835
-0.064023115 -0.24995156 0.26538008 -0.21667597 -0.21525057 -0.16643216 -0.2634544 -0.20465429
0.17701502 -0.2628314 0.20900908 0.20694648 -0.23108757 -0.16476788 -0.27314326 -0.04834392
-0.3424783 0.28049502 -0.21364167 0.23889571 -0.093632646 -0.1056086 -0.17676531 0.18758234
00000000: 89a9 76bc cc2a 5b3c a0ef f53d 3074 53be
00000010: 24ed e4bd dcb3 ad3c cb22 07be 87a8 7a3e
00000020: 8d1e 83bd 4df3 7fbe e6df 873e 4ee0 5dbe
00000030: a56a 5cbe 316d 2abe 7fe3 86be e590 51be
00000040: 6d43 353e d691 86be 7a06 563e c7e9 533e
00000050: 38a2 6cbe e9b8 28be 6fd9 8bbe 4604 46bd
00000060: 5159 afbe 0b9d 8f3e e2c4 5abe 14a1 743e
00000070: 79c2 bfbd 5249 d8bd f701 35be 9615 403e

res_blocks.0.conv.weight f4 [32, 32, 3, 3]
0.08205439 0.10806866 -0.05030279 0.18104696 -0.103454754 0.003690476 -0.061697155 -0.004863532
0.044318885 -0.0014619867 -0.0199274 0.042879164 -0.048948027 0.111122854 0.041239448 -0.014541444
-0.08039538 0.081451274 0.014423423 -0.11300206 -0.13609849 -0.173593 -0.24360965 0.03518452
-0.13741444 -0.113865435 -0.006120298 0.032816656 0.09989947 -0.103647396 -0.06571349 -0.058026046
-0.005219019 0.05254875 -0.21894403 -0.05424488 -0.009919901 0.048508607 -0.042546388 0.08544706
-0.06671894 0.008695671 -0.072778895 -0.10880715 -0.037888862 -0.090442106 0.027803198 -0.054315537
-0.10158548 -0.104078405 0.053796094 -0.053481765 -0.11094563 0.14140445 0.0023034085 0.015824951
-0.009033231 -0.062776364 -0.04727602 0.06196213 -0.07458116 -0.029960552 -0.08437043 -0.027441643
-0.014560498 -0.00877031 -0.14781931 -0.04778937 0.052493002 0.049795374 0.059177313 0.05671998
0.0002716466 0.05188472 0.05568871 -0.13024521 -0.06949543 0.04589967 -0.07042454 -0.0016103089
0.05102072 0.1207935 0.053582992 0.016394652 -0.056705073 -0.01908309 0.08074833 -0.035730995
-0.08364643 -0.00021002059 -0.07722847 0.0635102 -0.10953888 -0.04891788 0.0002743968 0.037208077
0.13797839 -0.028831808 -0.14027451 -0.042713266 0.069984496 -0.028405441 0.16253641 0.019582052
-0.11540724 -0.12198321 0.06456418 -0.028104607 0.11490354 0.03279149 -0.09813926 0.014694304
-0.09184871 -0.056628298 -0.09166134 0.07114719 -0.061285958 0.16365263 0.09389063 0.022669485
-0.10586599 0.037098415 0.088500924 0.08833122 -0.08677115 0.07191586 0.09759351 0.05406039
0.082221374 0.022674646 0.0155797675 -0.0566632 0.09319307 0.083144285 -0.08098325 -0.04598675
0.026857566 -0.03813463 0.11518795 -0.031138191 0.042736046 0.009469069 -0.005982182 0.04904952
0.0586675 -0.029133886 0.11345536 0.08404381 0.022701768 0.030954378 0.020091217 -0.043080717
-0.040337622 -0.20666204 -0.060338076 0.001337242 -0.026962096 -0.0038861786 0.059349805 -0.041081913
0.14407963 -0.0119943535 -0.019862002 0.04882293 -0.027486917 0.060252894 0.084993295 0.16052508
0.029257495 0.024769835 -0.03276862 0.027151853 0.035576835 -0.11398933 0.060536645 0.046295248
-0.030843621 -0.05111417 -0.020871032 -0.009387784 -0.022278663 -0.09620149 -0.09993222 -0.12134945
-0.001017428 -0.14188781 -0.045170832 -0.05020574 -0.08341116 0.0040654326 0.03475489 -0.04340325
-0.03146903 -0.036777765 -0.03655257 0.06884891 0.11246331 -0.0721394 -0.0009378612 0.036568508
-0.062555164 0.055446718 -0.095898315 0.0992932 0.092485905 -0.014357497 -0.123810135 -0.018315177
-0.007647704 0.032407332 -0.13719119 0.027878199 0.039181165 0.17054452 0.16008039 0.010930868
0.15114327 0.036436677 -0.0586765 -0.07230739 0.16906853 0.10708808 0.19567937 -0.132779
-0.10064974 0.018322198 0.008554854 -0.04144232 0.027428757 -0.094274424 -0.04801958 -0.080130465
-0.037662383 0.05445805 -0.0023404155 0.045358945 -0.010691999 0.124931976 -0.007977193 -0.024869552
0.3087781 0.057776142 0.075955585 -0.129264 0.061922245 0.14344206 0.036673717 -0.016093036
-0.08154786 0.24074574 -0.057640407 0.07094391 -0.02696153 0.059440207 -0.17083661 -0.20102124
00000000: 220c a83d 1a53 dd3d 4c0a 4ebd 6064 393e
00000010: 16e0 d3bd eadb 713b 28b6 7cbd 435e 9fbb
00000020: b887 353d 22a0 bfba c93e a3bc 10a2 2f3d
00000030: ba7d 48bd 6194 e33d b2ea 283d 3d3f 6ebc
00000040: 55a6 a4bd edcf a63d 3950 6c3c a06d e7bd
00000050: 675d 0bbe 5dc2 31be cf74 79be a51d 103d
00000060: 5fb6 0cbe 4832 e9bd c88c c8bb c26a 063d
00000070: 1898 cc3d 1645 d4bd cb94 86bd b8ac 6dbd
00000080: 4e04 abbb 5c3d 573d dd32 60be e12f 5ebd
00000090: 1587 22bc f6b0 463d 1f45 2ebd defe ae3d
000000a0: f1a3 88bd 4a78 0e3c 1a0d 95bd 48d6 debd
000000b0: 5a31 1bbd b639 b9bd 88c3 e33c f879 5ebd
000000c0: 0c0c d0bd 0f27 d5bd 4b59 5c3d b20f 5bbd
000000d0: 7637 e3bd 54cc 103e c8f4 163b 54a3 813c
000000e0: 1e00 14bc e590 80bd 80a4 41bd 01cc 7d3d
000000f0: 02be 98bd d56f f5bc 67ca acbd 4ccd e0bc
00000100: 288f 6ebc 59b1 0fbc f25d 17be c9be 43bd
00000110: e702 573d 3cf6 4b3d e963 723d 3653 683d
00000120: ca6b 8e39 1285 543d d819 643d 005f 05be
00000130: 9f53 8ebd 4b01 3c3d be3a 90bd 0011 d3ba
00000140: 1afb 503d 9562 f73d d779 5b3d 144e 863c
00000150: 9443 68bd 2454 9cbc 615f a53d aa5a 12bd
00000160: d24e abbd f938 5cb9 f629 9ebd a311 823d
00000170: ec55 e0bd 1d5e 48bd eadc 8f39 7f67 183d
00000180: 354a 0d3e af30 ecbc 1fa4 0fbe 1bf4 2ebd
00000190: 0854 8f3d 87b2 e8bc f26f 263e 8a6a a03c
000001a0: a25a ecbd 55d2 f9bd 3a3a 843d a23b e6bc
000001b0: 8c52 eb3d 5f50 063d 3dfd c8bd 61c0 703c
000001c0: 2d1b bcbd 13f3 67bd f1b8 bbbd 9eb5 913d
000001d0: fc06 7bbd 8e94 273e bb49 c03d 5bb5 b93c
000001e0: 45d0 d8bd 82f4 173d f93f b53d 00e7 b43d
000001f0: 13b5 b1bd 9f48 933d 1bdf c73d 6d6e 5d3d
00000200: ae63 a83d 2ec0 b93c 4842 7f3c ac17 68bd
00000210: 02dc be3d 8d47 aa3d 8cda a5bd 9a5c 3cbd
00000220: 6604 dc3c 0f33 1cbd a9e7 eb3d 8515 ffbc
00000230: fe0b 2f3d 2724 1b3c 2e06 c4bb 26e8 483d
00000240: 554d 703d 30aa eebc 495b e83d 291f ac3d
00000250: 0ff9 b93c 0994 fd3c 5696 a43c 6875 30bd
00000260: 1039 25bd 379f 53be 0f25 77bd 6546 af3a
00000270: 9ddf dcbc 42af 7ebb c818 733d 8245 28bd
00000280: 9c89 133e f783 44bc a3b5 a2bc 8dfa 473d
00000290: 3e2c e1bc bdcb 763d f710 ae3d b060 243e
000002a0: 6aad ef3c 1cea ca3c 6338 06bd 906d de3c
000002b0: 04b9 113d 3d73 e9bd 46f5 773d 16a0 3d3d
000002c0: c3ab fcbc 185d 51bd baf9 aabc 38cf 19bc
000002d0: be81 b6bc 4905 c5bd 44a9 ccbd 0f86 f8bd
000002e0: 385b 85ba 0a4b 11be 0d05 39bd 89a4 4dbd
000002f0: 78d3 aabd 5237 853b 255b 0e3d 9bc7 31bd
00000300: abe5 00bd 48a4 16bd 26b8 15bd a800 8d3d
00000310: 2a53 e63d d2bd 93bd cdda 75ba dcc8 153d
00000320: ec1c 80bd 191c 633d 5666 c4bd 3c5a cb3d
00000330: 4069 bd3d b53b 6bbc 2b90 fdbd b609 96bc
00000340: 9799 fabb 8dbd 043d d97b 0cbe d260 e43c
00000350: 6e7c 203d 39a3 2e3e 1dec 233e 6217 333c
00000360: 4dc5 1a3e a03e 153d c556 70bd e615 94bd
00000370: 4d20 2d3e ff50 db3d 2c60 483e 38f7 07be
00000380: 7321 cebd 6f18 963c a929 0c3c 6cbf 29bd
00000390: 46b2 e03c f312 c1bd 2eb0 44bd 711b a4bd
000003a0: df43 1abd 670f 5f3d a861 19bb 4dca 393d
000003b0: 7f2d 2fbc 56dc ff3d c6b2 02bc 3bbb cbbc
000003c0: 2a18 9e3e ada6 6c3d 9a8e 9b3d c85d 04be
000003d0: 2ea2 7d3d 7ae2 123e 2e37 163d 8bd5 83bc
000003e0: 9002 a7bd 0d86 763e 5918 6cbd 0a4b 913d
000003f0: 6dde dcbc 9377 733d cbef 2ebe 83d8 4dbe

res_blocks.0.batch_norm.weight f4 [32]
0.6412369 0.61248326 0.6697007 0.57187074 0.56964225 0.6876256 0.63788897 0.7435946
0.6426652 0.7274768 0.67274934 0.5553542 0.5817318 0.73968965 0.72663283 0.73331714
0.69858915 0.63481414 0.73912305 0.6417918 0.5859939 0.61498004 0.74307096 0.72443074
0.717176 0.68076646 0.72572505 0.50518227 0.53719985 0.75196385 0.72632295 0.66196895
00000000: 1a28 243f b4cb 1c3f 8171 2b3f 1f66 123f
00000010: 13d4 113f 3b08 303f b14c 233f 375c 3e3f
00000020: b585 243f eb3b 3a3f 4d39 2c3f b12b 0e3f
00000030: 60ec 143f 4d5c 3d3f 9c04 3a3f acba 3b3f
00000040: bdd6 323f 2e83 223f 2b37 3d3f 784c 243f
00000050: b203 163f 556f 1d3f e639 3e3f 4b74 393f
00000060: d998 373f b646 2e3f 1ec9 393f a053 013f
00000070: ee85 093f b480 403f 4df0 393f cc76 293f

res_blocks.0.batch_norm.bias f4 [32]
-0.047654387 0.0042308397 0.033699185 0.0028313077 0.01718784 -0.023023538 -0.019314827 0.042982012
0.027557079 0.03546234 0.012492991 -0.011787659 0.0016300837 0.062724434 0.008731039 0.030317368
0.049112972 0.015538241 0.07565911 0.02258147 0.0087611005 0.014718261 0.06551898 0.045007374
0.004208438 0.00664012 0.024439357 -0.04723307 -0.018208168 0.030865718 0.02121413 0.09342015
00000000: 3f31 43bd dba2 8a3b 2808 0a3d 768d 393b
00000010: 83cd 8c3c dc9b bcbc 213a 9ebc e80d 303d
00000020: 62bf e13c f540 113d 67af 4c3c 0621 41bc
00000030: 88a8 d53a ab75 803d a20c 0f3c 215c f83c
00000040: af2a 493d 1b94 7e3c 2af3 9a3d c6fc b83c
00000050: b88a 0f3c dc24 713c d12e 863d a759 383d
00000060: f0e6 893b 5d95 d93b 0c35 c83c 7777 41bd
00000070: 4c29 95bc 1ada fc3c 41c9 ad3c 1053 bf3d

res_blocks.0.batch_norm.running_mean f4 [32]
-0.1842028 -1.1213956 -0.46864364 -0.84155434 -0.2161029 -1.3518592 -1.1413149 -0.08126482
1.0524153 1.2854787 -0.88034517 -2.3074975 -1.4183346 0.24743575 0.39476544 1.6793796
0.8687154 1.957819 0.362926 -2.0849538 -1.8067933 1.4129105 1.0803126 -0.62747395
1.3227655 -1.2109606 0.3044021 -3.5813503 5.4554663 -0.8293803 1.4462614 0.81377083
00000000: a99f 3cbe e489 8fbf 0ff2 efbe 1b70 57bf
00000010: 144a 5dbe b909 adbf 9b16 92bf 2c6e a6bd
00000020: 8bb5 863f 918a a43f 4d5e 61bf 0aae 13c0
00000030: fd8b b5bf cc5f 7d3e b21e ca3e e9f5 d63f
00000040: 2264 5e3f d099 fa3f 70d1 b93e e26f 05c0
00000050: 0145 e7bf 40da b43f af47 8a3f 22a2 20bf
00000060: 6150 a93f c200 9bbf 98da 9b3e d834 65c0
00000070: 2e93 ae40 4452 54bf 181f b93f 4953 503f

res_blocks.0.batch_norm.running_var f4 [32]
8.748606 12.25625 14.314195 11.8513 10.538859 10.606822 11.146553 6.2981606
13.553291 8.704709 10.342812 12.749589 23.392908 7.534351 16.518196 13.574369
15.138598 9.897636 9.637499 15.994949 11.753535 9.277711 13.973918 7.25767
9.632541 12.485063 10.900417 31.671093 38.265903 6.1850443 12.928162 8.260044
00000000: 4afa 0b41 9a19 4441 f106 6541 ed9e 3d41
00000010: 2b9f 2841 8bb5 2941 4858 3241 888a c940
00000020: 48da 5841 7d46 0b41 287c 2541 51fe 4b41
00000030: ad24 bb41 6719 f140 4425 8441 9e30 5941
00000040: b337 7241 b85c 1e41 3233 1a41 50eb 7f41
00000050: 7b0e 3c41 8171 1441 2b95 5f41 d53e e840
00000060: e31e 1a41 d1c2 4741 1c68 2e41 665e fd41
00000070: 4910 1942 e2eb c540 c0d9 4e41 2429 0441

res_blocks.1.conv.weight f4 [32, 32, 3, 3]
0.08205439 0.10806866 -0.05030279 0.18104696 -0.103454754 0.003690476 -0.061697155 -0.004863532
0.044318885 -0.0014619867 -0.0199274 0.042879164 -0.048948027 0.111122854 0.041239448 -0.014541444
-0.08039538 0.081451274 0.014423423 -0.11300206 -0.13609849 -0.173593 -0.24360965 0.03518452
-0.13741444 -0.113865435 -0.006120298 0.032816656 0.09989947 -0.103647396 -0.06571349 -0.058026046
-0.005219019 0.05254875 -0.21894403 -0.05424488 -0.009919901 0.048508607 -0.042546388 0.08544706
-0.06671894 0.008695671 -0.072778895 -0.10880715 -0.037888862 -0.090442106 0.027803198 -0.054315537
-0.10158548 -0.104078405 0.053796094 -0.053481765 -0.11094563 0.14140445 0.0023034085 0.015824951
-0.009033231 -0.062776364 -0.04727602 0.06196213 -0.07458116 -0.029960552 -0.08437043 -0.027441643
-0.014560498 -0.00877031 -0.14781931 -0.04778937 0.052493002 0.049795374 0.059177313 0.05671998
0.0002716466 0.05188472 0.05568871 -0.13024521 -0.06949543 0.04589967 -0.07042454 -0.0016103089
0.05102072 0.1207935 0.053582992 0.016394652 -0.056705073 -0.01908309 0.08074833 -0.035730995
-0.08364643 -0.00021002059 -0.07722847 0.0635102 -0.10953888 -0.04891788 0.0002743968 0.037208077
0.13797839 -0.028831808 -0.14027451 -0.042713266 0.069984496 -0.028405441 0.16253641 0.019582052
-0.11540724 -0.12198321 0.06456418 -0.028104607 0.11490354 0.03279149 -0.09813926 0.014694304
-0.09184871 -0.056628298 -0.09166134 0.07114719 -0.061285958 0.16365263 0.09389063 0.022669485
-0.10586599 0.037098415 0.088500924 0.08833122 -0.08677115 0.07191586 0.09759351 0.05406039
0.082221374 0.022674646 0.0155797675 -0.0566632 0.09319307 0.083144285 -0.08098325 -0.04598675
0.026857566 -0.03813463 0.11518795 -0.031138191 0.042736046 0.009469069 -0.005982182 0.04904952
0.0586675 -0.029133886 0.11345536 0.08404381 0.022701768 0.030954378 0.020091217 -0.043080717
-0.040337622 -0.20666204 -0.060338076 0.001337242 -0.026962096 -0.0038861786 0.059349805 -0.041081913
0.14407963 -0.0119943535 -0.019862002 0.04882293 -0.027486917 0.060252894 0.084993295 0.16052508
0.029257495 0.024769835 -0.03276862 0.027151853 0.035576835 -0.11398933 0.060536645 0.046295248
-0.030843621 -0.05111417 -0.020871032 -0.009387784 -0.022278663 -0.09620149 -0.09993222 -0.12134945
-0.001017428 -0.14188781 -0.045170832 -0.05020574 -0.08341116 0.0040654326 0.03475489 -0.04340325
-0.03146903 -0.036777765 -0.03655257 0.06884891 0.11246331 -0.0721394 -0.0009378612 0.036568508
-0.062555164 0.055446718 -0.095898315 0.0992932 0.092485905 -0.014357497 -0.123810135 -0.018315177
-0.007647704 0.032407332 -0.13719119 0.027878199 0.039181165 0.17054452 0.16008039 0.010930868
0.15114327 0.036436677 -0.0586765 -0.07230739 0.16906853 0.10708808 0.19567937 -0.132779
-0.10064974 0.018322198 0.008554854 -0.04144232 0.027428757 -0.094274424 -0.04801958 -0.080130465
-0.037662383 0.05445805 -0.0023404155 0.045358945 -0.010691999 0.124931976 -0.007977193 -0.024869552
0.3087781 0.057776142 0.075955585 -0.129264 0.061922245 0.14344206 0.036673717 -0.016093036
-0.08154786 0.24074574 -0.057640407 0.07094391 -0.02696153 0.059440207 -0.17083661 -0.20102124
00000000: 220c a83d 1a53 dd3d 4c0a 4ebd 6064 393e
00000010: 16e0 d3bd eadb 713b 28b6 7cbd 435e 9fbb
00000020: b887 353d 22a0 bfba c93e a3bc 10a2 2f3d
00000030: ba7d 48bd 6194 e33d b2ea 283d 3d3f 6ebc
00000040: 55a6 a4bd edcf a63d 3950 6c3c a06d e7bd
00000050: 675d 0bbe 5dc2 31be cf74 79be a51d 103d
00000060: 5fb6 0cbe 4832 e9bd c88c c8bb c26a 063d
00000070: 1898 cc3d 1645 d4bd cb94 86bd b8ac 6dbd
00000080: 4e04 abbb 5c3d 573d dd32 60be e12f 5ebd
00000090: 1587 22bc f6b0 463d 1f45 2ebd defe ae3d
000000a0: f1a3 88bd 4a78 0e3c 1a0d 95bd 48d6 debd
000000b0: 5a31 1bbd b639 b9bd 88c3 e33c f879 5ebd
000000c0: 0c0c d0bd 0f27 d5bd 4b59 5c3d b20f 5bbd
000000d0: 7637 e3bd 54cc 103e c8f4 163b 54a3 813c
000000e0: 1e00 14bc e590 80bd 80a4 41bd 01cc 7d3d
000000f0: 02be 98bd d56f f5bc 67ca acbd 4ccd e0bc
00000100: 288f 6ebc 59b1 0fbc f25d 17be c9be 43bd
00000110: e702 573d 3cf6 4b3d e963 723d 3653 683d
00000120: ca6b 8e39 1285 543d d819 643d 005f 05be
00000130: 9f53 8ebd 4b01 3c3d be3a 90bd 0011 d3ba
00000140: 1afb 503d 9562 f73d d779 5b3d 144e 863c
00000150: 9443 68bd 2454 9cbc 615f a53d aa5a 12bd
00000160: d24e abbd f938 5cb9 f629 9ebd a311 823d
00000170: ec55 e0bd 1d5e 48bd eadc 8f39 7f67 183d
00000180: 354a 0d3e af30 ecbc 1fa4 0fbe 1bf4 2ebd
00000190: 0854 8f3d 87b2 e8bc f26f 263e 8a6a a03c
000001a0: a25a ecbd 55d2 f9bd 3a3a 843d a23b e6bc
000001b0: 8c52 eb3d 5f50 063d 3dfd c8bd 61c0 703c
000001c0: 2d1b bcbd 13f3 67bd f1b8 bbbd 9eb5 913d
000001d0: fc06 7bbd 8e94 273e bb49 c03d 5bb5 b93c
000001e0: 45d0 d8bd 82f4 173d f93f b53d 00e7 b43d
000001f0: 13b5 b1bd 9f48 933d 1bdf c73d 6d6e 5d3d
00000200: ae63 a83d 2ec0 b93c 4842 7f3c ac17 68bd
00000210: 02dc be3d 8d47 aa3d 8cda a5bd 9a5c 3cbd
00000220: 6604 dc3c 0f33 1cbd a9e7 eb3d 8515 ffbc
00000230: fe0b 2f3d 2724 1b3c 2e06 c4bb 26e8 483d
00000240: 554d 703d 30aa eebc 495b e83d 291f ac3d
00000250: 0ff9 b93c 0994 fd3c 5696 a43c 6875 30bd
00000260: 1039 25bd 379f 53be 0f25 77bd 6546 af3a
00000270: 9ddf dcbc 42af 7ebb c818 733d 8245 28bd
00000280: 9c89 133e f783 44bc a3b5 a2bc 8dfa 473d
00000290: 3e2c e1bc bdcb 763d f710 ae3d b060 243e
000002a0: 6aad ef3c 1cea ca3c 6338 06bd 906d de3c
000002b0: 04b9 113d 3d73 e9bd 46f5 773d 16a0 3d3d
000002c0: c3ab fcbc 185d 51bd baf9 aabc 38cf 19bc
000002d0: be81 b6bc 4905 c5bd 44a9 ccbd 0f86 f8bd
000002e0: 385b 85ba 0a4b 11be 0d05 39bd 89a4 4dbd
000002f0: 78d3 aabd 5237 853b 255b 0e3d 9bc7 31bd
00000300: abe5 00bd 48a4 16bd 26b8 15bd a800 8d3d
00000310: 2a53 e63d d2bd 93bd cdda 75ba dcc8 153d
00000320: ec1c 80bd 191c 633d 5666 c4bd 3c5a cb3d
00000330: 4069 bd3d b53b 6bbc 2b90 fdbd b609 96bc
00000340: 9799 fabb 8dbd 043d d97b 0cbe d260 e43c
00000350: 6e7c 203d 39a3 2e3e 1dec 233e 6217 333c
00000360: 4dc5 1a3e a03e 153d c556 70bd e615 94bd
00000370: 4d20 2d3e ff50 db3d 2c60 483e 38f7 07be
00000380: 7321 cebd 6f18 963c a929 0c3c 6cbf 29bd
00000390: 46b2 e03c f312 c1bd 2eb0 44bd 711b a4bd
000003a0: df43 1abd 670f 5f3d a861 19bb 4dca 393d
000003b0: 7f2d 2fbc 56dc ff3d c6b2 02bc 3bbb cbbc
000003c0: 2a18 9e3e ada6 6c3d 9a8e 9b3d c85d 04be
000003d0: 2ea2 7d3d 7ae2 123e 2e37 163d 8bd5 83bc
000003e0: 9002 a7bd 0d86 763e 5918 6cbd 0a4b 913d
000003f0: 6dde dcbc 9377 733d cbef 2ebe 83d8 4dbe

res_blocks.1.batch_norm.weight f4 [32]
0.6412369 0.61248326 0.6697007 0.57187074 0.56964225 0.6876256 0.63788897 0.7435946
0.6426652 0.7274768 0.67274934 0.5553542 0.5817318 0.73968965 0.72663283 0.73331714
0.69858915 0.63481414 0.73912305 0.6417918 0.5859939 0.61498004 0.74307096 0.72443074
0.717176 0.68076646 0.72572505 0.50518227 0.53719985 0.75196385 0.72632295 0.66196895
00000000: 1a28 243f b4cb 1c3f 8171 2b3f 1f66 123f
00000010: 13d4 113f 3b08 303f b14c 233f 375c 3e3f
00000020: b585 243f eb3b 3a3f 4d39 2c3f b12b 0e3f
00000030: 60ec 143f 4d5c 3d3f 9c04 3a3f acba 3b3f
00000040: bdd6 323f 2e83 223f 2b37 3d3f 784c 243f
00000050: b203 163f 556f 1d3f e639 3e3f 4b74 393f
00000060: d998 373f b646 2e3f 1ec9 393f a053 013f
00000070: ee85 093f b480 403f 4df0 393f cc76 293f

res_blocks.1.batch_norm.bias f4 [32]
-0.047654387 0.0042308397 0.033699185 0.0028313077 0.01718784 -0.023023538 -0.019314827 0.042982012
0.027557079 0.03546234 0.012492991 -0.011787659 0.0016300837 0.062724434 0.008731039 0.030317368
0.049112972 0.015538241 0.07565911 0.02258147 0.0087611005 0.014718261 0.06551898 0.045007374
0.004208438 0.00664012 0.024439357 -0.04723307 -0.018208168 0.030865718 0.02121413 0.09342015
00000000: 3f31 43bd dba2 8a3b 2808 0a3d 768d 393b
00000010: 83cd 8c3c dc9b bcbc 213a 9ebc e80d 303d
00000020: 62bf e13c f540 113d 67af 4c3c 0621 41bc
00000030: 88a8 d53a ab75 803d a20c 0f3c 215c f83c
00000040: af2a 493d 1b94 7e3c 2af3 9a3d c6fc b83c
00000050: b88a 0f3c dc24 713c d12e 863d a759 383d
00000060: f0e6 893b 5d95 d93b 0c35 c83c 7777 41bd
00000070: 4c29 95bc 1ada fc3c 41c9 ad3c 1053 bf3d

res_blocks.1.batch_norm.running_mean f4 [32]
-0.1842028 -1.1213956 -0.46864364 -0.84155434 -0.2161029 -1.3518592 -1.1413149 -0.08126482
1.0524153 1.2854787 -0.88034517 -2.3074975 -1.4183346 0.24743575 0.39476544 1.6793796
0.8687154 1.957819 0.362926 -2.0849538 -1.8067933 1.4129105 1.0803126 -0.62747395
1.3227655 -1.2109606 0.3044021 -3.5813503 5.4554663 -0.8293803 1.4462614 0.81377083
00000000: a99f 3cbe e489 8fbf 0ff2 efbe 1b70 57bf
00000010: 144a 5dbe b909 adbf 9b16 92bf 2c6e a6bd
00000020: 8bb5 863f 918a a43f 4d5e 61bf 0aae 13c0
00000030: fd8b b5bf cc5f 7d3e b21e ca3e e9f5 d63f
00000040: 2264 5e3f d099 fa3f 70d1 b93e e26f 05c0
00000050: 0145 e7bf 40da b43f af47 8a3f 22a2 20bf
00000060: 6150 a93f c200 9bbf 98da 9b3e d834 65c0
00000070: 2e93 ae40 4452 54bf 181f b93f 4953 503f

res_blocks.1.batch_norm.running_var f4 [32]
8.748606 12.25625 14.314195 11.8513 10.538859 10.606822 11.146553 6.2981606
13.553291 8.704709 10.342812 12.749589 23.392908 7.534351 16.518196 13.574369
15.138598 9.897636 9.637499 15.994949 11.753535 9.277711 13.973918 7.25767
9.632541 12.485063 10.900417 31.671093 38.265903 6.1850443 12.928162 8.260044
00000000: 4afa 0b41 9a19 4441 f106 6541 ed9e 3d41
00000010: 2b9f 2841 8bb5 2941 4858 3241 888a c940
00000020: 48da 5841 7d46 0b41 287c 2541 51fe 4b41
00000030: ad24 bb41 6719 f140 4425 8441 9e30 5941
00000040: b337 7241 b85c 1e41 3233 1a41 50eb 7f41
00000050: 7b0e 3c41 8171 1441 2b95 5f41 d53e e840
00000060: e31e 1a41 d1c2 4741 1c68 2e41 665e fd41
00000070: 4910 1942 e2eb c540 c0d9 4e41 2429 0441

res_blocks.2.conv.weight f4 [32, 32, 3, 3]
0.08205439 0.10806866 -0.05030279 0.18104696 -0.103454754 0.003690476 -0.061697155 -0.004863532
0.044318885 -0.0014619867 -0.0199274 0.042879164 -0.048948027 0.111122854 0.041239448 -0.014541444
-0.08039538 0.081451274 0.014423423 -0.11300206 -0.13609849 -0.173593 -0.24360965 0.03518452
-0.13741444 -0.113865435 -0.006120298 0.032816656 0.09989947 -0.103647396 -0.06571349 -0.058026046
-0.005219019 0.05254875 -0.21894403 -0.05424488 -0.009919901 0.048508607 -0.042546388 0.08544706
-0.06671894 0.008695671 -0.072778895 -0.10880715 -0.037888862 -0.090442106 0.027803198 -0.054315537
-0.10158548 -0.104078405 0.053796094 -0.053481765 -0.11094563 0.14140445 0.0023034085 0.015824951
-0.009033231 -0.062776364 -0.04727602 0.06196213 -0.07458116 -0.029960552 -0.08437043 -0.027441643
-0.014560498 -0.00877031 -0.14781931 -0.04778937 0.052493002 0.049795374 0.059177313 0.05671998
0.0002716466 0.05188472 0.05568871 -0.13024521 -0.06949543 0.04589967 -0.07042454 -0.0016103089
0.05102072 0.1207935 0.053582992 0.016394652 -0.056705073 -0.01908309 0.08074833 -0.035730995
-0.08364643 -0.00021002059 -0.07722847 0.0635102 -0.10953888 -0.04891788 0.0002743968 0.037208077
0.13797839 -0.028831808 -0.14027451 -0.042713266 0.069984496 -0.028405441 0.16253641 0.019582052
-0.11540724 -0.12198321 0.06456418 -0.028104607 0.11490354 0.03279149 -0.09813926 0.014694304
-0.09184871 -0.056628298 -0.09166134 0.07114719 -0.061285958 0.16365263 0.09389063 0.022669485
-0.10586599 0.037098415 0.088500924 0.08833122 -0.08677115 0.07191586 0.09759351 0.05406039
0.082221374 0.022674646 0.0155797675 -0.0566632 0.09319307 0.083144285 -0.08098325 -0.04598675
0.026857566 -0.03813463 0.11518795 -0.031138191 0.042736046 0.009469069 -0.005982182 0.04904952
0.0586675 -0.029133886 0.11345536 0.08404381 0.022701768 0.030954378 0.020091217 -0.043080717
-0.040337622 -0.20666204 -0.060338076 0.001337242 -0.026962096 -0.0038861786 0.059349805 -0.041081913
0.14407963 -0.0119943535 -0.019862002 0.04882293 -0.027486917 0.060252894 0.084993295 0.16052508
0.029257495 0.024769835 -0.03276862 0.027151853 0.035576835 -0.11398933 0.060536645 0.046295248
-0.030843621 -0.05111417 -0.020871032 -0.009387784 -0.022278663 -0.09620149 -0.09993222 -0.12134945
-0.001017428 -0.14188781 -0.045170832 -0.05020574 -0.08341116 0.0040654326 0.03475489 -0.04340325
-0.03146903 -0.036777765 -0.03655257 0.06884891 0.11246331 -0.0721394 -0.0009378612 0.036568508
-0.062555164 0.055446718 -0.095898315 0.0992932 0.092485905 -0.014357497 -0.123810135 -0.018315177
-0.007647704 0.032407332 -0.13719119 0.027878199 0.039181165 0.17054452 0.16008039 0.010930868
0.15114327 0.036436677 -0.0586765 -0.07230739 0.16906853 0.10708808 0.19567937 -0.132779
-0.10064974 0.018322198 0.008554854 -0.04144232 0.027428757 -0.094274424 -0.04801958 -0.080130465
-0.037662383 0.05445805 -0.0023404155 0.045358945 -0.010691999 0.124931976 -0.007977193 -0.024869552
0.3087781 0.057776142 0.075955585 -0.129264 0.061922245 0.14344206 0.036673717 -0.016093036
-0.08154786 0.24074574 -0.057640407 0.07094391 -0.02696153 0.059440207 -0.17083661 -0.20102124
00000000: 220c a83d 1a53 dd3d 4c0a 4ebd 6064 393e
00000010: 16e0 d3bd eadb 713b 28b6 7cbd 435e 9fbb
00000020: b887 353d 22a0 bfba c93e a3bc 10a2 2f3d
00000030: ba7d 48bd 6194 e33d b2ea 283d 3d3f 6ebc
00000040: 55a6 a4bd edcf a63d 3950 6c3c a06d e7bd
00000050: 675d 0bbe 5dc2 31be cf74 79be a51d 103d
00000060: 5fb6 0cbe 4832 e9bd c88c c8bb c26a 063d
00000070: 1898 cc3d 1645 d4bd cb94 86bd b8ac 6dbd
00000080: 4e04 abbb 5c3d 573d dd32 60be e12f 5ebd
00000090: 1587 22bc f6b0 463d 1f45 2ebd defe ae3d
000000a0: f1a3 88bd 4a78 0e3c 1a0d 95bd 48d6 debd
000000b0: 5a31 1bbd b639 b9bd 88c3 e33c f879 5ebd
000000c0: 0c0c d0bd 0f27 d5bd 4b59 5c3d b20f 5bbd
000000d0: 7637 e3bd 54cc 103e c8f4 163b 54a3 813c
000000e0: 1e00 14bc e590 80bd 80a4 41bd 01cc 7d3d
000000f0: 02be 98bd d56f f5bc 67ca acbd 4ccd e0bc
00000100: 288f 6ebc 59b1 0fbc f25d 17be c9be 43bd
00000110: e702 573d 3cf6 4b3d e963 723d 3653 683d
00000120: ca6b 8e39 1285 543d d819 643d 005f 05be
00000130: 9f53 8ebd 4b01 3c3d be3a 90bd 0011 d3ba
00000140: 1afb 503d 9562 f73d d779 5b3d 144e 863c
00000150: 9443 68bd 2454 9cbc 615f a53d aa5a 12bd
00000160: d24e abbd f938 5cb9 f629 9ebd a311 823d
00000170: ec55 e0bd 1d5e 48bd eadc 8f39 7f67 183d
00000180: 354a 0d3e af30 ecbc 1fa4 0fbe 1bf4 2ebd
00000190: 0854 8f3d 87b2 e8bc f26f 263e 8a6a a03c
000001a0: a25a ecbd 55d2 f9bd 3a3a 843d a23b e6bc
000001b0: 8c52 eb3d 5f50 063d 3dfd c8bd 61c0 703c
000001c0: 2d1b bcbd 13f3 67bd f1b8 bbbd 9eb5 913d
000001d0: fc06 7bbd 8e94 273e bb49 c03d 5bb5 b93c
000001e0: 45d0 d8bd 82f4 173d f93f b53d 00e7 b43d
000001f0: 13b5 b1bd 9f48 933d 1bdf c73d 6d6e 5d3d
00000200: ae63 a83d 2ec0 b93c 4842 7f3c ac17 68bd
00000210: 02dc be3d 8d47 aa3d 8cda a5bd 9a5c 3cbd
00000220: 6604 dc3c 0f33 1cbd a9e7 eb3d 8515 ffbc
00000230: fe0b 2f3d 2724 1b3c 2e06 c4bb 26e8 483d
00000240: 554d 703d 30aa eebc 495b e83d 291f ac3d
00000250: 0ff9 b93c 0994 fd3c 5696 a43c 6875 30bd
00000260: 1039 25bd 379f 53be 0f25 77bd 6546 af3a
00000270: 9ddf dcbc 42af 7ebb c818 733d 8245 28bd
00000280: 9c89 133e f783 44bc a3b5 a2bc 8dfa 473d
00000290: 3e2c e1bc bdcb 763d f710 ae3d b060 243e
000002a0: 6aad ef3c 1cea ca3c 6338 06bd 906d de3c
000002b0: 04b9 113d 3d73 e9bd 46f5 773d 16a0 3d3d
000002c0: c3ab fcbc 185d 51bd baf9 aabc 38cf 19bc
000002d0: be81 b6bc 4905 c5bd 44a9 ccbd 0f86 f8bd
000002e0: 385b 85ba 0a4b 11be 0d05 39bd 89a4 4dbd
000002f0: 78d3 aabd 5237 853b 255b 0e3d 9bc7 31bd
00000300: abe5 00bd 48a4 16bd 26b8 15bd a800 8d3d
00000310: 2a53 e63d d2bd 93bd cdda 75ba dcc8 153d
00000320: ec1c 80bd 191c 633d 5666 c4bd 3c5a cb3d
00000330: 4069 bd3d b53b 6bbc 2b90 fdbd b609 96bc
00000340: 9799 fabb 8dbd 043d d97b 0cbe d260 e43c
00000350: 6e7c 203d 39a3 2e3e 1dec 233e 6217 333c
00000360: 4dc5 1a3e a03e 153d c556 70bd e615 94bd
00000370: 4d20 2d3e ff50 db3d 2c60 483e 38f7 07be
00000380: 7321 cebd 6f18 963c a929 0c3c 6cbf 29bd
00000390: 46b2 e03c f312 c1bd 2eb0 44bd 711b a4bd
000003a0: df43 1abd 670f 5f3d a861 19bb 4dca 393d
000003b0: 7f2d 2fbc 56dc ff3d c6b2 02bc 3bbb cbbc
000003c0: 2a18 9e3e ada6 6c3d 9a8e 9b3d c85d 04be
000003d0: 2ea2 7d3d 7ae2 123e 2e37 163d 8bd5 83bc
000003e0: 9002 a7bd 0d86 763e 5918 6cbd 0a4b 913d
000003f0: 6dde dcbc 9377 733d cbef 2ebe 83d8 4dbe

res_blocks.2.batch_norm.weight f4 [32]
0.6412369 0.61248326 0.6697007 0.57187074 0.56964225 0.6876256 0.63788897 0.7435946
0.6426652 0.7274768 0.67274934 0.5553542 0.5817318 0.73968965 0.72663283 0.73331714
0.69858915 0.63481414 0.73912305 0.6417918 0.5859939 0.61498004 0.74307096 0.72443074
0.717176 0.68076646 0.72572505 0.50518227 0.53719985 0.75196385 0.72632295 0.66196895
00000000: 1a28 243f b4cb 1c3f 8171 2b3f 1f66 123f
00000010: 13d4 113f 3b08 303f b14c 233f 375c 3e3f
00000020: b585 243f eb3b 3a3f 4d39 2c3f b12b 0e3f
00000030: 60ec 143f 4d5c 3d3f 9c04 3a3f acba 3b3f
00000040: bdd6 323f 2e83 223f 2b37 3d3f 784c 243f
00000050: b203 163f 556f 1d3f e639 3e3f 4b74 393f
00000060: d998 373f b646 2e3f 1ec9 393f a053 013f
00000070: ee85 093f b480 403f 4df0 393f cc76 293f

res_blocks.2.batch_norm.bias f4 [32]
-0.047654387 0.0042308397 0.033699185 0.0028313077 0.01718784 -0.023023538 -0.019314827 0.042982012
0.027557079 0.03546234 0.012492991 -0.011787659 0.0016300837 0.062724434 0.008731039 0.030317368
0.049112972 0.015538241 0.07565911 0.02258147 0.0087611005 0.014718261 0.06551898 0.045007374
0.004208438 0.00664012 0.024439357 -0.04723307 -0.018208168 0.030865718 0.02121413 0.09342015
00000000: 3f31 43bd dba2 8a3b 2808 0a3d 768d 393b
00000010: 83cd 8c3c dc9b bcbc 213a 9ebc e80d 303d
00000020: 62bf e13c f540 113d 67af 4c3c 0621 41bc
00000030: 88a8 d53a ab75 803d a20c 0f3c 215c f83c
00000040: af2a 493d 1b94 7e3c 2af3 9a3d c6fc b83c
00000050: b88a 0f3c dc24 713c d12e 863d a759 383d
00000060: f0e6 893b 5d95 d93b 0c35 c83c 7777 41bd
00000070: 4c29 95bc 1ada fc3c 41c9 ad3c 1053 bf3d

res_blocks.2.batch_norm.running_mean f4 [32]
-0.1842028 -1.1213956 -0.46864364 -0.84155434 -0.2161029 -1.3518592 -1.1413149 -0.08126482
1.0524153 1.2854787 -0.88034517 -2.3074975 -1.4183346 0.24743575 0.39476544 1.6793796
0.8687154 1.957819 0.362926 -2.0849538 -1.8067933 1.4129105 1.0803126 -0.62747395
1.3227655 -1.2109606 0.3044021 -3.5813503 5.4554663 -0.8293803 1.4462614 0.81377083
00000000: a99f 3cbe e489 8fbf 0ff2 efbe 1b70 57bf
00000010: 144a 5dbe b909 adbf 9b16 92bf 2c6e a6bd
00000020: 8bb5 863f 918a a43f 4d5e 61bf 0aae 13c0
00000030: fd8b b5bf cc5f 7d3e b21e ca3e e9f5 d63f
00000040: 2264 5e3f d099 fa3f 70d1 b93e e26f 05c0
00000050: 0145 e7bf 40da b43f af47 8a3f 22a2 20bf
00000060: 6150 a93f c200 9bbf 98da 9b3e d834 65c0
00000070: 2e93 ae40 4452 54bf 181f b93f 4953 503f

res_blocks.2.batch_norm.running_var f4 [32]
8.748606 12.25625 14.314195 11.8513 10.538859 10.606822 11.146553 6.2981606
13.553291 8.704709 10.342812 12.749589 23.392908 7.534351 16.518196 13.574369
15.138598 9.897636 9.637499 15.994949 11.753535 9.277711 13.973918 7.25767
9.632541 12.485063 10.900417 31.671093 38.265903 6.1850443 12.928162 8.260044
00000000: 4afa 0b41 9a19 4441 f106 6541 ed9e 3d41
00000010: 2b9f 2841 8bb5 2941 4858 3241 888a c940
00000020: 48da 5841 7d46 0b41 287c 2541 51fe 4b41
00000030: ad24 bb41 6719 f140 4425 8441 9e30 5941
00000040: b337 7241 b85c 1e41 3233 1a41 50eb 7f41
00000050: 7b0e 3c41 8171 1441 2b95 5f41 d53e e840
00000060: e31e 1a41 d1c2 4741 1c68 2e41 665e fd41
00000070: 4910 1942 e2eb c540 c0d9 4e41 2429 0441

res_blocks.3.conv.weight f4 [32, 32, 3, 3]
0.08205439 0.10806866 -0.05030279 0.18104696 -0.103454754 0.003690476 -0.061697155 -0.004863532
0.044318885 -0.0014619867 -0.0199274 0.042879164 -0.048948027 0.111122854 0.041239448 -0.014541444
-0.08039538 0.081451274 0.014423423 -0.11300206 -0.13609849 -0.173593 -0.24360965 0.03518452
-0.13741444 -0.113865435 -0.006120298 0.032816656 0.09989947 -0.103647396 -0.06571349 -0.058026046
-0.005219019 0.05254875 -0.21894403 -0.05424488 -0.009919901 0.048508607 -0.042546388 0.08544706
-0.06671894 0.008695671 -0.072778895 -0.10880715 -0.037888862 -0.090442106 0.027803198 -0.054315537
-0.10158548 -0.104078405 0.053796094 -0.053481765 -0.11094563 0.14140445 0.0023034085 0.015824951
-0.009033231 -0.062776364 -0.04727602 0.06196213 -0.07458116 -0.029960552 -0.08437043 -0.027441643
-0.014560498 -0.00877031 -0.14781931 -0.04778937 0.052493002 0.049795374 0.059177313 0.05671998
0.0002716466 0.05188472 0.05568871 -0.13024521 -0.06949543 0.04589967 -0.07042454 -0.0016103089
0.05102072 0.1207935 0.053582992 0.016394652 -0.056705073 -0.01908309 0.08074833 -0.035730995
-0.08364643 -0.00021002059 -0.07722847 0.0635102 -0.10953888 -0.04891788 0.0002743968 0.037208077
0.13797839 -0.028831808 -0.14027451 -0.042713266 0.069984496 -0.028405441 0.16253641 0.019582052
-0.11540724 -0.12198321 0.06456418 -0.028104607 0.11490354 0.03279149 -0.09813926 0.014694304
-0.09184871 -0.056628298 -0.09166134 0.07114719 -0.061285958 0.16365263 0.09389063 0.022669485
-0.10586599 0.037098415 0.088500924 0.08833122 -0.08677115 0.07191586 0.09759351 0.05406039
0.082221374 0.022674646 0.0155797675 -0.0566632 0.09319307 0.083144285 -0.08098325 -0.04598675
0.026857566 -0.03813463 0.11518795 -0.031138191 0.042736046 0.009469069 -0.005982182 0.04904952
0.0586675 -0.029133886 0.11345536 0.08404381 0.022701768 0.030954378 0.020091217 -0.043080717
-0.040337622 -0.20666204 -0.060338076 0.001337242 -0.026962096 -0.0038861786 0.059349805 -0.041081913
0.14407963 -0.0119943535 -0.019862002 0.04882293 -0.027486917 0.060252894 0.084993295 0.16052508
0.029257495 0.024769835 -0.03276862 0.027151853 0.035576835 -0.11398933 0.060536645 0.046295248
-0.030843621 -0.05111417 -0.020871032 -0.009387784 -0.022278663 -0.09620149 -0.09993222 -0.12134945
-0.001017428 -0.14188781 -0.045170832 -0.05020574 -0.08341116 0.0040654326 0.03475489 -0.04340325
-0.03146903 -0.036777765 -0.03655257 0.06884891 0.11246331 -0.0721394 -0.0009378612 0.036568508
-0.062555164 0.055446718 -0.095898315 0.0992932 0.092485905 -0.014357497 -0.123810135 -0.018315177
-0.007647704 0.032407332 -0.13719119 0.027878199 0.039181165 0.17054452 0.16008039 0.010930868
0.15114327 0.036436677 -0.0586765 -0.07230739 0.16906853 0.10708808 0.19567937 -0.132779
-0.10064974 0.018322198 0.008554854 -0.04144232 0.027428757 -0.094274424 -0.04801958 -0.080130465
-0.037662383 0.05445805 -0.0023404155 0.045358945 -0.010691999 0.124931976 -0.007977193 -0.024869552
0.3087781 0.057776142 0.075955585 -0.129264 0.061922245 0.14344206 0.036673717 -0.016093036
-0.08154786 0.24074574 -0.057640407 0.07094391 -0.02696153 0.059440207 -0.17083661 -0.20102124
00000000: 220c a83d 1a53 dd3d 4c0a 4ebd 6064 393e
00000010: 16e0 d3bd eadb 713b 28b6 7cbd 435e 9fbb
00000020: b887 353d 22a0 bfba c93e a3bc 10a2 2f3d
00000030: ba7d 48bd 6194 e33d b2ea 283d 3d3f 6ebc
00000040: 55a6 a4bd edcf a63d 3950 6c3c a06d e7bd
00000050: 675d 0bbe 5dc2 31be cf74 79be a51d 103d
00000060: 5fb6 0cbe 4832 e9bd c88c c8bb c26a 063d
00000070: 1898 cc3d 1645 d4bd cb94 86bd b8ac 6dbd
00000080: 4e04 abbb 5c3d 573d dd32 60be e12f 5ebd
00000090: 1587 22bc f6b0 463d 1f45 2ebd defe ae3d
000000a0: f1a3 88bd 4a78 0e3c 1a0d 95bd 48d6 debd
000000b0: 5a31 1bbd b639 b9bd 88c3 e33c f879 5ebd
000000c0: 0c0c d0bd 0f27 d5bd 4b59 5c3d b20f 5bbd
000000d0: 7637 e3bd 54cc 103e c8f4 163b 54a3 813c
000000e0: 1e00 14bc e590 80bd 80a4 41bd 01cc 7d3d
000000f0: 02be 98bd d56f f5bc 67ca acbd 4ccd e0bc
00000100: 288f 6ebc 59b1 0fbc f25d 17be c9be 43bd
00000110: e702 573d 3cf6 4b3d e963 723d 3653 683d
00000120: ca6b 8e39 1285 543d d819 643d 005f 05be
00000130: 9f53 8ebd 4b01 3c3d be3a 90bd 0011 d3ba
00000140: 1afb 503d 9562 f73d d779 5b3d 144e 863c
00000150: 9443 68bd 2454 9cbc 615f a53d aa5a 12bd
00000160: d24e abbd f938 5cb9 f629 9ebd a311 823d
00000170: ec55 e0bd 1d5e 48bd eadc 8f39 7f67 183d
00000180: 354a 0d3e af30 ecbc 1fa4 0fbe 1bf4 2ebd
00000190: 0854 8f3d 87b2 e8bc f26f 263e 8a6a a03c
000001a0: a25a ecbd 55d2 f9bd 3a3a 843d a23b e6bc
000001b0: 8c52 eb3d 5f50 063d 3dfd c8bd 61c0 703c
000001c0: 2d1b bcbd 13f3 67bd f1b8 bbbd 9eb5 913d
000001d0: fc06 7bbd 8e94 273e bb49 c03d 5bb5 b93c
000001e0: 45d0 d8bd 82f4 173d f93f b53d 00e7 b43d
000001f0: 13b5 b1bd 9f48 933d 1bdf c73d 6d6e 5d3d
00000200: ae63 a83d 2ec0 b93c 4842 7f3c ac17 68bd
00000210: 02dc be3d 8d47 aa3d 8cda a5bd 9a5c 3cbd
00000220: 6604 dc3c 0f33 1cbd a9e7 eb3d 8515 ffbc
00000230: fe0b 2f3d 2724 1b3c 2e06 c4bb 26e8 483d
00000240: 554d 703d 30aa eebc 495b e83d 291f ac3d
00000250: 0ff9 b93c 0994 fd3c 5696 a43c 6875 30bd
00000260: 1039 25bd 379f 53be 0f25 77bd 6546 af3a
00000270: 9ddf dcbc 42af 7ebb c818 733d 8245 28bd
00000280: 9c89 133e f783 44bc a3b5 a2bc 8dfa 473d
00000290: 3e2c e1bc bdcb 763d f710 ae3d b060 243e
000002a0: 6aad ef3c 1cea ca3c 6338 06bd 906d de3c
000002b0: 04b9 113d 3d73 e9bd 46f5 773d 16a0 3d3d
000002c0: c3ab fcbc 185d 51bd baf9 aabc 38cf 19bc
000002d0: be81 b6bc 4905 c5bd 44a9 ccbd 0f86 f8bd
000002e0: 385b 85ba 0a4b 11be 0d05 39bd 89a4 4dbd
000002f0: 78d3 aabd 5237 853b 255b 0e3d 9bc7 31bd
00000300: abe5 00bd 48a4 16bd 26b8 15bd a800 8d3d
00000310: 2a53 e63d d2bd 93bd cdda 75ba dcc8 153d
00000320: ec1c 80bd 191c 633d 5666 c4bd 3c5a cb3d
00000330: 4069 bd3d b53b 6bbc 2b90 fdbd b609 96bc
00000340: 9799 fabb 8dbd 043d d97b 0cbe d260 e43c
00000350: 6e7c 203d 39a3 2e3e 1dec 233e 6217 333c
00000360: 4dc5 1a3e a03e 153d c556 70bd e615 94bd
00000370: 4d20 2d3e ff50 db3d 2c60 483e 38f7 07be
00000380: 7321 cebd 6f18 963c a929 0c3c 6cbf 29bd
00000390: 46b2 e03c f312 c1bd 2eb0 44bd 711b a4bd
000003a0: df43 1abd 670f 5f3d a861 19bb 4dca 393d
000003b0: 7f2d 2fbc 56dc ff3d c6b2 02bc 3bbb cbbc
000003c0: 2a18 9e3e ada6 6c3d 9a8e 9b3d c85d 04be
000003d0: 2ea2 7d3d 7ae2 123e 2e37 163d 8bd5 83bc
000003e0: 9002 a7bd 0d86 763e 5918 6cbd 0a4b 913d
000003f0: 6dde dcbc 9377 733d cbef 2ebe 83d8 4dbe

res_blocks.3.batch_norm.weight f4 [32]
0.6412369 0.61248326 0.6697007 0.57187074 0.56964225 0.6876256 0.63788897 0.7435946
0.6426652 0.7274768 0.67274934 0.5553542 0.5817318 0.73968965 0.72663283 0.73331714
0.69858915 0.63481414 0.73912305 0.6417918 0.5859939 0.61498004 0.74307096 0.72443074
0.717176 0.68076646 0.72572505 0.50518227 0.53719985 0.75196385 0.72632295 0.66196895
00000000: 1a28 243f b4cb 1c3f 8171 2b3f 1f66 123f
00000010: 13d4 113f 3b08 303f b14c 233f 375c 3e3f
00000020: b585 243f eb3b 3a3f 4d39 2c3f b12b 0e3f
00000030: 60ec 143f 4d5c 3d3f 9c04 3a3f acba 3b3f
00000040: bdd6 323f 2e83 223f 2b37 3d3f 784c 243f
00000050: b203 163f 556f 1d3f e639 3e3f 4b74 393f
00000060: d998 373f b646 2e3f 1ec9 393f a053 013f
00000070: ee85 093f b480 403f 4df0 393f cc76 293f

res_blocks.3.batch_norm.bias f4 [32]
-0.047654387 0.0042308397 0.033699185 0.0028313077 0.01718784 -0.023023538 -0.019314827 0.042982012
0.027557079 0.03546234 0.012492991 -0.011787659 0.0016300837 0.062724434 0.008731039 0.030317368
0.049112972 0.015538241 0.07565911 0.02258147 0.0087611005 0.014718261 0.06551898 0.045007374
0.004208438 0.00664012 0.024439357 -0.04723307 -0.018208168 0.030865718 0.02121413 0.09342015
00000000: 3f31 43bd dba2 8a3b 2808 0a3d 768d 393b
00000010: 83cd 8c3c dc9b bcbc 213a 9ebc e80d 303d
00000020: 62bf e13c f540 113d 67af 4c3c 0621 41bc
00000030: 88a8 d53a ab75 803d a20c 0f3c 215c f83c
00000040: af2a 493d 1b94 7e3c 2af3 9a3d c6fc b83c
00000050: b88a 0f3c dc24 713c d12e 863d a759 383d
00000060: f0e6 893b 5d95 d93b 0c35 c83c 7777 41bd
00000070: 4c29 95bc 1ada fc3c 41c9 ad3c 1053 bf3d

res_blocks.3.batch_norm.running_mean f4 [32]
-0.1842028 -1.1213956 -0.46864364 -0.84155434 -0.2161029 -1.3518592 -1.1413149 -0.08126482
1.0524153 1.2854787 -0.88034517 -2.3074975 -1.4183346 0.24743575 0.39476544 1.6793796
0.8687154 1.957819 0.362926 -2.0849538 -1.8067933 1.4129105 1.0803126 -0.62747395
1.3227655 -1.2109606 0.3044021 -3.5813503 5.4554663 -0.8293803 1.4462614 0.81377083
00000000: a99f 3cbe e489 8fbf 0ff2 efbe 1b70 57bf
00000010: 144a 5dbe b909 adbf 9b16 92bf 2c6e a6bd
00000020: 8bb5 863f 918a a43f 4d5e 61bf 0aae 13c0
00000030: fd8b b5bf cc5f 7d3e b21e ca3e e9f5 d63f
00000040: 2264 5e3f d099 fa3f 70d1 b93e e26f 05c0
00000050: 0145 e7bf 40da b43f af47 8a3f 22a2 20bf
00000060: 6150 a93f c200 9bbf 98da 9b3e d834 65c0
00000070: 2e93 ae40 4452 54bf 181f b93f 4953 503f

res_blocks.3.batch_norm.running_var f4 [32]
8.748606 12.25625 14.314195 11.8513 10.538859 10.606822 11.146553 6.2981606
13.553291 8.704709 10.342812 12.749589 23.392908 7.534351 16.518196 13.574369
15.138598 9.897636 9.637499 15.994949 11.753535 9.277711 13.973918 7.25767
9.632541 12.485063 10.900417 31.671093 38.265903 6.1850443 12.928162 8.260044
00000000: 4afa 0b41 9a19 4441 f106 6541 ed9e 3d41
00000010: 2b9f 2841 8bb5 2941 4858 3241 888a c940
00000020: 48da 5841 7d46 0b41 287c 2541 51fe 4b41
00000030: ad24 bb41 6719 f140 4425 8441 9e30 5941
00000040: b337 7241 b85c 1e41 3233 1a41 50eb 7f41
00000050: 7b0e 3c41 8171 1441 2b95 5f41 d53e e840
00000060: e31e 1a41 d1c2 4741 1c68 2e41 665e fd41
00000070: 4910 1942 e2eb c540 c0d9 4e41 2429 0441
