my_pt/320_deep_model.pt (torch, 859042 bytes, 56 tensors)

conv1.weight f4 [32, 1, 3, 3]
-0.04165768 -0.364765 -0.25336793 -0.0128727285 0.25868806 -0.31650028 0.20556657 0.065423876
-0.13180564 -0.22955887 -0.16258845 -0.06597045 -0.2625467 0.257534 0.048032958 0.30831105
0.26973784 0.15369955 0.049915068 -0.30401018 -0.10753195 0.055116426 -0.14103912 0.19361936
0.22186643 -0.12321623 0.12387721 0.21798235 0.22654237 -0.18880343 -0.15730713 -0.11775284
0.15220298 0.22836329 -0.32769042 0.094115965 -0.20812792 0.028910905 0.2247256 0.16957161
-0.3948347 0.023967952 0.32420135 -0.22775254 0.06708203 -0.047722626 0.19076641 -0.3312338
-0.07959778 0.10149993 0.1206609 -0.21529835 0.2045136 0.2751139 -0.06728386 -0.1430535
-0.15782659 0.03142153 0.17442323 -0.22737664 -0.07153699 -0.18781006 -0.18975501 -0.06477216
0.26508552 0.11098853 -0.11920528 0.14507201 -0.1156739 0.07709216 -0.1193707 -0.30278027
0.28973702 0.14711879 0.31287315 -0.23296398 0.016211372 0.13080707 -0.15702343 -0.12667787
-0.054484796 -0.003480495 -0.015065529 0.2925536 -0.26089808 -0.23455004 0.29046017 0.1993948
0.20778966 -0.10093975 0.33153448 0.096850425 -0.32391876 0.2628041 -0.28077397 0.0056081703
0.20406485 -0.23386835 -0.26214316 0.18215814 0.22098398 0.08576958 0.15626304 -0.12047751
-0.051189512 -0.29810292 0.17570603 0.27247012 0.18906352 0.019673774 -0.2706665 0.110582046
0.0107459705 0.30051446 -0.07237756 0.098065645 0.1364004 -0.11242898 0.1739721 -0.118936226
-0.29862982 0.19881134 -0.029402088 0.14613563 -0.22053607 -0.21690771 -0.077337876 0.22778179
-0.06436979 0.2804861 0.08201507 -0.072544836 0.19486472 -0.28018105 0.019751037 0.26470956
-0.31656504 -0.32010671 0.09814005 0.13521056 -0.30356044 0.115318954 0.24364759 -0.27315223
-0.019314446 -0.12807053 0.01070092 -0.33276916 -0.2135702 -0.05935107 0.16492204 -0.075435504
-0.13331376 0.010158317 -0.23929046 0.08803596 0.15346675 -0.0038067298 -0.12657313 0.052237175
-0.33215764 -0.100113876 -0.21685785 -0.102080934 -0.27212614 0.32625526 0.066852205 0.11416926
-0.078174025 -0.20604432 0.01882885 -0.2680378 -0.21252957 0.33352438 0.22523294 0.40433222
0.046443906 -0.017232522 -0.10886975 -0.1815869 0.13667382 -0.24074925 -0.011945096 0.16913915
0.28579903 -0.11148372 -0.15288402 0.10786761 0.07872376 -0.049823802 -0.050373945 0.0580078
0.17977129 -0.0018488305 -0.19117957 0.0012633173 -0.21450467 -0.32003635 0.10641087 -0.32645538
-0.17139687 -0.037486903 0.15136285 0.1909547 -0.118663505 -0.014336538 -0.22780676 0.15523657
-0.24400087 0.18510246 -0.22598962 -0.17397341 -0.2030481 -0.23110087 -0.2123769 -0.26279256
-0.06600756 -0.1591608 -0.27771837 -0.13177818 0.27464545 0.27589926 0.111261554 -0.017845733
0.16483478 0.047713574 0.24517591 -0.1720331 0.039833516 0.2525894 0.11166262 0.17533195
0.1610195 0.14407447 -0.3029138 -0.07936143 0.23236199 0.023206467 0.09167912 0.09294923
-0.114833765 -0.01310077 0.25005305 -0.120183654 0.08827344 0.10473437 -0.23699255 -0.20430772
0.051535334 -0.080475606 0.21396974 -0.09127335 0.10616793 -0.23807964 0.2442271 -0.12364746
00000000: 3ea1 2abd 7ac2 babe 71b9 81be 23e8 52bc
00000010: c372 843e 530c a2be 0b80 523e f4fc 853d
00000020: 0ff8 06be 7b11 6bbe 967d 26be 841b 87bd
00000030: 856c 86be 7fdb 833e 35be 443d f2da 9d3e
00000040: 141b 8a3e 6a63 1d3e be73 4c3d 39a7 9bbe
00000050: b639 dcbd c3c1 613d 8f6c 10be 2744 463e
00000060: f430 633e ca58 fcbd 56b3 fd3d c436 5f3e
00000070: b9fa 673e b055 41be 1f15 21be 6728 f1bd
00000080: 19db 1b3e 11d8 693e 0ac7 a7be dfbf c03d
00000090: 7c1f 55be 90d6 ec3c 781e 663e 2ea4 2d3e
000000a0: c627 cabe 7058 c43c b8fd a53e f637 69be
000000b0: 4e62 893d cd78 43bd 4558 433e 7a97 a9be
000000c0: 2904 a3bd 32df cf3d 101d f73d 2c77 5cbe
000000d0: 036c 513e bbdb 8c3e 1fcc 89bd 9e7c 12be
000000e0: 4b9d 21be ddb3 003d 019c 323e 6cd5 68be
000000f0: fc81 92bd 4851 40be 234f 42be 44a7 84bd
00000100: 4ab9 873e f44d e33d e621 f4bd c28d 143e
00000110: 70e6 ecbd 7fe2 9d3d a078 f4bd 0406 9bbe
00000120: 6958 943e 4fa6 163e e930 a03e 1c8e 6ebe
00000130: b6cd 843c 4af2 053e c0ca 20be d8b7 01be
00000140: 732b 5fbd 0419 64bb 69d5 76bc 96c9 953e
00000150: 6f94 85be e32d 70be 32b7 943e 272e 4c3e
00000160: d0c6 543e 80b9 cebd e3be a93e 8459 c63d
00000170: aed8 a5be 428e 863e 9bc1 8fbe bec4 b73b
00000180: 60f6 503e 2f7b 6fbe a137 86be aa87 3a3e
00000190: a049 623e f6a7 af3d 6b03 203e eabc f6bd
000001a0: 18ac 51bd f2a0 98be 48ec 333e 3481 8b3e
000001b0: de99 413e e52a a13c cd94 8abe d778 e23d
000001c0: de0f 303c 08dd 993e b03a 94bd a4d6 c83d
000001d0: 8cac 0b3e 2a41 e6bd be25 323e d694 f3bd
000001e0: 02e6 98be 3395 4b3e a6dc f0bc 94a4 153e
000001f0: 35d4 61be 0e1d 5ebe 5263 9ebd a13f 693e
00000200: 4fd4 83bd e09b 8f3e 84f7 a73d 6392 94bd
00000210: 9e8a 473e e473 8fbe edcc a13c 0388 873e
00000220: d014 a2be 07e5 a3be a7fd c83d a374 0a3e
00000230: 466c 9bbe 582c ec3d c17e 793e 9cda 8bbe
00000240: 5439 9ebc ec24 03be e952 2f3c b860 aabe
00000250: 26b2 5abe 1c1a 73bd 53e1 283e ee7d 9abd
00000260: 6783 08be 126f 263c 8f08 75be 334c b43d
00000270: 6326 1d3e 547a 79bb 639c 01be a6f6 553d
00000280: 9110 aabe 8108 cdbd fc0f 5ebe cf0f d1bd
00000290: 1e54 8bbe ee0a a73e cfe9 883d 93d1 e93d
000002a0: b419 a0bd 48fd 52be f63e 9a3c 403c 89be
000002b0: 5aa1 59be b5c3 aa3e 77a3 663e a204 cf3e
000002c0: f73b 3e3d 382b 8dbc 1af7 debd ebf1 39be
000002d0: 39f4 0b3e f986 76be 5db5 43bc d032 2d3e
000002e0: 4054 923e 9451 e4bd a18d 1cbe b2e9 dc3d
000002f0: ec39 a13d 0b14 4cbd e954 4ebd 9699 6d3d
00000300: f715 383e 7554 f2ba 94c4 43be e595 a53a
00000310: 1da7 5bbe cedb a3be f1ed d93d 2925 a7be
00000320: a982 2fbe de8b 19bd ddfe 1a3e a189 433e
00000330: da05 f3bd cce3 6abc 2d46 69be 56f6 1e3e
00000340: 5ddb 79be 808b 3d3e d369 67be 1626 32be
00000350: d7eb 4fbe b5a5 6cbe 5479 59be bf8c 86be
00000360: f92e 87bd 0cfb 22be 1a31 8ebe dcf0 06be
00000370: 549e 8c3e ab42 8d3e 19dd e33d 3731 92bc
00000380: 73ca 283e 4f6f 433d 650f 7b3e 7229 30be
00000390: 7828 233d 6653 813e 5faf e43d 388a 333e
000003a0: 4ce2 243e 4288 133e 8517 9bbe 3f88 a2bd
000003b0: 4df0 6d3e 7d1b be3c 43c2 bb3d 2a5c be3d
000003c0: f72d ebbd 9da4 56bc f406 803e d922 f6bd
000003d0: b5c8 b43d f97e d63d 2dae 72be 0b36 51be
000003e0: b716 533d 65d0 a4bd e21a 5b3e 86ed babd
000003f0: 926e d93d 26cb 73be ab16 7a3e e13a fdbd

conv1.bias f4 [32]
-0.015298037 0.013148358 0.119998045 -0.20636156 -0.11210273 0.021969577 -0.1319168 0.24462853
-0.0640851 -0.250027 0.26517946 -0.21671183 -0.21526723 -0.16672055 -0.26337463 -0.20498636
0.1771954 -0.26289204 0.20894505 0.20699468 -0.23100863 -0.1649027 -0.27376723 -0.048144087
-0.34294257 0.2806945 -0.21391894 0.23851515 -0.09330411 -0.10618363 -0.17625003 0.18773928
00000000: 9ea4 7abc 366c 573c 89c1 f53d 7250 53be
00000010: 1e96 e5bd 8bf9 b33c 3315 07be e77f 7a3e
00000020: 0d3f 83bd 8a03 80be 9ac5 873e b5e9 5dbe
00000030: 036f 5cbe cbb8 2abe 0ad9 86be f2e7 51be
00000040: b672 353e c999 86be b1f5 553e 6af6 533e
00000050: 878d 6cbe 41dc 28be 382b 8cbe bc32 45bd
00000060: 2b96 afbe 31b7 8f3e 910d 5bbe 513d 743e
00000070: 3a16 bfbd ce76 d9bd e37a 34be ba3e 403e

res_blocks.0.conv.weight f4 [32, 32, 3, 3]
0.08201372 0.10810455 -0.050257336 0.18140519 -0.10254497 0.0039607505 -0.061672345 -0.0046273884
0.044577006 -0.0013060868 -0.019938098 0.042571828 -0.048986305 0.11119471 0.041370098 -0.014556532
-0.08067301 0.08139079 0.01435174 -0.11325391 -0.13619594 -0.17373961 -0.24378565 0.03542006
-0.13760099 -0.11410202 -0.0061765406 0.03286893 0.099813685 -0.10363819 -0.06588112 -0.058086522
-0.0051809982 0.05246797 -0.21883589 -0.053991586 -0.009921442 0.04851059 -0.04233773 0.08519243
-0.06690018 0.008589938 -0.072766356 -0.10893747 -0.03790437 -0.09051686 0.02788797 -0.054325588
-0.10198883 -0.10395382 0.053721968 -0.053430684 -0.11114305 0.14140607 0.0025308768 0.015577853
-0.009225977 -0.06273877 -0.04712139 0.061696276 -0.07473026 -0.029864553 -0.08458087 -0.027268175
-0.01461993 -0.008378666 -0.1477799 -0.04798648 0.052624427 0.049866404 0.058983266 0.056460097
0.0004130037 0.052053776 0.05606332 -0.13027592 -0.06941614 0.045518313 -0.07056531 -0.0015890304
0.051106688 0.120872796 0.0538626 0.016691098 -0.056448106 -0.018616604 0.08081523 -0.03540741
-0.083350316 0.00016338269 -0.077045344 0.063598044 -0.10966747 -0.049018834 0.0001356468 0.03702657
0.13796051 -0.029032996 -0.14039327 -0.04263106 0.070234686 -0.028285146 0.16250959 0.019774258
-0.115302764 -0.12200312 0.06468782 -0.027981479 0.11503803 0.03278747 -0.098325014 0.014677501
-0.091879 -0.056584317 -0.091574244 0.07107235 -0.061481804 0.16349792 0.093646996 0.023023715
-0.105908245 0.037360586 0.0881689 0.08832152 -0.08667739 0.0719972 0.097533874 0.05375647
0.081935145 0.022893766 0.01573833 -0.05710304 0.09320984 0.08337304 -0.08040887 -0.045510497
0.027039526 -0.03824421 0.1151377 -0.03109991 0.04310506 0.009196135 -0.0059680734 0.049240034
0.05832999 -0.029048337 0.11361352 0.084089026 0.022836188 0.031063369 0.02007387 -0.042819716
-0.04009829 -0.20663558 -0.0600643 0.0015727105 -0.027169507 -0.0037341814 0.059569687 -0.04130127
0.14395978 -0.0121089155 -0.019639688 0.048385665 -0.027769348 0.060019333 0.08500224 0.16047041
0.028900802 0.02443395 -0.032576233 0.027327614 0.035594657 -0.113682814 0.060656987 0.046526942
-0.030698027 -0.051319785 -0.020627093 -0.0093119135 -0.022267506 -0.09594549 -0.099656485 -0.121319264
-0.0010369745 -0.14203772 -0.045152523 -0.050050385 -0.083424196 0.00408005 0.034759503 -0.043227788
-0.031496264 -0.037193254 -0.036588952 0.06865144 0.112541825 -0.07230469 -0.00095705694 0.036408212
-0.062622584 0.05543171 -0.095930755 0.09907219 0.09275854 -0.0145379435 -0.12372572 -0.018209096
-0.0077528986 0.032093458 -0.13710494 0.027613403 0.039266862 0.17073146 0.15996554 0.010855812
0.150941 0.036340848 -0.058327764 -0.0721186 0.16928282 0.10723044 0.19587982 -0.13262872
-0.10028934 0.01853724 0.008724315 -0.041429225 0.027764289 -0.0940766 -0.04804316 -0.08023288
-0.037423305 0.054530147 -0.0025059208 0.045219168 -0.010829461 0.12509744 -0.00797196 -0.024533773
0.30898148 0.057908718 0.07573979 -0.12920442 0.061851483 0.14348021 0.036606558 -0.0161668
-0.08165807 0.24070947 -0.05771238 0.071088076 -0.026962051 0.059383407 -0.17083912 -0.20117392
00000000: cff6 a73d eb65 dd3d a3da 4dbd 48c2 393e
00000010: 1903 d2bd 2fc9 813b 249c 7cbd 59a1 97bb
00000020: 6196 363d 0031 abba 3955 a3bc cc5f 2e3d
00000030: dda5 48bd 0dba e33d b173 293d 857e 6ebc
00000040: e437 a5bd 37b0 a63d 8f23 6b3c aaf1 e7bd
00000050: f376 0bbe cce8 31be f2a2 79be a014 113d
00000060: 46e7 0cbe 52ae e9bd 9464 cabb 92a1 063d
00000070: 1e6b cc3d 4240 d4bd aeec 86bd 22ec 6dbd
00000080: 5dc5 a9bb a7e8 563d 8416 60be 4826 5dbd
00000090: 8b8d 22bc 0ab3 463d 546a 2dbd 5e79 ae3d
000000a0: f602 89bd d0bc 0c3c 8706 95bd 9c1a dfbd
000000b0: 9d41 1bbd e760 b9bd 5075 e43c 8284 5ebd
000000c0: 85df d0bd bee5 d4bd 910b 5c3d 22da 5abd
000000d0: f89e e3bd c1cc 103e 11dd 253b 403a 7f3c
000000e0: 8d28 17bc 2f7d 80bd 5c02 41bd 3cb5 7c3d
000000f0: 2e0c 99bd 82a6 f4bc bc38 adbd 8261 dfbc
00000100: 6e88 6fbc ac46 09bc 9d53 17be 798d 44bd
00000110: b68c 573d b740 4c3d 7098 713d b442 673d
00000120: 6b88 d839 5736 553d a7a2 653d 0d67 05be
00000130: 0d2a 8ebd 6971 3a3d 8c84 90bd 0347 d0ba
00000140: 3f55 513d 288c f73d 089f 5c3d c5bb 883c
00000150: 2136 67bd d981 98bc 7582 a53d 5c07 11bd
00000160: 92b3 aabd b551 2b39 f3c9 9dbd b13f 823d
00000170: 5799 e0bd f9c7 48bd 693c 0e39 2ca9 173d
00000180: 8545 0d3e 9bd6 edbc 41c3 0fbe e89d 2ebd
00000190: 34d7 8f3d 40b6 e7bc ea68 263e a0fd a13c
000001a0: db23 ecbd c6dc f9bd 0c7b 843d 6a39 e5bc
000001b0: 0f99 eb3d 274c 063d a05e c9bd e779 703c
000001c0: 0f2b bcbd f5c4 67bd 478b bbbd 618e 913d
000001d0: 58d4 7bbd 006c 273e ffc9 bf3d 3b9c bc3c
000001e0: 6ce6 d8bd 6a07 193d e591 b43d eae1 b43d
000001f0: ea83 b1bd 4573 933d d7bf c73d bf2f 5c3d
00000200: 9dcd a73d b58b bb3c aced 803c e1e4 69bd
00000210: cde4 be3d 7cbf aa3d 68ad a4bd 3769 3abd
00000220: ff81 dd3c f6a5 1cbd 51cd eb3d 3dc5 febc
00000230: ee8e 303d 63ab 163c d48f c3bb ebaf 493d
00000240: 6deb 6e3d c7f6 edbc 35ae e83d de36 ac3d
00000250: f512 bb3c 9b78 fe3c f571 a43c ba63 2fbd
00000260: 1b3e 24bd 4798 53be fc05 76bd 6823 ce3a
00000270: 9692 debc 2bb9 74bb 58ff 733d 852b 29bd
00000280: 316a 133e 7964 46bc 69e3 a0bc 0c30 463d
00000290: 8b7c e3bc d5d6 753d a815 ae3d 5b52 243e
000002a0: 60c1 ec3c b529 c83c a86e 05bd 29de df3c
000002b0: b4cb 113d 89d2 e8bd 7673 783d 0993 3e3d
000002c0: 6e7a fbbc b234 52bd 26fa a8bc ff90 18bc
000002d0: 586a b6bc 127f c4bd b318 ccbd 3c76 f8bd
000002e0: 17eb 87ba 5672 11be daf1 38bd a201 4dbd
000002f0: 4eda aabd f1b1 853b fb5f 0e3d 9f0f 31bd
00000300: 3a02 01bd f457 18bd 4cde 15bd 2099 8c3d
00000310: 547c e63d 7b14 94bd 01e3 7aba c720 153d
00000320: 4540 80bd 5c0c 633d 5877 c4bd 5ce6 ca3d
00000330: 30f8 bd3d 8e30 6ebc e963 fdbd 3e2b 95bc
00000340: 070c febb 6e74 033d 3d65 0cbe 8135 e23c
00000350: 4ad6 203d 3ad4 2e3e 02ce 233e 93dc 313c
00000360: 4790 1a3e 24da 143d 18e9 6ebd ebb2 93bd
00000370: 7a58 2d3e a29b db3d b894 483e d3cf 07be
00000380: 7f64 cdbd 69db 973c 6ef0 0e3c b1b1 29bd
00000390: ef71 e33c 3cab c0bd e8c8 44bd 2351 a4bd
000003a0: 2e49 19bd 015b 5f3d 603a 24bb bc37 393d
000003b0: 0d6e 31bc 8b19 003e d39c 02bc 0dfb c8bc
000003c0: d232 9e3e b131 6d3d 771d 9b3d 2a4e 04be
000003d0: fb57 7d3d 7aec 123e c2f0 153d 3d70 84bc
000003e0: 593c a7bd 8b7c 763e d163 6cbd a096 913d
000003f0: 85df dcbc 043c 733d 73f0 2ebe 8900 4ebe

res_blocks.0.batch_norm.weight f4 [32]
0.64448273 0.615033 0.6731667 0.5735423 0.5712598 0.6911461 0.64124626 0.7485528
0.64613354 0.7319101 0.676232 0.5571142 0.58374 0.7443123 0.73028386 0.73770535
0.7029722 0.6380994 0.74308586 0.64492905 0.58819824 0.6182412 0.7468926 0.7287512
0.7207566 0.68504167 0.7298088 0.5060654 0.53923714 0.75620747 0.7305074 0.66544926
00000000: d2fc 243f cd72 1d3f a754 2c3f abd3 123f
00000010: 153e 123f f3ee 303f b728 243f 28a1 3f3f
00000020: 0269 253f 765e 3b3f 8a1d 2d3f 099f 0e3f
00000030: fc6f 153f 408b 3e3f e2f3 3a3f 42da 3c3f
00000040: fcf5 333f 7b5a 233f e03a 3e3f 121a 253f
00000050: 2994 163f 0e45 1e3f 5a34 3f3f 708f 3a3f
00000060: 8183 383f e45e 2f3f c0d4 3a3f 818d 013f
00000070: 720b 0a3f d096 413f 8802 3b3f e25a 2a3f

res_blocks.0.batch_norm.bias f4 [32]
-0.047599114 0.0041638776 0.03431851 0.0030828016 0.017405523 -0.02289477 -0.018943341 0.044004854
0.028238187 0.035682224 0.012986072 -0.011405821 0.0019021854 0.063559815 0.008826023 0.030785518
0.049957454 0.015970213 0.07619942 0.023520174 0.009143555 0.015574935 0.06640146 0.04602751
0.0044636438 0.0068221083 0.025031688 -0.04706322 -0.017819405 0.03138121 0.021896146 0.09463748
00000000: 4af7 42bd 2371 883b 9191 0c3d d408 4a3b
00000010: 0796 8e3c d08d bbbc 112f 9bbc 6f3e 343d
00000020: c553 e73c 8627 123d 89c3 543c 7bdf 3abc
00000030: c052 f93a a62b 823d 069b 103c e931 fc3c
00000040: 30a0 4c3d f7d3 823c 710e 9c3d 61ad c03c
00000050: d9ce 153c 032e 7f3c 7dfd 873d 5887 3c3d
00000060: c243 923b fe8b df3b 410f cd3c 5dc5 40bd
00000070: 00fa 91bc 9589 003d 8c5f b33c 4cd1 c13d

res_blocks.0.batch_norm.running_mean f4 [32]
-0.17031348 -1.1131263 -0.47436428 -0.84075826 -0.21719237 -1.3700905 -1.1347013 -0.07866685
1.0529093 1.3164917 -0.8813741 -2.3389335 -1.4204583 0.2594496 0.41345173 1.6857154
0.8907741 1.9683763 0.36828598 -2.097508 -1.8106548 1.4203452 1.1007645 -0.6415633
1.3298612 -1.2175274 0.31615865 -3.6243865 5.4787683 -0.82707644 1.457061 0.80590105
00000000: a866 2ebe ec7a 8ebf e0df f2be ef3b 57bf
00000010: ad67 5ebe 205f afbf e43d 91bf 161c a1bd
00000020: bbc5 863f cd82 a83f bca1 61bf 16b1 15c0
00000030: 94d1 b5bf 94d6 843e f2af d33e 86c5 d73f
00000040: c509 643f c1f3 fb3f fb8f bc3e 923d 06c0
00000050: 89c3 e7bf dfcd b53f dae5 8c3f 7e3d 24bf
00000060: e438 aa3f f0d7 9bbf 8cdf a13e f3f5 67c0
00000070: 1252 af40 48bb 53bf fa80 ba3f 884f 4e3f

res_blocks.0.batch_norm.running_var f4 [32]
8.99118 11.983065 14.588068 11.280289 10.471918 10.250099 11.033269 6.238368
13.583066 8.828497 10.133256 12.361629 23.016516 8.025945 16.400963 13.226631
15.583729 9.609864 10.189178 15.55327 12.1632805 9.888362 14.058991 7.5603395
9.564666 12.328972 10.658099 31.132187 38.31061 5.9694176 12.988754 8.428662
00000000: e0db 0f41 a2ba 3f41 ba68 6941 107c 3441
00000010: fa8c 2741 6800 2441 4588 3041 b6a0 c740
00000020: 3d54 5941 8641 0d41 d121 2241 3bc9 4541
00000030: d321 b841 456a 0041 2c35 8341 48a0 5341
00000040: f456 7941 01c2 1941 e006 2341 32da 7841
00000050: cc9c 4241 bb36 1e41 a1f1 6041 4dee f140
00000060: df08 1941 7843 4541 9387 2a41 b80e f941
00000070: 113e 1942 7805 bf40 f0d1 4f41 cddb 0641

res_blocks.1.conv.weight f4 [32, 32, 3, 3]
0.08201372 0.10810455 -0.050257336 0.18140519 -0.10254497 0.0039607505 -0.061672345 -0.0046273884
0.044577006 -0.0013060868 -0.019938098 0.042571828 -0.048986305 0.11119471 0.041370098 -0.014556532
-0.08067301 0.08139079 0.01435174 -0.11325391 -0.13619594 -0.17373961 -0.24378565 0.03542006
-0.13760099 -0.11410202 -0.0061765406 0.03286893 0.099813685 -0.10363819 -0.06588112 -0.058086522
-0.0051809982 0.05246797 -0.21883589 -0.053991586 -0.009921442 0.04851059 -0.04233773 0.08519243
-0.06690018 0.008589938 -0.072766356 -0.10893747 -0.03790437 -0.09051686 0.02788797 -0.054325588
-0.10198883 -0.10395382 0.053721968 -0.053430684 -0.11114305 0.14140607 0.0025308768 0.015577853
-0.009225977 -0.06273877 -0.04712139 0.061696276 -0.07473026 -0.029864553 -0.08458087 -0.027268175
-0.01461993 -0.008378666 -0.1477799 -0.04798648 0.052624427 0.049866404 0.058983266 0.056460097
0.0004130037 0.052053776 0.05606332 -0.13027592 -0.06941614 0.045518313 -0.07056531 -0.0015890304
0.051106688 0.120872796 0.0538626 0.016691098 -0.056448106 -0.018616604 0.08081523 -0.03540741
-0.083350316 0.00016338269 -0.077045344 0.063598044 -0.10966747 -0.049018834 0.0001356468 0.03702657
0.13796051 -0.029032996 -0.14039327 -0.04263106 0.070234686 -0.028285146 0.16250959 0.019774258
-0.115302764 -0.12200312 0.06468782 -0.027981479 0.11503803 0.03278747 -0.098325014 0.014677501
-0.091879 -0.056584317 -0.091574244 0.07107235 -0.061481804 0.16349792 0.093646996 0.023023715
-0.105908245 0.037360586 0.0881689 0.08832152 -0.08667739 0.0719972 0.097533874 0.05375647
0.081935145 0.022893766 0.01573833 -0.05710304 0.09320984 0.08337304 -0.08040887 -0.045510497
0.027039526 -0.03824421 0.1151377 -0.03109991 0.04310506 0.009196135 -0.0059680734 0.049240034
0.05832999 -0.029048337 0.11361352 0.084089026 0.022836188 0.031063369 0.02007387 -0.042819716
-0.04009829 -0.20663558 -0.0600643 0.0015727105 -0.027169507 -0.0037341814 0.059569687 -0.04130127
0.14395978 -0.0121089155 -0.019639688 0.048385665 -0.027769348 0.060019333 0.08500224 0.16047041
0.028900802 0.02443395 -0.032576233 0.027327614 0.035594657 -0.113682814 0.060656987 0.046526942
-0.030698027 -0.051319785 -0.020627093 -0.0093119135 -0.022267506 -0.09594549 -0.099656485 -0.121319264
-0.0010369745 -0.14203772 -0.045152523 -0.050050385 -0.083424196 0.00408005 0.034759503 -0.043227788
-0.031496264 -0.037193254 -0.036588952 0.06865144 0.112541825 -0.07230469 -0.00095705694 0.036408212
-0.062622584 0.05543171 -0.095930755 0.09907219 0.09275854 -0.0145379435 -0.12372572 -0.018209096
-0.0077528986 0.032093458 -0.13710494 0.027613403 0.039266862 0.17073146 0.15996554 0.010855812
0.150941 0.036340848 -0.058327764 -0.0721186 0.16928282 0.10723044 0.19587982 -0.13262872
-0.10028934 0.01853724 0.008724315 -0.041429225 0.027764289 -0.0940766 -0.04804316 -0.08023288
-0.037423305 0.054530147 -0.0025059208 0.045219168 -0.010829461 0.12509744 -0.00797196 -0.024533773
0.30898148 0.057908718 0.07573979 -0.12920442 0.061851483 0.14348021 0.036606558 -0.0161668
-0.08165807 0.24070947 -0.05771238 0.071088076 -0.026962051 0.059383407 -0.17083912 -0.20117392
00000000: cff6 a73d eb65 dd3d a3da 4dbd 48c2 393e
00000010: 1903 d2bd 2fc9 813b 249c 7cbd 59a1 97bb
00000020: 6196 363d 0031 abba 3955 a3bc cc5f 2e3d
00000030: dda5 48bd 0dba e33d b173 293d 857e 6ebc
00000040: e437 a5bd 37b0 a63d 8f23 6b3c aaf1 e7bd
00000050: f376 0bbe cce8 31be f2a2 79be a014 113d
00000060: 46e7 0cbe 52ae e9bd 9464 cabb 92a1 063d
00000070: 1e6b cc3d 4240 d4bd aeec 86bd 22ec 6dbd
00000080: 5dc5 a9bb a7e8 563d 8416 60be 4826 5dbd
00000090: 8b8d 22bc 0ab3 463d 546a 2dbd 5e79 ae3d
000000a0: f602 89bd d0bc 0c3c 8706 95bd 9c1a dfbd
000000b0: 9d41 1bbd e760 b9bd 5075 e43c 8284 5ebd
000000c0: 85df d0bd bee5 d4bd 910b 5c3d 22da 5abd
000000d0: f89e e3bd c1cc 103e 11dd 253b 403a 7f3c
000000e0: 8d28 17bc 2f7d 80bd 5c02 41bd 3cb5 7c3d
000000f0: 2e0c 99bd 82a6 f4bc bc38 adbd 8261 dfbc
00000100: 6e88 6fbc ac46 09bc 9d53 17be 798d 44bd
00000110: b68c 573d b740 4c3d 7098 713d b442 673d
00000120: 6b88 d839 5736 553d a7a2 653d 0d67 05be
00000130: 0d2a 8ebd 6971 3a3d 8c84 90bd 0347 d0ba
00000140: 3f55 513d 288c f73d 089f 5c3d c5bb 883c
00000150: 2136 67bd d981 98bc 7582 a53d 5c07 11bd
00000160: 92b3 aabd b551 2b39 f3c9 9dbd b13f 823d
00000170: 5799 e0bd f9c7 48bd 693c 0e39 2ca9 173d
00000180: 8545 0d3e 9bd6 edbc 41c3 0fbe e89d 2ebd
00000190: 34d7 8f3d 40b6 e7bc ea68 263e a0fd a13c
000001a0: db23 ecbd c6dc f9bd 0c7b 843d 6a39 e5bc
000001b0: 0f99 eb3d 274c 063d a05e c9bd e779 703c
000001c0: 0f2b bcbd f5c4 67bd 478b bbbd 618e 913d
000001d0: 58d4 7bbd 006c 273e ffc9 bf3d 3b9c bc3c
000001e0: 6ce6 d8bd 6a07 193d e591 b43d eae1 b43d
000001f0: ea83 b1bd 4573 933d d7bf c73d bf2f 5c3d
00000200: 9dcd a73d b58b bb3c aced 803c e1e4 69bd
00000210: cde4 be3d 7cbf aa3d 68ad a4bd 3769 3abd
00000220: ff81 dd3c f6a5 1cbd 51cd eb3d 3dc5 febc
00000230: ee8e 303d 63ab 163c d48f c3bb ebaf 493d
00000240: 6deb 6e3d c7f6 edbc 35ae e83d de36 ac3d
00000250: f512 bb3c 9b78 fe3c f571 a43c ba63 2fbd
00000260: 1b3e 24bd 4798 53be fc05 76bd 6823 ce3a
00000270: 9692 debc 2bb9 74bb 58ff 733d 852b 29bd
00000280: 316a 133e 7964 46bc 69e3 a0bc 0c30 463d
00000290: 8b7c e3bc d5d6 753d a815 ae3d 5b52 243e
000002a0: 60c1 ec3c b529 c83c a86e 05bd 29de df3c
000002b0: b4cb 113d 89d2 e8bd 7673 783d 0993 3e3d
000002c0: 6e7a fbbc b234 52bd 26fa a8bc ff90 18bc
000002d0: 586a b6bc 127f c4bd b318 ccbd 3c76 f8bd
000002e0: 17eb 87ba 5672 11be daf1 38bd a201 4dbd
000002f0: 4eda aabd f1b1 853b fb5f 0e3d 9f0f 31bd
00000300: 3a02 01bd f457 18bd 4cde 15bd 2099 8c3d
00000310: 547c e63d 7b14 94bd 01e3 7aba c720 153d
00000320: 4540 80bd 5c0c 633d 5877 c4bd 5ce6 ca3d
00000330: 30f8 bd3d 8e30 6ebc e963 fdbd 3e2b 95bc
00000340: 070c febb 6e74 033d 3d65 0cbe 8135 e23c
00000350: 4ad6 203d 3ad4 2e3e 02ce 233e 93dc 313c
00000360: 4790 1a3e 24da 143d 18e9 6ebd ebb2 93bd
00000370: 7a58 2d3e a29b db3d b894 483e d3cf 07be
00000380: 7f64 cdbd 69db 973c 6ef0 0e3c b1b1 29bd
00000390: ef71 e33c 3cab c0bd e8c8 44bd 2351 a4bd
000003a0: 2e49 19bd 015b 5f3d 603a 24bb bc37 393d
000003b0: 0d6e 31bc 8b19 003e d39c 02bc 0dfb c8bc
000003c0: d232 9e3e b131 6d3d 771d 9b3d 2a4e 04be
000003d0: fb57 7d3d 7aec 123e c2f0 153d 3d70 84bc
000003e0: 593c a7bd 8b7c 763e d163 6cbd a096 913d
000003f0: 85df dcbc 043c 733d 73f0 2ebe 8900 4ebe

res_blocks.1.batch_norm.weight f4 [32]
0.64448273 0.615033 0.6731667 0.5735423 0.5712598 0.6911461 0.64124626 0.7485528
0.64613354 0.7319101 0.676232 0.5571142 0.58374 0.7443123 0.73028386 0.73770535
0.7029722 0.6380994 0.74308586 0.64492905 0.58819824 0.6182412 0.7468926 0.7287512
0.7207566 0.68504167 0.7298088 0.5060654 0.53923714 0.75620747 0.7305074 0.66544926
00000000: d2fc 243f cd72 1d3f a754 2c3f abd3 123f
00000010: 153e 123f f3ee 303f b728 243f 28a1 3f3f
00000020: 0269 253f 765e 3b3f 8a1d 2d3f 099f 0e3f
00000030: fc6f 153f 408b 3e3f e2f3 3a3f 42da 3c3f
00000040: fcf5 333f 7b5a 233f e03a 3e3f 121a 253f
00000050: 2994 163f 0e45 1e3f 5a34 3f3f 708f 3a3f
00000060: 8183 383f e45e 2f3f c0d4 3a3f 818d 013f
00000070: 720b 0a3f d096 413f 8802 3b3f e25a 2a3f

res_blocks.1.batch_norm.bias f4 [32]
-0.047599114 0.0041638776 0.03431851 0.0030828016 0.017405523 -0.02289477 -0.018943341 0.044004854
0.028238187 0.035682224 0.012986072 -0.011405821 0.0019021854 0.063559815 0.008826023 0.030785518
0.049957454 0.015970213 0.07619942 0.023520174 0.009143555 0.015574935 0.06640146 0.04602751
0.0044636438 0.0068221083 0.025031688 -0.04706322 -0.017819405 0.03138121 0.021896146 0.09463748
00000000: 4af7 42bd 2371 883b 9191 0c3d d408 4a3b
00000010: 0796 8e3c d08d bbbc 112f 9bbc 6f3e 343d
00000020: c553 e73c 8627 123d 89c3 543c 7bdf 3abc
00000030: c052 f93a a62b 823d 069b 103c e931 fc3c
00000040: 30a0 4c3d f7d3 823c 710e 9c3d 61ad c03c
00000050: d9ce 153c 032e 7f3c 7dfd 873d 5887 3c3d
00000060: c243 923b fe8b df3b 410f cd3c 5dc5 40bd
00000070: 00fa 91bc 9589 003d 8c5f b33c 4cd1 c13d

res_blocks.1.batch_norm.running_mean f4 [32]
-0.17031348 -1.1131263 -0.47436428 -0.84075826 -0.21719237 -1.3700905 -1.1347013 -0.07866685
1.0529093 1.3164917 -0.8813741 -2.3389335 -1.4204583 0.2594496 0.41345173 1.6857154
0.8907741 1.9683763 0.36828598 -2.097508 -1.8106548 1.4203452 1.1007645 -0.6415633
1.3298612 -1.2175274 0.31615865 -3.6243865 5.4787683 -0.82707644 1.457061 0.80590105
00000000: a866 2ebe ec7a 8ebf e0df f2be ef3b 57bf
00000010: ad67 5ebe 205f afbf e43d 91bf 161c a1bd
00000020: bbc5 863f cd82 a83f bca1 61bf 16b1 15c0
00000030: 94d1 b5bf 94d6 843e f2af d33e 86c5 d73f
00000040: c509 643f c1f3 fb3f fb8f bc3e 923d 06c0
00000050: 89c3 e7bf dfcd b53f dae5 8c3f 7e3d 24bf
00000060: e438 aa3f f0d7 9bbf 8cdf a13e f3f5 67c0
00000070: 1252 af40 48bb 53bf fa80 ba3f 884f 4e3f

res_blocks.1.batch_norm.running_var f4 [32]
8.99118 11.983065 14.588068 11.280289 10.471918 10.250099 11.033269 6.238368
13.583066 8.828497 10.133256 12.361629 23.016516 8.025945 16.400963 13.226631
15.583729 9.609864 10.189178 15.55327 12.1632805 9.888362 14.058991 7.5603395
9.564666 12.328972 10.658099 31.132187 38.31061 5.9694176 12.988754 8.428662
00000000: e0db 0f41 a2ba 3f41 ba68 6941 107c 3441
00000010: fa8c 2741 6800 2441 4588 3041 b6a0 c740
00000020: 3d54 5941 8641 0d41 d121 2241 3bc9 4541
00000030: d321 b841 456a 0041 2c35 8341 48a0 5341
00000040: f456 7941 01c2 1941 e006 2341 32da 7841
00000050: cc9c 4241 bb36 1e41 a1f1 6041 4dee f140
00000060: df08 1941 7843 4541 9387 2a41 b80e f941
00000070: 113e 1942 7805 bf40 f0d1 4f41 cddb 0641

res_blocks.2.conv.weight f4 [32, 32, 3, 3]
0.08201372 0.10810455 -0.050257336 0.18140519 -0.10254497 0.0039607505 -0.061672345 -0.0046273884
0.044577006 -0.0013060868 -0.019938098 0.042571828 -0.048986305 0.11119471 0.041370098 -0.014556532
-0.08067301 0.08139079 0.01435174 -0.11325391 -0.13619594 -0.17373961 -0.24378565 0.03542006
-0.13760099 -0.11410202 -0.0061765406 0.03286893 0.099813685 -0.10363819 -0.06588112 -0.058086522
-0.0051809982 0.05246797 -0.21883589 -0.053991586 -0.009921442 0.04851059 -0.04233773 0.08519243
-0.06690018 0.008589938 -0.072766356 -0.10893747 -0.03790437 -0.09051686 0.02788797 -0.054325588
-0.10198883 -0.10395382 0.053721968 -0.053430684 -0.11114305 0.14140607 0.0025308768 0.015577853
-0.009225977 -0.06273877 -0.04712139 0.061696276 -0.07473026 -0.029864553 -0.08458087 -0.027268175
-0.01461993 -0.008378666 -0.1477799 -0.04798648 0.052624427 0.049866404 0.058983266 0.056460097
0.0004130037 0.052053776 0.05606332 -0.13027592 -0.06941614 0.045518313 -0.07056531 -0.0015890304
0.051106688 0.120872796 0.0538626 0.016691098 -0.056448106 -0.018616604 0.08081523 -0.03540741
-0.083350316 0.00016338269 -0.077045344 0.063598044 -0.10966747 -0.049018834 0.0001356468 0.03702657
0.13796051 -0.029032996 -0.14039327 -0.04263106 0.070234686 -0.028285146 0.16250959 0.019774258
-0.115302764 -0.12200312 0.06468782 -0.027981479 0.11503803 0.03278747 -0.098325014 0.014677501
-0.091879 -0.056584317 -0.091574244 0.07107235 -0.061481804 0.16349792 0.093646996 0.023023715
-0.105908245 0.037360586 0.0881689 0.08832152 -0.08667739 0.0719972 0.097533874 0.05375647
0.081935145 0.022893766 0.01573833 -0.05710304 0.09320984 0.08337304 -0.08040887 -0.045510497
0.027039526 -0.03824421 0.1151377 -0.03109991 0.04310506 0.009196135 -0.0059680734 0.049240034
0.05832999 -0.029048337 0.11361352 0.084089026 0.022836188 0.031063369 0.02007387 -0.042819716
-0.04009829 -0.20663558 -0.0600643 0.0015727105 -0.027169507 -0.0037341814 0.059569687 -0.04130127
0.14395978 -0.0121089155 -0.019639688 0.048385665 -0.027769348 0.060019333 0.08500224 0.16047041
0.028900802 0.02443395 -0.032576233 0.027327614 0.035594657 -0.113682814 0.060656987 0.046526942
-0.030698027 -0.051319785 -0.020627093 -0.0093119135 -0.022267506 -0.09594549 -0.099656485 -0.121319264
-0.0010369745 -0.14203772 -0.045152523 -0.050050385 -0.083424196 0.00408005 0.034759503 -0.043227788
-0.031496264 -0.037193254 -0.036588952 0.06865144 0.112541825 -0.07230469 -0.00095705694 0.036408212
-0.062622584 0.05543171 -0.095930755 0.09907219 0.09275854 -0.0145379435 -0.12372572 -0.018209096
-0.0077528986 0.032093458 -0.13710494 0.027613403 0.039266862 0.17073146 0.15996554 0.010855812
0.150941 0.036340848 -0.058327764 -0.0721186 0.16928282 0.10723044 0.19587982 -0.13262872
-0.10028934 0.01853724 0.008724315 -0.041429225 0.027764289 -0.0940766 -0.04804316 -0.08023288
-0.037423305 0.054530147 -0.0025059208 0.045219168 -0.010829461 0.12509744 -0.00797196 -0.024533773
0.30898148 0.057908718 0.07573979 -0.12920442 0.061851483 0.14348021 0.036606558 -0.0161668
-0.08165807 0.24070947 -0.05771238 0.071088076 -0.026962051 0.059383407 -0.17083912 -0.20117392
00000000: cff6 a73d eb65 dd3d a3da 4dbd 48c2 393e
00000010: 1903 d2bd 2fc9 813b 249c 7cbd 59a1 97bb
00000020: 6196 363d 0031 abba 3955 a3bc cc5f 2e3d
00000030: dda5 48bd 0dba e33d b173 293d 857e 6ebc
00000040: e437 a5bd 37b0 a63d 8f23 6b3c aaf1 e7bd
00000050: f376 0bbe cce8 31be f2a2 79be a014 113d
00000060: 46e7 0cbe 52ae e9bd 9464 cabb 92a1 063d
00000070: 1e6b cc3d 4240 d4bd aeec 86bd 22ec 6dbd
00000080: 5dc5 a9bb a7e8 563d 8416 60be 4826 5dbd
00000090: 8b8d 22bc 0ab3 463d 546a 2dbd 5e79 ae3d
000000a0: f602 89bd d0bc 0c3c 8706 95bd 9c1a dfbd
000000b0: 9d41 1bbd e760 b9bd 5075 e43c 8284 5ebd
000000c0: 85df d0bd bee5 d4bd 910b 5c3d 22da 5abd
000000d0: f89e e3bd c1cc 103e 11dd 253b 403a 7f3c
000000e0: 8d28 17bc 2f7d 80bd 5c02 41bd 3cb5 7c3d
000000f0: 2e0c 99bd 82a6 f4bc bc38 adbd 8261 dfbc
00000100: 6e88 6fbc ac46 09bc 9d53 17be 798d 44bd
00000110: b68c 573d b740 4c3d 7098 713d b442 673d
00000120: 6b88 d839 5736 553d a7a2 653d 0d67 05be
00000130: 0d2a 8ebd 6971 3a3d 8c84 90bd 0347 d0ba
00000140: 3f55 513d 288c f73d 089f 5c3d c5bb 883c
00000150: 2136 67bd d981 98bc 7582 a53d 5c07 11bd
00000160: 92b3 aabd b551 2b39 f3c9 9dbd b13f 823d
00000170: 5799 e0bd f9c7 48bd 693c 0e39 2ca9 173d
00000180: 8545 0d3e 9bd6 edbc 41c3 0fbe e89d 2ebd
00000190: 34d7 8f3d 40b6 e7bc ea68 263e a0fd a13c
000001a0: db23 ecbd c6dc f9bd 0c7b 843d 6a39 e5bc
000001b0: 0f99 eb3d 274c 063d a05e c9bd e779 703c
000001c0: 0f2b bcbd f5c4 67bd 478b bbbd 618e 913d
000001d0: 58d4 7bbd 006c 273e ffc9 bf3d 3b9c bc3c
000001e0: 6ce6 d8bd 6a07 193d e591 b43d eae1 b43d
000001f0: ea83 b1bd 4573 933d d7bf c73d bf2f 5c3d
00000200: 9dcd a73d b58b bb3c aced 803c e1e4 69bd
00000210: cde4 be3d 7cbf aa3d 68ad a4bd 3769 3abd
00000220: ff81 dd3c f6a5 1cbd 51cd eb3d 3dc5 febc
00000230: ee8e 303d 63ab 163c d48f c3bb ebaf 493d
00000240: 6deb 6e3d c7f6 edbc 35ae e83d de36 ac3d
00000250: f512 bb3c 9b78 fe3c f571 a43c ba63 2fbd
00000260: 1b3e 24bd 4798 53be fc05 76bd 6823 ce3a
00000270: 9692 debc 2bb9 74bb 58ff 733d 852b 29bd
00000280: 316a 133e 7964 46bc 69e3 a0bc 0c30 463d
00000290: 8b7c e3bc d5d6 753d a815 ae3d 5b52 243e
000002a0: 60c1 ec3c b529 c83c a86e 05bd 29de df3c
000002b0: b4cb 113d 89d2 e8bd 7673 783d 0993 3e3d
000002c0: 6e7a fbbc b234 52bd 26fa a8bc ff90 18bc
000002d0: 586a b6bc 127f c4bd b318 ccbd 3c76 f8bd
000002e0: 17eb 87ba 5672 11be daf1 38bd a201 4dbd
000002f0: 4eda aabd f1b1 853b fb5f 0e3d 9f0f 31bd
00000300: 3a02 01bd f457 18bd 4cde 15bd 2099 8c3d
00000310: 547c e63d 7b14 94bd 01e3 7aba c720 153d
00000320: 4540 80bd 5c0c 633d 5877 c4bd 5ce6 ca3d
00000330: 30f8 bd3d 8e30 6ebc e963 fdbd 3e2b 95bc
00000340: 070c febb 6e74 033d 3d65 0cbe 8135 e23c
00000350: 4ad6 203d 3ad4 2e3e 02ce 233e 93dc 313c
00000360: 4790 1a3e 24da 143d 18e9 6ebd ebb2 93bd
00000370: 7a58 2d3e a29b db3d b894 483e d3cf 07be
00000380: 7f64 cdbd 69db 973c 6ef0 0e3c b1b1 29bd
00000390: ef71 e33c 3cab c0bd e8c8 44bd 2351 a4bd
000003a0: 2e49 19bd 015b 5f3d 603a 24bb bc37 393d
000003b0: 0d6e 31bc 8b19 003e d39c 02bc 0dfb c8bc
000003c0: d232 9e3e b131 6d3d 771d 9b3d 2a4e 04be
000003d0: fb57 7d3d 7aec 123e c2f0 153d 3d70 84bc
000003e0: 593c a7bd 8b7c 763e d163 6cbd a096 913d
000003f0: 85df dcbc 043c 733d 73f0 2ebe 8900 4ebe

res_blocks.2.batch_norm.weight f4 [32]
0.64448273 0.615033 0.6731667 0.5735423 0.5712598 0.6911461 0.64124626 0.7485528
0.64613354 0.7319101 0.676232 0.5571142 0.58374 0.7443123 0.73028386 0.73770535
0.7029722 0.6380994 0.74308586 0.64492905 0.58819824 0.6182412 0.7468926 0.7287512
0.7207566 0.68504167 0.7298088 0.5060654 0.53923714 0.75620747 0.7305074 0.66544926
00000000: d2fc 243f cd72 1d3f a754 2c3f abd3 123f
00000010: 153e 123f f3ee 303f b728 243f 28a1 3f3f
00000020: 0269 253f 765e 3b3f 8a1d 2d3f 099f 0e3f
00000030: fc6f 153f 408b 3e3f e2f3 3a3f 42da 3c3f
00000040: fcf5 333f 7b5a 233f e03a 3e3f 121a 253f
00000050: 2994 163f 0e45 1e3f 5a34 3f3f 708f 3a3f
00000060: 8183 383f e45e 2f3f c0d4 3a3f 818d 013f
00000070: 720b 0a3f d096 413f 8802 3b3f e25a 2a3f

res_blocks.2.batch_norm.bias f4 [32]
-0.047599114 0.0041638776 0.03431851 0.0030828016 0.017405523 -0.02289477 -0.018943341 0.044004854
0.028238187 0.035682224 0.012986072 -0.011405821 0.0019021854 0.063559815 0.008826023 0.030785518
0.049957454 0.015970213 0.07619942 0.023520174 0.009143555 0.015574935 0.06640146 0.04602751
0.0044636438 0.0068221083 0.025031688 -0.04706322 -0.017819405 0.03138121 0.021896146 0.09463748
00000000: 4af7 42bd 2371 883b 9191 0c3d d408 4a3b
00000010: 0796 8e3c d08d bbbc 112f 9bbc 6f3e 343d
00000020: c553 e73c 8627 123d 89c3 543c 7bdf 3abc
00000030: c052 f93a a62b 823d 069b 103c e931 fc3c
00000040: 30a0 4c3d f7d3 823c 710e 9c3d 61ad c03c
00000050: d9ce 153c 032e 7f3c 7dfd 873d 5887 3c3d
00000060: c243 923b fe8b df3b 410f cd3c 5dc5 40bd
00000070: 00fa 91bc 9589 003d 8c5f b33c 4cd1 c13d

res_blocks.2.batch_norm.running_mean f4 [32]
-0.17031348 -1.1131263 -0.47436428 -0.84075826 -0.21719237 -1.3700905 -1.1347013 -0.07866685
1.0529093 1.3164917 -0.8813741 -2.3389335 -1.4204583 0.2594496 0.41345173 1.6857154
0.8907741 1.9683763 0.36828598 -2.097508 -1.8106548 1.4203452 1.1007645 -0.6415633
1.3298612 -1.2175274 0.31615865 -3.6243865 5.4787683 -0.82707644 1.457061 0.80590105
00000000: a866 2ebe ec7a 8ebf e0df f2be ef3b 57bf
00000010: ad67 5ebe 205f afbf e43d 91bf 161c a1bd
00000020: bbc5 863f cd82 a83f bca1 61bf 16b1 15c0
00000030: 94d1 b5bf 94d6 843e f2af d33e 86c5 d73f
00000040: c509 643f c1f3 fb3f fb8f bc3e 923d 06c0
00000050: 89c3 e7bf dfcd b53f dae5 8c3f 7e3d 24bf
00000060: e438 aa3f f0d7 9bbf 8cdf a13e f3f5 67c0
00000070: 1252 af40 48bb 53bf fa80 ba3f 884f 4e3f

res_blocks.2.batch_norm.running_var f4 [32]
8.99118 11.983065 14.588068 11.280289 10.471918 10.250099 11.033269 6.238368
13.583066 8.828497 10.133256 12.361629 23.016516 8.025945 16.400963 13.226631
15.583729 9.609864 10.189178 15.55327 12.1632805 9.888362 14.058991 7.5603395
9.564666 12.328972 10.658099 31.132187 38.31061 5.9694176 12.988754 8.428662
00000000: e0db 0f41 a2ba 3f41 ba68 6941 107c 3441
00000010: fa8c 2741 6800 2441 4588 3041 b6a0 c740
00000020: 3d54 5941 8641 0d41 d121 2241 3bc9 4541
00000030: d321 b841 456a 0041 2c35 8341 48a0 5341
00000040: f456 7941 01c2 1941 e006 2341 32da 7841
00000050: cc9c 4241 bb36 1e41 a1f1 6041 4dee f140
00000060: df08 1941 7843 4541 9387 2a41 b80e f941
00000070: 113e 1942 7805 bf40 f0d1 4f41 cddb 0641

res_blocks.3.conv.weight f4 [32, 32, 3, 3]
0.08201372 0.10810455 -0.050257336 0.18140519 -0.10254497 0.0039607505 -0.061672345 -0.0046273884
0.044577006 -0.0013060868 -0.019938098 0.042571828 -0.048986305 0.11119471 0.041370098 -0.014556532
-0.08067301 0.08139079 0.01435174 -0.11325391 -0.13619594 -0.17373961 -0.24378565 0.03542006
-0.13760099 -0.11410202 -0.0061765406 0.03286893 0.099813685 -0.10363819 -0.06588112 -0.058086522
-0.0051809982 0.05246797 -0.21883589 -0.053991586 -0.009921442 0.04851059 -0.04233773 0.08519243
-0.06690018 0.008589938 -0.072766356 -0.10893747 -0.03790437 -0.09051686 0.02788797 -0.054325588
-0.10198883 -0.10395382 0.053721968 -0.053430684 -0.11114305 0.14140607 0.0025308768 0.015577853
-0.009225977 -0.06273877 -0.04712139 0.061696276 -0.07473026 -0.029864553 -0.08458087 -0.027268175
-0.01461993 -0.008378666 -0.1477799 -0.04798648 0.052624427 0.049866404 0.058983266 0.056460097
0.0004130037 0.052053776 0.05606332 -0.13027592 -0.06941614 0.045518313 -0.07056531 -0.0015890304
0.051106688 0.120872796 0.0538626 0.016691098 -0.056448106 -0.018616604 0.08081523 -0.03540741
-0.083350316 0.00016338269 -0.077045344 0.063598044 -0.10966747 -0.049018834 0.0001356468 0.03702657
0.13796051 -0.029032996 -0.14039327 -0.04263106 0.070234686 -0.028285146 0.16250959 0.019774258
-0.115302764 -0.12200312 0.06468782 -0.027981479 0.11503803 0.03278747 -0.098325014 0.014677501
-0.091879 -0.056584317 -0.091574244 0.07107235 -0.061481804 0.16349792 0.093646996 0.023023715
-0.105908245 0.037360586 0.0881689 0.08832152 -0.08667739 0.0719972 0.097533874 0.05375647
0.081935145 0.022893766 0.01573833 -0.05710304 0.09320984 0.08337304 -0.08040887 -0.045510497
0.027039526 -0.03824421 0.1151377 -0.03109991 0.04310506 0.009196135 -0.0059680734 0.049240034
0.05832999 -0.029048337 0.11361352 0.084089026 0.022836188 0.031063369 0.02007387 -0.042819716
-0.04009829 -0.20663558 -0.0600643 0.0015727105 -0.027169507 -0.0037341814 0.059569687 -0.04130127
0.14395978 -0.0121089155 -0.019639688 0.048385665 -0.027769348 0.060019333 0.08500224 0.16047041
0.028900802 0.02443395 -0.032576233 0.027327614 0.035594657 -0.113682814 0.060656987 0.046526942
-0.030698027 -0.051319785 -0.020627093 -0.0093119135 -0.022267506 -0.09594549 -0.099656485 -0.121319264
-0.0010369745 -0.14203772 -0.045152523 -0.050050385 -0.083424196 0.00408005 0.034759503 -0.043227788
-0.031496264 -0.037193254 -0.036588952 0.06865144 0.112541825 -0.07230469 -0.00095705694 0.036408212
-0.062622584 0.05543171 -0.095930755 0.09907219 0.09275854 -0.0145379435 -0.12372572 -0.018209096
-0.0077528986 0.032093458 -0.13710494 0.027613403 0.039266862 0.17073146 0.15996554 0.010855812
0.150941 0.036340848 -0.058327764 -0.0721186 0.16928282 0.10723044 0.19587982 -0.13262872
-0.10028934 0.01853724 0.008724315 -0.041429225 0.027764289 -0.0940766 -0.04804316 -0.08023288
-0.037423305 0.054530147 -0.0025059208 0.045219168 -0.010829461 0.12509744 -0.00797196 -0.024533773
0.30898148 0.057908718 0.07573979 -0.12920442 0.061851483 0.14348021 0.036606558 -0.0161668
-0.08165807 0.24070947 -0.05771238 0.071088076 -0.026962051 0.059383407 -0.17083912 -0.20117392
00000000: cff6 a73d eb65 dd3d a3da 4dbd 48c2 393e
00000010: 1903 d2bd 2fc9 813b 249c 7cbd 59a1 97bb
00000020: 6196 363d 0031 abba 3955 a3bc cc5f 2e3d
00000030: dda5 48bd 0dba e33d b173 293d 857e 6ebc
00000040: e437 a5bd 37b0 a63d 8f23 6b3c aaf1 e7bd
00000050: f376 0bbe cce8 31be f2a2 79be a014 113d
00000060: 46e7 0cbe 52ae e9bd 9464 cabb 92a1 063d
00000070: 1e6b cc3d 4240 d4bd aeec 86bd 22ec 6dbd
00000080: 5dc5 a9bb a7e8 563d 8416 60be 4826 5dbd
00000090: 8b8d 22bc 0ab3 463d 546a 2dbd 5e79 ae3d
000000a0: f602 89bd d0bc 0c3c 8706 95bd 9c1a dfbd
000000b0: 9d41 1bbd e760 b9bd 5075 e43c 8284 5ebd
000000c0: 85df d0bd bee5 d4bd 910b 5c3d 22da 5abd
000000d0: f89e e3bd c1cc 103e 11dd 253b 403a 7f3c
000000e0: 8d28 17bc 2f7d 80bd 5c02 41bd 3cb5 7c3d
000000f0: 2e0c 99bd 82a6 f4bc bc38 adbd 8261 dfbc
00000100: 6e88 6fbc ac46 09bc 9d53 17be 798d 44bd
00000110: b68c 573d b740 4c3d 7098 713d b442 673d
00000120: 6b88 d839 5736 553d a7a2 653d 0d67 05be
00000130: 0d2a 8ebd 6971 3a3d 8c84 90bd 0347 d0ba
00000140: 3f55 513d 288c f73d 089f 5c3d c5bb 883c
00000150: 2136 67bd d981 98bc 7582 a53d 5c07 11bd
00000160: 92b3 aabd b551 2b39 f3c9 9dbd b13f 823d
00000170: 5799 e0bd f9c7 48bd 693c 0e39 2ca9 173d
00000180: 8545 0d3e 9bd6 edbc 41c3 0fbe e89d 2ebd
00000190: 34d7 8f3d 40b6 e7bc ea68 263e a0fd a13c
000001a0: db23 ecbd c6dc f9bd 0c7b 843d 6a39 e5bc
000001b0: 0f99 eb3d 274c 063d a05e c9bd e779 703c
000001c0: 0f2b bcbd f5c4 67bd 478b bbbd 618e 913d
000001d0: 58d4 7bbd 006c 273e ffc9 bf3d 3b9c bc3c
000001e0: 6ce6 d8bd 6a07 193d e591 b43d eae1 b43d
000001f0: ea83 b1bd 4573 933d d7bf c73d bf2f 5c3d
00000200: 9dcd a73d b58b bb3c aced 803c e1e4 69bd
00000210: cde4 be3d 7cbf aa3d 68ad a4bd 3769 3abd
00000220: ff81 dd3c f6a5 1cbd 51cd eb3d 3dc5 febc
00000230: ee8e 303d 63ab 163c d48f c3bb ebaf 493d
00000240: 6deb 6e3d c7f6 edbc 35ae e83d de36 ac3d
00000250: f512 bb3c 9b78 fe3c f571 a43c ba63 2fbd
00000260: 1b3e 24bd 4798 53be fc05 76bd 6823 ce3a
00000270: 9692 debc 2bb9 74bb 58ff 733d 852b 29bd
00000280: 316a 133e 7964 46bc 69e3 a0bc 0c30 463d
00000290: 8b7c e3bc d5d6 753d a815 ae3d 5b52 243e
000002a0: 60c1 ec3c b529 c83c a86e 05bd 29de df3c
000002b0: b4cb 113d 89d2 e8bd 7673 783d 0993 3e3d
000002c0: 6e7a fbbc b234 52bd 26fa a8bc ff90 18bc
000002d0: 586a b6bc 127f c4bd b318 ccbd 3c76 f8bd
000002e0: 17eb 87ba 5672 11be daf1 38bd a201 4dbd
000002f0: 4eda aabd f1b1 853b fb5f 0e3d 9f0f 31bd
00000300: 3a02 01bd f457 18bd 4cde 15bd 2099 8c3d
00000310: 547c e63d 7b14 94bd 01e3 7aba c720 153d
00000320: 4540 80bd 5c0c 633d 5877 c4bd 5ce6 ca3d
00000330: 30f8 bd3d 8e30 6ebc e963 fdbd 3e2b 95bc
00000340: 070c febb 6e74 033d 3d65 0cbe 8135 e23c
00000350: 4ad6 203d 3ad4 2e3e 02ce 233e 93dc 313c
00000360: 4790 1a3e 24da 143d 18e9 6ebd ebb2 93bd
00000370: 7a58 2d3e a29b db3d b894 483e d3cf 07be
00000380: 7f64 cdbd 69db 973c 6ef0 0e3c b1b1 29bd
00000390: ef71 e33c 3cab c0bd e8c8 44bd 2351 a4bd
000003a0: 2e49 19bd 015b 5f3d 603a 24bb bc37 393d
000003b0: 0d6e 31bc 8b19 003e d39c 02bc 0dfb c8bc
000003c0: d232 9e3e b131 6d3d 771d 9b3d 2a4e 04be
000003d0: fb57 7d3d 7aec 123e c2f0 153d 3d70 84bc
000003e0: 593c a7bd 8b7c 763e d163 6cbd a096 913d
000003f0: 85df dcbc 043c 733d 73f0 2ebe 8900 4ebe

res_blocks.3.batch_norm.weight f4 [32]
0.64448273 0.615033 0.6731667 0.5735423 0.5712598 0.6911461 0.64124626 0.7485528
0.64613354 0.7319101 0.676232 0.5571142 0.58374 0.7443123 0.73028386 0.73770535
0.7029722 0.6380994 0.74308586 0.64492905 0.58819824 0.6182412 0.7468926 0.7287512
0.7207566 0.68504167 0.7298088 0.5060654 0.53923714 0.75620747 0.7305074 0.66544926
00000000: d2fc 243f cd72 1d3f a754 2c3f abd3 123f
00000010: 153e 123f f3ee 303f b728 243f 28a1 3f3f
00000020: 0269 253f 765e 3b3f 8a1d 2d3f 099f 0e3f
00000030: fc6f 153f 408b 3e3f e2f3 3a3f 42da 3c3f
00000040: fcf5 333f 7b5a 233f e03a 3e3f 121a 253f
00000050: 2994 163f 0e45 1e3f 5a34 3f3f 708f 3a3f
00000060: 8183 383f e45e 2f3f c0d4 3a3f 818d 013f
00000070: 720b 0a3f d096 413f 8802 3b3f e25a 2a3f

res_blocks.3.batch_norm.bias f4 [32]
-0.047599114 0.0041638776 0.03431851 0.0030828016 0.017405523 -0.02289477 -0.018943341 0.044004854
0.028238187 0.035682224 0.012986072 -0.011405821 0.0019021854 0.063559815 0.008826023 0.030785518
0.049957454 0.015970213 0.07619942 0.023520174 0.009143555 0.015574935 0.06640146 0.04602751
0.0044636438 0.0068221083 0.025031688 -0.04706322 -0.017819405 0.03138121 0.021896146 0.09463748
00000000: 4af7 42bd 2371 883b 9191 0c3d d408 4a3b
00000010: 0796 8e3c d08d bbbc 112f 9bbc 6f3e 343d
00000020: c553 e73c 8627 123d 89c3 543c 7bdf 3abc
00000030: c052 f93a a62b 823d 069b 103c e931 fc3c
00000040: 30a0 4c3d f7d3 823c 710e 9c3d 61ad c03c
00000050: d9ce 153c 032e 7f3c 7dfd 873d 5887 3c3d
00000060: c243 923b fe8b df3b 410f cd3c 5dc5 40bd
00000070: 00fa 91bc 9589 003d 8c5f b33c 4cd1 c13d

res_blocks.3.batch_norm.running_mean f4 [32]
-0.17031348 -1.1131263 -0.47436428 -0.84075826 -0.21719237 -1.3700905 -1.1347013 -0.07866685
1.0529093 1.3164917 -0.8813741 -2.3389335 -1.4204583 0.2594496 0.41345173 1.6857154
0.8907741 1.9683763 0.36828598 -2.097508 -1.8106548 1.4203452 1.1007645 -0.6415633
1.3298612 -1.2175274 0.31615865 -3.6243865 5.4787683 -0.82707644 1.457061 0.80590105
00000000: a866 2ebe ec7a 8ebf e0df f2be ef3b 57bf
00000010: ad67 5ebe 205f afbf e43d 91bf 161c a1bd
00000020: bbc5 863f cd82 a83f bca1 61bf 16b1 15c0
00000030: 94d1 b5bf 94d6 843e f2af d33e 86c5 d73f
00000040: c509 643f c1f3 fb3f fb8f bc3e 923d 06c0
00000050: 89c3 e7bf dfcd b53f dae5 8c3f 7e3d 24bf
00000060: e438 aa3f f0d7 9bbf 8cdf a13e f3f5 67c0
00000070: 1252 af40 48bb 53bf fa80 ba3f 884f 4e3f

res_blocks.3.batch_norm.running_var f4 [32]
8.99118 11.983065 14.588068 11.280289 10.471918 10.250099 11.033269 6.238368
13.583066 8.828497 10.133256 12.361629 23.016516 8.025945 16.400963 13.226631
15.583729 9.609864 10.189178 15.55327 12.1632805 9.888362 14.058991 7.5603395
9.564666 12.328972 10.658099 31.132187 38.31061 5.9694176 12.988754 8.428662
00000000: e0db 0f41 a2ba 3f41 ba68 6941 107c 3441
00000010: fa8c 2741 6800 2441 4588 3041 b6a0 c740
00000020: 3d54 5941 8641 0d41 d121 2241 3bc9 4541
00000030: d321 b841 456a 0041 2c35 8341 48a0 5341
00000040: f456 7941 01c2 1941 e006 2341 32da 7841
00000050: cc9c 4241 bb36 1e41 a1f1 6041 4dee f140
00000060: df08 1941 7843 4541 9387 2a41 b80e f941
00000070: 113e 1942 7805 bf40 f0d1 4f41 cddb 0641
