my_pt/40_deep_model.pt (torch, 859026 bytes, 56 tensors)

conv1.weight f4 [32, 1, 3, 3]
-0.036365945 -0.3591539 -0.24988747 -0.019193806 0.2670983 -0.3157224 0.20020762 0.059868116
-0.13112372 -0.22657071 -0.1517468 -0.05024199 -0.25790635 0.2606794 0.06575547 0.303417
0.27260053 0.16488673 0.058849517 -0.2951951 -0.10269278 0.063331515 -0.14274491 0.19134142
0.21414873 -0.13299416 0.118074246 0.22006774 0.22588776 -0.17649439 -0.16427381 -0.1200853
0.14920728 0.23002635 -0.31794876 0.08745343 -0.21496113 0.0476272 0.23316213 0.15285496
-0.38138613 0.012416686 0.32080603 -0.23508257 0.06714857 -0.044373613 0.18712057 -0.3260825
-0.08056406 0.09188516 0.124726236 -0.21211515 0.21109289 0.28160748 -0.07388817 -0.14740169
-0.15844086 0.016814357 0.16858228 -0.22656311 -0.08012483 -0.18921265 -0.18928088 -0.07376566
0.26560065 0.10174387 -0.13842534 0.1555467 -0.116118185 0.08667349 -0.1274349 -0.2934929
0.29429474 0.12864701 0.3087883 -0.23648025 0.014893586 0.124049895 -0.14100946 -0.10717175
-0.044251733 -0.001897125 -0.0063857543 0.29470605 -0.2667969 -0.25606027 0.27634916 0.21644485
0.1989125 -0.09204132 0.32349345 0.08966823 -0.3139959 0.26700726 -0.26825336 0.023940464
0.2124998 -0.24688514 -0.27467212 0.19317324 0.21779077 0.08825505 0.16190265 -0.13057381
-0.03622568 -0.29711512 0.17336941 0.29000852 0.2027503 0.032283273 -0.26836795 0.107286274
0.009191028 0.30546838 -0.07368277 0.098048 0.1447757 -0.10673972 0.17441697 -0.12534465
-0.29512036 0.20447278 -0.025551353 0.14197668 -0.2266892 -0.2241909 -0.07406451 0.22655687
-0.069617376 0.28237605 0.08093979 -0.055011358 0.1958594 -0.27626196 0.019859252 0.28470376
-0.31624997 -0.3233867 0.090375625 0.13043383 -0.2993507 0.1054193 0.24162257 -0.28229094
-0.017848011 -0.12563324 0.007944533 -0.33361214 -0.2132052 -0.060683385 0.16191411 -0.08156536
-0.13434483 0.0011408242 -0.23817474 0.09259298 0.15077145 -0.001534245 -0.12373962 0.045336645
-0.3337769 -0.104803644 -0.22488892 -0.10577745 -0.2631333 0.32796857 0.06555254 0.1173661
-0.07379548 -0.20568678 0.009126845 -0.25942916 -0.21952291 0.33560133 0.21863455 0.38127896
0.048994873 -0.0040463908 -0.10257573 -0.17158046 0.1572524 -0.23352103 -0.016955983 0.14655076
0.28116098 -0.11523038 -0.13661091 0.112613745 0.062658034 -0.051895447 -0.05134719 0.06185606
0.17673694 0.00051947345 -0.18851273 -0.009203938 -0.21675675 -0.3223422 0.10586264 -0.3271951
-0.16944247 -0.030241577 0.15310173 0.19518234 -0.12545626 -0.030857338 -0.2424388 0.14941755
-0.25702852 0.18395476 -0.2270803 -0.17252396 -0.20367847 -0.2240686 -0.2069714 -0.2692159
-0.07307356 -0.1679038 -0.27949312 -0.14363052 0.26366684 0.28200993 0.120281935 -0.007578636
0.16398859 0.046786677 0.2529246 -0.16750284 0.031036554 0.23966727 0.11586438 0.18368292
0.15567039 0.14279638 -0.30227694 -0.088135116 0.24330468 0.018553376 0.09565017 0.09214851
-0.123170264 -0.002215378 0.24313064 -0.114636354 0.09337392 0.093687676 -0.23908009 -0.20635265
0.04779659 -0.09387864 0.21644618 -0.09304614 0.10397911 -0.24353774 0.24569982 -0.12190977
00000000: 75f4 14bd 05e3 b7be 80e2 7fbe 543c 9dbc
00000010: 1cc1 883e 5ea6 a1be 3a03 4d3e 4538 753d
00000020: 4c45 06be 2702 68be 8363 1bbe 8bca 4dbd
00000030: 4d0c 84be c577 853e ceaa 863d 7959 9b3e
00000040: 4c92 8b3e 11d8 283e 310c 713d d023 97be
00000050: 9850 d2bd f4b3 813d b92b 12be 01ef 433e
00000060: ce49 5b3e 9f2f 08be e9d0 f13d 7059 613e
00000070: 1f4f 673e f2ba 34be 6537 28be 48ef f5bd
00000080: cbc9 183e 078c 6b3e 2eca a2be c91a b33d
00000090: c51e 5cbe bd14 433d 0ec2 6e3e 0386 1c3e
000000a0: 0b45 c3be 5b6f 4b3c b040 a43e 7cb9 70be
000000b0: 3185 893d 1bc1 35bd 899c 3f3e 49f4 a6be
000000c0: c5fe a4bd 492e bc3d 7870 ff3d b734 59be
000000d0: bc28 583e db2e 903e ae52 97bd 78f0 16be
000000e0: 523e 22be 43be 893c d5a0 2c3e 2900 68be
000000f0: 7d18 a4bd f6c0 41be d9d2 41be 7312 97bd
00000100: cffc 873e 175f d03d 5fbf 0dbe a247 1f3e
00000110: 5fcf edbd df81 b13d 4b7e 02be b444 96be
00000120: cdad 963e 0bbc 033e 8019 9e3e e127 72be
00000130: 3a04 743c df0d fe3d c964 10be dd7c dbbd
00000140: 4e41 35bd f4a8 f8ba 973f d1bb b6e3 963e
00000150: 9a99 88be 551a 83be a37d 8d3e b8a3 5d3e
00000160: b8af 4b3e 2980 bcbd efa0 a53e faa3 b73d
00000170: 12c4 a0be 2db5 883e 8158 89be cb1e c43c
00000180: 8c99 593e 75cf 7cbe d3a1 8cbe 35cf 453e
00000190: 8b04 5f3e 10bf b43d cfc9 253e 24b5 05be
000001a0: 6161 14bd 791f 98be c087 313e ff7b 943e
000001b0: c69d 4f3e 773b 043d 8667 89be e8b8 db3d
000001c0: f795 163c 5a66 9c3e fee6 96bd 64cd c83d
000001d0: 1540 143e 5b9a dabd 5d9a 323e 595a 00be
000001e0: 041a 97be 5061 513e 1251 d1bc 5662 113e
000001f0: 3721 68be 4d92 65be 22af 97bd 86fe 673e
00000200: 8e93 8ebd 9893 903e c3c3 a53d 9753 61bd
00000210: 5e8f 483e 3572 8dbe dfaf a23c b1c4 913e
00000220: 84eb a1be f192 a5be db16 b93d 7290 053e
00000230: 7f44 99be 13e6 d73d e86b 773e 7088 90be
00000240: fe35 92bc 00a6 00be c929 023c 36cf aabe
00000250: 7752 5abe 248f 78bd d0cc 253e bd0b a7bd
00000260: b191 09be b587 953a 14e4 73be 63a1 bd3d
00000270: d563 1a3e b818 c9ba 336b fdbd ebb2 393d
00000280: cee4 aabe 4ba3 d6bd 4849 66be d9a1 d8bd
00000290: 68b9 86be 7feb a73e 6940 863d a35d f03d
000002a0: 1622 97bd 8e9f 52be c388 153c e6d3 84be
000002b0: 9dca 60be f0d3 ab3e bce1 5f3e ff36 c33e
000002c0: d9ae 483d 9697 84bb 3913 d2bd cab2 2fbe
000002d0: c606 213e 2320 6fbe 46e7 8abc 6711 163e
000002e0: 55f4 8f3e e8fd ebbd bbe3 0bbe 09a2 e63d
000002f0: db52 803d 5290 54bd 6e51 52bd c85c 7d3d
00000300: 87fa 343e 462d 083a 7b09 41be 1dcc 16bc
00000310: 7bf5 5dbe 090a a5be 83ce d83d 1e86 a7be
00000320: 5482 2dbe 2fbd f7bc b3c6 1c3e e1dd 473e
00000330: 9b77 00be 87c8 fcbc e041 78be ea00 193e
00000340: 3e99 83be a35e 3c3e bd87 68be 1faa 30be
00000350: 1791 50be 3d72 65be 50f0 53be abd6 89be
00000360: 97a7 95bd f9ee 2bbe b919 8fbe e113 13be
00000370: 57ff 863e 9b63 903e 6056 f63d 3556 f8bb
00000380: a0ec 273e 63a3 3f3d 557f 813e dd85 2bbe
00000390: 5f40 fe3c 566b 753e 4e4a ed3d 6017 3c3e
000003a0: 0f68 1f3e 3739 123e 0bc4 9abe 2f80 b4bd
000003b0: dd24 793e 40fd 973c 3de4 c33d 5cb8 bc3d
000003c0: b140 fcbd e02f 11bb 3df7 783e 77c6 eabd
000003d0: d33a bf3d 53df bf3d 69d1 74be 1c4e 53be
000003e0: 5bc6 433d 7243 c0bd 11a4 5d3e fa8e bebd
000003f0: 00f3 d43d f561 79be bc98 7b3e d4ab f9bd

conv1.bias f4 [32]
-0.011095188 0.0214038 0.120717436 -0.20793334 -0.107144944 0.0032479018 -0.13046837 0.24916922
-0.06718503 -0.24175943 0.27183992 -0.21282476 -0.21381825 -0.15683125 -0.26488882 -0.19698472
0.17444116 -0.2585379 0.21069615 0.2047998 -0.23268011 -0.16269134 -0.26384982 -0.0549183
-0.33103958 0.27909362 -0.20781974 0.25157714 -0.10184061 -0.09573193 -0.19077359 0.18706715
00000000: 97c8 35bc 0657 af3c b43a f73d 7aec 54be
00000010: cf6e dbbd c0da 543b 8099 05be 3726 7f3e
00000020: 4e98 89bd c98f 77be 9a2e 8b3e bcee 59be
00000030: 2cf3 5abe 5f98 20be 829f 87be 5db6 49be
00000040: b4a0 323e 145f 84be bbc0 573e 0ab7 513e
00000050: b243 6ebe 8f98 26be 5317 87be 03f2 60bd
00000060: 057e a9be 5ce5 8e3e b3ce 54be b8ce 803e
00000070: cf91 d0bd 1a0f c4bd 275a 43be 888e 3f3e

res_blocks.0.conv.weight f4 [32, 32, 3, 3]
0.08448687 0.107092716 -0.051891394 0.1742845 -0.122172594 -0.0033432716 -0.060887285 -0.0111225275
0.03957021 -0.004667921 -0.021194972 0.051625308 -0.0502979 0.109448515 0.036957186 -0.016218478
-0.07359961 0.08238603 0.0207632 -0.105546504 -0.13306321 -0.1701886 -0.24135023 0.028144855
-0.13504328 -0.10809762 -0.0023054653 0.030734174 0.102495834 -0.103616424 -0.060541473 -0.05589885
-0.00585235 0.05482688 -0.21930006 -0.05961467 -0.008792515 0.0503777 -0.046447832 0.09122687
-0.062480014 0.012843568 -0.07214549 -0.10456341 -0.03664839 -0.08954264 0.025899602 -0.052321482
-0.09102599 -0.10575081 0.055495273 -0.055212628 -0.10388066 0.14384554 2.7505166e-05 0.02279102
-0.0061651585 -0.06266416 -0.052366808 0.068872586 -0.07347099 -0.03313501 -0.08068447 -0.028413784
-0.016484238 -0.01945458 -0.14521079 -0.042817567 0.051266216 0.050532155 0.06707321 0.063808784
-0.0011935156 0.04877757 0.04895824 -0.13131462 -0.07265421 0.055848535 -0.07202551 -0.0020688088
0.050077043 0.121187516 0.04997456 0.012620675 -0.060770404 -0.025687484 0.07962624 -0.04204452
-0.08878883 -0.00880872 -0.078224555 0.06286259 -0.106183164 -0.042839028 0.00489545 0.041240383
0.13521492 -0.026339065 -0.13782784 -0.044896744 0.0650078 -0.032419443 0.16472347 0.016125407
-0.118757755 -0.12205467 0.06357066 -0.032170784 0.10956644 0.03131235 -0.09399364 0.015609213
-0.09045848 -0.057848375 -0.095338754 0.07198331 -0.056523338 0.16777697 0.0985821 0.015997654
-0.10386581 0.029664153 0.09717936 0.0866885 -0.08808863 0.07126604 0.098960854 0.056669984
0.08560709 0.018542923 0.012653458 -0.047843482 0.08987911 0.08048867 -0.0951733 -0.057395607
0.021515004 -0.03770793 0.11746332 -0.03325443 0.032673493 0.015166126 -0.0066935234 0.042774715
0.06676059 -0.027582033 0.11221642 0.08474298 0.018904611 0.029545017 0.020079738 -0.048970427
-0.0440478 -0.20859298 -0.064780824 -0.0028329007 -0.021414338 -0.0063429233 0.056815114 -0.0380927
0.14383253 -0.011193888 -0.025909098 0.056551736 -0.02210453 0.066245265 0.08214679 0.1615512
0.034075674 0.030492136 -0.034635365 0.023971029 0.037842583 -0.11641945 0.05643243 0.04371957
-0.03410946 -0.04525476 -0.025034567 -0.011797088 -0.023430187 -0.100512296 -0.10532072 -0.121649496
-0.0006000827 -0.1389017 -0.045107823 -0.054427367 -0.0846488 0.0056690983 0.03578256 -0.046615835
-0.028129535 -0.026498433 -0.03488753 0.07250502 0.109194584 -0.067378886 -0.00033627776 0.040147543
-0.06076884 0.056850616 -0.09600273 0.10151696 0.08840668 -0.009990018 -0.12578459 -0.023967609
-0.007711617 0.039270412 -0.13818568 0.032972388 0.038672954 0.16043998 0.16118258 0.015715195
0.15628074 0.03953452 -0.06443751 -0.0795231 0.16337125 0.106300026 0.19046564 -0.13294128
-0.1036496 0.016966533 0.007196468 -0.03876541 0.022172488 -0.095264815 -0.047602493 -0.07904928
-0.04239151 0.050720572 0.0010511593 0.049216494 -0.007881083 0.122307085 -0.008347485 -0.029168824
0.29996443 0.053895045 0.08451134 -0.13175987 0.06577219 0.14370632 0.03875913 -0.013539191
-0.080205746 0.24306996 -0.05596538 0.068074666 -0.025332738 0.061854415 -0.1686914 -0.19702315
00000000: 7407 ad3d 6d53 db3d 128c 54bd a377 323e
00000010: a035 fabd ca1a 5bbb f264 79bd 433b 36bc
00000020: 5f14 223d 5cf5 98bb 14a1 adbc 0f75 533d
00000030: 2c05 4ebd 8b26 e03d 6b60 173d 9ddc 84bc
00000040: 64bb 96bd 02ba a83d 9617 aa3c c428 d8bd
00000050: b941 08be ec45 2ebe 8424 77be 0a90 e63c
00000060: c948 0abe 4962 ddbd 4a17 17bb 3cc6 fb3c
00000070: 56e9 d13d d934 d4bd 56fa 77bd 31f6 64bd
00000080: 12c5 bfbb 2792 603d 3290 60be 832e 74bd
00000090: 7b0e 10bc d958 4e3d 1540 3ebd 27d5 ba3d
000000a0: 0beb 7fbd d46d 523c 04c1 93bd 5725 d6bd
000000b0: 9f1c 16bd 2262 b7bd 672b d43c 0d4f 56bd
000000c0: d66b babd e193 d8bd 034f 633d a326 62bd
000000d0: 62bf d4bd 3f4c 133e e5ba e637 3cb4 ba3c
000000e0: 1905 cabb 1156 80bd 947e 56bd 120d 8d3d
000000f0: f577 96bd 94b8 07bd e63d a5bd 06c4 e8bc
00000100: f409 87bc 365f 9fbc 23b2 14be 7961 2fbd
00000110: 86fc 513d cefa 4e3d ae5d 893d 2eae 823d
00000120: bd6f 9cba fdca 473d 6f88 483d 5777 06be
00000130: bbcb 94bd 6fc1 643d 1c82 93bd da94 07bb
00000140: 961d 4d3d 2931 f83d 20b2 4c3d f3c6 4e3c
00000150: 63ea 78bd 8f6e d2bc 1513 a33d e036 2cbd
00000160: ebd6 b5bd 7352 10bc 3234 a0bd 1abe 803d
00000170: 8f76 d9bd fa77 2fbd 036a a03b adeb 283d
00000180: c875 0a3e 06c5 d7bc be22 0dbe a6e5 37bd
00000190: cf22 853d 40ca 04bd 45ad 283e 6e19 843c
000001a0: 4437 f3bd ccf7 f9bd 5631 823d 83c5 03bd
000001b0: 5f64 e03d 6141 003d bd7f c0bd c9bd 7f3c
000001c0: 4c42 b9bd 6bf2 6cbd f740 c3bd fc6b 933d
000001d0: 0485 67bd bacd 2b3e 69e5 c93d 830d 833c
000001e0: 99b7 d4bd 3d02 f33c f905 c73d be89 b13d
000001f0: d067 b4bd eef3 913d fdab ca3d c91e 683d
00000200: c552 af3d 54e7 973c 7350 4f3c 87f7 43bd
00000210: 8a12 b83d 3ed7 a43d 38ea c2bd a817 6bbd
00000220: 3c40 b03c a173 1abd 9c90 f03d cc35 08bd
00000230: a4d4 053d 587b 783c 5855 dbbb 8a34 2f3d
00000240: c7b9 883d b7f3 e1bc b9d1 e53d ba8d ad3d
00000250: d8dd 9a3c 6408 f23c 437e a43c 3795 48bd
00000260: 776b 34bd 6699 55be cfab 84bd 30a8 39bb
00000270: 1f6d afbc 4cd8 cfbb f7b6 683d 1707 1cbd
00000280: d648 133e 9266 37bc 513f d4bc cba2 673d
00000290: 8f14 b5bc 99ab 873d 943c a83d ae6d 253e
000002a0: ef92 0b3d a5ca f93c d0dd 0dbd e45e c43c
000002b0: d300 1b3d 526d eebd b125 673d 4b13 333d
000002c0: 5cb6 0bbd 0e5d 39bd 4b15 cdbc 9348 41bc
000002d0: aaf0 bfbc 64d9 cdbd 64b2 d7bd 5f23 f9bd
000002e0: de4e 1dba 3f3c 0ebe fbc2 38bd 3bef 5ebd
000002f0: 5a5c adbd d8c3 b93b bc90 123d 3ff0 3ebd
00000300: e96f e6bc 3e13 d9bc 3ae6 0ebd 837d 943d
00000310: 69a1 df3d f1fd 89bd 704e b0b9 c071 243d
00000320: bfe8 78bd 31dc 683d 149d c4bd 20e8 cf3d
00000330: 900e b53d 2cad 23bc adcd 00be b857 c4bc
00000340: bbb1 fcbb 03da 203d 8c80 0dbe 0e0e 073d
00000350: 8867 1e3d 614a 243e 0c0d 253e 27bd 803c
00000360: 0f08 203e f3ee 213d d0f7 83bd 02dd a2bd
00000370: cb4a 273e d4b3 d93d 6d09 433e c221 08be
00000380: 3e46 d4bd 66fd 8a3c 59d0 eb3b 7bc8 1ebd
00000390: 14a3 b53c 331a c3bd d5fa 42bd 97e4 a1bd
000003a0: b8a2 2dbd 60c0 4f3d 0ec7 893a 3c97 493d
000003b0: a81f 01bc 237c fa3d e4c3 08bc 75f3 eebc
000003c0: f094 993e 0dc1 5c3d 4814 ad3d 0fec 06be
000003d0: 92b3 863d c027 133e e5c1 1e3d 7cd3 5dbc
000003e0: e942 a4bd 55e7 783e f43b 65bd bb6a 8b3d
000003f0: 9a86 cfbc 0e5b 7d3d 70bd 2cbe 70c0 49be

res_blocks.0.batch_norm.weight f4 [32]
0.5730567 0.5645355 0.5982778 0.54031235 0.5379736 0.6121782 0.5722386 0.64220655
0.57004315 0.63235897 0.6013732 0.5212426 0.54029274 0.6441189 0.65099806 0.64321303
0.6138208 0.5705911 0.65522724 0.5803624 0.54104936 0.5502669 0.6605022 0.6346935
0.64773417 0.5960826 0.64145637 0.49089625 0.50345963 0.66550136 0.63694435 0.58933014
00000000: d8b3 123f 6685 103f bc28 193f e951 0a3f
00000010: a3b8 093f b6b7 1c3f 3b7e 123f a667 243f
00000020: 59ee 113f 47e2 213f 98f3 193f 2870 053f
00000030: a050 0a3f fae4 243f cfa7 263f 9ca9 243f
00000040: 5c23 1d3f 4212 123f f9bc 273f a192 143f
00000050: 3682 0a3f 4bde 0c3f ac16 293f 467b 223f
00000060: e8d1 253f df98 183f 7c36 243f c156 fb3e
00000070: bbe2 003f 4c5e 2a3f c90e 233f 57de 163f

res_blocks.0.batch_norm.bias f4 [32]
-0.04168931 0.0042863376 0.024276437 -0.0004768189 0.015185205 -0.024227802 -0.020982504 0.02839453
0.015231233 0.029399449 0.000863636 -0.015275396 0.0012865077 0.043730058 0.0060367347 0.01939881
0.03264618 0.0067586475 0.06492096 0.0054133534 -0.0025101397 -0.0009688086 0.047114447 0.018853657
0.0017765841 0.00059647247 0.008093319 -0.045254443 -0.023084817 0.018807221 0.012505048 0.065951176
00000000: 69c2 2abd 6874 8c3b 61df c63c 8dfd f9b9
00000010: 5ecb 783c 6279 c6bc 80e3 abbc a59b e83c
00000020: 6c8c 793c 1dd7 f03c a265 623a a845 7abc
00000030: 09a0 a83a 4a1e 333d cdcf c53b 41ea 9e3c
00000040: 00b8 053d a577 dd3b 48f5 843d 8062 b13b
00000050: 2881 24bb a5f7 7dba 14fb 403d fc72 9a3c
00000060: 45dc e83a 975c 1c3a d799 043c b95c 39bd
00000070: 5f1c bdbc 9a11 9a3c f9e1 4c3c 6911 873d

res_blocks.0.batch_norm.running_mean f4 [32]
-0.24641459 -1.4543527 -0.45069933 -1.0335255 -0.4413666 -1.4219912 -1.2347444 0.037407704
1.3089099 0.9653043 -0.7539269 -2.2178433 -1.4709624 -0.015344865 0.22104546 1.6586654
0.760785 1.9613217 0.27307752 -1.9685508 -1.7219323 1.4705744 0.8578481 -0.5076381
1.2141593 -1.3048844 0.090752184 -3.2530477 5.489142 -0.82848257 1.3857211 0.7474379
00000000: 1b54 7cbe 3b28 babf 10c2 e6be 904a 84bf
00000010: cefa e1be cf03 b6bf 1b0c 9ebf d238 193d
00000020: 5c8a a73f 2f1e 773f 5a01 41bf 25f1 0dc0
00000030: 7f48 bcbf 0769 7bbc be59 623e 264f d43f
00000040: cec2 423f 970c fb3f d1d0 8b3e 79f9 fbbf
00000050: 4768 dcbf c83b bc3f ef9b 5b3f 92f4 01bf
00000060: 9269 9b3f 7406 a7bf 48dc b93d ef31 50c0
00000070: 0da7 af40 6f17 54bf 4f5f b13f 1758 3f3f

res_blocks.0.batch_norm.running_var f4 [32]
6.824252 10.626955 11.474538 10.321728 9.549152 7.7564335 8.921923 5.459341
11.916644 7.212018 9.233015 11.237193 19.303757 6.154732 13.016457 10.647055
12.158563 8.366651 8.028077 13.592512 9.728648 8.336096 11.339614 5.6087255
7.926802 9.331519 7.9222074 24.948502 34.840588 4.733558 9.333425 7.365904
00000000: 4660 da40 0208 2a41 b597 3741 cc25 2541
00000010: 54c9 1841 b434 f840 32c0 0e41 ecb2 ae40
00000020: 93aa 3e41 dac8 e640 6eba 1341 8bcb 3341
00000030: 186e 9a41 91f3 c440 6843 5041 565a 2a41
00000040: 7989 4241 cddd 0541 0173 0041 ee7a 5941
00000050: 8ba8 1b41 a660 0541 0f6f 3541 ae7a b340
00000060: 5da8 fd40 e74d 1541 b982 fd40 8896 c741
00000070: c35c 0b42 4f79 9740 b555 1541 7cb5 eb40

res_blocks.1.conv.weight f4 [32, 32, 3, 3]
0.08448687 0.107092716 -0.051891394 0.1742845 -0.122172594 -0.0033432716 -0.060887285 -0.0111225275
0.03957021 -0.004667921 -0.021194972 0.051625308 -0.0502979 0.109448515 0.036957186 -0.016218478
-0.07359961 0.08238603 0.0207632 -0.105546504 -0.13306321 -0.1701886 -0.24135023 0.028144855
-0.13504328 -0.10809762 -0.0023054653 0.030734174 0.102495834 -0.103616424 -0.060541473 -0.05589885
-0.00585235 0.05482688 -0.21930006 -0.05961467 -0.008792515 0.0503777 -0.046447832 0.09122687
-0.062480014 0.012843568 -0.07214549 -0.10456341 -0.03664839 -0.08954264 0.025899602 -0.052321482
-0.09102599 -0.10575081 0.055495273 -0.055212628 -0.10388066 0.14384554 2.7505166e-05 0.02279102
-0.0061651585 -0.06266416 -0.052366808 0.068872586 -0.07347099 -0.03313501 -0.08068447 -0.028413784
-0.016484238 -0.01945458 -0.14521079 -0.042817567 0.051266216 0.050532155 0.06707321 0.063808784
-0.0011935156 0.04877757 0.04895824 -0.13131462 -0.07265421 0.055848535 -0.07202551 -0.0020688088
0.050077043 0.121187516 0.04997456 0.012620675 -0.060770404 -0.025687484 0.07962624 -0.04204452
-0.08878883 -0.00880872 -0.078224555 0.06286259 -0.106183164 -0.042839028 0.00489545 0.041240383
0.13521492 -0.026339065 -0.13782784 -0.044896744 0.0650078 -0.032419443 0.16472347 0.016125407
-0.118757755 -0.12205467 0.06357066 -0.032170784 0.10956644 0.03131235 -0.09399364 0.015609213
-0.09045848 -0.057848375 -0.095338754 0.07198331 -0.056523338 0.16777697 0.0985821 0.015997654
-0.10386581 0.029664153 0.09717936 0.0866885 -0.08808863 0.07126604 0.098960854 0.056669984
0.08560709 0.018542923 0.012653458 -0.047843482 0.08987911 0.08048867 -0.0951733 -0.057395607
0.021515004 -0.03770793 0.11746332 -0.03325443 0.032673493 0.015166126 -0.0066935234 0.042774715
0.06676059 -0.027582033 0.11221642 0.08474298 0.018904611 0.029545017 0.020079738 -0.048970427
-0.0440478 -0.20859298 -0.064780824 -0.0028329007 -0.021414338 -0.0063429233 0.056815114 -0.0380927
0.14383253 -0.011193888 -0.025909098 0.056551736 -0.02210453 0.066245265 0.08214679 0.1615512
0.034075674 0.030492136 -0.034635365 0.023971029 0.037842583 -0.11641945 0.05643243 0.04371957
-0.03410946 -0.04525476 -0.025034567 -0.011797088 -0.023430187 -0.100512296 -0.10532072 -0.121649496
-0.0006000827 -0.1389017 -0.045107823 -0.054427367 -0.0846488 0.0056690983 0.03578256 -0.046615835
-0.028129535 -0.026498433 -0.03488753 0.07250502 0.109194584 -0.067378886 -0.00033627776 0.040147543
-0.06076884 0.056850616 -0.09600273 0.10151696 0.08840668 -0.009990018 -0.12578459 -0.023967609
-0.007711617 0.039270412 -0.13818568 0.032972388 0.038672954 0.16043998 0.16118258 0.015715195
0.15628074 0.03953452 -0.06443751 -0.0795231 0.16337125 0.106300026 0.19046564 -0.13294128
-0.1036496 0.016966533 0.007196468 -0.03876541 0.022172488 -0.095264815 -0.047602493 -0.07904928
-0.04239151 0.050720572 0.0010511593 0.049216494 -0.007881083 0.122307085 -0.008347485 -0.029168824
0.29996443 0.053895045 0.08451134 -0.13175987 0.06577219 0.14370632 0.03875913 -0.013539191
-0.080205746 0.24306996 -0.05596538 0.068074666 -0.025332738 0.061854415 -0.1686914 -0.19702315
00000000: 7407 ad3d 6d53 db3d 128c 54bd a377 323e
00000010: a035 fabd ca1a 5bbb f264 79bd 433b 36bc
00000020: 5f14 223d 5cf5 98bb 14a1 adbc 0f75 533d
00000030: 2c05 4ebd 8b26 e03d 6b60 173d 9ddc 84bc
00000040: 64bb 96bd 02ba a83d 9617 aa3c c428 d8bd
00000050: b941 08be ec45 2ebe 8424 77be 0a90 e63c
00000060: c948 0abe 4962 ddbd 4a17 17bb 3cc6 fb3c
00000070: 56e9 d13d d934 d4bd 56fa 77bd 31f6 64bd
00000080: 12c5 bfbb 2792 603d 3290 60be 832e 74bd
00000090: 7b0e 10bc d958 4e3d 1540 3ebd 27d5 ba3d
000000a0: 0beb 7fbd d46d 523c 04c1 93bd 5725 d6bd
000000b0: 9f1c 16bd 2262 b7bd 672b d43c 0d4f 56bd
000000c0: d66b babd e193 d8bd 034f 633d a326 62bd
000000d0: 62bf d4bd 3f4c 133e e5ba e637 3cb4 ba3c
000000e0: 1905 cabb 1156 80bd 947e 56bd 120d 8d3d
000000f0: f577 96bd 94b8 07bd e63d a5bd 06c4 e8bc
00000100: f409 87bc 365f 9fbc 23b2 14be 7961 2fbd
00000110: 86fc 513d cefa 4e3d ae5d 893d 2eae 823d
00000120: bd6f 9cba fdca 473d 6f88 483d 5777 06be
00000130: bbcb 94bd 6fc1 643d 1c82 93bd da94 07bb
00000140: 961d 4d3d 2931 f83d 20b2 4c3d f3c6 4e3c
00000150: 63ea 78bd 8f6e d2bc 1513 a33d e036 2cbd
00000160: ebd6 b5bd 7352 10bc 3234 a0bd 1abe 803d
00000170: 8f76 d9bd fa77 2fbd 036a a03b adeb 283d
00000180: c875 0a3e 06c5 d7bc be22 0dbe a6e5 37bd
00000190: cf22 853d 40ca 04bd 45ad 283e 6e19 843c
000001a0: 4437 f3bd ccf7 f9bd 5631 823d 83c5 03bd
000001b0: 5f64 e03d 6141 003d bd7f c0bd c9bd 7f3c
000001c0: 4c42 b9bd 6bf2 6cbd f740 c3bd fc6b 933d
000001d0: 0485 67bd bacd 2b3e 69e5 c93d 830d 833c
000001e0: 99b7 d4bd 3d02 f33c f905 c73d be89 b13d
000001f0: d067 b4bd eef3 913d fdab ca3d c91e 683d
00000200: c552 af3d 54e7 973c 7350 4f3c 87f7 43bd
00000210: 8a12 b83d 3ed7 a43d 38ea c2bd a817 6bbd
00000220: 3c40 b03c a173 1abd 9c90 f03d cc35 08bd
00000230: a4d4 053d 587b 783c 5855 dbbb 8a34 2f3d
00000240: c7b9 883d b7f3 e1bc b9d1 e53d ba8d ad3d
00000250: d8dd 9a3c 6408 f23c 437e a43c 3795 48bd
00000260: 776b 34bd 6699 55be cfab 84bd 30a8 39bb
00000270: 1f6d afbc 4cd8 cfbb f7b6 683d 1707 1cbd
00000280: d648 133e 9266 37bc 513f d4bc cba2 673d
00000290: 8f14 b5bc 99ab 873d 943c a83d ae6d 253e
000002a0: ef92 0b3d a5ca f93c d0dd 0dbd e45e c43c
000002b0: d300 1b3d 526d eebd b125 673d 4b13 333d
000002c0: 5cb6 0bbd 0e5d 39bd 4b15 cdbc 9348 41bc
000002d0: aaf0 bfbc 64d9 cdbd 64b2 d7bd 5f23 f9bd
000002e0: de4e 1dba 3f3c 0ebe fbc2 38bd 3bef 5ebd
000002f0: 5a5c adbd d8c3 b93b bc90 123d 3ff0 3ebd
00000300: e96f e6bc 3e13 d9bc 3ae6 0ebd 837d 943d
00000310: 69a1 df3d f1fd 89bd 704e b0b9 c071 243d
00000320: bfe8 78bd 31dc 683d 149d c4bd 20e8 cf3d
00000330: 900e b53d 2cad 23bc adcd 00be b857 c4bc
00000340: bbb1 fcbb 03da 203d 8c80 0dbe 0e0e 073d
00000350: 8867 1e3d 614a 243e 0c0d 253e 27bd 803c
00000360: 0f08 203e f3ee 213d d0f7 83bd 02dd a2bd
00000370: cb4a 273e d4b3 d93d 6d09 433e c221 08be
00000380: 3e46 d4bd 66fd 8a3c 59d0 eb3b 7bc8 1ebd
00000390: 14a3 b53c 331a c3bd d5fa 42bd 97e4 a1bd
000003a0: b8a2 2dbd 60c0 4f3d 0ec7 893a 3c97 493d
000003b0: a81f 01bc 237c fa3d e4c3 08bc 75f3 eebc
000003c0: f094 993e 0dc1 5c3d 4814 ad3d 0fec 06be
000003d0: 92b3 863d c027 133e e5c1 1e3d 7cd3 5dbc
000003e0: e942 a4bd 55e7 783e f43b 65bd bb6a 8b3d
000003f0: 9a86 cfbc 0e5b 7d3d 70bd 2cbe 70c0 49be

res_blocks.1.batch_norm.weight f4 [32]
0.5730567 0.5645355 0.5982778 0.54031235 0.5379736 0.6121782 0.5722386 0.64220655
0.57004315 0.63235897 0.6013732 0.5212426 0.54029274 0.6441189 0.65099806 0.64321303
0.6138208 0.5705911 0.65522724 0.5803624 0.54104936 0.5502669 0.6605022 0.6346935
0.64773417 0.5960826 0.64145637 0.49089625 0.50345963 0.66550136 0.63694435 0.58933014
00000000: d8b3 123f 6685 103f bc28 193f e951 0a3f
00000010: a3b8 093f b6b7 1c3f 3b7e 123f a667 243f
00000020: 59ee 113f 47e2 213f 98f3 193f 2870 053f
00000030: a050 0a3f fae4 243f cfa7 263f 9ca9 243f
00000040: 5c23 1d3f 4212 123f f9bc 273f a192 143f
00000050: 3682 0a3f 4bde 0c3f ac16 293f 467b 223f
00000060: e8d1 253f df98 183f 7c36 243f c156 fb3e
00000070: bbe2 003f 4c5e 2a3f c90e 233f 57de 163f

res_blocks.1.batch_norm.bias f4 [32]
-0.04168931 0.0042863376 0.024276437 -0.0004768189 0.015185205 -0.024227802 -0.020982504 0.02839453
0.015231233 0.029399449 0.000863636 -0.015275396 0.0012865077 0.043730058 0.0060367347 0.01939881
0.03264618 0.0067586475 0.06492096 0.0054133534 -0.0025101397 -0.0009688086 0.047114447 0.018853657
0.0017765841 0.00059647247 0.008093319 -0.045254443 -0.023084817 0.018807221 0.012505048 0.065951176
00000000: 69c2 2abd 6874 8c3b 61df c63c 8dfd f9b9
00000010: 5ecb 783c 6279 c6bc 80e3 abbc a59b e83c
00000020: 6c8c 793c 1dd7 f03c a265 623a a845 7abc
00000030: 09a0 a83a 4a1e 333d cdcf c53b 41ea 9e3c
00000040: 00b8 053d a577 dd3b 48f5 843d 8062 b13b
00000050: 2881 24bb a5f7 7dba 14fb 403d fc72 9a3c
00000060: 45dc e83a 975c 1c3a d799 043c b95c 39bd
00000070: 5f1c bdbc 9a11 9a3c f9e1 4c3c 6911 873d

res_blocks.1.batch_norm.running_mean f4 [32]
-0.24641459 -1.4543527 -0.45069933 -1.0335255 -0.4413666 -1.4219912 -1.2347444 0.037407704
1.3089099 0.9653043 -0.7539269 -2.2178433 -1.4709624 -0.015344865 0.22104546 1.6586654
0.760785 1.9613217 0.27307752 -1.9685508 -1.7219323 1.4705744 0.8578481 -0.5076381
1.2141593 -1.3048844 0.090752184 -3.2530477 5.489142 -0.82848257 1.3857211 0.7474379
00000000: 1b54 7cbe 3b28 babf 10c2 e6be 904a 84bf
00000010: cefa e1be cf03 b6bf 1b0c 9ebf d238 193d
00000020: 5c8a a73f 2f1e 773f 5a01 41bf 25f1 0dc0
00000030: 7f48 bcbf 0769 7bbc be59 623e 264f d43f
00000040: cec2 423f 970c fb3f d1d0 8b3e 79f9 fbbf
00000050: 4768 dcbf c83b bc3f ef9b 5b3f 92f4 01bf
00000060: 9269 9b3f 7406 a7bf 48dc b93d ef31 50c0
00000070: 0da7 af40 6f17 54bf 4f5f b13f 1758 3f3f

res_blocks.1.batch_norm.running_var f4 [32]
6.824252 10.626955 11.474538 10.321728 9.549152 7.7564335 8.921923 5.459341
11.916644 7.212018 9.233015 11.237193 19.303757 6.154732 13.016457 10.647055
12.158563 8.366651 8.028077 13.592512 9.728648 8.336096 11.339614 5.6087255
7.926802 9.331519 7.9222074 24.948502 34.840588 4.733558 9.333425 7.365904
00000000: 4660 da40 0208 2a41 b597 3741 cc25 2541
00000010: 54c9 1841 b434 f840 32c0 0e41 ecb2 ae40
00000020: 93aa 3e41 dac8 e640 6eba 1341 8bcb 3341
00000030: 186e 9a41 91f3 c440 6843 5041 565a 2a41
00000040: 7989 4241 cddd 0541 0173 0041 ee7a 5941
00000050: 8ba8 1b41 a660 0541 0f6f 3541 ae7a b340
00000060: 5da8 fd40 e74d 1541 b982 fd40 8896 c741
00000070: c35c 0b42 4f79 9740 b555 1541 7cb5 eb40

res_blocks.2.conv.weight f4 [32, 32, 3, 3]
0.08448687 0.107092716 -0.051891394 0.1742845 -0.122172594 -0.0033432716 -0.060887285 -0.0111225275
0.03957021 -0.004667921 -0.021194972 0.051625308 -0.0502979 0.109448515 0.036957186 -0.016218478
-0.07359961 0.08238603 0.0207632 -0.105546504 -0.13306321 -0.1701886 -0.24135023 0.028144855
-0.13504328 -0.10809762 -0.0023054653 0.030734174 0.102495834 -0.103616424 -0.060541473 -0.05589885
-0.00585235 0.05482688 -0.21930006 -0.05961467 -0.008792515 0.0503777 -0.046447832 0.09122687
-0.062480014 0.012843568 -0.07214549 -0.10456341 -0.03664839 -0.08954264 0.025899602 -0.052321482
-0.09102599 -0.10575081 0.055495273 -0.055212628 -0.10388066 0.14384554 2.7505166e-05 0.02279102
-0.0061651585 -0.06266416 -0.052366808 0.068872586 -0.07347099 -0.03313501 -0.08068447 -0.028413784
-0.016484238 -0.01945458 -0.14521079 -0.042817567 0.051266216 0.050532155 0.06707321 0.063808784
-0.0011935156 0.04877757 0.04895824 -0.13131462 -0.07265421 0.055848535 -0.07202551 -0.0020688088
0.050077043 0.121187516 0.04997456 0.012620675 -0.060770404 -0.025687484 0.07962624 -0.04204452
-0.08878883 -0.00880872 -0.078224555 0.06286259 -0.106183164 -0.042839028 0.00489545 0.041240383
0.13521492 -0.026339065 -0.13782784 -0.044896744 0.0650078 -0.032419443 0.16472347 0.016125407
-0.118757755 -0.12205467 0.06357066 -0.032170784 0.10956644 0.03131235 -0.09399364 0.015609213
-0.09045848 -0.057848375 -0.095338754 0.07198331 -0.056523338 0.16777697 0.0985821 0.015997654
-0.10386581 0.029664153 0.09717936 0.0866885 -0.08808863 0.07126604 0.098960854 0.056669984
0.08560709 0.018542923 0.012653458 -0.047843482 0.08987911 0.08048867 -0.0951733 -0.057395607
0.021515004 -0.03770793 0.11746332 -0.03325443 0.032673493 0.015166126 -0.0066935234 0.042774715
0.06676059 -0.027582033 0.11221642 0.08474298 0.018904611 0.029545017 0.020079738 -0.048970427
-0.0440478 -0.20859298 -0.064780824 -0.0028329007 -0.021414338 -0.0063429233 0.056815114 -0.0380927
0.14383253 -0.011193888 -0.025909098 0.056551736 -0.02210453 0.066245265 0.08214679 0.1615512
0.034075674 0.030492136 -0.034635365 0.023971029 0.037842583 -0.11641945 0.05643243 0.04371957
-0.03410946 -0.04525476 -0.025034567 -0.011797088 -0.023430187 -0.100512296 -0.10532072 -0.121649496
-0.0006000827 -0.1389017 -0.045107823 -0.054427367 -0.0846488 0.0056690983 0.03578256 -0.046615835
-0.028129535 -0.026498433 -0.03488753 0.07250502 0.109194584 -0.067378886 -0.00033627776 0.040147543
-0.06076884 0.056850616 -0.09600273 0.10151696 0.08840668 -0.009990018 -0.12578459 -0.023967609
-0.007711617 0.039270412 -0.13818568 0.032972388 0.038672954 0.16043998 0.16118258 0.015715195
0.15628074 0.03953452 -0.06443751 -0.0795231 0.16337125 0.106300026 0.19046564 -0.13294128
-0.1036496 0.016966533 0.007196468 -0.03876541 0.022172488 -0.095264815 -0.047602493 -0.07904928
-0.04239151 0.050720572 0.0010511593 0.049216494 -0.007881083 0.122307085 -0.008347485 -0.029168824
0.29996443 0.053895045 0.08451134 -0.13175987 0.06577219 0.14370632 0.03875913 -0.013539191
-0.080205746 0.24306996 -0.05596538 0.068074666 -0.025332738 0.061854415 -0.1686914 -0.19702315
00000000: 7407 ad3d 6d53 db3d 128c 54bd a377 323e
00000010: a035 fabd ca1a 5bbb f264 79bd 433b 36bc
00000020: 5f14 223d 5cf5 98bb 14a1 adbc 0f75 533d
00000030: 2c05 4ebd 8b26 e03d 6b60 173d 9ddc 84bc
00000040: 64bb 96bd 02ba a83d 9617 aa3c c428 d8bd
00000050: b941 08be ec45 2ebe 8424 77be 0a90 e63c
00000060: c948 0abe 4962 ddbd 4a17 17bb 3cc6 fb3c
00000070: 56e9 d13d d934 d4bd 56fa 77bd 31f6 64bd
00000080: 12c5 bfbb 2792 603d 3290 60be 832e 74bd
00000090: 7b0e 10bc d958 4e3d 1540 3ebd 27d5 ba3d
000000a0: 0beb 7fbd d46d 523c 04c1 93bd 5725 d6bd
000000b0: 9f1c 16bd 2262 b7bd 672b d43c 0d4f 56bd
000000c0: d66b babd e193 d8bd 034f 633d a326 62bd
000000d0: 62bf d4bd 3f4c 133e e5ba e637 3cb4 ba3c
000000e0: 1905 cabb 1156 80bd 947e 56bd 120d 8d3d
000000f0: f577 96bd 94b8 07bd e63d a5bd 06c4 e8bc
00000100: f409 87bc 365f 9fbc 23b2 14be 7961 2fbd
00000110: 86fc 513d cefa 4e3d ae5d 893d 2eae 823d
00000120: bd6f 9cba fdca 473d 6f88 483d 5777 06be
00000130: bbcb 94bd 6fc1 643d 1c82 93bd da94 07bb
00000140: 961d 4d3d 2931 f83d 20b2 4c3d f3c6 4e3c
00000150: 63ea 78bd 8f6e d2bc 1513 a33d e036 2cbd
00000160: ebd6 b5bd 7352 10bc 3234 a0bd 1abe 803d
00000170: 8f76 d9bd fa77 2fbd 036a a03b adeb 283d
00000180: c875 0a3e 06c5 d7bc be22 0dbe a6e5 37bd
00000190: cf22 853d 40ca 04bd 45ad 283e 6e19 843c
000001a0: 4437 f3bd ccf7 f9bd 5631 823d 83c5 03bd
000001b0: 5f64 e03d 6141 003d bd7f c0bd c9bd 7f3c
000001c0: 4c42 b9bd 6bf2 6cbd f740 c3bd fc6b 933d
000001d0: 0485 67bd bacd 2b3e 69e5 c93d 830d 833c
000001e0: 99b7 d4bd 3d02 f33c f905 c73d be89 b13d
000001f0: d067 b4bd eef3 913d fdab ca3d c91e 683d
00000200: c552 af3d 54e7 973c 7350 4f3c 87f7 43bd
00000210: 8a12 b83d 3ed7 a43d 38ea c2bd a817 6bbd
00000220: 3c40 b03c a173 1abd 9c90 f03d cc35 08bd
00000230: a4d4 053d 587b 783c 5855 dbbb 8a34 2f3d
00000240: c7b9 883d b7f3 e1bc b9d1 e53d ba8d ad3d
00000250: d8dd 9a3c 6408 f23c 437e a43c 3795 48bd
00000260: 776b 34bd 6699 55be cfab 84bd 30a8 39bb
00000270: 1f6d afbc 4cd8 cfbb f7b6 683d 1707 1cbd
00000280: d648 133e 9266 37bc 513f d4bc cba2 673d
00000290: 8f14 b5bc 99ab 873d 943c a83d ae6d 253e
000002a0: ef92 0b3d a5ca f93c d0dd 0dbd e45e c43c
000002b0: d300 1b3d 526d eebd b125 673d 4b13 333d
000002c0: 5cb6 0bbd 0e5d 39bd 4b15 cdbc 9348 41bc
000002d0: aaf0 bfbc 64d9 cdbd 64b2 d7bd 5f23 f9bd
000002e0: de4e 1dba 3f3c 0ebe fbc2 38bd 3bef 5ebd
000002f0: 5a5c adbd d8c3 b93b bc90 123d 3ff0 3ebd
00000300: e96f e6bc 3e13 d9bc 3ae6 0ebd 837d 943d
00000310: 69a1 df3d f1fd 89bd 704e b0b9 c071 243d
00000320: bfe8 78bd 31dc 683d 149d c4bd 20e8 cf3d
00000330: 900e b53d 2cad 23bc adcd 00be b857 c4bc
00000340: bbb1 fcbb 03da 203d 8c80 0dbe 0e0e 073d
00000350: 8867 1e3d 614a 243e 0c0d 253e 27bd 803c
00000360: 0f08 203e f3ee 213d d0f7 83bd 02dd a2bd
00000370: cb4a 273e d4b3 d93d 6d09 433e c221 08be
00000380: 3e46 d4bd 66fd 8a3c 59d0 eb3b 7bc8 1ebd
00000390: 14a3 b53c 331a c3bd d5fa 42bd 97e4 a1bd
000003a0: b8a2 2dbd 60c0 4f3d 0ec7 893a 3c97 493d
000003b0: a81f 01bc 237c fa3d e4c3 08bc 75f3 eebc
000003c0: f094 993e 0dc1 5c3d 4814 ad3d 0fec 06be
000003d0: 92b3 863d c027 133e e5c1 1e3d 7cd3 5dbc
000003e0: e942 a4bd 55e7 783e f43b 65bd bb6a 8b3d
000003f0: 9a86 cfbc 0e5b 7d3d 70bd 2cbe 70c0 49be

res_blocks.2.batch_norm.weight f4 [32]
0.5730567 0.5645355 0.5982778 0.54031235 0.5379736 0.6121782 0.5722386 0.64220655
0.57004315 0.63235897 0.6013732 0.5212426 0.54029274 0.6441189 0.65099806 0.64321303
0.6138208 0.5705911 0.65522724 0.5803624 0.54104936 0.5502669 0.6605022 0.6346935
0.64773417 0.5960826 0.64145637 0.49089625 0.50345963 0.66550136 0.63694435 0.58933014
00000000: d8b3 123f 6685 103f bc28 193f e951 0a3f
00000010: a3b8 093f b6b7 1c3f 3b7e 123f a667 243f
00000020: 59ee 113f 47e2 213f 98f3 193f 2870 053f
00000030: a050 0a3f fae4 243f cfa7 263f 9ca9 243f
00000040: 5c23 1d3f 4212 123f f9bc 273f a192 143f
00000050: 3682 0a3f 4bde 0c3f ac16 293f 467b 223f
00000060: e8d1 253f df98 183f 7c36 243f c156 fb3e
00000070: bbe2 003f 4c5e 2a3f c90e 233f 57de 163f

res_blocks.2.batch_norm.bias f4 [32]
-0.04168931 0.0042863376 0.024276437 -0.0004768189 0.015185205 -0.024227802 -0.020982504 0.02839453
0.015231233 0.029399449 0.000863636 -0.015275396 0.0012865077 0.043730058 0.0060367347 0.01939881
0.03264618 0.0067586475 0.06492096 0.0054133534 -0.0025101397 -0.0009688086 0.047114447 0.018853657
0.0017765841 0.00059647247 0.008093319 -0.045254443 -0.023084817 0.018807221 0.012505048 0.065951176
00000000: 69c2 2abd 6874 8c3b 61df c63c 8dfd f9b9
00000010: 5ecb 783c 6279 c6bc 80e3 abbc a59b e83c
00000020: 6c8c 793c 1dd7 f03c a265 623a a845 7abc
00000030: 09a0 a83a 4a1e 333d cdcf c53b 41ea 9e3c
00000040: 00b8 053d a577 dd3b 48f5 843d 8062 b13b
00000050: 2881 24bb a5f7 7dba 14fb 403d fc72 9a3c
00000060: 45dc e83a 975c 1c3a d799 043c b95c 39bd
00000070: 5f1c bdbc 9a11 9a3c f9e1 4c3c 6911 873d

res_blocks.2.batch_norm.running_mean f4 [32]
-0.24641459 -1.4543527 -0.45069933 -1.0335255 -0.4413666 -1.4219912 -1.2347444 0.037407704
1.3089099 0.9653043 -0.7539269 -2.2178433 -1.4709624 -0.015344865 0.22104546 1.6586654
0.760785 1.9613217 0.27307752 -1.9685508 -1.7219323 1.4705744 0.8578481 -0.5076381
1.2141593 -1.3048844 0.090752184 -3.2530477 5.489142 -0.82848257 1.3857211 0.7474379
00000000: 1b54 7cbe 3b28 babf 10c2 e6be 904a 84bf
00000010: cefa e1be cf03 b6bf 1b0c 9ebf d238 193d
00000020: 5c8a a73f 2f1e 773f 5a01 41bf 25f1 0dc0
00000030: 7f48 bcbf 0769 7bbc be59 623e 264f d43f
00000040: cec2 423f 970c fb3f d1d0 8b3e 79f9 fbbf
00000050: 4768 dcbf c83b bc3f ef9b 5b3f 92f4 01bf
00000060: 9269 9b3f 7406 a7bf 48dc b93d ef31 50c0
00000070: 0da7 af40 6f17 54bf 4f5f b13f 1758 3f3f

res_blocks.2.batch_norm.running_var f4 [32]
6.824252 10.626955 11.474538 10.321728 9.549152 7.7564335 8.921923 5.459341
11.916644 7.212018 9.233015 11.237193 19.303757 6.154732 13.016457 10.647055
12.158563 8.366651 8.028077 13.592512 9.728648 8.336096 11.339614 5.6087255
7.926802 9.331519 7.9222074 24.948502 34.840588 4.733558 9.333425 7.365904
00000000: 4660 da40 0208 2a41 b597 3741 cc25 2541
00000010: 54c9 1841 b434 f840 32c0 0e41 ecb2 ae40
00000020: 93aa 3e41 dac8 e640 6eba 1341 8bcb 3341
00000030: 186e 9a41 91f3 c440 6843 5041 565a 2a41
00000040: 7989 4241 cddd 0541 0173 0041 ee7a 5941
00000050: 8ba8 1b41 a660 0541 0f6f 3541 ae7a b340
00000060: 5da8 fd40 e74d 1541 b982 fd40 8896 c741
00000070: c35c 0b42 4f79 9740 b555 1541 7cb5 eb40

res_blocks.3.conv.weight f4 [32, 32, 3, 3]
0.08448687 0.107092716 -0.051891394 0.1742845 -0.122172594 -0.0033432716 -0.060887285 -0.0111225275
0.03957021 -0.004667921 -0.021194972 0.051625308 -0.0502979 0.109448515 0.036957186 -0.016218478
-0.07359961 0.08238603 0.0207632 -0.105546504 -0.13306321 -0.1701886 -0.24135023 0.028144855
-0.13504328 -0.10809762 -0.0023054653 0.030734174 0.102495834 -0.103616424 -0.060541473 -0.05589885
-0.00585235 0.05482688 -0.21930006 -0.05961467 -0.008792515 0.0503777 -0.046447832 0.09122687
-0.062480014 0.012843568 -0.07214549 -0.10456341 -0.03664839 -0.08954264 0.025899602 -0.052321482
-0.09102599 -0.10575081 0.055495273 -0.055212628 -0.10388066 0.14384554 2.7505166e-05 0.02279102
-0.0061651585 -0.06266416 -0.052366808 0.068872586 -0.07347099 -0.03313501 -0.08068447 -0.028413784
-0.016484238 -0.01945458 -0.14521079 -0.042817567 0.051266216 0.050532155 0.06707321 0.063808784
-0.0011935156 0.04877757 0.04895824 -0.13131462 -0.07265421 0.055848535 -0.07202551 -0.0020688088
0.050077043 0.121187516 0.04997456 0.012620675 -0.060770404 -0.025687484 0.07962624 -0.04204452
-0.08878883 -0.00880872 -0.078224555 0.06286259 -0.106183164 -0.042839028 0.00489545 0.041240383
0.13521492 -0.026339065 -0.13782784 -0.044896744 0.0650078 -0.032419443 0.16472347 0.016125407
-0.118757755 -0.12205467 0.06357066 -0.032170784 0.10956644 0.03131235 -0.09399364 0.015609213
-0.09045848 -0.057848375 -0.095338754 0.07198331 -0.056523338 0.16777697 0.0985821 0.015997654
-0.10386581 0.029664153 0.09717936 0.0866885 -0.08808863 0.07126604 0.098960854 0.056669984
0.08560709 0.018542923 0.012653458 -0.047843482 0.08987911 0.08048867 -0.0951733 -0.057395607
0.021515004 -0.03770793 0.11746332 -0.03325443 0.032673493 0.015166126 -0.0066935234 0.042774715
0.06676059 -0.027582033 0.11221642 0.08474298 0.018904611 0.029545017 0.020079738 -0.048970427
-0.0440478 -0.20859298 -0.064780824 -0.0028329007 -0.021414338 -0.0063429233 0.056815114 -0.0380927
0.14383253 -0.011193888 -0.025909098 0.056551736 -0.02210453 0.066245265 0.08214679 0.1615512
0.034075674 0.030492136 -0.034635365 0.023971029 0.037842583 -0.11641945 0.05643243 0.04371957
-0.03410946 -0.04525476 -0.025034567 -0.011797088 -0.023430187 -0.100512296 -0.10532072 -0.121649496
-0.0006000827 -0.1389017 -0.045107823 -0.054427367 -0.0846488 0.0056690983 0.03578256 -0.046615835
-0.028129535 -0.026498433 -0.03488753 0.07250502 0.109194584 -0.067378886 -0.00033627776 0.040147543
-0.06076884 0.056850616 -0.09600273 0.10151696 0.08840668 -0.009990018 -0.12578459 -0.023967609
-0.007711617 0.039270412 -0.13818568 0.032972388 0.038672954 0.16043998 0.16118258 0.015715195
0.15628074 0.03953452 -0.06443751 -0.0795231 0.16337125 0.106300026 0.19046564 -0.13294128
-0.1036496 0.016966533 0.007196468 -0.03876541 0.022172488 -0.095264815 -0.047602493 -0.07904928
-0.04239151 0.050720572 0.0010511593 0.049216494 -0.007881083 0.122307085 -0.008347485 -0.029168824
0.29996443 0.053895045 0.08451134 -0.13175987 0.06577219 0.14370632 0.03875913 -0.013539191
-0.080205746 0.24306996 -0.05596538 0.068074666 -0.025332738 0.061854415 -0.1686914 -0.19702315
00000000: 7407 ad3d 6d53 db3d 128c 54bd a377 323e
00000010: a035 fabd ca1a 5bbb f264 79bd 433b 36bc
00000020: 5f14 223d 5cf5 98bb 14a1 adbc 0f75 533d
00000030: 2c05 4ebd 8b26 e03d 6b60 173d 9ddc 84bc
00000040: 64bb 96bd 02ba a83d 9617 aa3c c428 d8bd
00000050: b941 08be ec45 2ebe 8424 77be 0a90 e63c
00000060: c948 0abe 4962 ddbd 4a17 17bb 3cc6 fb3c
00000070: 56e9 d13d d934 d4bd 56fa 77bd 31f6 64bd
00000080: 12c5 bfbb 2792 603d 3290 60be 832e 74bd
00000090: 7b0e 10bc d958 4e3d 1540 3ebd 27d5 ba3d
000000a0: 0beb 7fbd d46d 523c 04c1 93bd 5725 d6bd
000000b0: 9f1c 16bd 2262 b7bd 672b d43c 0d4f 56bd
000000c0: d66b babd e193 d8bd 034f 633d a326 62bd
000000d0: 62bf d4bd 3f4c 133e e5ba e637 3cb4 ba3c
000000e0: 1905 cabb 1156 80bd 947e 56bd 120d 8d3d
000000f0: f577 96bd 94b8 07bd e63d a5bd 06c4 e8bc
00000100: f409 87bc 365f 9fbc 23b2 14be 7961 2fbd
00000110: 86fc 513d cefa 4e3d ae5d 893d 2eae 823d
00000120: bd6f 9cba fdca 473d 6f88 483d 5777 06be
00000130: bbcb 94bd 6fc1 643d 1c82 93bd da94 07bb
00000140: 961d 4d3d 2931 f83d 20b2 4c3d f3c6 4e3c
00000150: 63ea 78bd 8f6e d2bc 1513 a33d e036 2cbd
00000160: ebd6 b5bd 7352 10bc 3234 a0bd 1abe 803d
00000170: 8f76 d9bd fa77 2fbd 036a a03b adeb 283d
00000180: c875 0a3e 06c5 d7bc be22 0dbe a6e5 37bd
00000190: cf22 853d 40ca 04bd 45ad 283e 6e19 843c
000001a0: 4437 f3bd ccf7 f9bd 5631 823d 83c5 03bd
000001b0: 5f64 e03d 6141 003d bd7f c0bd c9bd 7f3c
000001c0: 4c42 b9bd 6bf2 6cbd f740 c3bd fc6b 933d
000001d0: 0485 67bd bacd 2b3e 69e5 c93d 830d 833c
000001e0: 99b7 d4bd 3d02 f33c f905 c73d be89 b13d
000001f0: d067 b4bd eef3 913d fdab ca3d c91e 683d
00000200: c552 af3d 54e7 973c 7350 4f3c 87f7 43bd
00000210: 8a12 b83d 3ed7 a43d 38ea c2bd a817 6bbd
00000220: 3c40 b03c a173 1abd 9c90 f03d cc35 08bd
00000230: a4d4 053d 587b 783c 5855 dbbb 8a34 2f3d
00000240: c7b9 883d b7f3 e1bc b9d1 e53d ba8d ad3d
00000250: d8dd 9a3c 6408 f23c 437e a43c 3795 48bd
00000260: 776b 34bd 6699 55be cfab 84bd 30a8 39bb
00000270: 1f6d afbc 4cd8 cfbb f7b6 683d 1707 1cbd
00000280: d648 133e 9266 37bc 513f d4bc cba2 673d
00000290: 8f14 b5bc 99ab 873d 943c a83d ae6d 253e
000002a0: ef92 0b3d a5ca f93c d0dd 0dbd e45e c43c
000002b0: d300 1b3d 526d eebd b125 673d 4b13 333d
000002c0: 5cb6 0bbd 0e5d 39bd 4b15 cdbc 9348 41bc
000002d0: aaf0 bfbc 64d9 cdbd 64b2 d7bd 5f23 f9bd
000002e0: de4e 1dba 3f3c 0ebe fbc2 38bd 3bef 5ebd
000002f0: 5a5c adbd d8c3 b93b bc90 123d 3ff0 3ebd
00000300: e96f e6bc 3e13 d9bc 3ae6 0ebd 837d 943d
00000310: 69a1 df3d f1fd 89bd 704e b0b9 c071 243d
00000320: bfe8 78bd 31dc 683d 149d c4bd 20e8 cf3d
00000330: 900e b53d 2cad 23bc adcd 00be b857 c4bc
00000340: bbb1 fcbb 03da 203d 8c80 0dbe 0e0e 073d
00000350: 8867 1e3d 614a 243e 0c0d 253e 27bd 803c
00000360: 0f08 203e f3ee 213d d0f7 83bd 02dd a2bd
00000370: cb4a 273e d4b3 d93d 6d09 433e c221 08be
00000380: 3e46 d4bd 66fd 8a3c 59d0 eb3b 7bc8 1ebd
00000390: 14a3 b53c 331a c3bd d5fa 42bd 97e4 a1bd
000003a0: b8a2 2dbd 60c0 4f3d 0ec7 893a 3c97 493d
000003b0: a81f 01bc 237c fa3d e4c3 08bc 75f3 eebc
000003c0: f094 993e 0dc1 5c3d 4814 ad3d 0fec 06be
000003d0: 92b3 863d c027 133e e5c1 1e3d 7cd3 5dbc
000003e0: e942 a4bd 55e7 783e f43b 65bd bb6a 8b3d
000003f0: 9a86 cfbc 0e5b 7d3d 70bd 2cbe 70c0 49be

res_blocks.3.batch_norm.weight f4 [32]
0.5730567 0.5645355 0.5982778 0.54031235 0.5379736 0.6121782 0.5722386 0.64220655
0.57004315 0.63235897 0.6013732 0.5212426 0.54029274 0.6441189 0.65099806 0.64321303
0.6138208 0.5705911 0.65522724 0.5803624 0.54104936 0.5502669 0.6605022 0.6346935
0.64773417 0.5960826 0.64145637 0.49089625 0.50345963 0.66550136 0.63694435 0.58933014
00000000: d8b3 123f 6685 103f bc28 193f e951 0a3f
00000010: a3b8 093f b6b7 1c3f 3b7e 123f a667 243f
00000020: 59ee 113f 47e2 213f 98f3 193f 2870 053f
00000030: a050 0a3f fae4 243f cfa7 263f 9ca9 243f
00000040: 5c23 1d3f 4212 123f f9bc 273f a192 143f
00000050: 3682 0a3f 4bde 0c3f ac16 293f 467b 223f
00000060: e8d1 253f df98 183f 7c36 243f c156 fb3e
00000070: bbe2 003f 4c5e 2a3f c90e 233f 57de 163f

res_blocks.3.batch_norm.bias f4 [32]
-0.04168931 0.0042863376 0.024276437 -0.0004768189 0.015185205 -0.024227802 -0.020982504 0.02839453
0.015231233 0.029399449 0.000863636 -0.015275396 0.0012865077 0.043730058 0.0060367347 0.01939881
0.03264618 0.0067586475 0.06492096 0.0054133534 -0.0025101397 -0.0009688086 0.047114447 0.018853657
0.0017765841 0.00059647247 0.008093319 -0.045254443 -0.023084817 0.018807221 0.012505048 0.065951176
00000000: 69c2 2abd 6874 8c3b 61df c63c 8dfd f9b9
00000010: 5ecb 783c 6279 c6bc 80e3 abbc a59b e83c
00000020: 6c8c 793c 1dd7 f03c a265 623a a845 7abc
00000030: 09a0 a83a 4a1e 333d cdcf c53b 41ea 9e3c
00000040: 00b8 053d a577 dd3b 48f5 843d 8062 b13b
00000050: 2881 24bb a5f7 7dba 14fb 403d fc72 9a3c
00000060: 45dc e83a 975c 1c3a d799 043c b95c 39bd
00000070: 5f1c bdbc 9a11 9a3c f9e1 4c3c 6911 873d

res_blocks.3.batch_norm.running_mean f4 [32]
-0.24641459 -1.4543527 -0.45069933 -1.0335255 -0.4413666 -1.4219912 -1.2347444 0.037407704
1.3089099 0.9653043 -0.7539269 -2.2178433 -1.4709624 -0.015344865 0.22104546 1.6586654
0.760785 1.9613217 0.27307752 -1.9685508 -1.7219323 1.4705744 0.8578481 -0.5076381
1.2141593 -1.3048844 0.090752184 -3.2530477 5.489142 -0.82848257 1.3857211 0.7474379
00000000: 1b54 7cbe 3b28 babf 10c2 e6be 904a 84bf
00000010: cefa e1be cf03 b6bf 1b0c 9ebf d238 193d
00000020: 5c8a a73f 2f1e 773f 5a01 41bf 25f1 0dc0
00000030: 7f48 bcbf 0769 7bbc be59 623e 264f d43f
00000040: cec2 423f 970c fb3f d1d0 8b3e 79f9 fbbf
00000050: 4768 dcbf c83b bc3f ef9b 5b3f 92f4 01bf
00000060: 9269 9b3f 7406 a7bf 48dc b93d ef31 50c0
00000070: 0da7 af40 6f17 54bf 4f5f b13f 1758 3f3f

res_blocks.3.batch_norm.running_var f4 [32]
6.824252 10.626955 11.474538 10.321728 9.549152 7.7564335 8.921923 5.459341
11.916644 7.212018 9.233015 11.237193 19.303757 6.154732 13.016457 10.647055
12.158563 8.366651 8.028077 13.592512 9.728648 8.336096 11.339614 5.6087255
7.926802 9.331519 7.9222074 24.948502 34.840588 4.733558 9.333425 7.365904
00000000: 4660 da40 0208 2a41 b597 3741 cc25 2541
00000010: 54c9 1841 b434 f840 32c0 0e41 ecb2 ae40
00000020: 93aa 3e41 dac8 e640 6eba 1341 8bcb 3341
00000030: 186e 9a41 91f3 c440 6843 5041 565a 2a41
00000040: 7989 4241 cddd 0541 0173 0041 ee7a 5941
00000050: 8ba8 1b41 a660 0541 0f6f 3541 ae7a b340
00000060: 5da8 fd40 e74d 1541 b982 fd40 8896 c741
00000070: c35c 0b42 4f79 9740 b555 1541 7cb5 eb40
