my_pt/40_model.pt (torch, 403526 bytes, 10 tensors)

conv1.weight f4 [64, 1, 5, 5]
0	0xbe45acab	-0.19304149
1	0xbe325311	-0.174145
2	0xbe360a3e	-0.17777345
3	0xbe3a0faf	-0.18170045
4	0x3b4eb834	0.00315429
5	0x3cce97da	0.025218893
6	0xbcef1477	-0.029184563
7	0xbc041371	-0.008061276
8	0x3e5f47d7	0.21804748
9	0x3e4f1a41	0.20224859
10	0x3e483ac6	0.1955367
11	0x3e14d2cf	0.14533542
12	0x3c7b056e	0.015321119
13	0x3df86e8a	0.12130459
14	0xbe2aee9f	-0.16692589
15	0xbdf59d36	-0.11992876
16	0x3d259ec9	0.040434632
17	0x3ac24bc0	0.0014823601
18	0xbdbc037e	-0.091803536
19	0xbe28442c	-0.16432256
20	0x3d97a102	0.07403757
21	0x3db1cf66	0.08682136
22	0xbe3379aa	-0.1752688
23	0xbdeda21a	-0.11603184
24	0xbe153266	-0.14570007
25	0x3e168dd6	0.14702544
26	0xbd63d04a	-0.05561856
27	0x3e2578b2	0.16159323
28	0x3e303bdf	0.17210339
29	0x3d9f875a	0.07789488
30	0x3d3e67a8	0.046485573
31	0x3cae2a8b	0.02126052
32	0x3cfb6880	0.030689478
33	0x3c868e49	0.016425269
34	0xbe1ed959	-0.15512599
35	0xbdc779b8	-0.09740013
36	0xbcd6c435	-0.026216606
37	0x3e10e12f	0.141484
38	0x3da1fd00	0.07909584
39	0x3e07c23a	0.13257685
40	0x3e138c6c	0.14409035
41	0xbdbb7c7b	-0.09154602
42	0x3e1b58af	0.15170549
43	0x3e34eefb	0.17669289
44	0x3e497401	0.19673158
45	0xbd1eb05a	-0.0387424
46	0xbe4c2e4f	-0.1993954
47	0x3e23d47b	0.15999024
48	0xbd9f5fe9	-0.07781965
49	0x3e066ef8	0.13128269
50	0x3ceeac8f	0.029135017
51	0x3e01cf2b	0.12676685
52	0xbe46f002	-0.19427493
53	0xbda0e604	-0.07856372
54	0x3e2ee78f	0.1708052
55	0x3e083287	0.13300525
56	0xbdc11a96	-0.09428899
57	0xbd96faa8	-0.07372028
58	0xbde83d02	-0.11339761
59	0x3e0e3261	0.13886406
60	0x3c7cdcdc	0.015433516
61	0x3d80587f	0.06266879
62	0x3d579e32	0.0526411
63	0x3dc4497e	0.0958433
64	0xbe4aca73	-0.19803791
65	0x3e67f2ca	0.2265121
66	0xbb1fa35e	-0.002435885
67	0x3e4b7789	0.19869818
68	0xbd06c3d5	-0.032901604
69	0xbd52b0c7	-0.05143812
70	0x3df24da2	0.118312135
71	0xbbeb0343	-0.0071720197
72	0x3e294307	0.16529475
73	0x3e53d6fb	0.20687477
74	0x3dcdf564	0.1005657
75	0xbe3cea87	-0.1844884
76	0x3d52c6cc	0.05145912
77	0x3d206043	0.039154302
78	0xbe211b10	-0.1573298
79	0x3d0fa5e6	0.035070322
80	0x3df1e6e8	0.1181162
81	0x3dc205f8	0.09473795
82	0x3e240634	0.16017991
83	0xbe2e773c	-0.17037672
84	0x3e55b45c	0.20869583
85	0x3ccb8d94	0.024847783
86	0x3e0ae3b8	0.1356343
87	0xbd03cce4	-0.03217782
88	0x3dd85d4c	0.1056467
89	0xbd886e77	-0.066616945
90	0xbe47591a	-0.19467583
91	0x3d4aa666	0.049475096
92	0x3da2f0f7	0.07956117
93	0x3d725031	0.059158508
94	0x3e62d09e	0.22149894
95	0xbd67f426	-0.056629322
96	0x3e081488	0.13289082
97	0x3e121f33	0.14269714
98	0x3e2bf4b1	0.16792561
99	0x3cbe124a	0.02320208
100	0xbe20fbfe	-0.15721127
101	0x3e521bdc	0.2051844
102	0x3e643467	0.22285615
103	0xbd52ae06	-0.051435493
104	0xbdd8e546	-0.105906054
105	0xbdc20c89	-0.09475047
106	0xbc88ca5d	-0.016698057
107	0xbd008c01	-0.031383518
108	0xbc40a3e0	-0.011757821
109	0x3dd946fc	0.10609242
110	0xbd1fd50a	-0.03902153
111	0xbc6ab379	-0.014325016
112	0x3dd6a3f3	0.104804896
113	0xbd72d806	-0.059288047
114	0x3e49a4e2	0.19691804
115	0xbe0e035e	-0.13868472
116	0xbe00fcfa	-0.12596503
117	0xbdd0a7d2	-0.10188259
118	0xbdf6eb46	-0.120565936
119	0x3cd44ddc	0.025916032
120	0xbe01b0c4	-0.12665087
121	0xbe1bb26b	-0.1520478
122	0xbe32e88b	-0.1747152
123	0x3d9e6032	0.077331915
124	0x3e60403d	0.21899505
125	0xbdb4b86f	-0.088242404
126	0xbe352b58	-0.17692316
127	0x3e2e5a63	0.17026667
128	0x3d86d02e	0.06582676
129	0xbdcc0d2f	-0.09963452
130	0xbda67482	-0.08127691
131	0x3e15294c	0.14566535
132	0xbdfe5b0b	-0.12419709
133	0x3bd6fa8a	0.0065606283
134	0xbe756590	-0.23964524
135	0x3e57afe6	0.21063194
136	0xbd9d480d	-0.07679758
137	0x3d73d033	0.059524726
138	0x3e11fa37	0.14255606
139	0xbe1d49cf	-0.15360187
140	0xbd4507a2	-0.048102982
141	0xbb1c5fed	-0.0023860887
142	0xbd3b2aa9	-0.04569498
143	0x3e067efe	0.13134381
144	0xbdc88703	-0.097913764
145	0xbd4ce3df	-0.050022002
146	0xbe2004da	-0.1562685
147	0xbe42a731	-0.19009091
148	0xbcd261b9	-0.025681363
149	0x3e1e7345	0.1547366
150	0x3d93916a	0.0720547
151	0x3daf5661	0.08561397
152	0xbe6a23c1	-0.22865202
153	0x3dfb9f43	0.12286236
154	0xbc290c72	-0.010317909
155	0xbd641e39	-0.055692885
156	0xbda93377	-0.08261769
157	0xbe53b3bd	-0.20674033
158	0xbddbc21e	-0.10730384
159	0xbd284aac	-0.041086838
160	0xbdc7f0ce	-0.09762727
161	0x3da78ada	0.08180781
162	0xbd5732c0	-0.052538633
163	0x3e3e12b0	0.18561816
164	0x3dfb9364	0.12283972
165	0x3d87f825	0.06639127
166	0x3e3f274d	0.18667336
167	0x3dccd469	0.100014515
168	0x3d803299	0.06259651
169	0x3e6999a5	0.22812517
170	0x3cb451cc	0.02201166
171	0xbe3e5069	-0.18585362
172	0xbe146ac8	-0.14493859
173	0xbe14b68f	-0.14522766
174	0x3e07f783	0.13278012
175	0xbdd01034	-0.101593405
176	0x3dc1650d	0.09443102
177	0xbe29bf8d	-0.16576977
178	0xbe30f023	-0.17279105
179	0xbe2e1cf6	-0.17003235
180	0x3df01d48	0.11724335
181	0xbde84993	-0.11342158
182	0x3d9b37d1	0.075790055
183	0x3d7c7764	0.061637297
184	0xbe03b92a	-0.12863603
185	0x3d289084	0.041153446
186	0xbdaab792	-0.083357945
187	0x3d76303c	0.060104594
188	0x3e4b3c1b	0.19847147
189	0xbdbfcd96	-0.09365384
190	0x3e23ab9e	0.15983436
191	0x3dec43a5	0.1153634
192	0x3e074928	0.132115
193	0x3e37d41c	0.17952007
194	0x3d264b9d	0.040599454
195	0x3c0deccd	0.008662415
196	0x3d2b7fdf	0.041869994
197	0x3df0afda	0.11752291
198	0x3e422b79	0.18961896
199	0xbe663c13	-0.22483854
200	0x3e2e17c6	0.17001256
201	0x3d50e341	0.050997976
202	0x3e3fb1ab	0.18720119
203	0xbe6c8fbe	-0.23101708
204	0xbe1f0d28	-0.15532362
205	0xbca557a6	-0.020183396
206	0xbc91b3cc	-0.01778593
207	0xbb63ed9a	-0.0034779073
208	0x3cfecaeb	0.031102618
209	0xbe2ba3be	-0.16761681
210	0xbbedb817	-0.0072546112
211	0x3c91ad02	0.017782692
212	0xbdba85bd	-0.0910754
213	0x3e1cd191	0.15314318
214	0x3dfbb5fc	0.1229057
215	0x3e37b156	0.17938742
216	0x3e12132e	0.14265129
217	0xbd40232a	-0.046908535
218	0x3e1f387e	0.15548894
219	0x3da867c1	0.082229145
220	0x3e01ab19	0.12662925
221	0xbb622b20	-0.0034510568
222	0xbe00bafa	-0.12571326
223	0xbda4ebf3	-0.08052816
224	0xbe35ac20	-0.17741442
225	0xbe292d22	-0.16521123
226	0xbdeca107	-0.11554151
227	0x3c896650	0.01677242
228	0x3e57af6d	0.21063013
229	0xbc854919	-0.016270207
230	0x3e230bfc	0.1592254
231	0xbcc1ef51	-0.023673685
232	0x3e6d9ea9	0.23205055
233	0xbd9bbf03	-0.07604792
234	0xbd1255ce	-0.03572636
235	0xbce05a42	-0.027386788
236	0xbe43c23d	-0.19117065
237	0xbe67f684	-0.22652632
238	0x3d09459d	0.033513654
239	0xbdea021d	-0.11426184
240	0xbe5587d9	-0.20852603
241	0xb8a6e853	-7.9587706e-05
242	0xbe2f0563	-0.17091899
243	0xbd155aa7	-0.036463406
244	0xbd29f9bc	-0.04149793
245	0x3e210ab0	0.15726733
246	0x3e79e30d	0.24403019
247	0xbd55792d	-0.052117515
248	0x3df6e654	0.1205565
249	0xbdb118a5	-0.08647279
250	0xbe0824bc	-0.13295263
251	0xbe016025	-0.12634332
252	0x3e527d73	0.20555668
253	0x3d5ce2ad	0.053927112
254	0xbe0d6e23	-0.13811545
255	0x3db46579	0.08808417

conv1.bias f4 [64]
0	0xbdb086a0	-0.08619428
1	0x3d644c08	0.05573657
2	0xbd3c53e6	-0.04597845
3	0xbca3b82d	-0.019985283
4	0xbcb0a2c6	-0.021561991
5	0x3e2fbe50	0.17162442
6	0xbe57dae4	-0.21079594
7	0x3e464442	0.19361976
8	0x3dcd259d	0.1001694
9	0xbd1381f7	-0.036012616
10	0xbe3368be	-0.17520425
11	0xbdf841de	-0.12121938
12	0xbc838baa	-0.016057808
13	0xbe2eae2f	-0.17058633
14	0x3d724e5d	0.059156764
15	0xbe617692	-0.22017887
16	0x3dd04a57	0.10170429
17	0x3e127471	0.14302231
18	0x3dd59696	0.104291126
19	0xbdb71b43	-0.08940747
20	0xbda4e2a7	-0.08051043
21	0x3dd2edcf	0.10299265
22	0xbad8d91d	-0.0016544197
23	0x3cc6a5bf	0.024248956
24	0x3df00be0	0.11721015
25	0x3ddc7f66	0.10766487
26	0xbdbd294c	-0.092363924
27	0xbddabbbd	-0.106803395
28	0x3dbfee17	0.09371584
29	0x3ddb3427	0.10703307
30	0x3dfcb1c9	0.12338597
31	0x3aa1a953	0.0012333788
32	0x3d615227	0.055009987
33	0x3dcc0a38	0.099628866
34	0xbe45d691	-0.19320132
35	0x3d3fdc47	0.046840932
36	0xbe495c5c	-0.19664139
37	0xbe00266b	-0.12514655
38	0xbe33ee29	-0.1757132
39	0x3e2d4a6d	0.16922922
40	0x3e63ea30	0.22257304
41	0x3e2b70ae	0.16742203
42	0xbe7de14e	-0.24792978
43	0xbd2dfff2	-0.042480417
44	0xbe8bc3ee	-0.2729792
45	0xbd97afa7	-0.0740655
46	0xbe4ed513	-0.20198469
47	0xbe31107b	-0.17291443
48	0x3d29f213	0.041490626
49	0x3e36561d	0.17806287
50	0x3d695283	0.056963455
51	0x3dd673e1	0.10471321
52	0xbd9b8cb7	-0.075951986
53	0x3e43f15a	0.19135037
54	0x3d5ebbd3	0.054378342
55	0xbe6da884	-0.23208815
56	0xbe505aee	-0.20347187
57	0x3d7a2099	0.061066244
58	0xbdc58451	-0.09644378
59	0xbe0971e4	-0.13422352
60	0x3e46eb3e	0.19425675
61	0xbd13b9c8	-0.036065847
62	0x3e40d1e5	0.18830068
63	0x3bad21db	0.005283577

conv2.weight f4 [32, 64, 3, 3]
0	0x3d332c80	0.04374361
1	0x3cbc3c41	0.02297795
2	0x3b4e65c0	0.0031493753
3	0xbd09f879	-0.033684228
4	0x3d86f671	0.06589974
5	0x3a8ad315	0.0010591472
6	0xbd34dc65	-0.044155497
7	0xbd2a3216	-0.041551672
8	0xbd3e4240	-0.0464499
9	0xbd18acc9	-0.037274156
10	0xbc1ea230	-0.009682223
11	0xbce10f62	-0.027473155
12	0xbbdbc4e6	-0.0067068217
13	0x3d4b0b5b	0.049571376
14	0x3ce685f5	0.028140048
15	0x3cea09b5	0.028569082
16	0xbcb10640	-0.021609426
17	0x3c92a486	0.017900717
18	0xbd22e123	-0.03976549
19	0xbc8b5c25	-0.017011711
20	0x3ca34a25	0.019932816
21	0xbb463629	-0.0030244684
22	0xbcd3d6e4	-0.025859304
23	0x3d819af4	0.06328383
24	0xba027311	-0.00049762527
25	0x3cc692ff	0.024240015
26	0x3d5d5e8d	0.05404525
27	0xbd75ef9e	-0.06004297
28	0x3d342ce0	0.04398811
29	0xbcd9d29e	-0.026589688
30	0x3bbc3b25	0.0057443553
31	0x3d23e70b	0.04001526
32	0x3d142899	0.03617153
33	0x3ce19bd1	0.02754012
34	0x3c85f28a	0.016351003
35	0xbb955ccd	-0.004558182
36	0x3d22ce1a	0.039747335
37	0x3d17063c	0.03687118
38	0x3d13cbd3	0.036083054
39	0xbcafdf1c	-0.021468692
40	0xbce9f8d6	-0.028561037
41	0x3cd4676a	0.025928218
42	0xbcb42aca	-0.02199306
43	0xbd293e77	-0.041319337
44	0xbd3e0664	-0.046392813
45	0xbcaf453d	-0.02139532
46	0xbca5950e	-0.020212676
47	0xbb74bf8d	-0.0037345618
48	0xbbe6fdb0	-0.007049285
49	0xbd3fa7b0	-0.04679078
50	0xbb8da1b6	-0.004322256
51	0x3b9cf8fc	0.0047904234
52	0xbcdf9884	-0.027294405
53	0xbc5ab563	-0.01334891
54	0x3cf7cb36	0.030248266
55	0xbd474056	-0.04864534
56	0xbcd6e20c	-0.026230834
57	0x3d57fcc6	0.052731298
58	0xbd31c079	-0.043396447
59	0x3d2842db	0.041079383
60	0xbbca9b3b	-0.0061830557
61	0xbc19a20d	-0.009377015
62	0x3d954bc6	0.07289843
63	0xbd118410	-0.035526335
64	0x3c9bfaae	0.019040432
65	0xbcd966bf	-0.026538251
66	0xbc6b3ab7	-0.01435726
67	0x3c71b69f	0.014753013
68	0x3cd4aafb	0.025960436
69	0x3cce0c3c	0.025152318
70	0x3c589816	0.013219854
71	0x3d1606fa	0.036627747
72	0xbd11b985	-0.035577316
73	0xbd331fc1	-0.043731455
74	0x3cf1b3e4	0.029504724
75	0xbd5580e3	-0.05212487
76	0xbbf9a78c	-0.00761885
77	0x3baa5dc6	0.005199167
78	0xbd942c3b	-0.07234999
79	0xbd72dd94	-0.059293345
80	0xbd3334db	-0.04375158
81	0xbc89c3c5	-0.016816983
82	0x3b3c233a	0.002870752
83	0xbd54d422	-0.051960118
84	0x3d169797	0.03676566
85	0x3c8804ef	0.016603915
86	0xbcc36521	-0.023851933
87	0xbd10ed28	-0.03538242
88	0x3c947eb1	0.018126817
89	0xbcc0a4e6	-0.02351613
90	0x3cc83563	0.02443952
91	0x3d15e17b	0.036591988
92	0x3d0ab9eb	0.03386871
93	0xbd0188fa	-0.03162477
94	0xbbfe8348	-0.007767115
95	0xba6afc17	-0.0008963956
96	0xbd2e021a	-0.042482473
97	0x3ca9aa81	0.020711185
98	0xbc2f3113	-0.010692853
99	0xbcde75a2	-0.027155701
100	0x3c85108b	0.01624324
101	0xbd33b385	-0.043872375
102	0xbc33c096	-0.010971209
103	0xbd1a90aa	-0.03773562
104	0xbdafc86b	-0.085831486
105	0x3d6834a4	0.056690827
106	0xbcc34e07	-0.023840917
107	0xbda869c3	-0.082232974
108	0x3cab5754	0.020915665
109	0x3c86746e	0.01641294
110	0x3c87524d	0.016518736
111	0x3b2747ad	0.00255249
112	0xba76d049	-0.0009415192
113	0x3bd3a6d6	0.0064590974
114	0xbcbfa8a8	-0.023395851
115	0x3c563489	0.013074049
116	0xbd225f78	-0.039641827
117	0x3b1dfcea	0.0024107047
118	0xbd33939d	-0.043841947
119	0xbd22306d	-0.039596964
120	0x3c46f4cb	0.012143324
121	0xbcb15fd4	-0.02165214
122	0xbc84d1ba	-0.016213287
123	0xbc33164d	-0.01093061
124	0xbd04ecaa	-0.032452263
125	0xbcb93b16	-0.022611182
126	0x3cb13805	0.021633158
127	0xbcbf3eac	-0.023345314
128	0x3d353400	0.044239044
129	0xbc43f85d	-0.01196107
130	0x3d28a172	0.04116959
131	0x3ca746bd	0.020419473
132	0xbca9231f	-0.02064663
133	0x3d838e76	0.06423657
134	0x3da5662d	0.08076129
135	0xbcdd345d	-0.027002508
136	0x3cc696df	0.024241863
137	0xbb047996	-0.0020214072
138	0x3b9ca0a2	0.004779891
139	0x3d004198	0.031312555
140	0x3d33c955	0.043893177
141	0xbc46c827	-0.012132681
142	0x3d19093d	0.037362326
143	0x3a950973	0.0011370614
144	0xbcdbd558	-0.026835129
145	0x3cfc8fc1	0.030830266
146	0xba09aeb7	-0.000525217
147	0x3c2c9d24	0.010535512
148	0xbd0bf759	-0.034171436
149	0xbc1b368b	-0.009473453
150	0xbce4eed3	-0.027945912
151	0x3c9bc76b	0.019015988
152	0xbba07663	-0.0048969253
153	0x3d04f452	0.032459565
154	0x3c95bfb1	0.018279882
155	0xbcf6a96a	-0.03011008
156	0x3d04f577	0.032460656
157	0x3c81fc7f	0.01586747
158	0xbc239896	-0.00998511
159	0xbca405ad	-0.020022238
160	0xbd3fbdff	-0.046812054
161	0x3ca82635	0.020526031
162	0x3c3e2a48	0.01160676
163	0xbd0cd0d5	-0.034378845
164	0xbc7a6e7c	-0.015285131
165	0xbc221581	-0.009892822
166	0xbcd41b3e	-0.025891896
167	0xbd261da1	-0.0405556
168	0x3c887455	0.016657034
169	0xbd4cfebd	-0.050047625
170	0xbb400101	-0.0029297473
171	0x3c07f49e	0.008298067
172	0xbb88acee	-0.0041710055
173	0xbcbad852	-0.022808228
174	0xbcb63e5a	-0.022246528
175	0xbcf38bbb	-0.029729715
176	0x3d3e50d5	0.046463806
177	0xbd96a7cc	-0.073562235
178	0xbd26fcd2	-0.040768452
179	0x3cfcc06a	0.030853469
180	0xbd53c745	-0.05170371
181	0x3d43c26f	0.04779285
182	0x3d175110	0.03694254
183	0xbcf4ae2a	-0.029868204
184	0x3d2114de	0.03932654
185	0x3b94a799	0.0045365808
186	0x3d9d6c7e	0.07686709
187	0x3cd6135e	0.026132282
188	0x3cae8c2d	0.021307075
189	0xbcbe3d25	-0.023222515
190	0xbd2c8336	-0.04211732
191	0x3c3bd2e1	0.011463852
192	0x3c81dbbe	0.015851852
193	0xbcea83f1	-0.028627368
194	0x3cd2c010	0.025726348
195	0x3c9e5a0c	0.019330047
196	0xbb0a8f00	-0.0021142364
197	0xbcbbc5a4	-0.02292139
198	0x3c5b9b98	0.013403796
199	0x3d563c82	0.0523038
200	0xbb1e2447	-0.002413051
201	0xbd348348	-0.044070512
202	0xbcfeff58	-0.031127617
203	0xbd82af9f	-0.06381153
204	0xbccb8b4e	-0.0248467
205	0xbd37a551	-0.044835392
206	0xbca3fbb5	-0.020017484
207	0xbd64f803	-0.055900585
208	0x3cb11b7f	0.021619556
209	0xbcbdf925	-0.02319009
210	0x3ae569e9	0.0017502877
211	0x3cfe4d40	0.031042695
212	0xbd4baa70	-0.04972309
213	0xbcd1526f	-0.025552003
214	0xbcb04efd	-0.02152204
215	0xbd3d8c54	-0.046276405
216	0x3bbbb929	0.00572886
217	0x3d47013d	0.048585165
218	0xbc788694	-0.015168805
219	0x3d78f830	0.060783565
220	0x3d198a39	0.037485335
221	0xbc10b655	-0.008832534
222	0x3d226f4a	0.039656915
223	0xbc6190e3	-0.013767454
224	0xbc47572d	-0.01216678
225	0x3c3d7498	0.011563443
226	0xbcee76aa	-0.029109318
227	0x3cfcd98e	0.030865457
228	0xbd761e0e	-0.060087256
229	0x3c48595d	0.012228337
230	0x3d06bd45	0.032895345
231	0xbcaffb7e	-0.021482226
232	0x3c3a9270	0.0113874525
233	0x3d8ab48a	0.06772716
234	0xbd24178f	-0.04006153
235	0xbcd1b65f	-0.025599657
236	0x3d5b634c	0.053561494
237	0x3c71b599	0.014752769
238	0xbd5bade6	-0.05363264
239	0xbd4c6868	-0.049904257
240	0xbc9f986a	-0.019481856
241	0xbc401adb	-0.011725153
242	0x3cdabf49	0.02670254
243	0x3c8a1c82	0.016859297
244	0xbd44f87e	-0.048088543
245	0xbd6b8292	-0.05749757
246	0xbd22e258	-0.03976664
247	0xbcb743a2	-0.022371117
248	0xbd56eec5	-0.052473802
249	0x3cace9de	0.02110761
250	0xbd2f105f	-0.042740222
251	0xbcc75f18	-0.024337336
252	0xbcdf327f	-0.027245758
253	0xbd4b9dfc	-0.049711213
254	0x3c0dfbf5	0.008666028
255	0xbd0aed9e	-0.033918016

conv2.bias f4 [32]
0	0xbaebf681	-0.0018002541
1	0xbd4fe28b	-0.050753158
2	0xbd7987b5	-0.060920436
3	0x3af652c1	0.0018792973
4	0xbd973de8	-0.073848546
5	0xbcc87737	-0.024470909
6	0xbd82819f	-0.063723795
7	0xbd847b2b	-0.06468805
8	0xbd7eb116	-0.0621806
9	0xbda23ce1	-0.07921768
10	0xbc6c6763	-0.014428946
11	0xbcf82325	-0.030290196
12	0xbdbdd5bb	-0.092692815
13	0x3c9fbb86	0.019498598
14	0xbc9eceff	-0.019385813
15	0xbda6668d	-0.08125029
16	0xbb64eaab	-0.0034929912
17	0xbdaa8772	-0.083266154
18	0x3c0c982d	0.008581203
19	0xbc2f8ca8	-0.010714687
20	0xbcc7dff4	-0.024398781
21	0xbccb185d	-0.02479189
22	0xbdb0fd53	-0.08642068
23	0xbd77e682	-0.060522564
24	0xbc56442d	-0.013077778
25	0xbd83cca6	-0.06435518
26	0xbdbc2d08	-0.091882765
27	0xbd9ed6f3	-0.07755842
28	0xbd596803	-0.05307771
29	0xbdc8075e	-0.0976703
30	0xbd33fd5c	-0.043942794
31	0xbdcf4ad5	-0.10121695

conv3.weight f4 [16, 32, 3, 3]
0	0xbcae110a	-0.02124836
1	0x3b2ef7ba	0.002669795
2	0xbd4129ab	-0.04715888
3	0x3b276a2c	0.002554546
4	0x3d7e2555	0.06204732
5	0x3d390aa8	0.04517618
6	0x3d8df31d	0.06931136
7	0x3cb30114	0.0218511
8	0xbd7ad581	-0.06123877
9	0xbc4e8913	-0.012605923
10	0xbcc9ad7c	-0.024618857
11	0xbb154000	-0.0022773743
12	0x3d2f1b30	0.042750537
13	0xbc8cf02d	-0.017204368
14	0xbd1a3796	-0.037650667
15	0xbca4d723	-0.020122116
16	0x3c99af94	0.01876048
17	0x3bd62718	0.006535422
18	0x3c998c49	0.018743651
19	0x3c6221e9	0.01380203
20	0xbda14220	-0.078739405
21	0x3d60f1c0	0.05491805
22	0x3e12502f	0.142884
23	0x3de4ce00	0.11172104
24	0x3e0217e1	0.12704422
25	0x3ca29b9f	0.019849597
26	0x3c92d61c	0.01792436
27	0x3bd2cb9b	0.006432963
28	0xbc837957	-0.01604907
29	0x3dd0d8f2	0.10197629
30	0x3d30d741	0.043174032
31	0xbaf31178	-0.0018544635
32	0xbcab199f	-0.02088624
33	0x3dc17af0	0.094472766
34	0x3cdfe195	0.027329246
35	0x3dad3121	0.08456636
36	0x3c68c8f2	0.014208065
37	0xbd398cb5	-0.045300204
38	0x3ca2b4db	0.01986163
39	0xbe18b04e	-0.14911005
40	0xbc3b83f1	-0.0114450315
41	0xbd47c8ed	-0.048775602
42	0xbc37c6c1	-0.01121682
43	0x3cf44d97	0.029822154
44	0xbdf20c75	-0.11818782
45	0xbcf60e88	-0.030036226
46	0xbd6d216d	-0.057893205
47	0xbda3236a	-0.07965739
48	0x3d5516cd	0.052023698
49	0xbcce694c	-0.025196694
50	0x3ddfda4e	0.1093031
51	0xbb6dbfa2	-0.0036277552
52	0xbdf6cceb	-0.12050804
53	0x3d6233e7	0.05522528
54	0xbdbe08d1	-0.09279025
55	0xbdda12ea	-0.10648139
56	0xbd3eff04	-0.04662992
57	0xbe02d286	-0.12775621
58	0xbd3aa8a5	-0.04557099
59	0x3e0e41f0	0.1389234
60	0xbdb12e6b	-0.08651432
61	0xbb5f9a23	-0.0034118972
62	0xbda8e162	-0.08246113
63	0x3c4cfca1	0.012511403
64	0xbdf46b49	-0.119345255
65	0xbdbda0e7	-0.09259205
66	0xbe0e0f32	-0.13872984
67	0xbdfd86b8	-0.12379211
68	0x3c9aee07	0.018912328
69	0xbd231bba	-0.039821364
70	0xbdfdbf5a	-0.12390013
71	0xbdec3766	-0.11534004
72	0x3ca9df37	0.02073632
73	0xbd337cae	-0.043820076
74	0xb9a70818	-0.00031858752
75	0xbd3caa5f	-0.046060916
76	0xbd2def50	-0.042464554
77	0x3d18c696	0.03729876
78	0x3d8efa55	0.06981341
79	0x3d44852a	0.047978558
80	0x3d59003b	0.052978735
81	0xbd9925b7	-0.07477897
82	0xbd5e8d10	-0.054333746
83	0x3baa2e62	0.0051935175
84	0xbcb8f7ba	-0.022579063
85	0x3ce04dd6	0.027380865
86	0x3dc4d32f	0.096105926
87	0x3c15ad84	0.009135608
88	0xbb5029a3	-0.0031763099
89	0x3d6ede85	0.05831768
90	0xbd892d61	-0.066981085
91	0xbd77ce74	-0.060499623
92	0x3dafa4ff	0.085763924
93	0xbcbb6cb8	-0.02287899
94	0xbcc028dd	-0.023456985
95	0x3d8b675a	0.06806822
96	0xbbceaf12	-0.006307491
97	0xbd804fe2	-0.062652364
98	0x3da29ce7	0.07940083
99	0x3d493815	0.04912575
100	0x3a076f1e	0.0005166399
101	0xbbcbb0fc	-0.0062161665
102	0x3d87281f	0.06599449
103	0x3dbd2ed3	0.09237447
104	0xbc89daf0	-0.01682803
105	0xbccb94d2	-0.024851236
106	0x3d362735	0.044470984
107	0x3c99994f	0.018749861
108	0x3d2abeaf	0.041685756
109	0x3d82e477	0.063912325
110	0x3cc82b1d	0.02443462
111	0xbd88ff83	-0.0668936
112	0xbcbead22	-0.023275916
113	0xbd0e650d	-0.03476434
114	0x3d020ae9	0.031748686
115	0x3d09f09a	0.03367672
116	0x3d94db01	0.07268334
117	0xbd353bd5	-0.044246513
118	0x3c36364d	0.011121345
119	0x3db8d8c3	0.09025719
120	0xbd91975c	-0.07108948
121	0x3c90b512	0.017664466
122	0x3d3b707c	0.04576157
123	0x3a53c38d	0.00080781506
124	0xbd846e1e	-0.06466316
125	0xbdb6e576	-0.08930485
126	0xb8d16a3f	-9.9856865e-05
127	0xbde9a6c8	-0.11408764
128	0xbd79c9fc	-0.060983643
129	0xbd7a56a4	-0.061117783
130	0x3d4e59d5	0.05037864
131	0x3e43d224	0.19123131
132	0xbded3261	-0.11581875
133	0x3d227b7c	0.039668545
134	0x3db987ab	0.0905908
135	0xbd049649	-0.032369886
136	0x3a812d9a	0.0009855509
137	0xbd868fea	-0.06570418
138	0x3d11f666	0.035635374
139	0xbcfee221	-0.031113686
140	0x3d7820ec	0.06057827
141	0x3cd70a81	0.026250126
142	0xbd64ea8a	-0.055887736
143	0xbdad881b	-0.08473226
144	0xbd242281	-0.040071968
145	0xbdad7f0f	-0.084715
146	0xbd498304	-0.04919721
147	0xbc96dcad	-0.018415773
148	0x3cc5bcf9	0.02413796
149	0x3e10b22f	0.14130472
150	0xbd1b9fdf	-0.03799426
151	0xbbc94ad2	-0.0061429525
152	0x3c1596e3	0.0091302125
153	0x3d1d4608	0.038396865
154	0xbd9468c0	-0.07246542
155	0x3dfb9430	0.12284124
156	0xbdd4f07c	-0.10397431
157	0xbdc42bba	-0.09578653
158	0x3c75fe19	0.015014195
159	0xbda6acab	-0.081384026
160	0x3c7c9b49	0.015417882
161	0x3c50f25b	0.012753095
162	0x3c88827e	0.016663786
163	0x3cb535cf	0.022120384
164	0xbbbf7931	-0.0058433046
165	0x3c1e45e7	0.009660221
166	0xbd5c0b26	-0.05372157
167	0x3e06ea52	0.13175324
168	0x3d7c8af6	0.06165596
169	0xbd756930	-0.059914768
170	0x3c84b491	0.016199382
171	0x3c35c5e5	0.011094545
172	0x3c13380e	0.008985532
173	0xbdd8e577	-0.10590642
174	0xbd59c451	-0.053165738
175	0xbd9c01c5	-0.07617525
176	0xbb9767d2	-0.0046205306
177	0xbded6ab7	-0.1159262
178	0xbcc47e2e	-0.023985948
179	0xbd53f6fa	-0.051749207
180	0xbd75db38	-0.060023516
181	0x3d26610e	0.040619902
182	0xbc9b6362	-0.018968288
183	0xbd9d913a	-0.076937154
184	0xbd3545dc	-0.044256076
185	0x3c3ce0b5	0.011528184
186	0x3da8bbbe	0.08238934
187	0x3bf3ce5b	0.007440371
188	0x3df497c1	0.11943007
189	0x3c32d9e6	0.010916209
190	0xbb87455f	-0.0041281427
191	0x3bced984	0.006312551
192	0xbd6f51f4	-0.058427766
193	0xbd6fa25d	-0.05850445
194	0x3d2767f0	0.040870607
195	0xbceae604	-0.028674133
196	0xbbc2e9cb	-0.0059482804
197	0x3dc1c670	0.09461677
198	0xbd2904c0	-0.041264296
199	0x3de1d0d5	0.1102616
200	0x3db432b9	0.08798737
201	0x3d052529	0.03250614
202	0x3dc0fed6	0.09423606
203	0xbce9959e	-0.028513726
204	0x3d2f8e04	0.042860046
205	0x3da714f7	0.081582956
206	0x3c80e8bc	0.015735976
207	0xbd7cf1b7	-0.061753955
208	0xbdbba2fc	-0.09161946
209	0xbd5c0311	-0.05371386
210	0xbe1df65f	-0.15426014
211	0xbd50ae0a	-0.050947227
212	0xbdd07d03	-0.10180094
213	0xbda73390	-0.08164132
214	0xbdd9f952	-0.10643257
215	0xbdbaa684	-0.091137916
216	0x3db3c830	0.08778417
217	0xbd12dfb7	-0.035857882
218	0xbcad5ddc	-0.02116292
219	0x3dc1a099	0.0945446
220	0xbdd4ea7d	-0.103962876
221	0x3db13f56	0.086546585
222	0x3d9225d7	0.071361236
223	0xbdc11bdb	-0.09429141
224	0xbb453b03	-0.0030094988
225	0xba939fa9	-0.0011262792
226	0xbd56c655	-0.052435238
227	0x3ce25239	0.027627097
228	0x3bc83817	0.006110202
229	0x3ce8a260	0.028397739
230	0x3da93d8d	0.08263693
231	0x3d7a5fbc	0.061126456
232	0x3d997305	0.07492641
233	0x3b2a9d7b	0.0026033807
234	0x3db83cd7	0.08995979
235	0x3c7a7c9f	0.015288501
236	0xbca6839c	-0.020326428
237	0xbce50d83	-0.027960544
238	0xbd9d8fc8	-0.0769344
239	0x3cc01aba	0.023450244
240	0xbcd19027	-0.025581433
241	0xbd12f705	-0.035880107
242	0xbda6b23a	-0.08139463
243	0xbd28f200	-0.041246414
244	0x3c1474b3	0.009061026
245	0x3cb2e2e4	0.021836706
246	0x3daeace8	0.08529073
247	0x3d593898	0.053032488
248	0x3d659345	0.05604865
249	0x3d9fa682	0.07795431
250	0x3dd6d2ed	0.1048945
251	0x3d5501db	0.052003723
252	0xbc1b3595	-0.009473224
253	0xbd49f96b	-0.04931013
254	0xbd69d5f4	-0.057088807
255	0x3d024c2a	0.031810917

conv3.bias f4 [16]
0	0x3b9599bb	0.0045654452
1	0x3cc6f4d2	0.024286661
2	0x3daa749d	0.083230235
3	0xbb8df539	-0.0043322113
4	0xbd882e98	-0.06649512
5	0x3c82436c	0.01590129
6	0xbcb561c9	-0.022141354
7	0x3b04a3c8	0.0020239223
8	0xbadea243	-0.0016985614
9	0x3d94cebe	0.072659954
10	0xbaa16b30	-0.001231527
11	0xbd89e728	-0.06733543
12	0xbd503c3c	-0.050838694
13	0xbd3364c6	-0.043797277
14	0xb9f01a13	-0.00045795794
15	0xbcc843e5	-0.024446437

linear1.weight f4 [128, 576]
0	0xbca7025d	-0.02038687
1	0x3b8bb242	0.0042631933
2	0x3a1082f2	0.00055126764
3	0xbcc852bc	-0.024453513
4	0x3c7df76e	0.015500886
5	0xbce401f6	-0.027832966
6	0x3d02ee83	0.031965744
7	0xbd047802	-0.03234101
8	0xbc63ff7d	-0.013915894
9	0x3d2afbce	0.041744046
10	0xbbea091a	-0.0071421983
11	0xbd3e8120	-0.046509862
12	0xbd327b04	-0.043574348
13	0xbcbbbd56	-0.02291743
14	0xbcf97bda	-0.030454565
15	0x3d875ec2	0.066098705
16	0x39ad9c87	0.00033113753
17	0x3cae9aa5	0.021313975
18	0x3d69b4fd	0.05705737
19	0x3d19f250	0.037584603
20	0xbd30331c	-0.04301749
21	0x3d09e220	0.033662915
22	0x3cc07ce9	0.023497062
23	0x3d063663	0.03276671
24	0xbbf8ba4c	-0.0075905677
25	0xbcf01ce5	-0.029310653
26	0xbd304a42	-0.043039568
27	0x3d397304	0.045275703
28	0x3c93291e	0.017963942
29	0xbc2fdac9	-0.010733315
30	0xbcfa69dd	-0.030568058
31	0xbc859304	-0.016305454
32	0x3ca5d85d	0.020244772
33	0xbc24ded7	-0.010062895
34	0xbb5d5958	-0.0033775177
35	0x3cbcbdd1	0.02303973
36	0x3c1ff838	0.00976377
37	0x3ca87df3	0.02056787
38	0x3d2417a4	0.040061608
39	0xbc59e97b	-0.013300295
40	0x3cd0264a	0.025408883
41	0xbd133cc4	-0.035946622
42	0x3cd6179e	0.026134308
43	0x3ce4931e	0.027902182
44	0xbcdcb6cd	-0.026942635
45	0x3d2bed91	0.041974608
46	0x3c8337c9	0.016017811
47	0xbc5dcfb3	-0.013538289
48	0x3d107485	0.03526737
49	0x3c86a8ac	0.01643785
50	0xbd8619a1	-0.06547857
51	0xbd0c0ed7	-0.03419384
52	0x3d1d8a7d	0.03846215
53	0x3b22ef40	0.0024861842
54	0x3ca750fc	0.020424359
55	0x3c88f2e3	0.01671738
56	0xbb8f4d26	-0.0043732105
57	0xbb6fcbd7	-0.0036590004
58	0x3b95c260	0.0045702904
59	0xbd0773c6	-0.033069395
60	0x3d1a2b3f	0.0376389
61	0xbcdbd7fa	-0.026836384
62	0xbc56fe05	-0.013122086
63	0xbc208271	-0.009796725
64	0xbc24d6af	-0.01006095
65	0xbc3b4ae5	-0.0114314305
66	0xbcb56f86	-0.022147905
67	0x3cd40b67	0.025884343
68	0xbd002915	-0.03128918
69	0xbce96b66	-0.028493594
70	0x3d2891bb	0.041154604
71	0xbcf17ab0	-0.029477447
72	0x3cd0f4a3	0.025507277
73	0x3d1714e7	0.03688517
74	0x3c18038a	0.0092781875
75	0x3cd8cfaa	0.02646621
76	0xbcc133a6	-0.023584198
77	0xbd035dba	-0.032071806
78	0x3d171aa2	0.036890633
79	0xbc11c02b	-0.008895914
80	0x3d22f9fe	0.039789192
81	0x3d12d031	0.035843078
82	0x3c8cb313	0.017175233
83	0xbcc2f656	-0.023799103
84	0xbd4194fb	-0.04726122
85	0xbd5f9f2f	-0.05459517
86	0x3bed00e2	0.0072327713
87	0x3d1f494b	0.038888257
88	0x3c98ed2d	0.018667782
89	0x3cc9eee7	0.02465005
90	0x3c8e4232	0.017365549
91	0xbc7a282f	-0.01526837
92	0xbd35feb0	-0.044432342
93	0x3ce4e1bb	0.027939668
94	0x3d474c76	0.048656903
95	0xbc85cd8c	-0.016333364
96	0xbd499e5d	-0.049223293
97	0xbbfbfc07	-0.007689956
98	0xba87c259	-0.0010357603
99	0xbc523d6c	-0.012832027
100	0x3d039ab8	0.032129973
101	0xbbd99f47	-0.006641302
102	0xbc4677db	-0.012113537
103	0x3b01fa25	0.0019832936
104	0x3d04785e	0.032341354
105	0x3c7e8031	0.015533493
106	0xbc9d7516	-0.01922087
107	0xbc82629e	-0.015916165
108	0xbbec9ac1	-0.0072205965
109	0x3ca46938	0.020069703
110	0x3cab6a37	0.02092467
111	0xbd0d3d76	-0.03448244
112	0x3bf6eaac	0.0075352993
113	0x3c084fe1	0.008319826
114	0x3d3209ca	0.043466367
115	0x3c625913	0.013815182
116	0x3b61b422	0.0034439643
117	0xbc873b40	-0.016507745
118	0x3d47014f	0.048585232
119	0xbce034bb	-0.027368894
120	0xbd03882a	-0.032112278
121	0xbb76eb5a	-0.0037676902
122	0x3d399625	0.045309205
123	0x3c56bed6	0.013107022
124	0xbbb3f512	-0.005491861
125	0xbcd6a39a	-0.026201058
126	0x3ccfb16c	0.025353156
127	0x3ca30383	0.019899135
128	0x3af7a381	0.0018893332
129	0x3c9308eb	0.017948588
130	0xbc3cff91	-0.011535541
131	0xbcba3c1b	-0.022733739
132	0x3d29c314	0.041445807
133	0x3c9dd549	0.019266741
134	0xbacb17fc	-0.0015494819
135	0xbd8071a2	-0.06271674
136	0xbd05d482	-0.032673366
137	0x3cf32d21	0.029684605
138	0xbcf2ed51	-0.029654177
139	0xbcd71075	-0.026252965
140	0x3ac55f5c	0.0015058327
141	0xbbc9178c	-0.00613684
142	0x3b06f1ee	0.0020590979
143	0x3b70280e	0.0036644968
144	0x3d0e198b	0.03469233
145	0x3c2dd72c	0.010610383
146	0xbcd7e2da	-0.026353288
147	0x3cf2c96e	0.029637065
148	0x3d57876b	0.05261938
149	0xbce3ec5a	-0.027822662
150	0xbc9513d7	-0.018197937
151	0x3a8c7659	0.0010716423
152	0xbd48ae43	-0.048994314
153	0x3caed853	0.021343386
154	0x3b66b27e	0.0035201604
155	0xbc94336d	-0.018090928
156	0x3d4079f7	0.046991315
157	0xbd0d22c2	-0.034456976
158	0xbbb924b5	-0.005650128
159	0xbcb270ed	-0.021782363
160	0xbcccf630	-0.025019735
161	0x3d007533	0.03136177
162	0x3c9afedd	0.018920356
163	0xbcc6f142	-0.024284963
164	0x3cb765bf	0.022387384
165	0x3aaf9b80	0.0013397783
166	0x3d6a34c0	0.057179213
167	0xbd22c5b2	-0.03973932
168	0x3d3f02f5	0.04663368
169	0xbccad749	-0.02476086
170	0xbade205a	-0.0016946897
171	0x3bb28513	0.0054479926
172	0x3d038193	0.032105993
173	0x3d0cab11	0.03434283
174	0x3c760c09	0.015017518
175	0x3c72a42e	0.014809651
176	0xbc5dcd2a	-0.013537684
177	0x3c00d49d	0.007863191
178	0x3cb14ce2	0.021643106
179	0xbb85dbd2	-0.0040850425
180	0xbc458426	-0.012055432
181	0x3cad6adf	0.021169124
182	0x3cd5e369	0.026109414
183	0xbbe98fa8	-0.007127721
184	0x3b09b91e	0.002101488
185	0xbcaabf09	-0.020843046
186	0xbca88c9b	-0.020574858
187	0xbca839ef	-0.020535437
188	0xbc79dc39	-0.015250259
189	0x3c9754d1	0.01847306
190	0xbb925031	-0.004465126
191	0x3d490337	0.04907533
192	0xbc29de69	-0.010367968
193	0xbd0e791b	-0.034783464
194	0x3d529fd5	0.05142196
195	0xbcb22ae7	-0.021748973
196	0x3d68b67e	0.056814663
197	0x3d024ddc	0.031812534
198	0xbcf1c6ef	-0.029513804
199	0x3b77405d	0.0037727572
200	0xbcfbbecf	-0.030730633
201	0x3aa5d54e	0.0012652071
202	0x3d08227d	0.033236016
203	0xbb31fe4a	-0.0027159625
204	0x3c8e2449	0.017351286
205	0xbd32ad59	-0.04362235
206	0x3b7ceb3c	0.003859236
207	0xbccf42d5	-0.025300423
208	0x3c6ff4b2	0.014645742
209	0xbbb44032	-0.0055008167
210	0xbbcb8208	-0.0062105693
211	0x3c9df8db	0.019283703
212	0xbc840092	-0.016113553
213	0xbd118682	-0.035528667
214	0xbc299b8b	-0.010352026
215	0xbd2af1e5	-0.041734595
216	0x3d109d41	0.03530622
217	0xbce6a573	-0.028155064
218	0x3c947fc8	0.018127337
219	0xbb946f8f	-0.0045299004
220	0xbd1f1e65	-0.038847346
221	0xbc05e33e	-0.008171855
222	0xbcce9294	-0.025216378
223	0x3d0dcb94	0.034617975
224	0xbd19e472	-0.037571378
225	0xbc937822	-0.01800162
226	0xbd19198c	-0.03737788
227	0x3c85fc08	0.01635553
228	0x3b9e121c	0.004823936
229	0x3d27d784	0.040977016
230	0x3d77a55e	0.06046044
231	0x3c905f8d	0.017623687
232	0xbc0dfc79	-0.008666151
233	0x3b8ceb67	0.004300523
234	0x3be87e8c	0.0070951637
235	0xbcb33157	-0.021874113
236	0xbcfc6258	-0.030808613
237	0x3ce0cb62	0.02744073
238	0x3d29d9f5	0.041467626
239	0x3cc2a573	0.023760533
240	0xbd3bc155	-0.045838673
241	0xbcc20b4c	-0.023687027
242	0xbcd74c16	-0.026281398
243	0x3c8a8fec	0.01691433
244	0x3cd63fa7	0.026153399
245	0x3d617956	0.055047356
246	0xbc798a42	-0.015230717
247	0x3c947645	0.018122802
248	0xbccadc6d	-0.02476331
249	0xbd22df0d	-0.0397635
250	0x3c20b887	0.00980962
251	0x3c5c990f	0.013464226
252	0xbcd73113	-0.026268518
253	0x3cfa6e46	0.03057016
254	0xbcaff8d3	-0.021480953
255	0xbc3e61bf	-0.011619984

linear1.bias f4 [128]
0	0xbc91ee1c	-0.017813735
1	0x3d23f9b9	0.040033076
2	0xbcc8f46c	-0.024530612
3	0x3cc275e0	0.023737848
4	0x3a84e661	0.0010139459
5	0x3cfdc1cc	0.030976199
6	0x3cb5858f	0.022158412
7	0xbc72b2d4	-0.014813144
8	0x3c1bc681	0.009507776
9	0x3c281c31	0.010260628
10	0xbd00f538	-0.03148386
11	0x3cf636c8	0.030055419
12	0xbcd84c18	-0.026403472
13	0x3ce88a86	0.028386366
14	0xbcb47186	-0.022026788
15	0xbcc2305a	-0.023704696
16	0xbca8613c	-0.020554177
17	0x3d244816	0.04010781
18	0x3cb65b7f	0.022260426
19	0x3b97af20	0.004629031
20	0xbcea6c15	-0.02861599
21	0x3cbe17e1	0.023204746
22	0xbcf61bef	-0.030042617
23	0xbcafb6f6	-0.021449547
24	0x3cc27765	0.023738572
25	0x3d258eb7	0.040419307
26	0xbc36c81e	-0.01115611
27	0xbd576515	-0.052586634
28	0x3c354b13	0.011065262
29	0x3a7aba8d	0.00095645414
30	0x3bb53b89	0.005530779
31	0xbc10111c	-0.008793142
32	0x3d02be10	0.03191954
33	0x3c9a3c86	0.018827688
34	0x3cde3398	0.027124211
35	0xbd07f417	-0.033191767
36	0xbaa73e47	-0.0012759649
37	0xbca34f3d	-0.019935245
38	0xbd23c8ae	-0.039986305
39	0x3c99e205	0.018784532
40	0xbc14210c	-0.009041082
41	0x3d1ac69a	0.037787057
42	0xbb289c08	-0.0025727767
43	0x3a25da25	0.00063267566
44	0x3c6eb8b6	0.014570406
45	0xbc8d375f	-0.017238317
46	0x3cf3374c	0.029689454
47	0x3c3c228a	0.011482844
48	0xbcd339e1	-0.025784435
49	0xbc84344d	-0.01613822
50	0xbc04344d	-0.00806911
51	0x3d09de58	0.03365931
52	0x3ccd406c	0.025055133
53	0x3b2996a4	0.0025877142
54	0xba49a2b5	-0.0007691787
55	0x3c297a01	0.010344029
56	0x3cc75156	0.024330776
57	0xbce79008	-0.028266922
58	0xbd65d895	-0.05611475
59	0xbd44cc16	-0.048046194
60	0x3cfb8f14	0.030707873
61	0x3c7e076f	0.015504702
62	0xbb59c0ea	-0.0033226558
63	0x3cef3216	0.029198688
64	0xba7d0e80	-0.0009653345
65	0x3ce50225	0.027955124
66	0xbd25f590	-0.04051739
67	0x3cdf2db7	0.027243478
68	0x3bc64d28	0.006051678
69	0xbd0c0e18	-0.03419313
70	0xbc717d71	-0.01473938
71	0x3b88e04a	0.004177128
72	0x3d03605f	0.03207433
73	0x3c8a3fb2	0.016876075
74	0xbbaed08c	-0.0053349193
75	0xbc0187d2	-0.007905917
76	0xbd01c5b4	-0.031682685
77	0x3b969f50	0.0045966282
78	0x3d13daf9	0.0360975
79	0xbd003b13	-0.031306338
80	0xbc2375fb	-0.009976859
81	0xbb4c3276	-0.0031158007
82	0xbcce3c88	-0.025175348
83	0x3cc64990	0.024205
84	0xbd94c98a	-0.07265003
85	0x3d38f506	0.045155548
86	0xbccc8533	-0.024965858
87	0x3cfeef8a	0.03112008
88	0xbc9486d4	-0.018130697
89	0x3d13c310	0.036074698
90	0x3d25d249	0.040483747
91	0xbce08108	-0.027405277
92	0x3c50f108	0.012752779
93	0x3ccd65ab	0.025072893
94	0x3c647b83	0.013945463
95	0xbbb94e1e	-0.0056550642
96	0x3cad1de7	0.021132423
97	0xb87e66f2	-6.0654194e-05
98	0xbd056b66	-0.032573126
99	0x3b9b87a8	0.004746396
100	0xbd01b52d	-0.031666923
101	0x3c926669	0.017871099
102	0xbbb78194	-0.0056001637
103	0xbc4aa803	-0.012369159
104	0xbd1edd25	-0.03878512
105	0x3c477efb	0.012176271
106	0xbd237433	-0.039905738
107	0xbd1ff5f5	-0.039052922
108	0x3d0604fa	0.03271959
109	0xbc63ad04	-0.013896231
110	0x3d2b5bfb	0.041835766
111	0xb9a9c88b	-0.00032383608
112	0xbbdbd20c	-0.006708389
113	0x3d314c1e	0.04328548
114	0x3ca2c8d2	0.01987115
115	0xbc4a0b82	-0.012331845
116	0xbd77a219	-0.060457323
117	0x3b5ffefb	0.003417908
118	0x3d500339	0.050784323
119	0xbcaaed4e	-0.020865109
120	0xbc47b869	-0.012189963
121	0xbcc4cf0e	-0.024024513
122	0x3d06caf0	0.03290838
123	0x3b8c28be	0.004277318
124	0x3c24e51b	0.010064389
125	0x3c1fb8a0	0.009748608
126	0xbb234ed0	-0.0024918802
127	0x3cbf83ed	0.023378337

linear2.weight f4 [10, 128]
0	0x3e69c08f	0.22827362
1	0xbe7b1ea7	-0.24523412
2	0xbdf774e4	-0.12082842
3	0x3dcea9d3	0.10090985
4	0xbd9e3545	-0.07725004
5	0xbd1bcd47	-0.038037565
6	0x3d629058	0.05531344
7	0x3e0b11a8	0.13580954
8	0x3b853a78	0.004065808
9	0xbd059148	-0.032609254
10	0x3e671123	0.22565131
11	0xbd50364e	-0.05083304
12	0xbcce5fa9	-0.025192099
13	0x3c16b137	0.009197525
14	0xbe4e6301	-0.20154954
15	0xbe771d5b	-0.24132292
16	0xbcb93be4	-0.022611566
17	0xbde0ab7e	-0.109702095
18	0x3e0fae97	0.14031444
19	0xbe7c5b35	-0.24644168
20	0x3e0ade6d	0.13561411
21	0xbdc7ce53	-0.0975615
22	0xbe06a28e	-0.13147947
23	0xbd0ef5d4	-0.03490241
24	0x3e357354	0.17719775
25	0x3d422271	0.047396127
26	0x3c8b101f	0.01697546
27	0xbdb2fdf5	-0.08739845
28	0xbe6df25d	-0.23236986
29	0xbd4b110f	-0.049576815
30	0xbcf5e528	-0.030016497
31	0xbe74cf35	-0.23907168
32	0xbe8c640b	-0.27420077
33	0x3e291dcd	0.16515274
34	0xbe408a3b	-0.1880273
35	0x3dbd892c	0.09254679
36	0x3e27df1e	0.16393706
37	0xbe632490	-0.22181916
38	0x3d38315f	0.04496896
39	0xbe005c19	-0.12535132
40	0xbe1515d7	-0.14559112
41	0x3e042a24	0.129067
42	0xbd1e5d20	-0.03866303
43	0xbe046c16	-0.12931857
44	0x3e5160db	0.20447104
45	0xbe167e1c	-0.14696544
46	0x3e6fc86d	0.234163
47	0x3e28bb4a	0.16477695
48	0xbd99892d	-0.07496867
49	0xbd355986	-0.04427483
50	0xbdd91870	-0.10600364
51	0x3e43f117	0.19134937
52	0x3e3c8d84	0.18413359
53	0xbe450f66	-0.19244155
54	0xbe0e181b	-0.13876383
55	0xbe53f744	-0.20699793
56	0xbdad91f1	-0.08475102
57	0x3dacd7a5	0.084395684
58	0xbcf8ecd6	-0.03038637
59	0xb68d1a4f	-4.20519e-06
60	0x3da63f4b	0.08117541
61	0xbcc106a2	-0.023562733
62	0x3e017f0e	0.12646124
63	0x3e1e8800	0.15481567
64	0x3e66e4fd	0.2254829
65	0xbdedd080	-0.11612034
66	0x3e1b58ed	0.15170641
67	0x3e521fd2	0.20519951
68	0x3e5a31e2	0.21308091
69	0x3e73f2cd	0.2382309
70	0x3da6c204	0.08142474
71	0xbdf7cd27	-0.120996766
72	0xbc8c595c	-0.017132454
73	0x3e59bcbf	0.21263407
74	0x3e0f1ed7	0.13976608
75	0xbe8aca3d	-0.2710742
76	0x3d9a29ba	0.0752749
77	0xbda87fdf	-0.082275145
78	0x3e8d40b1	0.27588418
79	0x3df78931	0.12086714
80	0x3dd44c92	0.10366167
81	0xbe8ae5ba	-0.27128392
82	0x3e07223b	0.13196652
83	0x3e2494f1	0.16072442
84	0xbe5a61e5	-0.21326406
85	0x3c68616d	0.014183384
86	0x3db99721	0.09062029
87	0xbe17c997	-0.14822994
88	0xbc43974b	-0.0119379265
89	0xbd89b6aa	-0.067242935
90	0x3e119d91	0.14220263
91	0xbe0744ae	-0.13209793
92	0xbd98bb4c	-0.07457599
93	0x3dbcd9b3	0.0922121
94	0x3e2216bd	0.15828986
95	0x3e37e980	0.17960167
96	0xbd696870	-0.056984365
97	0x3e673c5d	0.2258162
98	0x3bce9f05	0.0063055777
99	0x3e027f14	0.12743789
100	0xbe5e0037	-0.2167977
101	0xbe204aab	-0.15653484
102	0x3e40e6e9	0.18838085
103	0xbe9ff556	-0.31241864
104	0xbe1e8d7f	-0.15483664
105	0xbe860bf3	-0.26180992
106	0x3c90d4fc	0.017679684
107	0x3d87cf57	0.06631344
108	0xbe3c662e	-0.18398353
109	0xbd8016c8	-0.06254345
110	0xbe8ca249	-0.27467564
111	0x3e769c23	0.24082999
112	0x3e66245d	0.22474809
113	0xbdc9a84c	-0.09846553
114	0xbe1cafd0	-0.15301442
115	0xbd2f2097	-0.04275569
116	0xbc918d4d	-0.017767573
117	0x3d7ad2bf	0.06123614
118	0x3d124dc8	0.03571871
119	0x3d89b4d3	0.067239426
120	0x3e0206b5	0.12697871
121	0x3dd23ee3	0.10265901
122	0x3e39f51e	0.18159911
123	0xbd39c379	-0.045352433
124	0x3e921740	0.28533363
125	0x3dcd2a7d	0.100178696
126	0x3eacc1b6	0.3374154
127	0xbdf25fcf	-0.1183468
128	0xbdfa6bc5	-0.12227587
129	0x3e645e67	0.22301637
130	0x3e4198c9	0.18905939
131	0x3ca52cba	0.020162929
132	0xbd526057	-0.051361408
133	0xbdb37242	-0.08762027
134	0xbe842ab8	-0.25813842
135	0xbe43e6ed	-0.1913106
136	0xbdb1d0b7	-0.08682387
137	0x3e7caa78	0.24674404
138	0xbd14586a	-0.03621713
139	0x3e246774	0.16055089
140	0x3d00e247	0.031465795
141	0xbba7dd50	-0.005122818
142	0x3d400e9b	0.04688893
143	0xbd750f59	-0.05982909
144	0xbd940308	-0.07227141
145	0x3ea5f9ae	0.32417053
146	0xbe7a026d	-0.24414988
147	0xbc20315f	-0.009777396
148	0xbe399d8b	-0.18126504
149	0x3d9b49cb	0.07582434
150	0x3db62b8c	0.08895025
151	0x3a5095a1	0.0007956867
152	0xbe1abd1a	-0.15111199
153	0xbe39ed12	-0.18156841
154	0xbe930adf	-0.2871923
155	0xbe852bc6	-0.2600996
156	0x3dd5509a	0.10415764
157	0xbe4933d5	-0.19648679
158	0xbe6cde39	-0.23131646
159	0xbd240b12	-0.04004962
160	0xbe1e5d2f	-0.15465234
161	0xbe3f3716	-0.18673357
162	0x3e2c5177	0.16827951
163	0xbda4c06e	-0.080445156
164	0xbb82b604	-0.003988983
165	0x3e29fbed	0.16600008
166	0xbe8c5498	-0.2740829
167	0x3c2fd20b	0.0107312305
168	0x3e67aef5	0.22625335
169	0x3e85791a	0.26068956
170	0xbdb276d9	-0.08714075
171	0x3daba569	0.08381159
172	0xbe4fe0d5	-0.2030061
173	0x3e26e0b6	0.16296658
174	0xbe5590a1	-0.20855953
175	0xbe45b140	-0.19305897
176	0xbdbd92a2	-0.092564836
177	0x3da41a98	0.08012885
178	0x3e78c909	0.24295439
179	0x3e6f9316	0.23395953
180	0x3ced063e	0.02893364
181	0xbe271294	-0.1631568
182	0xbd94182e	-0.072311744
183	0xbe124cfe	-0.14287183
184	0x3e474ae1	0.19462158
185	0xbe2585da	-0.16164342
186	0x3dd6b277	0.10483258
187	0xbe22e8ff	-0.15909193
188	0x3ca7f214	0.020501174
189	0x3d844309	0.064580984
190	0x3e0a8bf3	0.13529949
191	0x3c572354	0.0131309815
192	0x3d4b1aed	0.049586225
193	0x3df2832f	0.118414275
194	0xbd4d05d7	-0.050054397
195	0x3e315929	0.17319168
196	0x3e38ab7b	0.18034165
197	0xbe2e6cb9	-0.17033662
198	0xbe51bbc5	-0.20481785
199	0xbd0b2ccb	-0.033978265
200	0xbda098af	-0.07841622
201	0x3e79d940	0.2439928
202	0x3e3be382	0.18348506
203	0x3e1cb07d	0.153017
204	0xbe316ceb	-0.17326705
205	0xbe3ababe	-0.18235299
206	0x3d08221d	0.033235658
207	0xbea60445	-0.32425132
208	0xbe381163	-0.17975383
209	0x3e228281	0.15870096
210	0x3dc9f991	0.09862054
211	0x3e05ea3d	0.13077636
212	0xbe30182b	-0.1719672
213	0x3e191d86	0.14952669
214	0xbaab7b53	-0.0013083018
215	0x3e125ae2	0.14292482
216	0x3e460dd8	0.19341218
217	0x3df76c93	0.12081256
218	0xbe3ed8c2	-0.18637374
219	0x3e6f4a8e	0.23368284
220	0x3e4b3d9e	0.19847724
221	0xbdfb0018	-0.12255877
222	0xbe2fb3a2	-0.17158368
223	0xbe64a805	-0.2232972
224	0xbdfc7ea3	-0.123288415
225	0xbe155171	-0.14581849
226	0x3d858a20	0.06520486
227	0xbe42e0a5	-0.19031008
228	0x3e3d8ea4	0.18511444
229	0x3e730c87	0.23735248
230	0xbe1812eb	-0.14850967
231	0xbdfc8c6b	-0.1233147
232	0xbd61df93	-0.055144858
233	0xbd375c2a	-0.04476563
234	0xbe263310	-0.16230416
235	0xbe9782fc	-0.2959212
236	0x3de444dc	0.111459464
237	0xbdea878e	-0.11451636
238	0x3dd1d0e0	0.10244918
239	0x3d2e6476	0.042576276
240	0x3d08239f	0.033237096
241	0x3e261190	0.16217637
242	0x3e5a4df9	0.21318807
243	0x3dbcc028	0.092163384
244	0xbe0cedc8	-0.13762581
245	0x3e184846	0.1487132
246	0x3da3afa0	0.07992482
247	0xbd2a623b	-0.041597586
248	0xbe02a50f	-0.12758277
249	0xbd660888	-0.05616048
250	0x3e448397	0.19190823
251	0x3e986c7f	0.29770276
252	0xbd581d7a	-0.052762486
253	0x3e568013	0.20947294
254	0xbe2f648e	-0.17128202
255	0x3d7a8d9b	0.0611702

linear2.bias f4 [10]
0	0xbd172ec6	-0.03690984
1	0x3d95c3ff	0.07312774
2	0x3e21fa1b	0.15818064
3	0xbdf83994	-0.12120357
4	0x3d926942	0.071489826
5	0x3db13121	0.08651949
6	0xbdd8fab1	-0.105946906
7	0x3d2245ab	0.03961722
8	0xbdcfb9c6	-0.10142855
9	0xbe0d0f5e	-0.13775393
