my_pt/80_deep_model.pt (torch, 859026 bytes, 56 tensors)

conv1.weight f4 [32, 1, 3, 3]
00000000: a7aa 1fbd d7f0 b9be e0be 80be 1c1f 87bc
00000010: 2a67 863e a595 a1be 78b5 4f3e 01ea 813d
00000020: 65b3 06be f226 6bbe 8521 21be 07dd 74bd
00000030: a863 85be 59c5 843e 82bf 633d 4e5d 9b3e
00000040: 06c4 8a3e f9bb 233e 61e3 5f3d 726f 99be
00000050: 2cc2 d5bd 64b4 6f3d 21b1 11be 740e 453e
00000060: 8d95 5e3e 11c7 01be 7017 f83d e6d8 613e
00000070: eed0 673e 2a06 3bbe 5a61 24be 12bb f5bd
00000080: 22e0 1b3e 461d 6b3e 6aeb a4be c0c8 be3d
00000090: e8b1 59be b38e 153d d674 693e 85ec 243e
000000a0: 4d09 c7be 6f5d 973c 8e24 a63e 73b8 6bbe
000000b0: f29e 893d fca7 30bd fd15 423e 8c06 a8be
000000c0: 368d a1bd fc37 c63d 531a fb3d 8b72 5bbe
000000d0: 3c38 543e 1758 8e3e 1dbd 8fbd f789 14be
000000e0: 3e90 21be 1239 bf3c 834f 303e 2c8b 67be
000000f0: d630 9bbd 0c6b 40be 6171 41be 120f 8dbd
00000100: 10e7 873e 4211 da3d a701 04be 0009 1d3e
00000110: fc5a eabd f62d ab3d af5c fcbd 12a5 98be
00000120: ff07 953e 160d 0e3e ff6c 9f3e f318 72be
00000130: ce5f 7a3c 8886 013e e326 17be 6786 eebd
00000140: 084b 4bbd 1729 80bb 0298 29bc 6b67 973e
00000150: b190 87be 1db2 7bbe 5ef4 913e 4f02 543e
00000160: 831c 503e 89ec c5bd 82eb a73e 2984 bf3d
00000170: bcdb a4be 50ce 853e 0f87 8dbe 8d10 693c
00000180: 6cdd 513e 0832 78be e7fd 88be 1ebb 3e3e
00000190: 32e8 603e e89a b03d b259 223e 4f1f 00be
000001a0: 4b38 3dbd a3cf 98be b11c 333e 2075 8f3e
000001b0: 55b8 483e bd04 d23c e685 89be b5cc e13d
000001c0: 3fba 393c 88bf 9a3e c828 96bd abfb c43d
000001d0: 1af2 0e3e 3bb8 e1bd 8048 313e e8d0 fabd
000001e0: 84e6 97be f52d 4e3e 1bf0 ddbc 1bf7 123e
000001f0: d476 65be 7709 62be 04ff 9dbd 6cc7 673e
00000200: 85bd 8abd 5235 8f3e 4279 a63d dce2 81bd
00000210: 99d7 483e 8adf 8ebe ac7b 973c 96a0 8d3e
00000220: f8e8 a1be 756d a4be 3f36 bd3d 5116 093e
00000230: 93a3 99be 37bf e03d fbfd 7a3e 511a 8dbe
00000240: 77de 94bc 3b5e 01be b9c8 1d3c f0be aabe
00000250: a510 5abe 2463 72bd 4ad0 273e f2c2 a0bd
00000260: 1db8 09be e08f bc3b be8e 74be 9a1c b93d
00000270: b276 1b3e a50d 03bb b46a ffbd 6b22 423d
00000280: 176e aabe 5c02 d1bd 4cdd 61be 657f d3bd
00000290: f653 88be 13db a73e 2cfb 833d 14a6 ec3d
000002a0: ba5c 9ebd 75eb 52be cf9e 773c beb8 86be
000002b0: 4391 5cbe bef9 aa3e ae14 633e 856e c93e
000002c0: 7deb 413d ed96 1dbc 93f6 d6bd 7a0f 36be
000002d0: d8dd 143e baca 74be ef37 60bc 829f 203e
000002e0: b85b 913e 4ab6 e4bd 6c4d 14be 9523 e13d
000002f0: 39da 8f3d babf 4fbd af65 4ebd e6f2 733d
00000300: b0d7 363e fd5b a4b9 12a9 42be d0c6 55bb
00000310: 346b 5dbe 429e a4be 2a5f dc3d ca95 a7be
00000320: ab68 2fbe 306c 0ebd 7197 1b3e 4223 453e
00000330: ee68 fcbd c94a b6bc 5de7 70be 6b5b 1d3e
00000340: b304 80be 2405 3e3e 5322 69be 7aa7 31be
00000350: 4a1d 50be a442 69be 61fb 56be af4d 88be
00000360: 1688 8bbd f5bd 27be e94a 8fbe 5d15 0cbe
00000370: befb 893e 7892 8e3e e1e8 ed3d a554 42bc
00000380: da69 273e d58e 473d 7fee 7f3e e9dd 2dbe
00000390: 3abc 103d 85c0 7b3e 285b ea3d fef9 383e
000003a0: 51c4 213e c14a 133e e37d 9abe fd02 b0bd
000003b0: 518f 743e 56dc ab3c 3204 c23d 1cab bb3d
000003c0: 4b46 f3bd 31d7 06bc 8890 7a3e da30 efbd
000003d0: 379b b93d 424e cd3d 0e68 74be 732f 51be
000003e0: d3d1 4e3d e021 b8bd 291a 5b3e cdc9 bdbd
000003f0: a4ae da3d f48e 75be 090c 7b3e 5e8f fdbd
-0.038981106 -0.3631656 -0.25145626 -0.016494326 0.26250583 -0.31559482 0.20284069 0.06343461
-0.13154371 -0.22964075 -0.15735443 -0.0597811 -0.26052594 0.25931814 0.055602558 0.30344623
0.2710268 0.15989675 0.054660205 -0.2996784 -0.10437426 0.058521643 -0.14227726 0.19243795
0.21736737 -0.12673594 0.12113845 0.22055396 0.22638294 -0.1826407 -0.16052762 -0.119985715
0.15222219 0.22960386 -0.32210857 0.09315634 -0.21259272 0.03651304 0.22798476 0.1610585
-0.38874283 0.01847717 0.32449764 -0.2301958 0.067197695 -0.043128952 0.189537 -0.32817495
-0.07888262 0.09678647 0.1226088 -0.21430413 0.20724577 0.27801582 -0.07018492 -0.14505754
-0.1577768 0.023342643 0.17217831 -0.22611684 -0.07577674 -0.18790835 -0.18890907 -0.0688764
0.26543474 0.10647823 -0.12891255 0.15335464 -0.11443135 0.08358376 -0.123223655 -0.2981344
0.29107663 0.1387218 0.31137845 -0.2364233 0.015281631 0.12648976 -0.14760928 -0.11646729
-0.049632102 -0.0039111483 -0.010351183 0.2957109 -0.26477578 -0.24579664 0.2850675 0.20704006
0.20323376 -0.09664256 0.32796866 0.093513794 -0.32198894 0.26133966 -0.27642104 0.014225137
0.20494622 -0.24237835 -0.26756212 0.18626067 0.21963575 0.08623296 0.15854529 -0.12511943
-0.046196263 -0.29845914 0.17491414 0.28019047 0.19601567 0.025637025 -0.2685997 0.11025373
0.011335908 0.30224252 -0.07331997 0.09618314 0.13959542 -0.11021467 0.17312813 -0.12246877
-0.29668057 0.20134719 -0.02709203 0.14352076 -0.2240861 -0.22073923 -0.07714656 0.22634667
-0.06774429 0.27970368 0.08128597 -0.06342098 0.19613494 -0.27904922 0.018491589 0.2766158
-0.31623054 -0.3211476 0.09238862 0.1338742 -0.3000761 0.10973971 0.24510948 -0.2755914
-0.018172486 -0.12633602 0.009630376 -0.333488 -0.21295412 -0.05917658 0.1638805 -0.07849683
-0.1344914 0.005754456 -0.23882577 0.090386584 0.15181997 -0.0019997146 -0.12471524 0.047396105
-0.33287117 -0.10205528 -0.22057074 -0.10327033 -0.26626557 0.32784328 0.064443916 0.115551144
-0.0773253 -0.20597632 0.0151135465 -0.26312822 -0.21539788 0.33393663 0.22175857 0.39342132
0.04734372 -0.009618503 -0.10496249 -0.17779341 0.14537752 -0.23905459 -0.013685211 0.15685847
0.28390288 -0.111675814 -0.14482659 0.10993115 0.070240445 -0.050719954 -0.05038994 0.059557818
0.17855716 -0.00031349054 -0.19009808 -0.0032619722 -0.21622926 -0.3215199 0.107603386 -0.32731467
-0.17129771 -0.034771144 0.15194489 0.19251731 -0.12324701 -0.022252457 -0.23525758 0.15366904
-0.25003585 0.18556648 -0.22767 -0.17349043 -0.20323673 -0.22779328 -0.20994331 -0.26621768
-0.06813066 -0.16381057 -0.2798684 -0.13680024 0.26949877 0.27846122 0.11616684 -0.011861001
0.16348973 0.0487202 0.24993323 -0.16979183 0.035335757 0.24585159 0.11443168 0.18064114
0.15797545 0.14383985 -0.3017417 -0.0859432 0.23882796 0.020979088 0.094734564 0.09163496
-0.11878642 -0.008230017 0.24469197 -0.116792396 0.09062808 0.10024692 -0.23867819 -0.20428257
0.050493073 -0.08990836 0.21396698 -0.09267006 0.10677841 -0.23980314 0.2451631 -0.12380861

conv1.bias f4 [32]
00000000: 4d1e 51bc 5fd5 8b3c 1787 f73d 51fd 53be
00000010: 7a62 ddbd 94b7 413c 86cb 07be a61f 7d3e
00000020: 918a 84bd c79a 7cbe d850 893e 5204 5cbe
00000030: 6f25 5cbe c6a0 25be 8051 87be a992 4dbe
00000040: ad6e 333e 6c94 85be 450d 573e b7e0 523e
00000050: 1387 6dbe d231 27be 34f6 88be 7b89 51bd
00000060: 906d acbe 2e3e 8f3e 539a 57be d417 7b3e
00000070: 19fc c7bd 4176 ccbd a451 3cbe ee24 3f3e
-0.012763572 0.017069517 0.12086313 -0.20702101 -0.108097985 0.011823554 -0.13261232 0.24719104
-0.06471742 -0.24668418 0.2681949 -0.21486023 -0.21498655 -0.16174611 -0.26429367 -0.20075478
0.17522688 -0.260898 0.21001156 0.20593534 -0.23196058 -0.16327599 -0.26750338 -0.051156502
-0.3367734 0.27977127 -0.21054964 0.24520808 -0.09764881 -0.09983493 -0.18390518 0.18666431

res_blocks.0.conv.weight f4 [32, 32, 3, 3]
00000000: 6fbb a93d 2380 dc3d a618 52bd aa34 353e
00000010: 320d e9bd 4911 3938 94ef 7dbd 798a 09bc
00000020: 90ff 2a3d 5081 3fbb b61f a7bc 621f 413d
00000030: 69ad 4cbd 3ecd e03d b954 223d 574f 84bc
00000040: d4dd 9ebd a70e a83d 751c 8d3c dac8 dfbd
00000050: 3fe2 09be f9ea 2fbe 650b 78be 3496 003d
00000060: f994 0bbe 94aa e3bd 168b a0bb ce4d 033d
00000070: b23a cf3d 5e8e d4bd 747f 81bd 370f 69bd
00000080: 84f8 b7bb bd7d 5c3d 14ab 60be 685d 68bd
00000090: 8dcf 1cbc 8ebf 483d 9ad7 36bd d036 b53d
000000a0: e8d7 83bd 292a 303c 0ee5 95bd 471a dbbd
000000b0: a6b4 18bd 448d b7bd ec2b df3c a80c 59bd
000000c0: 239b c4bd cba6 d6bd 701c 613d d853 5ebd
000000d0: e665 dabd 4b55 123e 195b 243a b157 9f3c
000000e0: 3cc3 ddbb 5c8f 80bd 3657 4abd 2e2e 863d
000000f0: 6abe 96bd 3cdb 01bd ea09 a8bd 1585 edbc
00000100: ef25 74bc 73eb 5dbc 2cea 16be e8c1 3abd
00000110: 92ab 523d d948 4a3d 2632 7e3d 17b3 763d
00000120: 217b 88ba 27e5 4c3d 6779 563d 202c 05be
00000130: f914 90bd b867 523d 7dc4 8fbd 5b97 dfba
00000140: fd25 503d c2f2 f63d f45a 503d b6da 633c
00000150: c51d 72bd 0f34 bfbc 01c9 a33d 8489 22bd
00000160: f642 b1bd a49e 96bb ffc8 a0bd e53b 813d
00000170: 789b dcbd 607f 3ebd 7cd7 0f3b a528 213d
00000180: c74a 0c3e 50b8 e2bc 851b 0ebe d593 32bd
00000190: 6217 893d d823 f7bc e76d 273e e55e 903c
000001a0: 3f8d efbd dda6 f9bd 0fb4 823d 8b8b f5bc
000001b0: f359 e73d 8c17 053d 13d5 c3bd 7489 723c
000001c0: a8ed babd 106f 69bd 1665 c0bd e7df 923d
000001d0: 87e4 70bd 4f89 293e 2324 c53d a801 9c3c
000001e0: 51df d7bd 72e5 093d 3112 bf3d b39e b43d
000001f0: 4af8 b3bd 55f1 913d 5223 c93d bb59 673d
00000200: 4302 af3d 07d4 a63c 9182 5a3c 578f 54bd
00000210: 1565 bc3d 5a25 a63d 1c9b b4bd 1019 52bd
00000220: 2fec ca3c e472 1bbd 7254 ee3d c5a4 02bd
00000230: d444 1c3d 6622 4a3c 8870 cabb 4e9a 3f3d
00000240: 6a86 813d 8779 eebc e2f3 e63d 133f ab3d
00000250: 9ac8 ab3c cd2b f63c 2497 a73c 68d9 3dbd
00000260: 4768 30bd 9231 54be 7a8e 7fbd 9625 3aba
00000270: f689 c8bc a587 adbb 8cd0 6b3d 514a 22bd
00000280: aee0 133e 3525 39bc 7144 b7bc 1a7e 5d3d
00000290: adb7 c7bc 5a38 813d 9cd9 ab3d 83e2 243e
000002a0: 640f 033d 1ae4 e93c 595c 0bbd 1033 cf3c
000002b0: 6791 133d 90d3 edbd a697 703d db4e 353d
000002c0: f140 06bd 38ce 47bd 83d7 c2bc 3e26 28bc
000002d0: bdbd b8bc 1b51 cabd 4c2f d3bd 067e f8bd
000002e0: cc37 dfb9 3c46 0fbe 95ed 39bd 68a5 56bd
000002f0: 8ded aabd c677 993b d269 113d 62f0 39bd
00000300: 4ab5 f9bc 43a3 01bd 1623 13bd 03a9 903d
00000310: 1106 e33d 1931 8fbd b5d3 ddb9 7579 1d3d
00000320: 5389 7bbd 668a 653d b986 c3bd 103e cf3d
00000330: 4d83 b83d 9f09 41bc ebb0 ffbd 7d82 a8bc
00000340: 2934 d8bb 7579 153d 3e98 0dbe 8674 ff3c
00000350: 19d1 203d 0a35 2a3e d03a 243e 93c2 523c
00000360: 59d8 1d3e d5e7 1c3d a9e4 7ebd 81bc 9abd
00000370: 60b3 2a3e a5b2 d93d 97f8 443e 39fc 08be
00000380: ce68 d3bd 6a4a 873c 4f28 ee3b d2d4 27bd
00000390: e8c6 c73c 07c1 c3bd 2faf 42bd 4e33 a4bd
000003a0: aa12 26bd d6b8 5a3d 784a 033a 114a 433d
000003b0: 002b 0bbc 203c fc3d 1937 f7bb f7f7 ddbc
000003c0: fdd6 9b3e 684e 633d 2508 a33d 526d 05be
000003d0: 2fee 813d 9308 133e 70e3 193d eec2 74bc
000003e0: dda2 a4bd fc6e 773e 883b 67bd 3edb 8e3d
000003f0: 4df8 d5bc 17fd 783d 05aa 2dbe 7fc3 4bbe
0.08287703 0.10766628 -0.051293038 0.17695871 -0.1137947 4.4123535e-05 -0.061996058 -0.008394831
0.04174763 -0.0029221363 -0.020400863 0.04714907 -0.049970064 0.10976647 0.03963158 -0.016151113
-0.07757154 0.0820592 0.017225483 -0.10926981 -0.13465212 -0.17179479 -0.24223097 0.031393245
-0.13631047 -0.111165196 -0.004899393 0.032056622 0.10118617 -0.10378717 -0.06323138 -0.056899276
-0.005614342 0.05383085 -0.21940261 -0.056729704 -0.009570968 0.049010806 -0.044639207 0.08848345
-0.06437665 0.010752239 -0.07319079 -0.106983714 -0.037281655 -0.08962491 0.027242623 -0.052990586
-0.095999025 -0.10481032 0.05495876 -0.05427918 -0.10663967 0.14290349 0.0006269678 0.019450994
-0.0067676585 -0.06277344 -0.049399577 0.06551777 -0.07360537 -0.03170322 -0.08205016 -0.028994123
-0.014901622 -0.013544905 -0.14737767 -0.04559508 0.051433153 0.04938588 0.062059544 0.060229387
-0.0010412672 0.050023224 0.052361872 -0.13005114 -0.0703525 0.051368445 -0.07019899 -0.0017058657
0.05081748 0.12058021 0.05086799 0.013907125 -0.05911042 -0.023340253 0.07997323 -0.039681926
-0.0865535 -0.004596548 -0.07850837 0.06310252 -0.10771841 -0.046508193 0.0021948507 0.039345402
0.137004 -0.027675778 -0.13877685 -0.043598015 0.06693913 -0.030168459 0.16350518 0.017623374
-0.116968624 -0.1219003 0.06382 -0.029973766 0.11296453 0.03249316 -0.09562125 0.014803279
-0.091273606 -0.056990683 -0.093942806 0.07171612 -0.05881169 0.16556285 0.09626033 0.019043759
-0.10540641 0.03366608 0.093296416 0.08819332 -0.08787592 0.071261086 0.0982119 0.056482058
0.08545353 0.020364774 0.0133367935 -0.051894512 0.09198967 0.08112593 -0.08818647 -0.051293433
0.024770824 -0.037951365 0.116372004 -0.031895418 0.038151577 0.012337303 -0.0061779656 0.046778016
0.063244656 -0.029110683 0.11276986 0.0836164 0.020969678 0.030050183 0.020457812 -0.046349913
-0.043068197 -0.20722035 -0.062391736 -0.00071009377 -0.024479847 -0.005295711 0.057571933 -0.039621655
0.14441177 -0.011300375 -0.022371503 0.054075338 -0.024379576 0.06309576 0.08391115 0.16102032
0.0319971 0.02855115 -0.034023616 0.025292903 0.03602734 -0.11612618 0.058738373 0.044264656
-0.032776777 -0.04878065 -0.023784405 -0.010263024 -0.022551412 -0.09878751 -0.103117555 -0.12133412
-0.00042575446 -0.13991636 -0.04539259 -0.052403837 -0.083460905 0.0046834676 0.03550131 -0.045395263
-0.030481953 -0.03164984 -0.035922132 0.070634864 0.110851415 -0.069917865 -0.0004231014 0.03844591
-0.06141026 0.05604019 -0.09547181 0.10119259 0.09009419 -0.011782079 -0.12484916 -0.020570034
-0.006598015 0.036492784 -0.13827607 0.031183492 0.03926191 0.16621795 0.1603806 0.012863773
0.15414561 0.03830703 -0.062229786 -0.075554855 0.16669989 0.10629777 0.19235454 -0.13377465
-0.10322724 0.016514976 0.0072679888 -0.040974446 0.024386838 -0.095583014 -0.04753035 -0.08017598
-0.040545143 0.05339893 0.000500835 0.047678057 -0.008494139 0.123161554 -0.00754441 -0.027095778
0.3043746 0.055494696 0.07960538 -0.13029984 0.06344258 0.1435874 0.037570417 -0.014939053
-0.08038876 0.24163431 -0.056453258 0.06975411 -0.026119376 0.06078824 -0.16959389 -0.19898795

res_blocks.0.batch_norm.weight f4 [32]
00000000: df81 1a3f d4df 153f 742a 213f 7992 0d3f
00000010: 4f45 0d3f ebe2 243f fdbe 193f 4cfb 2f3f
00000020: 3143 1a3f e4d5 2c3f 5817 223f ec32 093f
00000030: 130a 0f3f a86f 2f3f ffc4 2e3f 10a3 2e3f
00000040: e0b0 263f dfda 183f b96a 313f f521 1b3f
00000050: 3a65 0f3f 9008 143f ef4a 323f ed9b 2c3f
00000060: f768 2d3f 0ce9 213f 8e91 2d3f be35 fe3e
00000070: 6e67 043f 812f 343f 5472 2d3f 3ade 1e3f
0.6035442 0.5854466 0.62955403 0.55301625 0.5518388 0.6440875 0.6005705 0.68742824
0.60258776 0.6751387 0.6331687 0.53593326 0.5587475 0.6852975 0.6826934 0.68217564
0.6511364 0.5970897 0.6930347 0.6059869 0.56013834 0.57825565 0.6964559 0.67425424
0.6773829 0.63246226 0.67800224 0.49650377 0.5172032 0.70384985 0.67752576 0.6205784

res_blocks.0.batch_norm.bias f4 [32]
00000000: 2c15 3ebd a3e9 ac3b f55f da3c bf56 c937
00000010: 8c72 7f3c 1e80 ccbc 2ce9 b1bc e56e 0c3d
00000020: f767 a73c 21d1 023d 8021 c83b 0731 75bc
00000030: a1af 8eb9 26a0 573d dd64 ed3b 0ed1 c93c
00000040: f0a9 253d 10fd 273c 3069 8c3d ad60 3f3c
00000050: 0b86 5a3b bc81 a83b 88c3 5f3d f7c1 023d
00000060: e413 223b 2450 833b 4c32 7c3c 410c 43bd
00000070: 070c b4bc ad44 c73c 2d72 693c 70bc a03d
-0.04640691 0.005276875 0.026657084 2.4001461e-05 0.015591275 -0.024963435 -0.02171763 0.034285445
0.020435316 0.031937722 0.006107509 -0.014965302 -0.00027215204 0.052642964 0.00724469 0.024635818
0.04044527 0.010253206 0.068560004 0.011680764 0.0033344056 0.0051424187 0.054629833 0.03192326
0.0024731094 0.0040073562 0.015392851 -0.047619108 -0.021978391 0.02432474 0.014248413 0.078484416

res_blocks.0.batch_norm.running_mean f4 [32]
00000000: f530 76be 52bc a4bf 5517 07bf c6b2 6ebf
00000010: fc6b babe c796 b0bf ecad 93bf dd43 18bd
00000020: a3e3 933f 2f86 913f 30b2 4fbf 0124 10c0
00000030: b710 b6bf 7935 543d c53c 883e 666a d33f
00000040: 3265 4f3f 1348 f93f 6048 a33e 1d46 03c0
00000050: 82a0 e7bf 9143 b63f 4965 743f ee7a 1bbf
00000060: cc8f a33f a187 9fbf 4795 2a3e ede6 57c0
00000070: 9e65 af40 c6d5 54bf 70e8 b53f 32b0 4e3f
-0.24042113 -1.2869971 -0.52769977 -0.93241537 -0.3641051 -1.3796014 -1.1537452 -0.037174094
1.1553844 1.1369075 -0.8113127 -2.2521975 -1.4223851 0.051808808 0.26608863 1.6516845
0.81013787 1.947512 0.31891155 -2.0511544 -1.8095858 1.423937 0.9546705 -0.6073445
1.2778258 -1.2463266 0.16658507 -3.3734696 5.4811544 -0.8313869 1.4211559 0.807376

res_blocks.0.batch_norm.running_var f4 [32]
00000000: 00e6 ef40 cffd 2e41 44a8 4141 4eea 2d41
00000010: 310b 1e41 010d 0d41 60d3 1841 b90e b240
00000020: 9663 4141 45f3 f940 ad8f 1541 a802 3641
00000030: b7a4 a241 8609 dd40 6290 6841 a078 3941
00000040: 9f7b 5141 13bf 0b41 4464 0c41 7ced 5b41
00000050: 562b 2441 c1fb 0e41 d242 3e41 1baf c840
00000060: 7b42 0a41 127a 2241 647b 1541 efad d741
00000070: f330 1042 b5b7 a740 e88a 2641 0698 f240
7.496826 10.936965 12.10358 10.869703 9.877732 8.815675 9.551605 5.564297
12.086813 7.810946 9.347577 11.3756485 20.330427 6.9074125 14.53525 11.591949
13.092681 8.734149 8.774479 13.74548 10.26058 8.936463 11.891314 6.271375
8.641231 10.154802 9.342625 26.959929 36.047802 5.241175 10.408913 7.5810575

res_blocks.1.conv.weight f4 [32, 32, 3, 3]
00000000: 6fbb a93d 2380 dc3d a618 52bd aa34 353e
00000010: 320d e9bd 4911 3938 94ef 7dbd 798a 09bc
00000020: 90ff 2a3d 5081 3fbb b61f a7bc 621f 413d
00000030: 69ad 4cbd 3ecd e03d b954 223d 574f 84bc
00000040: d4dd 9ebd a70e a83d 751c 8d3c dac8 dfbd
00000050: 3fe2 09be f9ea 2fbe 650b 78be 3496 003d
00000060: f994 0bbe 94aa e3bd 168b a0bb ce4d 033d
00000070: b23a cf3d 5e8e d4bd 747f 81bd 370f 69bd
00000080: 84f8 b7bb bd7d 5c3d 14ab 60be 685d 68bd
00000090: 8dcf 1cbc 8ebf 483d 9ad7 36bd d036 b53d
000000a0: e8d7 83bd 292a 303c 0ee5 95bd 471a dbbd
000000b0: a6b4 18bd 448d b7bd ec2b df3c a80c 59bd
000000c0: 239b c4bd cba6 d6bd 701c 613d d853 5ebd
000000d0: e665 dabd 4b55 123e 195b 243a b157 9f3c
000000e0: 3cc3 ddbb 5c8f 80bd 3657 4abd 2e2e 863d
000000f0: 6abe 96bd 3cdb 01bd ea09 a8bd 1585 edbc
00000100: ef25 74bc 73eb 5dbc 2cea 16be e8c1 3abd
00000110: 92ab 523d d948 4a3d 2632 7e3d 17b3 763d
00000120: 217b 88ba 27e5 4c3d 6779 563d 202c 05be
00000130: f914 90bd b867 523d 7dc4 8fbd 5b97 dfba
00000140: fd25 503d c2f2 f63d f45a 503d b6da 633c
00000150: c51d 72bd 0f34 bfbc 01c9 a33d 8489 22bd
00000160: f642 b1bd a49e 96bb ffc8 a0bd e53b 813d
00000170: 789b dcbd 607f 3ebd 7cd7 0f3b a528 213d
00000180: c74a 0c3e 50b8 e2bc 851b 0ebe d593 32bd
00000190: 6217 893d d823 f7bc e76d 273e e55e 903c
000001a0: 3f8d efbd dda6 f9bd 0fb4 823d 8b8b f5bc
000001b0: f359 e73d 8c17 053d 13d5 c3bd 7489 723c
000001c0: a8ed babd 106f 69bd 1665 c0bd e7df 923d
000001d0: 87e4 70bd 4f89 293e 2324 c53d a801 9c3c
000001e0: 51df d7bd 72e5 093d 3112 bf3d b39e b43d
000001f0: 4af8 b3bd 55f1 913d 5223 c93d bb59 673d
00000200: 4302 af3d 07d4 a63c 9182 5a3c 578f 54bd
00000210: 1565 bc3d 5a25 a63d 1c9b b4bd 1019 52bd
00000220: 2fec ca3c e472 1bbd 7254 ee3d c5a4 02bd
00000230: d444 1c3d 6622 4a3c 8870 cabb 4e9a 3f3d
00000240: 6a86 813d 8779 eebc e2f3 e63d 133f ab3d
00000250: 9ac8 ab3c cd2b f63c 2497 a73c 68d9 3dbd
00000260: 4768 30bd 9231 54be 7a8e 7fbd 9625 3aba
00000270: f689 c8bc a587 adbb 8cd0 6b3d 514a 22bd
00000280: aee0 133e 3525 39bc 7144 b7bc 1a7e 5d3d
00000290: adb7 c7bc 5a38 813d 9cd9 ab3d 83e2 243e
000002a0: 640f 033d 1ae4 e93c 595c 0bbd 1033 cf3c
000002b0: 6791 133d 90d3 edbd a697 703d db4e 353d
000002c0: f140 06bd 38ce 47bd 83d7 c2bc 3e26 28bc
000002d0: bdbd b8bc 1b51 cabd 4c2f d3bd 067e f8bd
000002e0: cc37 dfb9 3c46 0fbe 95ed 39bd 68a5 56bd
000002f0: 8ded aabd c677 993b d269 113d 62f0 39bd
00000300: 4ab5 f9bc 43a3 01bd 1623 13bd 03a9 903d
00000310: 1106 e33d 1931 8fbd b5d3 ddb9 7579 1d3d
00000320: 5389 7bbd 668a 653d b986 c3bd 103e cf3d
00000330: 4d83 b83d 9f09 41bc ebb0 ffbd 7d82 a8bc
00000340: 2934 d8bb 7579 153d 3e98 0dbe 8674 ff3c
00000350: 19d1 203d 0a35 2a3e d03a 243e 93c2 523c
00000360: 59d8 1d3e d5e7 1c3d a9e4 7ebd 81bc 9abd
00000370: 60b3 2a3e a5b2 d93d 97f8 443e 39fc 08be
00000380: ce68 d3bd 6a4a 873c 4f28 ee3b d2d4 27bd
00000390: e8c6 c73c 07c1 c3bd 2faf 42bd 4e33 a4bd
000003a0: aa12 26bd d6b8 5a3d 784a 033a 114a 433d
000003b0: 002b 0bbc 203c fc3d 1937 f7bb f7f7 ddbc
000003c0: fdd6 9b3e 684e 633d 2508 a33d 526d 05be
000003d0: 2fee 813d 9308 133e 70e3 193d eec2 74bc
000003e0: dda2 a4bd fc6e 773e 883b 67bd 3edb 8e3d
000003f0: 4df8 d5bc 17fd 783d 05aa 2dbe 7fc3 4bbe
0.08287703 0.10766628 -0.051293038 0.17695871 -0.1137947 4.4123535e-05 -0.061996058 -0.008394831
0.04174763 -0.0029221363 -0.020400863 0.04714907 -0.049970064 0.10976647 0.03963158 -0.016151113
-0.07757154 0.0820592 0.017225483 -0.10926981 -0.13465212 -0.17179479 -0.24223097 0.031393245
-0.13631047 -0.111165196 -0.004899393 0.032056622 0.10118617 -0.10378717 -0.06323138 -0.056899276
-0.005614342 0.05383085 -0.21940261 -0.056729704 -0.009570968 0.049010806 -0.044639207 0.08848345
-0.06437665 0.010752239 -0.07319079 -0.106983714 -0.037281655 -0.08962491 0.027242623 -0.052990586
-0.095999025 -0.10481032 0.05495876 -0.05427918 -0.10663967 0.14290349 0.0006269678 0.019450994
-0.0067676585 -0.06277344 -0.049399577 0.06551777 -0.07360537 -0.03170322 -0.08205016 -0.028994123
-0.014901622 -0.013544905 -0.14737767 -0.04559508 0.051433153 0.04938588 0.062059544 0.060229387
-0.0010412672 0.050023224 0.052361872 -0.13005114 -0.0703525 0.051368445 -0.07019899 -0.0017058657
0.05081748 0.12058021 0.05086799 0.013907125 -0.05911042 -0.023340253 0.07997323 -0.039681926
-0.0865535 -0.004596548 -0.07850837 0.06310252 -0.10771841 -0.046508193 0.0021948507 0.039345402
0.137004 -0.027675778 -0.13877685 -0.043598015 0.06693913 -0.030168459 0.16350518 0.017623374
-0.116968624 -0.1219003 0.06382 -0.029973766 0.11296453 0.03249316 -0.09562125 0.014803279
-0.091273606 -0.056990683 -0.093942806 0.07171612 -0.05881169 0.16556285 0.09626033 0.019043759
-0.10540641 0.03366608 0.093296416 0.08819332 -0.08787592 0.071261086 0.0982119 0.056482058
0.08545353 0.020364774 0.0133367935 -0.051894512 0.09198967 0.08112593 -0.08818647 -0.051293433
0.024770824 -0.037951365 0.116372004 -0.031895418 0.038151577 0.012337303 -0.0061779656 0.046778016
0.063244656 -0.029110683 0.11276986 0.0836164 0.020969678 0.030050183 0.020457812 -0.046349913
-0.043068197 -0.20722035 -0.062391736 -0.00071009377 -0.024479847 -0.005295711 0.057571933 -0.039621655
0.14441177 -0.011300375 -0.022371503 0.054075338 -0.024379576 0.06309576 0.08391115 0.16102032
0.0319971 0.02855115 -0.034023616 0.025292903 0.03602734 -0.11612618 0.058738373 0.044264656
-0.032776777 -0.04878065 -0.023784405 -0.010263024 -0.022551412 -0.09878751 -0.103117555 -0.12133412
-0.00042575446 -0.13991636 -0.04539259 -0.052403837 -0.083460905 0.0046834676 0.03550131 -0.045395263
-0.030481953 -0.03164984 -0.035922132 0.070634864 0.110851415 -0.069917865 -0.0004231014 0.03844591
-0.06141026 0.05604019 -0.09547181 0.10119259 0.09009419 -0.011782079 -0.12484916 -0.020570034
-0.006598015 0.036492784 -0.13827607 0.031183492 0.03926191 0.16621795 0.1603806 0.012863773
0.15414561 0.03830703 -0.062229786 -0.075554855 0.16669989 0.10629777 0.19235454 -0.13377465
-0.10322724 0.016514976 0.0072679888 -0.040974446 0.024386838 -0.095583014 -0.04753035 -0.08017598
-0.040545143 0.05339893 0.000500835 0.047678057 -0.008494139 0.123161554 -0.00754441 -0.027095778
0.3043746 0.055494696 0.07960538 -0.13029984 0.06344258 0.1435874 0.037570417 -0.014939053
-0.08038876 0.24163431 -0.056453258 0.06975411 -0.026119376 0.06078824 -0.16959389 -0.19898795

res_blocks.1.batch_norm.weight f4 [32]
00000000: df81 1a3f d4df 153f 742a 213f 7992 0d3f
00000010: 4f45 0d3f ebe2 243f fdbe 193f 4cfb 2f3f
00000020: 3143 1a3f e4d5 2c3f 5817 223f ec32 093f
00000030: 130a 0f3f a86f 2f3f ffc4 2e3f 10a3 2e3f
00000040: e0b0 263f dfda 183f b96a 313f f521 1b3f
00000050: 3a65 0f3f 9008 143f ef4a 323f ed9b 2c3f
00000060: f768 2d3f 0ce9 213f 8e91 2d3f be35 fe3e
00000070: 6e67 043f 812f 343f 5472 2d3f 3ade 1e3f
0.6035442 0.5854466 0.62955403 0.55301625 0.5518388 0.6440875 0.6005705 0.68742824
0.60258776 0.6751387 0.6331687 0.53593326 0.5587475 0.6852975 0.6826934 0.68217564
0.6511364 0.5970897 0.6930347 0.6059869 0.56013834 0.57825565 0.6964559 0.67425424
0.6773829 0.63246226 0.67800224 0.49650377 0.5172032 0.70384985 0.67752576 0.6205784

res_blocks.1.batch_norm.bias f4 [32]
00000000: 2c15 3ebd a3e9 ac3b f55f da3c bf56 c937
00000010: 8c72 7f3c 1e80 ccbc 2ce9 b1bc e56e 0c3d
00000020: f767 a73c 21d1 023d 8021 c83b 0731 75bc
00000030: a1af 8eb9 26a0 573d dd64 ed3b 0ed1 c93c
00000040: f0a9 253d 10fd 273c 3069 8c3d ad60 3f3c
00000050: 0b86 5a3b bc81 a83b 88c3 5f3d f7c1 023d
00000060: e413 223b 2450 833b 4c32 7c3c 410c 43bd
00000070: 070c b4bc ad44 c73c 2d72 693c 70bc a03d
-0.04640691 0.005276875 0.026657084 2.4001461e-05 0.015591275 -0.024963435 -0.02171763 0.034285445
0.020435316 0.031937722 0.006107509 -0.014965302 -0.00027215204 0.052642964 0.00724469 0.024635818
0.04044527 0.010253206 0.068560004 0.011680764 0.0033344056 0.0051424187 0.054629833 0.03192326
0.0024731094 0.0040073562 0.015392851 -0.047619108 -0.021978391 0.02432474 0.014248413 0.078484416

res_blocks.1.batch_norm.running_mean f4 [32]
00000000: f530 76be 52bc a4bf 5517 07bf c6b2 6ebf
00000010: fc6b babe c796 b0bf ecad 93bf dd43 18bd
00000020: a3e3 933f 2f86 913f 30b2 4fbf 0124 10c0
00000030: b710 b6bf 7935 543d c53c 883e 666a d33f
00000040: 3265 4f3f 1348 f93f 6048 a33e 1d46 03c0
00000050: 82a0 e7bf 9143 b63f 4965 743f ee7a 1bbf
00000060: cc8f a33f a187 9fbf 4795 2a3e ede6 57c0
00000070: 9e65 af40 c6d5 54bf 70e8 b53f 32b0 4e3f
-0.24042113 -1.2869971 -0.52769977 -0.93241537 -0.3641051 -1.3796014 -1.1537452 -0.037174094
1.1553844 1.1369075 -0.8113127 -2.2521975 -1.4223851 0.051808808 0.26608863 1.6516845
0.81013787 1.947512 0.31891155 -2.0511544 -1.8095858 1.423937 0.9546705 -0.6073445
1.2778258 -1.2463266 0.16658507 -3.3734696 5.4811544 -0.8313869 1.4211559 0.807376

res_blocks.1.batch_norm.running_var f4 [32]
00000000: 00e6 ef40 cffd 2e41 44a8 4141 4eea 2d41
00000010: 310b 1e41 010d 0d41 60d3 1841 b90e b240
00000020: 9663 4141 45f3 f940 ad8f 1541 a802 3641
00000030: b7a4 a241 8609 dd40 6290 6841 a078 3941
00000040: 9f7b 5141 13bf 0b41 4464 0c41 7ced 5b41
00000050: 562b 2441 c1fb 0e41 d242 3e41 1baf c840
00000060: 7b42 0a41 127a 2241 647b 1541 efad d741
00000070: f330 1042 b5b7 a740 e88a 2641 0698 f240
7.496826 10.936965 12.10358 10.869703 9.877732 8.815675 9.551605 5.564297
12.086813 7.810946 9.347577 11.3756485 20.330427 6.9074125 14.53525 11.591949
13.092681 8.734149 8.774479 13.74548 10.26058 8.936463 11.891314 6.271375
8.641231 10.154802 9.342625 26.959929 36.047802 5.241175 10.408913 7.5810575

res_blocks.2.conv.weight f4 [32, 32, 3, 3]
00000000: 6fbb a93d 2380 dc3d a618 52bd aa34 353e
00000010: 320d e9bd 4911 3938 94ef 7dbd 798a 09bc
00000020: 90ff 2a3d 5081 3fbb b61f a7bc 621f 413d
00000030: 69ad 4cbd 3ecd e03d b954 223d 574f 84bc
00000040: d4dd 9ebd a70e a83d 751c 8d3c dac8 dfbd
00000050: 3fe2 09be f9ea 2fbe 650b 78be 3496 003d
00000060: f994 0bbe 94aa e3bd 168b a0bb ce4d 033d
00000070: b23a cf3d 5e8e d4bd 747f 81bd 370f 69bd
00000080: 84f8 b7bb bd7d 5c3d 14ab 60be 685d 68bd
00000090: 8dcf 1cbc 8ebf 483d 9ad7 36bd d036 b53d
000000a0: e8d7 83bd 292a 303c 0ee5 95bd 471a dbbd
000000b0: a6b4 18bd 448d b7bd ec2b df3c a80c 59bd
000000c0: 239b c4bd cba6 d6bd 701c 613d d853 5ebd
000000d0: e665 dabd 4b55 123e 195b 243a b157 9f3c
000000e0: 3cc3 ddbb 5c8f 80bd 3657 4abd 2e2e 863d
000000f0: 6abe 96bd 3cdb 01bd ea09 a8bd 1585 edbc
00000100: ef25 74bc 73eb 5dbc 2cea 16be e8c1 3abd
00000110: 92ab 523d d948 4a3d 2632 7e3d 17b3 763d
00000120: 217b 88ba 27e5 4c3d 6779 563d 202c 05be
00000130: f914 90bd b867 523d 7dc4 8fbd 5b97 dfba
00000140: fd25 503d c2f2 f63d f45a 503d b6da 633c
00000150: c51d 72bd 0f34 bfbc 01c9 a33d 8489 22bd
00000160: f642 b1bd a49e 96bb ffc8 a0bd e53b 813d
00000170: 789b dcbd 607f 3ebd 7cd7 0f3b a528 213d
00000180: c74a 0c3e 50b8 e2bc 851b 0ebe d593 32bd
00000190: 6217 893d d823 f7bc e76d 273e e55e 903c
000001a0: 3f8d efbd dda6 f9bd 0fb4 823d 8b8b f5bc
000001b0: f359 e73d 8c17 053d 13d5 c3bd 7489 723c
000001c0: a8ed babd 106f 69bd 1665 c0bd e7df 923d
000001d0: 87e4 70bd 4f89 293e 2324 c53d a801 9c3c
000001e0: 51df d7bd 72e5 093d 3112 bf3d b39e b43d
000001f0: 4af8 b3bd 55f1 913d 5223 c93d bb59 673d
00000200: 4302 af3d 07d4 a63c 9182 5a3c 578f 54bd
00000210: 1565 bc3d 5a25 a63d 1c9b b4bd 1019 52bd
00000220: 2fec ca3c e472 1bbd 7254 ee3d c5a4 02bd
00000230: d444 1c3d 6622 4a3c 8870 cabb 4e9a 3f3d
00000240: 6a86 813d 8779 eebc e2f3 e63d 133f ab3d
00000250: 9ac8 ab3c cd2b f63c 2497 a73c 68d9 3dbd
00000260: 4768 30bd 9231 54be 7a8e 7fbd 9625 3aba
00000270: f689 c8bc a587 adbb 8cd0 6b3d 514a 22bd
00000280: aee0 133e 3525 39bc 7144 b7bc 1a7e 5d3d
00000290: adb7 c7bc 5a38 813d 9cd9 ab3d 83e2 243e
000002a0: 640f 033d 1ae4 e93c 595c 0bbd 1033 cf3c
000002b0: 6791 133d 90d3 edbd a697 703d db4e 353d
000002c0: f140 06bd 38ce 47bd 83d7 c2bc 3e26 28bc
000002d0: bdbd b8bc 1b51 cabd 4c2f d3bd 067e f8bd
000002e0: cc37 dfb9 3c46 0fbe 95ed 39bd 68a5 56bd
000002f0: 8ded aabd c677 993b d269 113d 62f0 39bd
00000300: 4ab5 f9bc 43a3 01bd 1623 13bd 03a9 903d
00000310: 1106 e33d 1931 8fbd b5d3 ddb9 7579 1d3d
00000320: 5389 7bbd 668a 653d b986 c3bd 103e cf3d
00000330: 4d83 b83d 9f09 41bc ebb0 ffbd 7d82 a8bc
00000340: 2934 d8bb 7579 153d 3e98 0dbe 8674 ff3c
00000350: 19d1 203d 0a35 2a3e d03a 243e 93c2 523c
00000360: 59d8 1d3e d5e7 1c3d a9e4 7ebd 81bc 9abd
00000370: 60b3 2a3e a5b2 d93d 97f8 443e 39fc 08be
00000380: ce68 d3bd 6a4a 873c 4f28 ee3b d2d4 27bd
00000390: e8c6 c73c 07c1 c3bd 2faf 42bd 4e33 a4bd
000003a0: aa12 26bd d6b8 5a3d 784a 033a 114a 433d
000003b0: 002b 0bbc 203c fc3d 1937 f7bb f7f7 ddbc
000003c0: fdd6 9b3e 684e 633d 2508 a33d 526d 05be
000003d0: 2fee 813d 9308 133e 70e3 193d eec2 74bc
000003e0: dda2 a4bd fc6e 773e 883b 67bd 3edb 8e3d
000003f0: 4df8 d5bc 17fd 783d 05aa 2dbe 7fc3 4bbe
0.08287703 0.10766628 -0.051293038 0.17695871 -0.1137947 4.4123535e-05 -0.061996058 -0.008394831
0.04174763 -0.0029221363 -0.020400863 0.04714907 -0.049970064 0.10976647 0.03963158 -0.016151113
-0.07757154 0.0820592 0.017225483 -0.10926981 -0.13465212 -0.17179479 -0.24223097 0.031393245
-0.13631047 -0.111165196 -0.004899393 0.032056622 0.10118617 -0.10378717 -0.06323138 -0.056899276
-0.005614342 0.05383085 -0.21940261 -0.056729704 -0.009570968 0.049010806 -0.044639207 0.08848345
-0.06437665 0.010752239 -0.07319079 -0.106983714 -0.037281655 -0.08962491 0.027242623 -0.052990586
-0.095999025 -0.10481032 0.05495876 -0.05427918 -0.10663967 0.14290349 0.0006269678 0.019450994
-0.0067676585 -0.06277344 -0.049399577 0.06551777 -0.07360537 -0.03170322 -0.08205016 -0.028994123
-0.014901622 -0.013544905 -0.14737767 -0.04559508 0.051433153 0.04938588 0.062059544 0.060229387
-0.0010412672 0.050023224 0.052361872 -0.13005114 -0.0703525 0.051368445 -0.07019899 -0.0017058657
0.05081748 0.12058021 0.05086799 0.013907125 -0.05911042 -0.023340253 0.07997323 -0.039681926
-0.0865535 -0.004596548 -0.07850837 0.06310252 -0.10771841 -0.046508193 0.0021948507 0.039345402
0.137004 -0.027675778 -0.13877685 -0.043598015 0.06693913 -0.030168459 0.16350518 0.017623374
-0.116968624 -0.1219003 0.06382 -0.029973766 0.11296453 0.03249316 -0.09562125 0.014803279
-0.091273606 -0.056990683 -0.093942806 0.07171612 -0.05881169 0.16556285 0.09626033 0.019043759
-0.10540641 0.03366608 0.093296416 0.08819332 -0.08787592 0.071261086 0.0982119 0.056482058
0.08545353 0.020364774 0.0133367935 -0.051894512 0.09198967 0.08112593 -0.08818647 -0.051293433
0.024770824 -0.037951365 0.116372004 -0.031895418 0.038151577 0.012337303 -0.0061779656 0.046778016
0.063244656 -0.029110683 0.11276986 0.0836164 0.020969678 0.030050183 0.020457812 -0.046349913
-0.043068197 -0.20722035 -0.062391736 -0.00071009377 -0.024479847 -0.005295711 0.057571933 -0.039621655
0.14441177 -0.011300375 -0.022371503 0.054075338 -0.024379576 0.06309576 0.08391115 0.16102032
0.0319971 0.02855115 -0.034023616 0.025292903 0.03602734 -0.11612618 0.058738373 0.044264656
-0.032776777 -0.04878065 -0.023784405 -0.010263024 -0.022551412 -0.09878751 -0.103117555 -0.12133412
-0.00042575446 -0.13991636 -0.04539259 -0.052403837 -0.083460905 0.0046834676 0.03550131 -0.045395263
-0.030481953 -0.03164984 -0.035922132 0.070634864 0.110851415 -0.069917865 -0.0004231014 0.03844591
-0.06141026 0.05604019 -0.09547181 0.10119259 0.09009419 -0.011782079 -0.12484916 -0.020570034
-0.006598015 0.036492784 -0.13827607 0.031183492 0.03926191 0.16621795 0.1603806 0.012863773
0.15414561 0.03830703 -0.062229786 -0.075554855 0.16669989 0.10629777 0.19235454 -0.13377465
-0.10322724 0.016514976 0.0072679888 -0.040974446 0.024386838 -0.095583014 -0.04753035 -0.08017598
-0.040545143 0.05339893 0.000500835 0.047678057 -0.008494139 0.123161554 -0.00754441 -0.027095778
0.3043746 0.055494696 0.07960538 -0.13029984 0.06344258 0.1435874 0.037570417 -0.014939053
-0.08038876 0.24163431 -0.056453258 0.06975411 -0.026119376 0.06078824 -0.16959389 -0.19898795

res_blocks.2.batch_norm.weight f4 [32]
00000000: df81 1a3f d4df 153f 742a 213f 7992 0d3f
00000010: 4f45 0d3f ebe2 243f fdbe 193f 4cfb 2f3f
00000020: 3143 1a3f e4d5 2c3f 5817 223f ec32 093f
00000030: 130a 0f3f a86f 2f3f ffc4 2e3f 10a3 2e3f
00000040: e0b0 263f dfda 183f b96a 313f f521 1b3f
00000050: 3a65 0f3f 9008 143f ef4a 323f ed9b 2c3f
00000060: f768 2d3f 0ce9 213f 8e91 2d3f be35 fe3e
00000070: 6e67 043f 812f 343f 5472 2d3f 3ade 1e3f
0.6035442 0.5854466 0.62955403 0.55301625 0.5518388 0.6440875 0.6005705 0.68742824
0.60258776 0.6751387 0.6331687 0.53593326 0.5587475 0.6852975 0.6826934 0.68217564
0.6511364 0.5970897 0.6930347 0.6059869 0.56013834 0.57825565 0.6964559 0.67425424
0.6773829 0.63246226 0.67800224 0.49650377 0.5172032 0.70384985 0.67752576 0.6205784

res_blocks.2.batch_norm.bias f4 [32]
00000000: 2c15 3ebd a3e9 ac3b f55f da3c bf56 c937
00000010: 8c72 7f3c 1e80 ccbc 2ce9 b1bc e56e 0c3d
00000020: f767 a73c 21d1 023d 8021 c83b 0731 75bc
00000030: a1af 8eb9 26a0 573d dd64 ed3b 0ed1 c93c
00000040: f0a9 253d 10fd 273c 3069 8c3d ad60 3f3c
00000050: 0b86 5a3b bc81 a83b 88c3 5f3d f7c1 023d
00000060: e413 223b 2450 833b 4c32 7c3c 410c 43bd
00000070: 070c b4bc ad44 c73c 2d72 693c 70bc a03d
-0.04640691 0.005276875 0.026657084 2.4001461e-05 0.015591275 -0.024963435 -0.02171763 0.034285445
0.020435316 0.031937722 0.006107509 -0.014965302 -0.00027215204 0.052642964 0.00724469 0.024635818
0.04044527 0.010253206 0.068560004 0.011680764 0.0033344056 0.0051424187 0.054629833 0.03192326
0.0024731094 0.0040073562 0.015392851 -0.047619108 -0.021978391 0.02432474 0.014248413 0.078484416

res_blocks.2.batch_norm.running_mean f4 [32]
00000000: f530 76be 52bc a4bf 5517 07bf c6b2 6ebf
00000010: fc6b babe c796 b0bf ecad 93bf dd43 18bd
00000020: a3e3 933f 2f86 913f 30b2 4fbf 0124 10c0
00000030: b710 b6bf 7935 543d c53c 883e 666a d33f
00000040: 3265 4f3f 1348 f93f 6048 a33e 1d46 03c0
00000050: 82a0 e7bf 9143 b63f 4965 743f ee7a 1bbf
00000060: cc8f a33f a187 9fbf 4795 2a3e ede6 57c0
00000070: 9e65 af40 c6d5 54bf 70e8 b53f 32b0 4e3f
-0.24042113 -1.2869971 -0.52769977 -0.93241537 -0.3641051 -1.3796014 -1.1537452 -0.037174094
1.1553844 1.1369075 -0.8113127 -2.2521975 -1.4223851 0.051808808 0.26608863 1.6516845
0.81013787 1.947512 0.31891155 -2.0511544 -1.8095858 1.423937 0.9546705 -0.6073445
1.2778258 -1.2463266 0.16658507 -3.3734696 5.4811544 -0.8313869 1.4211559 0.807376

res_blocks.2.batch_norm.running_var f4 [32]
00000000: 00e6 ef40 cffd 2e41 44a8 4141 4eea 2d41
00000010: 310b 1e41 010d 0d41 60d3 1841 b90e b240
00000020: 9663 4141 45f3 f940 ad8f 1541 a802 3641
00000030: b7a4 a241 8609 dd40 6290 6841 a078 3941
00000040: 9f7b 5141 13bf 0b41 4464 0c41 7ced 5b41
00000050: 562b 2441 c1fb 0e41 d242 3e41 1baf c840
00000060: 7b42 0a41 127a 2241 647b 1541 efad d741
00000070: f330 1042 b5b7 a740 e88a 2641 0698 f240
7.496826 10.936965 12.10358 10.869703 9.877732 8.815675 9.551605 5.564297
12.086813 7.810946 9.347577 11.3756485 20.330427 6.9074125 14.53525 11.591949
13.092681 8.734149 8.774479 13.74548 10.26058 8.936463 11.891314 6.271375
8.641231 10.154802 9.342625 26.959929 36.047802 5.241175 10.408913 7.5810575

res_blocks.3.conv.weight f4 [32, 32, 3, 3]
00000000: 6fbb a93d 2380 dc3d a618 52bd aa34 353e
00000010: 320d e9bd 4911 3938 94ef 7dbd 798a 09bc
00000020: 90ff 2a3d 5081 3fbb b61f a7bc 621f 413d
00000030: 69ad 4cbd 3ecd e03d b954 223d 574f 84bc
00000040: d4dd 9ebd a70e a83d 751c 8d3c dac8 dfbd
00000050: 3fe2 09be f9ea 2fbe 650b 78be 3496 003d
00000060: f994 0bbe 94aa e3bd 168b a0bb ce4d 033d
00000070: b23a cf3d 5e8e d4bd 747f 81bd 370f 69bd
00000080: 84f8 b7bb bd7d 5c3d 14ab 60be 685d 68bd
00000090: 8dcf 1cbc 8ebf 483d 9ad7 36bd d036 b53d
000000a0: e8d7 83bd 292a 303c 0ee5 95bd 471a dbbd
000000b0: a6b4 18bd 448d b7bd ec2b df3c a80c 59bd
000000c0: 239b c4bd cba6 d6bd 701c 613d d853 5ebd
000000d0: e665 dabd 4b55 123e 195b 243a b157 9f3c
000000e0: 3cc3 ddbb 5c8f 80bd 3657 4abd 2e2e 863d
000000f0: 6abe 96bd 3cdb 01bd ea09 a8bd 1585 edbc
00000100: ef25 74bc 73eb 5dbc 2cea 16be e8c1 3abd
00000110: 92ab 523d d948 4a3d 2632 7e3d 17b3 763d
00000120: 217b 88ba 27e5 4c3d 6779 563d 202c 05be
00000130: f914 90bd b867 523d 7dc4 8fbd 5b97 dfba
00000140: fd25 503d c2f2 f63d f45a 503d b6da 633c
00000150: c51d 72bd 0f34 bfbc 01c9 a33d 8489 22bd
00000160: f642 b1bd a49e 96bb ffc8 a0bd e53b 813d
00000170: 789b dcbd 607f 3ebd 7cd7 0f3b a528 213d
00000180: c74a 0c3e 50b8 e2bc 851b 0ebe d593 32bd
00000190: 6217 893d d823 f7bc e76d 273e e55e 903c
000001a0: 3f8d efbd dda6 f9bd 0fb4 823d 8b8b f5bc
000001b0: f359 e73d 8c17 053d 13d5 c3bd 7489 723c
000001c0: a8ed babd 106f 69bd 1665 c0bd e7df 923d
000001d0: 87e4 70bd 4f89 293e 2324 c53d a801 9c3c
000001e0: 51df d7bd 72e5 093d 3112 bf3d b39e b43d
000001f0: 4af8 b3bd 55f1 913d 5223 c93d bb59 673d
00000200: 4302 af3d 07d4 a63c 9182 5a3c 578f 54bd
00000210: 1565 bc3d 5a25 a63d 1c9b b4bd 1019 52bd
00000220: 2fec ca3c e472 1bbd 7254 ee3d c5a4 02bd
00000230: d444 1c3d 6622 4a3c 8870 cabb 4e9a 3f3d
00000240: 6a86 813d 8779 eebc e2f3 e63d 133f ab3d
00000250: 9ac8 ab3c cd2b f63c 2497 a73c 68d9 3dbd
00000260: 4768 30bd 9231 54be 7a8e 7fbd 9625 3aba
00000270: f689 c8bc a587 adbb 8cd0 6b3d 514a 22bd
00000280: aee0 133e 3525 39bc 7144 b7bc 1a7e 5d3d
00000290: adb7 c7bc 5a38 813d 9cd9 ab3d 83e2 243e
000002a0: 640f 033d 1ae4 e93c 595c 0bbd 1033 cf3c
000002b0: 6791 133d 90d3 edbd a697 703d db4e 353d
000002c0: f140 06bd 38ce 47bd 83d7 c2bc 3e26 28bc
000002d0: bdbd b8bc 1b51 cabd 4c2f d3bd 067e f8bd
000002e0: cc37 dfb9 3c46 0fbe 95ed 39bd 68a5 56bd
000002f0: 8ded aabd c677 993b d269 113d 62f0 39bd
00000300: 4ab5 f9bc 43a3 01bd 1623 13bd 03a9 903d
00000310: 1106 e33d 1931 8fbd b5d3 ddb9 7579 1d3d
00000320: 5389 7bbd 668a 653d b986 c3bd 103e cf3d
00000330: 4d83 b83d 9f09 41bc ebb0 ffbd 7d82 a8bc
00000340: 2934 d8bb 7579 153d 3e98 0dbe 8674 ff3c
00000350: 19d1 203d 0a35 2a3e d03a 243e 93c2 523c
00000360: 59d8 1d3e d5e7 1c3d a9e4 7ebd 81bc 9abd
00000370: 60b3 2a3e a5b2 d93d 97f8 443e 39fc 08be
00000380: ce68 d3bd 6a4a 873c 4f28 ee3b d2d4 27bd
00000390: e8c6 c73c 07c1 c3bd 2faf 42bd 4e33 a4bd
000003a0: aa12 26bd d6b8 5a3d 784a 033a 114a 433d
000003b0: 002b 0bbc 203c fc3d 1937 f7bb f7f7 ddbc
000003c0: fdd6 9b3e 684e 633d 2508 a33d 526d 05be
000003d0: 2fee 813d 9308 133e 70e3 193d eec2 74bc
000003e0: dda2 a4bd fc6e 773e 883b 67bd 3edb 8e3d
000003f0: 4df8 d5bc 17fd 783d 05aa 2dbe 7fc3 4bbe
0.08287703 0.10766628 -0.051293038 0.17695871 -0.1137947 4.4123535e-05 -0.061996058 -0.008394831
0.04174763 -0.0029221363 -0.020400863 0.04714907 -0.049970064 0.10976647 0.03963158 -0.016151113
-0.07757154 0.0820592 0.017225483 -0.10926981 -0.13465212 -0.17179479 -0.24223097 0.031393245
-0.13631047 -0.111165196 -0.004899393 0.032056622 0.10118617 -0.10378717 -0.06323138 -0.056899276
-0.005614342 0.05383085 -0.21940261 -0.056729704 -0.009570968 0.049010806 -0.044639207 0.08848345
-0.06437665 0.010752239 -0.07319079 -0.106983714 -0.037281655 -0.08962491 0.027242623 -0.052990586
-0.095999025 -0.10481032 0.05495876 -0.05427918 -0.10663967 0.14290349 0.0006269678 0.019450994
-0.0067676585 -0.06277344 -0.049399577 0.06551777 -0.07360537 -0.03170322 -0.08205016 -0.028994123
-0.014901622 -0.013544905 -0.14737767 -0.04559508 0.051433153 0.04938588 0.062059544 0.060229387
-0.0010412672 0.050023224 0.052361872 -0.13005114 -0.0703525 0.051368445 -0.07019899 -0.0017058657
0.05081748 0.12058021 0.05086799 0.013907125 -0.05911042 -0.023340253 0.07997323 -0.039681926
-0.0865535 -0.004596548 -0.07850837 0.06310252 -0.10771841 -0.046508193 0.0021948507 0.039345402
0.137004 -0.027675778 -0.13877685 -0.043598015 0.06693913 -0.030168459 0.16350518 0.017623374
-0.116968624 -0.1219003 0.06382 -0.029973766 0.11296453 0.03249316 -0.09562125 0.014803279
-0.091273606 -0.056990683 -0.093942806 0.07171612 -0.05881169 0.16556285 0.09626033 0.019043759
-0.10540641 0.03366608 0.093296416 0.08819332 -0.08787592 0.071261086 0.0982119 0.056482058
0.08545353 0.020364774 0.0133367935 -0.051894512 0.09198967 0.08112593 -0.08818647 -0.051293433
0.024770824 -0.037951365 0.116372004 -0.031895418 0.038151577 0.012337303 -0.0061779656 0.046778016
0.063244656 -0.029110683 0.11276986 0.0836164 0.020969678 0.030050183 0.020457812 -0.046349913
-0.043068197 -0.20722035 -0.062391736 -0.00071009377 -0.024479847 -0.005295711 0.057571933 -0.039621655
0.14441177 -0.011300375 -0.022371503 0.054075338 -0.024379576 0.06309576 0.08391115 0.16102032
0.0319971 0.02855115 -0.034023616 0.025292903 0.03602734 -0.11612618 0.058738373 0.044264656
-0.032776777 -0.04878065 -0.023784405 -0.010263024 -0.022551412 -0.09878751 -0.103117555 -0.12133412
-0.00042575446 -0.13991636 -0.04539259 -0.052403837 -0.083460905 0.0046834676 0.03550131 -0.045395263
-0.030481953 -0.03164984 -0.035922132 0.070634864 0.110851415 -0.069917865 -0.0004231014 0.03844591
-0.06141026 0.05604019 -0.09547181 0.10119259 0.09009419 -0.011782079 -0.12484916 -0.020570034
-0.006598015 0.036492784 -0.13827607 0.031183492 0.03926191 0.16621795 0.1603806 0.012863773
0.15414561 0.03830703 -0.062229786 -0.075554855 0.16669989 0.10629777 0.19235454 -0.13377465
-0.10322724 0.016514976 0.0072679888 -0.040974446 0.024386838 -0.095583014 -0.04753035 -0.08017598
-0.040545143 0.05339893 0.000500835 0.047678057 -0.008494139 0.123161554 -0.00754441 -0.027095778
0.3043746 0.055494696 0.07960538 -0.13029984 0.06344258 0.1435874 0.037570417 -0.014939053
-0.08038876 0.24163431 -0.056453258 0.06975411 -0.026119376 0.06078824 -0.16959389 -0.19898795

res_blocks.3.batch_norm.weight f4 [32]
00000000: df81 1a3f d4df 153f 742a 213f 7992 0d3f
00000010: 4f45 0d3f ebe2 243f fdbe 193f 4cfb 2f3f
00000020: 3143 1a3f e4d5 2c3f 5817 223f ec32 093f
00000030: 130a 0f3f a86f 2f3f ffc4 2e3f 10a3 2e3f
00000040: e0b0 263f dfda 183f b96a 313f f521 1b3f
00000050: 3a65 0f3f 9008 143f ef4a 323f ed9b 2c3f
00000060: f768 2d3f 0ce9 213f 8e91 2d3f be35 fe3e
00000070: 6e67 043f 812f 343f 5472 2d3f 3ade 1e3f
0.6035442 0.5854466 0.62955403 0.55301625 0.5518388 0.6440875 0.6005705 0.68742824
0.60258776 0.6751387 0.6331687 0.53593326 0.5587475 0.6852975 0.6826934 0.68217564
0.6511364 0.5970897 0.6930347 0.6059869 0.56013834 0.57825565 0.6964559 0.67425424
0.6773829 0.63246226 0.67800224 0.49650377 0.5172032 0.70384985 0.67752576 0.6205784

res_blocks.3.batch_norm.bias f4 [32]
00000000: 2c15 3ebd a3e9 ac3b f55f da3c bf56 c937
00000010: 8c72 7f3c 1e80 ccbc 2ce9 b1bc e56e 0c3d
00000020: f767 a73c 21d1 023d 8021 c83b 0731 75bc
00000030: a1af 8eb9 26a0 573d dd64 ed3b 0ed1 c93c
00000040: f0a9 253d 10fd 273c 3069 8c3d ad60 3f3c
00000050: 0b86 5a3b bc81 a83b 88c3 5f3d f7c1 023d
00000060: e413 223b 2450 833b 4c32 7c3c 410c 43bd
00000070: 070c b4bc ad44 c73c 2d72 693c 70bc a03d
-0.04640691 0.005276875 0.026657084 2.4001461e-05 0.015591275 -0.024963435 -0.02171763 0.034285445
0.020435316 0.031937722 0.006107509 -0.014965302 -0.00027215204 0.052642964 0.00724469 0.024635818
0.04044527 0.010253206 0.068560004 0.011680764 0.0033344056 0.0051424187 0.054629833 0.03192326
0.0024731094 0.0040073562 0.015392851 -0.047619108 -0.021978391 0.02432474 0.014248413 0.078484416

res_blocks.3.batch_norm.running_mean f4 [32]
00000000: f530 76be 52bc a4bf 5517 07bf c6b2 6ebf
00000010: fc6b babe c796 b0bf ecad 93bf dd43 18bd
00000020: a3e3 933f 2f86 913f 30b2 4fbf 0124 10c0
00000030: b710 b6bf 7935 543d c53c 883e 666a d33f
00000040: 3265 4f3f 1348 f93f 6048 a33e 1d46 03c0
00000050: 82a0 e7bf 9143 b63f 4965 743f ee7a 1bbf
00000060: cc8f a33f a187 9fbf 4795 2a3e ede6 57c0
00000070: 9e65 af40 c6d5 54bf 70e8 b53f 32b0 4e3f
-0.24042113 -1.2869971 -0.52769977 -0.93241537 -0.3641051 -1.3796014 -1.1537452 -0.037174094
1.1553844 1.1369075 -0.8113127 -2.2521975 -1.4223851 0.051808808 0.26608863 1.6516845
0.81013787 1.947512 0.31891155 -2.0511544 -1.8095858 1.423937 0.9546705 -0.6073445
1.2778258 -1.2463266 0.16658507 -3.3734696 5.4811544 -0.8313869 1.4211559 0.807376

res_blocks.3.batch_norm.running_var f4 [32]
00000000: 00e6 ef40 cffd 2e41 44a8 4141 4eea 2d41
00000010: 310b 1e41 010d 0d41 60d3 1841 b90e b240
00000020: 9663 4141 45f3 f940 ad8f 1541 a802 3641
00000030: b7a4 a241 8609 dd40 6290 6841 a078 3941
00000040: 9f7b 5141 13bf 0b41 4464 0c41 7ced 5b41
00000050: 562b 2441 c1fb 0e41 d242 3e41 1baf c840
00000060: 7b42 0a41 127a 2241 647b 1541 efad d741
00000070: f330 1042 b5b7 a740 e88a 2641 0698 f240
7.496826 10.936965 12.10358 10.869703 9.877732 8.815675 9.551605 5.564297
12.086813 7.810946 9.347577 11.3756485 20.330427 6.9074125 14.53525 11.591949
13.092681 8.734149 8.774479 13.74548 10.26058 8.936463 11.891314 6.271375
8.641231 10.154802 9.342625 26.959929 36.047802 5.241175 10.408913 7.5810575
