my_pt/80_model.pt (torch, 403526 bytes, 10 tensors)

conv1.weight f4 [64, 1, 5, 5]
00000000: c108 4cbe 8240 52be 0c2d 45be 3dc0 41be
00000010: 51e3 15bb 50c9 1c3c 93d7 57bd 2826 a9ba
00000020: 73c7 663e 2c6d 523e 8e69 323e 2604 093e
00000030: 22ed 443d 5136 053e e5a6 35be a539 11be
00000040: bbfa 043d 4a87 893c fab9 d6bd 00d3 34be
00000050: 66bb 903d b11d b43d 10e2 39be 508c 08be
00000060: 5697 16be f9a6 1d3e 6f14 63bd ca34 2c3e
00000070: fa12 343e d4f5 833d b396 573d c0d7 bd3c
00000080: c5ad 243d 6699 843c a60d 2ebe 2016 c4bd
00000090: 8bd3 04bd cafa 0a3e 2e8b a73d 3533 053e
000000a0: 9f83 0a3e 79ca d4bd 67dd 173e 7f32 433e
000000b0: 8fe0 593e 1be5 4abd c5bb 56be b478 223e
000000c0: f051 99bd 516e 0b3e c0b2 c53c 3b57 e93d
000000d0: b68b 52be 3014 a9bd a635 333e 8a48 0b3e
000000e0: 5420 dcbd 52f6 b3bd e053 e6bd 73e0 133e
000000f0: ef21 843c f6cf 793d 8d9b 3f3d 41ef bc3d
00000100: ffac 65be 21ac 6a3e b553 b43b 9eea 493e
00000110: 5b57 04bd 9ab1 50bd 8a34 f13d c406 9239
00000120: 713d 2a3e 1540 5f3e 87dd d23d ccd9 45be
00000130: 29a3 6c3d 7c26 3d3d 8b0c 27be 4b74 f03c
00000140: 4ece fd3d b078 d03d 8cad 283e 0854 3bbe
00000150: e010 553e a19b 043d 2328 133e 223e e5bc
00000160: 5774 cd3d e74e 97bd cbe6 4abe f2e5 563d
00000170: 876f b43d 3d09 833d bd94 633e 1734 4abd
00000180: e511 0f3e 3545 1a3e 339f 3c3e 7cae b23c
00000190: 2b54 24be 66dd 583e 5d2b 653e b364 65bd
000001a0: c745 c9bd 746e c9bd a914 82bc fe9c ffbc
000001b0: 56d9 03bc 1cd3 f23d 083d 15bd 0d98 80bc
000001c0: 0cfb dc3d 1a6d 6ebd 0db9 493e 4233 03be
000001d0: b828 12be 446b e8bd 0814 05be f1ad d93c
000001e0: 06f8 05be f8b0 26be 1812 2ebe 0385 933d
000001f0: af34 6a3e 05cf b8bd 81cf 37be 56e1 253e
00000200: ac8e 813d b414 eebd fd6b b6bd 806f 0c3e
00000210: 9286 dcbd 8827 c53c 5e18 82be 131d 663e
00000220: 4841 a5bd d92d 6c3d bd4e 0f3e 067f 2bbe
00000230: 57f3 2cbd a257 0abc 668e 39bd e530 043e
00000240: bea9 bcbd e77f 73bd 668b 38be 3486 3fbe
00000250: e175 cdbc 8d0e 273e 059d 8b3d 7179 b03d
00000260: ddfc 84be 874f fa3d f0a1 b8bc 2d0f 76bd
00000270: bb24 a5bd 7831 71be 1f86 dcbd 5098 01bd
00000280: 8b5b bcbd 0944 ae3d 1145 69bd 33f7 453e
00000290: 7c5c 003e 8489 823d cad9 473e d08c ee3d
000002a0: 5c93 753d 4caa 6e3e 6ad3 b23c 7318 43be
000002b0: 31dc 1cbe 1397 26be 5ff8 003e 1631 d2bd
000002c0: 3d79 bc3d f3bf 3bbe e08d 44be df82 36be
000002d0: 82cc df3d d5d4 02be bb12 593d 2c00 543d
000002e0: 731f 0cbe 1f38 313d 9d37 aabd cb3f 9c3d
000002f0: eede 643e e7d5 cbbd 8158 263e f0c2 f93d
00000300: 54e5 0b3e 45c1 4b3e 7ef5 0b3d 67b7 cb3c
00000310: 3d9c 473d f434 f73d bc11 483e bdff 73be
00000320: 700a 1f3e a9bb 1c3d 83b0 423e 34e7 85be
00000330: 617e 4abe 6c9a fbbc 4119 8fbc be29 ae3b
00000340: 61f4 ed3c fd62 27be 13bb 103c f3fe 083d
00000350: 66b7 a7bd cb96 263e c4d1 113e 649d 3e3e
00000360: c659 113e 4123 5fbd a1ef 243e eae6 cb3d
00000370: 9047 063e ff59 babc 3ac8 09be 447a d5bd
00000380: 0baf 2dbe aeef 37be 8b3e f8bd db47 a03c
00000390: a2db 6a3e 222c ecbc 4d5e 283e 7d81 a7bc
000003a0: 9928 823e 561f 82bd 3706 34bd e4bb 1abd
000003b0: 25ad 53be 93e6 6abe 310d f63c ff42 06be
000003c0: 57eb 5dbe 904d 7abc b095 25be ac86 39bd
000003d0: abd9 71bd 4a2e 393e 5b13 8b3e 774b 07bd
000003e0: 7035 fb3d 6d11 d0bd 0493 13be 9fc4 07be
000003f0: 2359 563e 4863 713d 054e 0bbe 1673 9a3d
-0.19925214 -0.2053242 -0.19255465 -0.1892099 -0.0022871087 0.009569481 -0.052695822 -0.0012905048
0.22537021 0.20549458 0.17423078 0.13380489 0.04807771 0.13009001 -0.17739446 -0.14182146
0.032465678 0.016788144 -0.10484691 -0.17658615 0.070669934 0.08794726 -0.18152642 -0.13334775
-0.14706168 0.15395726 -0.05543941 0.16817012 0.17585364 0.06443372 0.052633952 0.023174167
0.040204782 0.016186427 -0.16997394 -0.095745325 -0.032428306 0.13572231 0.08180843 0.13007815
0.13526772 -0.10390181 0.14830552 0.19062231 0.21277069 -0.0495349 -0.20970066 0.15866357
-0.074863315 0.13616301 0.024133086 0.11393591 -0.20561108 -0.082558036 0.17500934 0.1360189
-0.107483536 -0.08787216 -0.11246467 0.1444109 0.016129462 0.060989343 0.046779204 0.092253216
-0.22429274 0.22917224 0.0055031427 0.19718406 -0.03230987 -0.050950624 0.11777599 0.0002785233
0.16625 0.21801789 0.10296159 -0.19321364 0.05777279 0.04617928 -0.16313379 0.029352328
0.12392865 0.10179269 0.16472453 -0.18293774 0.20807219 0.03237498 0.1437078 -0.027983729
0.10031956 -0.07388096 -0.19814603 0.052465387 0.08810335 0.063982464 0.22224708 -0.049366083
0.1397167 0.15065463 0.18420105 0.021811716 -0.16047733 0.21178207 0.22379823 -0.056004237
-0.09827762 -0.098355204 -0.015878992 -0.03120279 -0.008047422 0.11856672 -0.036435157 -0.015697503
0.10790071 -0.058209516 0.19699498 -0.12812522 -0.14273345 -0.11348584 -0.12995923 0.0265722
-0.13082895 -0.16278446 -0.1699909 0.07203104 0.2287166 -0.09023861 -0.1795025 0.1619924
0.063260406 -0.116250426 -0.08907316 0.13714409 -0.10767855 0.024066702 -0.25409216 0.22472028
-0.08069092 0.05766091 0.1399488 -0.16747674 -0.042224254 -0.008443745 -0.045301817 0.12909277
-0.09212063 -0.05944815 -0.18021926 -0.18703538 -0.025080623 0.16314144 0.068170585 0.08616913
-0.2597417 0.122222 -0.022538155 -0.060073067 -0.080636464 -0.23554027 -0.10767769 -0.031639397
-0.09197148 0.085090704 -0.056950632 0.1933258 0.1253528 0.06373885 0.19516674 0.116479516
0.059954986 0.2330715 0.021829326 -0.19052295 -0.15318371 -0.16268568 0.12594746 -0.10263269
0.09202812 -0.18334942 -0.19194746 -0.17823361 0.10927679 -0.12776501 0.05299638 0.051757976
-0.13683872 0.043266412 -0.08311389 0.07629355 0.22350666 -0.09952908 0.16244699 0.121953845
0.136617 0.19897945 0.034169666 0.024867726 0.048732985 0.12070647 0.19538015 -0.23828025
0.15531325 0.038264904 0.19012646 -0.26152956 -0.19774772 -0.030713283 -0.017468097 0.0053150347
0.029047193 -0.16346355 0.0088336645 0.033446264 -0.08189277 0.1626846 0.14240175 0.18614727
0.14194402 -0.05447698 0.16107036 0.09956153 0.13113236 -0.022747992 -0.13455287 -0.10423711
-0.16961305 -0.17962524 -0.12121304 0.019565513 0.22935346 -0.028829638 0.16442223 -0.020447487
0.254216 -0.06353633 -0.04395124 -0.037776843 -0.20671518 -0.2293952 0.030035587 -0.13111494
-0.21671806 -0.015277281 -0.16170382 -0.04529445 -0.059045475 0.18084064 0.27163205 -0.033030953
0.12266052 -0.10159574 -0.14411551 -0.13258599 0.2093244 0.058932573 -0.13603981 0.07541482

conv1.bias f4 [64]
00000000: 3626 aebd dba5 383d cdfe 68bd 3fc8 04bd
00000010: f834 07bd 9c4f 273e 0311 60be e931 3f3e
00000020: bbe1 ab3d e95d 2cbd 5627 3bbe bcd8 18be
00000030: 6b42 cebc d2fa 44be 6ba3 403d 5eb7 5dbe
00000040: cdf1 a63d 56d0 063e d944 d33d bd66 cebd
00000050: 8603 cbbd b8d1 b83d 79ca cabc 602d c73c
00000060: 1a1c d03d 24ba c13d 3975 d2bd 1c8c e9bd
00000070: f082 b43d 617a d73d 6cdf da3d 104a 8a3b
00000080: 2759 423d 4c52 b73d 8f97 58be ba15 0d3d
00000090: 6f0b 53be 08be 03be de04 3dbe 6ed2 233e
000000a0: 8e62 5b3e a485 173e 7bbe 81be c67f 77bd
000000b0: 4d81 95be eb02 b4bd 1615 5dbe e635 2ebe
000000c0: e5a8 c33c 0f08 273e 85de 6c3d b376 bb3d
000000d0: 1028 adbd c164 3b3e ef00 013d 5faa 81be
000000e0: 30f3 5dbe ecd7 513d bef4 c3bd 714f 19be
000000f0: 2315 3f3e 94fb 3fbd 7b37 3a3e 68f1 2ebb
-0.08503382 0.045080047 -0.056883622 -0.032417532 -0.0330095 0.16338962 -0.2188149 0.18671383
0.08392664 -0.042081747 -0.18276724 -0.14926428 -0.025178155 -0.19236305 0.047030848 -0.2165198
0.081515886 0.13165411 0.10315866 -0.100781895 -0.099127814 0.09024376 -0.02475475 0.024313629
0.1016161 0.09459332 -0.10276265 -0.11403677 0.08814037 0.10521389 0.106871456 0.0042202547
0.047448304 0.08951244 -0.21151565 0.03444455 -0.2060983 -0.1286546 -0.18458888 0.15998241
0.21424314 0.14797074 -0.25340638 -0.06042459 -0.2920021 -0.08789619 -0.21590075 -0.17012748
0.023884246 0.16311668 0.0578294 0.091534995 -0.08454907 0.18300153 0.03149503 -0.25325295
-0.216748 0.05123131 -0.09568165 -0.1497171 0.18660407 -0.046870783 0.18185227 -0.0026694182

conv2.weight f4 [32, 64, 3, 3]
00000000: bcf5 f53c cb94 f13c 83d8 0c3b 2aca 06bd
00000010: 06c4 7b3d 7b80 333c d48a 4bbd cf2a 1abd
00000020: 1de3 bdbc d42b 16bd d646 63bb 8e80 e2bc
00000030: 0ef9 39bb 7cc8 513d 822f c23c ac2b b63c
00000040: 02f9 bebc a1fe 663c eaed d9bc 5efa b1bc
00000050: 28e0 503c 96c8 51bc 0255 e1bc be16 913d
00000060: 668a e13b 606e 943c 30c8 7f3d 6a8a 87bd
00000070: 4bca 313d 3c88 05bd 3949 ec3b c3eb 313d
00000080: 157c 123d a591 e23c c39e bb3c d396 053a
00000090: 8cba 2b3d d129 e13c 64f3 2e3d 7010 5fbc
000000a0: e9d0 a2bc 7154 963c a809 47bc 038f 2fbd
000000b0: cb0a 51bd 9786 90bc e07e 52bc ee76 38bc
000000c0: 5a8b 043a 8557 41bd f4c0 c7bb c7dd 7d3c
000000d0: 1c8a e7bc cff0 85bc bbe9 113d e4bb 48bd
000000e0: a206 ecbc 825f 4e3d f8f9 27bd 3fc9 3b3d
000000f0: ca77 91bb bf9c 65bc 2bfb 933d b4b6 b8bc
00000100: 4849 ac3c 5ff4 fcbc 30ab 67bc f8d6 193c
00000110: 1a73 583c 393e dd3c 2c61 0f3c 8b56 1b3d
00000120: 6061 ebbc 61f9 51bd 7d99 f03c c7b1 61bd
00000130: 2df4 08bc 14db 96bb 7455 aebd e116 93bd
00000140: fa54 5abd bd46 b1bc 4865 eab8 f3f2 64bd
00000150: 3d18 4f3d 0cf2 793c dd8a 49bc 16f7 1ebd
00000160: 8c95 b43c 7e0b 07bd 8c80 c73c bac2 403d
00000170: 7c6c 103d 861b f1bc 5d81 c5b9 731c 2dbc
00000180: 32fb 50bd a03f cd3c 37ed b7bc 7e8f d3bc
00000190: 6b44 9c3c e7b0 32bd 5b80 cebc b32f 3cbd
000001a0: 55eb abbd 48e3 303d 3290 81bc dd20 a5bd
000001b0: df95 e13c 5893 5d3c d4d1 593c 05bd afba
000001c0: ea4f c33b 71a9 a63b caf4 f3bc 591f 863c
000001d0: bc6e 1dbd 4d3d 653c f613 30bd e93d 20bd
000001e0: f4d6 493c 9a07 e0bc e65f 17bc 850c 4ebb
000001f0: 7ef2 d6bc 439d a2bc 8de0 a43c 8cce d5bc
00000200: 7ad4 373d 7ce4 73bc 673c 233d 9bde ce3c
00000210: 3745 f4bc ddfd 923d 6cf6 ac3d af5e c5bc
00000220: 46cc fd3c 3178 243c c0b4 8a3c a272 fb3c
00000230: bb9d 423d 3575 87bc a378 133d 5d53 e2ba
00000240: 61da 07bd 88ba fc3c 8bc9 10bb 5d6b 0fbb
00000250: 546e 0abd 8518 56bc 2433 ffbc f44b c23c
00000260: c4a8 cdbb 7e26 dd3c d86a 383c e295 cfbc
00000270: a1dd 133d 82b6 a93c f51a 1dbb f826 bcbc
00000280: 4d21 1bbd 34d4 0c3c 9427 5e3c fd8b 4abd
00000290: 9785 95bc 7370 04bc 43be f7bc f7bb dcbc
000002a0: fe98 173d ef48 66bd c392 633b b5e8 ea3b
000002b0: 0ff5 ebbb 5f54 c2bc c555 b0bc 16a0 90bc
000002c0: 1ed5 503d b599 8ebd f442 25bd d7e4 2a3d
000002d0: 3dc0 50bd 5cc1 403d f249 323d f410 d8bc
000002e0: 132e 0f3d 1549 963b 7d8e b53d e06a b43c
000002f0: c06f e03c 0465 edbc ad70 2ebd 19ed 5e3c
00000300: 44a8 0a3c ebf6 d0bc 7b99 f53c dd3b db3c
00000310: 48cb 0a39 5423 1cbd 8516 463c 26cb 523d
00000320: 16b4 b4bb 6852 46bd 3382 20bd c8a9 9abd
00000330: 3491 acbc d369 12bd 3a0d 0dbc daab 74bd
00000340: 78a4 ee3c 65dd b5bc 25a8 433c 42ba a93c
00000350: 6c71 64bd 2546 06bd 3553 02bd 5462 2dbd
00000360: 8d42 833b 035b 743d eb7a 1bbb e24d 733d
00000370: d6e3 1b3d f544 20bc 71a0 fe3c 8172 b7bc
00000380: e5e4 2ebb 1303 623c 1dea 57bd 80b4 b63c
00000390: da5c 78bd c905 263c d403 0f3d b632 eabc
000003a0: 8e52 1c3c 9a33 933d 7cb2 4dbd a7c4 e1bc
000003b0: 0c46 843d 19c8 4e3c 9bd9 91bd 0e4f 59bd
000003c0: 3a24 dabc c1e3 b2bc 8361 013d 7958 f73c
000003d0: eb1d 77bd 7b9a 81bd 4e4b 1abd 8f93 a9bc
000003e0: 881e 48bd 6999 1e3d 7e51 2dbd 3783 2dbc
000003f0: c158 12bd e004 60bd a259 413c 5cb7 e6bc
0.030024402 0.029489895 0.0021491356 -0.032907642 0.06146624 0.010955925 -0.049692944 -0.03763848
-0.023179585 -0.03666289 -0.0034679673 -0.02764919 -0.0028377208 0.051216587 0.023704294 0.022237621
-0.023312096 0.014098794 -0.026602704 -0.02172583 0.0127487555 -0.012804171 -0.027506355 0.07084416
0.0068829535 0.018119037 0.062446773 -0.06618197 0.043405812 -0.032600626 0.0072108773 0.04343773
0.035762865 0.02765734 0.022902852 0.0005096022 0.04192595 0.02748576 0.042712584 -0.013614759
-0.019875007 0.018350812 -0.012148298 -0.042860996 -0.051035684 -0.017642302 -0.012847632 -0.011258824
0.00050561654 -0.047202606 -0.006096 0.01549477 -0.028264098 -0.016350178 0.035623293 -0.04900731
-0.028811757 0.050384052 -0.041009873 0.04584622 -0.004439329 -0.014014422 0.07225641 -0.022548057
0.021031037 -0.030878244 -0.014139935 0.009389631 0.013211036 0.02700721 0.008751195 0.03792433
-0.028732955 -0.051263217 0.029370064 -0.055101182 -0.008358997 -0.004603753 -0.08512393 -0.07182098
-0.053303696 -0.021640176 -0.000111768546 -0.055895757 0.050560225 0.015255462 -0.012301174 -0.03880986
0.022043966 -0.032969944 0.024353288 0.047060706 0.03525971 -0.02943207 -0.0003767115 -0.010565865
-0.05102081 0.025054753 -0.02245198 -0.025825258 0.019075593 -0.04362574 -0.025207689 -0.045943927
-0.083944954 0.043185502 -0.015815828 -0.08062909 0.027537284 0.013523899 0.013294656 -0.0013407773
0.0059604542 0.005086117 -0.02977981 0.01637237 -0.038435683 0.013991666 -0.042987786 -0.039121542
0.012319315 -0.027347375 -0.009239173 -0.0031440568 -0.026238676 -0.019850379 0.020126605 -0.026099466
0.044880368 -0.014886018 0.039852526 0.025252631 -0.02981816 0.07177327 0.08445439 -0.024093
0.030981194 0.0100384215 0.016931891 0.03069431 0.047513705 -0.01653538 0.03600372 -0.0017267276
-0.033167247 0.030850664 -0.0022092785 -0.0021884062 -0.033796623 -0.013067369 -0.031152315 0.023717858
-0.006276222 0.026995894 0.011255942 -0.025340024 0.036100034 0.02071691 -0.0023972366 -0.0229678
-0.037873555 0.008595515 0.013559241 -0.04944991 -0.018252177 -0.008083451 -0.030242091 -0.026945097
0.03701114 -0.0562219 0.0034724928 0.007168854 -0.007200844 -0.023721872 -0.021525273 -0.01765446
0.050984494 -0.06962911 -0.040347055 0.041722145 -0.050964583 0.047059402 0.04352755 -0.026375271
0.03495605 0.004586349 0.08865068 0.022023618 0.027397037 -0.028978832 -0.042587925 0.013606333
0.008462969 -0.025508365 0.029980412 0.026761943 0.00013236434 -0.03811963 0.01209033 0.05146327
-0.005514632 -0.048418432 -0.039186668 -0.075519145 -0.021065332 -0.035745453 -0.0086091105 -0.059734203
0.02913116 -0.022200296 0.011941944 0.020718697 -0.05577223 -0.03278174 -0.031817634 -0.0423301
0.004005736 0.059657108 -0.0023724388 0.059400447 0.03805908 -0.009782066 0.031082364 -0.022393467
-0.0026686725 0.013794678 -0.052713502 0.022302866 -0.060635425 0.010133215 0.03491576 -0.028588634
0.009541167 0.071875766 -0.050219044 -0.027559591 0.06458673 0.012620949 -0.07121583 -0.053053908
-0.026628602 -0.021837117 0.031587135 0.030193554 -0.060331266 -0.06328293 -0.037669472 -0.020700244
-0.048857242 0.038720522 -0.042314045 -0.010590366 -0.035729174 -0.05469215 0.011801155 -0.028163604

conv2.bias f4 [32]
00000000: fa3f 1ebc 3afe 5fbd 5132 8fbd 2732 93b9
00000010: ffcd 9cbd 1cc9 e8bc 75f2 7fbd db1b 84bd
00000020: 2dee 94bd 2ca0 b6bd cbab 3abc 1a53 1fbd
00000030: ec0e b3bd 19b6 f43c b12c bfbc fdb5 b3bd
00000040: 5e03 9eba d917 aebd 3d80 2b3c 6daf 88bc
00000050: a90c dabc 2314 d9bc 2b18 b1bd e362 41bd
00000060: 8dda 43bc 1bbf 8abd bbb6 c6bd 0682 c8bd
00000070: 6710 75bd c662 d8bd 2af2 4fbd b89c cfbd
-0.009658808 -0.05468581 -0.06992019 -0.0002807539 -0.07656478 -0.028416209 -0.062487084 -0.064506255
-0.07271991 -0.08917269 -0.011393498 -0.03889761 -0.087430805 0.029871987 -0.02333674 -0.08774946
-0.0012055447 -0.08500642 0.010467586 -0.016685212 -0.026617365 -0.02649886 -0.08647188 -0.047213446
-0.011953962 -0.06774732 -0.09702822 -0.09790425 -0.059830096 -0.105657145 -0.050768055 -0.101373136

conv3.weight f4 [16, 32, 3, 3]
00000000: c4ab 29bd 6d89 5138 ea75 69bd 7690 40bc
00000010: 78ba 893d 1d8f 363d 37b6 933d b03f 053d
00000020: b536 93bd e1d0 94bc d7a6 c2bc b62b 84bb
00000030: cbda 023d 31c2 e1bc b897 55bd f51d e3bc
00000040: e57c ee3b 8d82 a8bb 758c ed3b 28d7 c13c
00000050: 97a4 b4bd 0c77 8b3d 7bc7 323e cf5e 0b3e
00000060: be85 1a3e 33a5 03bb 41aa ec3c 20b7 df3c
00000070: d743 e9bc d395 ea3d 9652 8c3d 823c 22bc
00000080: 3a4a 92bc de08 df3d dd3c 083d 3fbd bc3d
00000090: b00b 873c 81c1 90bd 9fe2 2abb 2c6d 2dbe
000000a0: 4378 d0bc 83a0 7bbd 22e6 86bc 8a6a fe3c
000000b0: 0dbc 14be 412c c8bc 32f0 76bd edb5 b4bd
000000c0: 9974 683d b953 1bbd 698e 003e 547a 0abb
000000d0: f7da 03be c811 883d 6f29 c1bd 4523 f0bd
000000e0: b0eb 2fbd ce4b fcbd 1cf6 1bbd 2dd8 243e
000000f0: 89fb b0bd 4b81 5abc 7df7 c9bd ea7e 273c
00000100: dcee 0cbe c47f b2bd 5b79 0fbe 37e9 16be
00000110: 874c 713c c7a1 58bd 49db 1cbe 74c3 20be
00000120: 2bf9 213c f484 89bd 6251 4b3c 6ad1 4ebd
00000130: 15bd 28bd f9b0 513d dc13 973d 211b 1b3d
00000140: c14a 553d c956 b3bd 9c6a 87bd 75c9 36bb
00000150: d2a1 22bd 9ac6 0e3d 20f4 ec3d aca1 5e3c
00000160: 0fb8 223c 14a7 673d 5800 aabd 6399 cdbd
00000170: 8c90 b33d bbb7 13bd d318 b3bc 0069 853d
00000180: d53b 0dbc 2aea 6ebd ec44 e33d dbc2 1a3d
00000190: c0a7 143c f469 df3a c40f a23d 590f d13d
000001a0: e726 caba edf3 71bb 5350 0c3d 972e f93c
000001b0: 45dd 433d 3f58 863d 6148 d93c 5711 b8bd
000001c0: 1bcc cbbc c949 0bbd 1607 f73b e009 e63c
000001d0: 6382 9e3d b39d 3cbd 5de5 21b9 e658 cd3d
000001e0: 35d4 98bd 1c73 16bb 9c5b 4c3d 40fc 41bc
000001f0: 5d57 9cbd c0f2 dbbd 9ac0 29bb 9082 07be
00000200: 4e4a 86bd 1838 9cbd f1cf 803d 0a6b 5d3e
00000210: 4dc0 f8bd 22fc 6d3d d007 e43d 05c6 b6bc
00000220: 2a3f 793c 3213 b6bd 9653 213d da0f 20bd
00000230: 7b61 b43c 0e61 e13c 5a4b b3bd 24f6 e5bd
00000240: 8252 3cbd 73dd e5bd e13e 5bbd a9e0 dbbc
00000250: 699f 643c 0262 253e e546 f1bc 4feb 1c3c
00000260: 84e1 b53c 55b1 5e3d 52a8 a0bd 1992 033e
00000270: 00e3 fcbd 5515 c1bd 6aab b83c 1e5c cfbd
00000280: 2c0a 303c 526d 413c c9b1 423b 79b9 b13c
00000290: 102f 163c 4e1e cf3b d276 84bd afd2 133e
000002a0: cca1 9f3d 3c23 7bbd 5044 ce3c d57d 7d3b
000002b0: e35d ea3b cddf f0bd c290 88bd 4d2b 97bd
000002c0: 88f6 463c c90a 0cbe a302 05bd cd52 6bbd
000002d0: 4253 b5bd b3fd a03c 3e85 47bd 62aa bebd
000002e0: b0f6 48bd 83e4 e13c 3c1f ce3d ea27 963c
000002f0: 260b 283e 791f f2bb b654 01bc ec05 a83b
00000300: e13e 8bbd 677e 8abd 7517 343d 66be 20bd
00000310: db77 493c c2a3 e53d 0478 67bd 60ca 023e
00000320: 4052 c73d acf3 c13c 8893 d33d fc5a 13bd
00000330: adc1 283d b410 9a3d d46d 923b c693 81bd
00000340: 6ad1 c8bd d04e 5ebd f2a7 33be db4c 22bd
00000350: 6048 04be 3d7f c6bd 3dda f2bd 30a9 dcbd
00000360: e3d7 d43d 7b09 0ebd 50e7 9dbc dc21 d63d
00000370: 12ca d9bd 2e18 c83d 2a9a 9d3d e707 bbbd
00000380: 61f3 753b a91d 05bc ba80 8fbd c2b8 183d
00000390: ef53 e4bb d369 543d 9138 b33d 211c 8b3d
000003a0: 1f17 b43d 08ee 503c 5b80 cf3d c2e0 d73c
000003b0: a429 18bd 343f d0bc 0f0f 9cbd 4912 913c
000003c0: 61c4 efbc 9a5c 32bd 127e c7bd 4c2b 31bd
000003d0: 7c8f 173b b020 aa3c 788a af3d 9a9c 723d
000003e0: a1de 633d 2f7a c23d e779 193e 842e 8b3d
000003f0: 495f 50bb 2376 66bd 17d6 8ebd 1874 083d
-0.041423574 4.995747e-05 -0.056997217 -0.011753192 0.06725019 0.044570077 0.07212489 0.03253144
-0.07188169 -0.018166007 -0.023761196 -0.004033531 0.03194694 -0.027558418 -0.052146643 -0.027724246
0.007278072 -0.005142516 0.00724941 0.023662165 -0.088204555 0.06809816 0.17458908 0.13610385
0.15090081 -0.002008748 0.028889777 0.027309 -0.028474731 0.11454358 0.068516895 -0.0099021215
-0.01785766 0.10890363 0.03326117 0.09215783 0.016485065 -0.07068158 -0.0026075018 -0.16936177
-0.02544797 -0.061432373 -0.016467158 0.031056661 -0.1452486 -0.024435164 -0.06028766 -0.08823762
0.05675182 -0.03792164 0.12554325 -0.0021130042 -0.12876497 0.066440165 -0.09431731 -0.11725477
-0.04294938 -0.12319146 -0.038076505 0.1609809 -0.086417265 -0.01333649 -0.09861658 0.01022313
-0.13762993 -0.087157756 -0.14011137 -0.14737402 0.014727718 -0.052888658 -0.15318026 -0.1569956
0.009886066 -0.06714812 0.01240954 -0.05049268 -0.041195948 0.051194165 0.07376835 0.03786767
0.052073244 -0.08756787 -0.06612131 -0.0027891074 -0.039705105 0.03485737 0.11570001 0.01358835
0.009931578 0.056555822 -0.08300847 -0.10039022 0.087678045 -0.03606389 -0.021862423 0.06514168
-0.008620222 -0.058328785 0.1109713 0.037783485 0.009073198 0.0017045126 0.07913163 0.102080055
-0.0015422971 -0.0036919073 0.03425629 0.030417724 0.04781844 0.065598 0.02652377 -0.08987682
-0.024877599 -0.034005914 0.0075386865 0.02808088 0.07739713 -0.04604883 -0.00015439601 0.10026722
-0.0746235 -0.0022956794 0.049892053 -0.011839926 -0.07633851 -0.1073966 -0.0025902153 -0.132334
-0.06557141 -0.076278865 0.06289662 0.21622863 -0.121460535 0.05810178 0.111343026 -0.02231122
0.015212813 -0.0889038 0.039386354 -0.039077617 0.022019139 0.0275121 -0.087546065 -0.11228588
-0.045977123 -0.11223879 -0.053526763 -0.026840525 0.013954022 0.16150668 -0.02945275 0.009577586
0.02220226 0.054368336 -0.078446046 0.128487 -0.12347984 -0.09427897 0.022542674 -0.10124992
0.010744613 0.011805849 0.002970802 0.021694886 0.009166494 0.0063207513 -0.06467976 0.14435838
0.07794532 -0.0613129 0.025179058 0.0038679738 0.0071523055 -0.117614366 -0.06668235 -0.07381306
0.012143739 -0.13675989 -0.032473218 -0.05745201 -0.08853771 0.019652223 -0.048711054 -0.09309842
-0.049063385 0.027574783 0.10064551 0.01832958 0.16410503 -0.0073890057 -0.007893732 0.005127659
-0.067991026 -0.067623906 0.043967683 -0.039244078 0.012296642 0.11212875 -0.05651094 0.12772512
0.09732485 0.023675762 0.10330874 -0.03597544 0.04120033 0.07522717 0.004468659 -0.06327014
-0.098055676 -0.05427438 -0.17544535 -0.039624076 -0.12918234 -0.096922375 -0.11858032 -0.107744575
0.103927396 -0.03467701 -0.019275337 0.10455677 -0.10634245 0.09770237 0.0769542 -0.091323666
0.0037529098 -0.008124747 -0.070069745 0.037285574 -0.0069680135 0.051858734 0.087510236 0.067924745
0.087934725 0.012752064 0.10131904 0.02635229 -0.037149087 -0.025420763 -0.0762006 0.017708914
-0.029268445 -0.043545343 -0.09740843 -0.04325418 0.0023126295 0.02076754 0.08571333 0.05923138
0.055632237 0.09495961 0.14987908 0.067959815 -0.0031795076 -0.056265008 -0.06974428 0.03331384

conv3.bias f4 [16]
00000000: ad29 44bb cade f73c a22e a93d c580 493b
00000010: 2652 8fbd 9db1 8e3c 077c 05bd 9b33 313c
00000020: c980 6d3b c454 9f3d 0b76 d2ba c12c 94bd
00000030: 52f8 47bd 1ebb 1cbd 164f 853c 7add 95bc
-0.0029932067 0.030257601 0.08260848 0.0030746919 -0.069980904 0.017418677 -0.032588985 0.010815526
0.0036240092 0.0777984 -0.0016056908 -0.07235099 -0.0488208 -0.038264386 0.016273063 -0.018294085

linear1.weight f4 [128, 576]
00000000: ef86 acbc 17e6 d33b 731a 103c e35b c8bc
00000010: e2d7 9d3c 4376 e4bc 7250 033d 65fc 02bd
00000020: 85cd 54bc eb37 3b3d da16 c7bb c4a7 4ebd
00000030: 40b8 2abd 5c5b 97bc ac24 bebc 4e44 a03d
00000040: c501 0fba b4aa a13c 16fe 873d 38c8 3d3d
00000050: 9478 32bd 1c9e 373d f154 923c ac17 1e3d
00000060: 0561 cabb c274 08bd f3f1 46bd c078 2f3d
00000070: ec49 703c fa9b d4bb fec7 0ebd dd3b 99bc
00000080: 1996 a13c 5c21 49bc 7fba c7bb ff1f f23c
00000090: 6154 433c 681b c53c 272e 3f3d ad6a 26bc
000000a0: 7e93 ca3c 2180 12bd 97e9 e83c 8013 e83c
000000b0: 9e20 d9bc 06ce 463d b6f4 b93c 0b2e 6cbc
000000c0: 8235 2c3d 76be 433c 2799 8bbd 8a29 0bbd
000000d0: 67ea 353d 356e c33b 5bab b33c b383 903c
000000e0: 91e4 a2bb 3a14 5b3a 6d8b cd3b 546e 10bd
000000f0: f1b8 1a3d e8d6 eabc dabb 89bc 01b3 63bc
00000100: 9c16 67bc 9711 4ebc 9c03 cfbc efc0 d23c
00000110: 2afe fbbc e391 dcbc 4a9b 453d 3fe2 f5bc
00000120: 0b38 da3c 115e 2b3d b948 453c c3a2 183d
00000130: 3a26 a1bc d04d ebbc 9f3e 123d e91e 35bc
00000140: a932 2d3d af0f 0a3d 2957 353c d3dc bfbc
00000150: be5a 4abd 5b58 7abd f995 d93b 9657 1c3d
00000160: 9532 963c d059 883c 6e45 983c 5d31 6abc
00000170: 4b14 53bd dcfd bc3c 2bb3 413d 7547 c5bc
00000180: 798b 4dbd 95cb 31bc 0d25 f43a 26aa 78bc
00000190: 031f f93c 66b6 0cbc 1c25 5cbc deb3 103b
000001a0: b896 fb3c 772c 693c a911 8fbc 83b4 57bc
000001b0: 6d7e dabb 320f c13c f9c3 d83c 9b96 ffbc
000001c0: d78b cb3b ad58 253c 2f76 363d bd9c 803c
000001d0: 38c1 ff3b 1b38 60bc 3a9d 5c3d 97ca afbc
000001e0: 5f06 09bd 25d6 7ebb e977 433d 1a9f ae3c
000001f0: b81a 14bc 2e82 b4bc 305e e33c 82e0 9a3c
00000200: 0db6 1f3a 31f8 9d3c 31dc 8dbc 1d12 acbc
00000210: 8bfa 2c3d 9686 953c b8bc a03b f3e4 7ebd
00000220: cf31 22bd 5368 d03c 5e19 fabc a99a 01bd
00000230: af23 e23b fc19 35bb ea72 203b d61b 68ba
00000240: 62be 113d b26b 3d3c e802 d1bc e6b4 e93c
00000250: 14fd 573d 745b cdbc e907 95bc 3f83 73bb
00000260: c296 58bd a53a 903c fa05 90ba 0aba afbc
00000270: 1d2d 543d 1af0 06bd a9ab 2fbc 75c4 abbc
00000280: 136d b0bc 00ca 093d 5150 9a3c 6712 d3bc
00000290: 9fb7 d93c 0b43 753b 335c 823d d4a1 1cbd
000002a0: 5dfe 403d 3be7 b2bc d8cd 87ba 6cbb c33b
000002b0: 1590 1d3d edbc 233d f8d7 943c 57a8 943c
000002c0: f781 6bbc c5a8 353c b022 d83c f19d 933a
000002d0: 7923 1cbc 05fb be3c d3cc e33c 6463 82bb
000002e0: 2d67 993b f10b 99bc a180 acbc d81e 98bc
000002f0: 9eeb 24bc 76e7 923c 3ea0 81ba c0a0 403d
00000300: a15a 7dbc 6f29 1cbd df6d 533d ad93 a0bc
00000310: df56 893d c6b3 183d 5adc d9bc 5291 213c
00000320: 401a f6bc fad5 c13b 4306 243d faab e0ba
00000330: 6cf5 ab3c ab90 2ebd c083 fe3b 0527 aebc
00000340: cc52 873c 7239 cfbb f569 bebb 2ac0 a93c
00000350: cc43 55bc 5867 15bd 39b6 76bc 8f27 3dbd
00000360: 6c37 163d 1b04 eebc e1fb 863c 65aa eeba
00000370: 02bc 21bd 4862 19bc 9b1b d0bc d3b0 133d
00000380: 766d 27bd 9314 86bc c0ab 15bd 7235 833c
00000390: 5b46 62bb d685 2f3d 5c1c 813d b0bd 673c
000003a0: f7af 44bc d434 833b fcf9 303c e1ba c3bc
000003b0: 0776 0cbd 863a fb3c c127 3f3d 49f1 e43c
000003c0: e90d 36bd c084 b6bc fce0 d8bc a948 bb3c
000003d0: d47d 053d 724e 653d a237 8ebc b04f 853c
000003e0: 1928 9bbc 8014 35bd 1073 ae3b 2c27 123c
000003f0: 509d d8bc 0fce f53c 625c b8bc 96ee 7fbc
-0.021060435 0.006466638 0.0087953685 -0.024457878 0.01926798 -0.027888423 0.03205914 -0.031978983
-0.012988453 0.045707624 -0.006075722 -0.050452963 -0.04167962 -0.01847618 -0.023210846 0.07825528
-0.0005455281 0.019734718 0.0664026 0.04633352 -0.043572024 0.04482852 0.017862769 0.038596794
-0.0061761164 -0.033314474 -0.048570585 0.042839766 0.014666062 -0.0064883204 -0.034858696 -0.018705303
0.019724892 -0.01227602 -0.00609523 0.029556273 0.011921973 0.02406092 0.046674874 -0.010157269
0.024728533 -0.035766724 0.028431697 0.02832961 -0.02650481 0.048536323 0.022699695 -0.014415274
0.042043217 0.011947265 -0.06816321 -0.03397516 0.044412997 0.0059640654 0.021932295 0.017640924
-0.004971095 0.0008357201 0.0062727244 -0.035261467 0.03777403 -0.028666928 -0.016813207 -0.013897658
-0.014104512 -0.012577436 -0.025270276 0.025726764 -0.030760843 -0.026925033 0.0482438 -0.03001511
0.026638051 0.041837756 0.012041264 0.037264597 -0.019671548 -0.028723627 0.03570425 -0.011054733
0.04228464 0.033706363 0.011068144 -0.023420727 -0.049402945 -0.06111942 0.0066401926 0.038169466
0.018334666 0.016644388 0.018587794 -0.014293996 -0.051533025 0.023070268 0.04729001 -0.024081925
-0.05018184 -0.01085176 0.0018626765 -0.015177285 0.030410295 -0.008588409 -0.013436582 0.0022079865
0.030711517 0.014231793 -0.017464476 -0.013165596 -0.006667903 0.023566816 0.026460635 -0.031199744
0.0062117386 0.010091943 0.044546302 0.015699739 0.007805016 -0.013685252 0.05386088 -0.021458907
-0.03345334 -0.0038884964 0.047721777 0.0213161 -0.009039573 -0.02203473 0.027754873 0.018905882
0.00060924963 0.019283386 -0.01731691 -0.02100473 0.042231124 0.018252652 0.0049053095 -0.06223006
-0.039598282 0.02544037 -0.030529674 -0.031641636 0.0069012265 -0.0027633896 0.0024482557 -0.00088542455
0.035581954 0.011561321 -0.025514081 0.028528642 0.05273159 -0.025068022 -0.018192248 -0.0037157086
-0.05287815 0.017606089 -0.0010988109 -0.021451015 0.051800836 -0.032943822 -0.010722079 -0.020967701
-0.021536386 0.033639908 0.018837126 -0.02576561 0.026576815 0.0037423994 0.06365242 -0.03824027
0.04711758 -0.021838775 -0.0010361029 0.00597327 0.038467485 0.039975096 0.018169388 0.018146677
-0.014374248 0.011087601 0.026383728 0.001126228 -0.009529942 0.023313055 0.027807629 -0.0039791334
0.004681489 -0.018682452 -0.021057429 -0.018569395 -0.010065941 0.017932635 -0.0009889675 0.047028303
-0.015463502 -0.03812545 0.051618453 -0.019601667 0.067060225 0.03728082 -0.02659433 0.009861307
-0.030041814 0.0059154006 0.040045034 -0.0017141097 0.02099105 -0.042618435 0.0077671707 -0.02125884
0.016518973 -0.0063239867 -0.005810971 0.020721514 -0.013016652 -0.03647551 -0.015058094 -0.046180304
0.03667395 -0.029054692 0.016477527 -0.001820874 -0.03948594 -0.009361811 -0.025403788 0.036057305
-0.040875874 -0.016367232 -0.036540747 0.016016696 -0.0034526798 0.042852245 0.06304237 0.014144346
-0.012004844 0.0040041003 0.010801788 -0.023892822 -0.034292247 0.030667555 0.04666877 0.027947085
-0.04444686 -0.022280097 -0.026474468 0.022861795 0.032590702 0.055983014 -0.017360512 0.01627335
-0.018940018 -0.044209003 0.005323775 0.008920472 -0.0264422 0.030005483 -0.022504989 -0.015620848

linear1.bias f4 [128]
00000000: 363f 99bc cbca 243d 2aa9 cebc 85dd cd3c
00000010: 696b b63a 5e79 0b3d be74 a03c 5364 7ebc
00000020: a59f d63b 6345 303c 5e43 06bd a2fb 023d
00000030: f87b e5bc b7b4 ef3c 9810 c1bc c7a9 ccbc
00000040: 17ac 98bc 4815 273d 0566 b13c 5953 c23b
00000050: 6fe9 edbc cec1 bf3c 6c0b fcbc fd75 a6bc
00000060: 7fd0 b53c c82a 2b3d 5a2e 28bc 1e7b 5fbd
00000070: dbe7 453c 302b 773b 64ad dd3a 1f95 29bc
00000080: 1322 093d 2eec a03c b8ef ef3c 16cb 0abd
00000090: 1cd4 e8ba 2957 9bbc 629a 2bbd e97d 943c
000000a0: 73d5 e3bb db98 2a3d 8ab3 06bb 508d b33a
000000b0: d62b 903c 95d8 81bc 75f0 fa3c a9c9 263c
000000c0: 0308 d5bc eb40 97bc 7af8 f6bb bf71 133d
000000d0: 1d74 c13c dd12 e7ba 633f 97bb 85ab 1c3c
000000e0: 233e d43c bf0f efbc 952c 69bd 104a 57bd
000000f0: d44b 043d 7f6c 8f3c c630 02bb b870 e43c
00000100: 6d04 843a 1c12 e53c b390 2bbd 6877 d23c
00000110: ecaa e13b f1a9 0abd f772 60bc 7a04 0c3b
00000120: 255b 0a3d d6c6 973c 2131 a4bb c28d 08bc
00000130: 4374 03bd 5522 6c3b 2053 0c3d 2d7f fdbc
00000140: ae66 0dbc 893b d8bb a691 a8bc 34a0 bf3c
00000150: ab8c 9bbd 2afc 403d 804c d3bc d0be 063d
00000160: c935 a3bc b042 1f3d e5a3 2c3d e198 dfbc
00000170: 9a08 753c c837 df3c 17bd 593c d3b0 09ba
00000180: acbf c33c ad19 3339 f98c 06bd 2528 863b
00000190: 064d 0ebd 83ea 783c 4907 00bc 6a13 3cbc
000001a0: 7e07 23bd 4543 5e3c 50a7 24bd 8f32 2abd
000001b0: adba 0e3d cb4b 8cbc 0eed 353d c089 cb3a
000001c0: a86f bebb d373 373d 45f0 ad3c 47d0 81bc
000001d0: 5671 80bd 82ff 913b 0aea 583d 8662 b7bc
000001e0: 66a0 55bc 486e c4bc 2f84 0d3d 038f 963b
000001f0: 7769 3d3c 7dee 2c3c 7be5 58bb cb5c ca3c
-0.0187069 0.04023246 -0.025227148 0.025130043 0.0013917509 0.03405129 0.019586917 -0.015526849
0.006549793 0.010758731 -0.03277909 0.031978257 -0.028013214 0.029260976 -0.023567483 -0.0249833
-0.018636746 0.04079178 0.021655092 0.005930346 -0.029041974 0.023407843 -0.030767165 -0.020319933
0.022194145 0.041788846 -0.010264957 -0.054560773 0.012079204 0.003771495 0.0016912636 -0.010350495
0.03347976 0.01964387 0.029289111 -0.033885084 -0.0017763409 -0.01896246 -0.041895278 0.018126445
-0.0069529354 0.04164968 -0.002055379 0.0013698731 0.017599028 -0.015850345 0.030632237 0.010179915
-0.026004797 -0.018463572 -0.007536945 0.03599715 0.023614937 -0.0017629523 -0.0046157106 0.009562378
0.025908535 -0.029182313 -0.056927282 -0.052560866 0.032298878 0.01750779 -0.0019865497 0.02788578
0.001007212 0.027962737 -0.041886043 0.025691703 0.0068868306 -0.033853475 -0.013699285 0.0021364973
0.03377833 0.01852743 -0.0050107394 -0.008334579 -0.032093298 0.0036031206 0.03425896 -0.030944431
-0.008630438 -0.006598894 -0.020577263 0.02339182 -0.0759519 0.047115482 -0.025793314 0.032896817
-0.019923108 0.038881958 0.04214849 -0.027294578 0.014955664 0.027248278 0.013289711 -0.0005252484
0.023895107 0.00017080335 -0.032849286 0.004094141 -0.034741424 0.015192631 -0.007814237 -0.011479238
-0.039802067 0.013565843 -0.040198624 -0.041552123 0.034845997 -0.017125985 0.044415526 0.0015528724
-0.0058116503 0.044788193 0.021232734 -0.015846385 -0.06271617 0.0044555077 0.052957572 -0.022385847
-0.01303873 -0.023978367 0.03454989 0.004594685 0.011560789 0.010554907 -0.0033095765 0.02470245

linear2.weight f4 [10, 128]
00000000: 1342 853e 5f04 8dbe fdab f3bd 2d1b e33d
00000010: 3d8e 98bd dc82 36bd e5e6 7f3d ee27 1e3e
00000020: e1c0 49bb 11fa bebc b9f1 7f3e 95db 5bbd
00000030: 24f5 0abd dab9 e33c 6833 63be 207e 89be
00000040: a00b c3bc c800 03be 01c9 203e 4c1b 8bbe
00000050: eb44 163e 1e94 cbbd 3ee8 15be 967d 0cbd
00000060: a0ed 463e 314a 673d 0d35 a63c fe00 cdbd
00000070: 9fa8 82be 689f 81bd adec 2cbd 51bb 8ebe
00000080: b54f 9fbe af7b 373e 067b 60be cb66 c83d
00000090: 0c21 393e 5a5e 79be 4e78 5e3d eae8 0dbe
000000a0: e56c 1cbe cb70 083e 97a9 73bd b69c 0fbe
000000b0: 4ac2 673e 2902 22be 11dc 893e 18c1 4c3e
000000c0: d380 aebd 6acf 45bd f0fa fdbd d6af 653e
000000d0: 487c 513e 66c4 59be b20c 24be 55a1 73be
000000e0: 5d94 c4bd a1f5 ac3d e0bf 3abd 0155 383c
000000f0: 430c c03d 2a71 f0bc 09bf 073e 3a0d 393e
00000100: ecbd 7c3e 9115 06be 5c14 343e d582 6f3e
00000110: d699 733e 84df 8c3e 6d3a b43d 5e53 13be
00000120: fa00 11bd a904 6f3e 5b6f 1f3e 3162 9bbe
00000130: 747a c03d 09ab 9fbd b580 a53e 4d31 063e
00000140: 58c8 dc3d a364 9fbe e602 1c3e 2f88 363e
00000150: 5069 6dbe 9857 883c b5ca e93d 38f9 23be
00000160: efa0 6dbc 1672 a6bd 9bad 193e cc09 1dbe
00000170: 39f9 abbd 7cae bb3d 2769 313e 6fc9 3c3e
00000180: 4982 8dbd f1ea 833e 8bb7 0e39 8cb1 0e3e
00000190: 1f70 65be 15f4 2dbe c041 5d3e 906e afbe
000001a0: 562c 2bbe d46c 99be 1f1f ea3c 4595 923d
000001b0: f5ce 5cbe 1d89 8bbd 2f1e 9cbe ee68 873e
000001c0: 867a 7d3e 750b d7bd 1264 2ebe c785 31bd
000001d0: ad19 d3bc a104 9d3d 9b3d 003d 3b38 9a3d
000001e0: da29 113e 2b22 003e dcfe 4b3e 47bc 46bd
000001f0: dca3 9b3e 3e44 ec3d 11dc bd3e 94fb f8bd
00000200: 9078 f7bd 326b 833e 167e 523e 8aa8 df3c
00000210: ec9f 37bd d92d b7bd c9c5 90be aebd 60be
00000220: 2cbb d2bd 3499 8c3e 658e f9bc dece 3d3e
00000230: 9c6a 1c3d 77ca 6dbc 5596 443d 0100 a5bd
00000240: b8f3 8cbd a7b2 b33e 66fb 88be 1535 3f3a
00000250: b312 50be c1e4 b53d 594a ad3d 81da 8d3b
00000260: dd6e 33be 8247 4abe 9ec2 a1be 8d69 95be
00000270: e257 023e 6a79 57be 95a5 84be 506c 22bd
00000280: 3dab 2cbe 45e1 58be a2c2 4b3e 35a7 b8bd
00000290: 9caf 4bbb 62aa 313e f91e a0be 39d2 cb3b
000002a0: a9b2 853e f419 963e bbe9 9dbd a0f2 ac3d
000002b0: 7180 61be 3b2d 323e 19ac 5fbe afb6 5cbe
000002c0: ef5e d4bd 3e9e 913d 4608 8a3e de65 823e
000002d0: 7002 433d 92b7 44be d8ea afbd d68e 23be
000002e0: 9abf 563e e023 42be cc01 f23d 9e13 3cbe
000002f0: 9bf7 c23c a5be 973d 69a3 223e a1f1 dc3a
00000300: 3bb5 653d c2f1 043e a2e3 3bbd e9f2 4c3e
00000310: b22e 4d3e 6906 42be e194 6ebe 2e23 58bd
00000320: de2f b4bd 4b86 8d3e 5763 4d3e ead6 263e
00000330: fd1f 4cbe 747a 56be e54f 003d 7053 b9be
00000340: b7cb 45be f8cd 223e 57c2 db3d 258a 053e
00000350: c536 3dbe f3c3 343e 0cad 0939 a520 253e
00000360: 92c2 573e 2e2a 0a3e 4222 51be 93a0 863e
00000370: 5164 673e 9c6e febd ea97 41be f196 6abe
00000380: b2bb 0abe 6e5b 1dbe bfaa 9e3d 60a8 64be
00000390: 321c 503e da12 853e d249 2bbe 0878 0fbe
000003a0: 64bb 80bd 4343 6ebd 4545 34be a996 a9be
000003b0: 8214 023e fd47 03be 925f ee3d cecd 643d
000003c0: f5b5 353d 4fe8 3c3e 94b0 753e ea5a d43d
000003d0: 8857 2cbe f323 223e 55eb d13d 195f 30bd
000003e0: e500 0fbe 8a70 6cbd 23bd 623e 8e43 a63e
000003f0: c893 74bd 8dd3 7e3e 3c6a 40be 5c90 713d
0.26026973 -0.27542397 -0.118980385 0.11089168 -0.07449005 -0.04455839 0.062476058 0.1544492
-0.003078513 -0.0233126 0.24994554 -0.053676207 -0.03392519 0.027798582 -0.22187579 -0.26854038
-0.023809254 -0.12793267 0.15701677 -0.27169263 0.14674728 -0.099403605 -0.14639375 -0.034299456
0.19426584 0.05646724 0.020288968 -0.10009955 -0.25519273 -0.063292325 -0.0422179 -0.27877286
-0.311155 0.17918275 -0.2192193 0.09785231 0.18079013 -0.24352399 0.05431395 -0.13858381
-0.15275915 0.13324277 -0.059487905 -0.14024624 0.22632709 -0.15821137 0.2692571 0.19995534
-0.08520665 -0.04829351 -0.12401378 0.22430357 0.20457566 -0.21266326 -0.16020468 -0.23792012
-0.095986106 0.084452875 -0.045593143 0.011250735 0.09377339 -0.029350836 0.13256468 0.18071452
0.24681824 -0.13094164 0.17585891 0.23389752 0.23789153 0.2751428 0.08800206 -0.14387271
-0.035401322 0.23341621 0.15569822 -0.30348352 0.09398356 -0.07796294 0.32324758 0.13104744
0.107804 -0.31131467 0.1523548 0.17825387 -0.23184705 0.01664333 0.114156164 -0.16013038
-0.014503702 -0.08127229 0.15007631 -0.15335768 -0.08397145 0.0916414 0.17325269 0.18436216
-0.069096155 0.25765184 0.0001361055 0.13934916 -0.22406052 -0.16987641 0.21607113 -0.3426404
-0.16716132 -0.29965842 0.028579293 0.07157377 -0.21563323 -0.06813262 -0.30491778 0.26447242
0.2475377 -0.10500232 -0.17030361 -0.04334047 -0.02576908 0.076668985 0.03130875 0.07530256
0.14176121 0.12513034 0.1992144 -0.0485194 0.30398452 0.11536454 0.3708196 -0.1215736
-0.12083542 0.2566772 0.2055591 0.027302045 -0.044830248 -0.089442916 -0.28275898 -0.21947357
-0.102896065 0.27460635 -0.030463407 0.18535945 0.038187608 -0.014513603 0.04799493 -0.08056641
-0.06882423 0.35097238 -0.26754302 0.00072939816 -0.20319633 0.08881522 0.08461446 0.004329026
-0.1752276 -0.1975384 -0.31593794 -0.2918209 0.12728837 -0.2104241 -0.2590758 -0.039654076
-0.16862197 -0.21179684 0.19898465 -0.09016267 -0.0031080013 0.17350152 -0.3127363 0.006220129
0.2611287 0.29316676 -0.07710596 0.084447145 -0.22021653 0.17400067 -0.21842994 -0.21554063
-0.1036967 0.071102604 0.26959437 0.25468343 0.047609746 -0.19210652 -0.08589715 -0.15972456
0.20971528 -0.18958998 0.11816749 -0.18366858 0.023799708 0.074094094 0.15882649 0.0016856679
0.056081038 0.12982848 -0.045871384 0.20014538 0.20037344 -0.18947758 -0.2329898 -0.052767925
-0.087981924 0.2764152 0.20057426 0.1629292 -0.19934078 -0.2094515 0.031326193 -0.3619647
-0.19315992 0.15898883 0.10730427 0.13040979 -0.18477924 0.17652874 0.00013129803 0.16125734
0.21070316 0.13492653 -0.20423225 0.26294383 0.22596861 -0.12423441 -0.18905607 -0.22909142
-0.13548163 -0.15366909 0.07747411 -0.22329855 0.20323256 0.25990945 -0.16727379 -0.14010632
-0.06285742 -0.058169615 -0.17604549 -0.33122757 0.12703136 -0.1282043 0.11639322 0.055860333
0.04436298 0.18447994 0.2399314 0.10368903 -0.16830266 0.15834026 0.10249964 -0.043059442
-0.13965185 -0.057724513 0.22142462 0.32473415 -0.059711248 0.24885388 -0.18790525 0.058975562

linear2.bias f4 [10]
00000000: 4341 0abd cdc7 9f3d 3a41 1f3e a056 0dbe
00000010: 70fc a33d 5335 d13d 66f6 e8bd f5da 113d
00000020: 5fc2 d0bd 158a 0dbe
-0.033753645 0.07801781 0.15552226 -0.13802576 0.08007133 0.10215249 -0.11375122 0.035609204
-0.10193323 -0.13822205
